Challenge_2/DQN/Policies/best_weights.pth (torch_old, 2420 bytes, 4 tensors)

model.0.weight f4 [30, 5]
000000 25 c8 07 3f 89 cb 7a 3f 77 20 16 bf bb 37 28 3e
       0.5303977 0.9796682 -0.5864329 0.1642751
000010 ea 60 1b bf fc 07 a6 3f 3a fc 8b bf ea 01 be bf
       -0.60694754 1.2971187 -1.0936348 -1.4844334
000020 f8 fa df 3f dd 80 91 3f 30 77 aa be c6 de c6 be
       1.7498465 1.1367451 -0.33294058 -0.38841838
000030 c1 b4 c5 bf 86 de 5b 3e ef 93 71 be 24 68 2f be
       -1.5445787 0.21471605 -0.23591588 -0.1712957
000040 0f ca 16 3f 2c 0a 0c c0 47 d4 06 3e e4 93 e2 bd
       0.58902067 -2.1881208 0.13166915 -0.11063364
000050 85 b5 c8 be ef e5 96 3f d9 46 7c 3f 13 5d 6c bf
       -0.39200988 1.178892 0.98545605 -0.9232952
000060 6b 19 14 bd 6d e6 80 3e 60 8a 17 bf 60 75 3c bf
       -0.036157053 0.251758 -0.5919552 -0.736166
000070 dd 88 4f 3e 54 35 a6 3e 21 4a 90 3e d4 09 49 3e
       0.20267053 0.3246256 0.28181556 0.19632655
000080 91 9b 08 c0 92 66 53 3e d9 6e 1f 3e 6d 76 18 3f
       -2.134495 0.20644596 0.15569629 0.59555703
000090 98 1c aa 3f 81 d5 41 3f 02 b0 d6 3e 3e b8 48 bf
       1.3289976 0.75716406 0.41931158 -0.7840613
0000a0 3f 6c 2b bf 49 2c a0 bf 81 ae 28 c0 4a 6d 8d bd
       -0.66962045 -1.2513515 -2.6356509 -0.06905611
0000b0 8c 61 6d be 09 57 01 be 30 41 5c bf 90 8a 78 3f
       -0.23181742 -0.12630858 -0.8603697 0.9708643
0000c0 aa b0 9f 3c d6 c6 55 3f 0f 3e 8f 3e 35 55 8f be
       0.01949342 0.83506525 0.27977034 -0.27994695
0000d0 c9 58 b4 bf a9 0c 00 3e 47 71 be 3d 6b f1 07 3f
       -1.4089595 0.1250483 0.0929895 0.5310275
0000e0 81 06 38 bf 44 75 a5 bf b5 a3 fa 3d a2 a6 42 3e
       -0.71884924 -1.2926412 0.12238256 0.19008878
0000f0 39 11 64 be 20 3a 65 c0 cc a6 3a bf 77 69 99 bf
       -0.22272195 -3.5816727 -0.7291076 -1.198531
000100 9e ff a8 be 72 ca 59 bf 78 b2 c5 bf fc dd e1 3f
       -0.3300752 -0.8507453 -1.5445089 1.7645869
000110 80 82 01 3f 78 93 1f 3e a0 7f 0a 3f f1 58 58 bf
       0.5058975 0.15583599 0.5410099 -0.84510714
000120 d3 19 a9 bf 4e ce 43 3f b5 b3 f8 3e d0 4a 56 be
       -1.3211006 0.7648667 0.48574606 -0.20926976
000130 67 5e fd bf dd c6 70 bf 88 22 ec be 53 8d c5 bc
       -1.9794434 -0.9405344 -0.46120095 -0.02411524
000140 66 3d 0c 3f a8 6f 5f 40 41 4a d1 bf 20 dd 01 3e
       0.54781187 3.49119 -1.6350785 0.12682009
000150 82 81 8d 3e 63 f2 83 3f 8f 34 eb bf f0 78 d4 3e
       0.2763787 1.0308346 -1.8375415 0.41498518
000160 69 dd c6 3e fb 61 8b bd 42 3a 2e 3e 7b 06 b1 bf
       0.38840798 -0.06805798 0.17014411 -1.3830103
000170 ff b9 fb bf d6 9e 23 be cb 4b a9 3e 69 c9 c5 be
       -1.9666137 -0.1597856 0.33065638 -0.38630226
000180 33 80 55 3f 21 be ed 3e 11 99 98 3e dc 1d 22 bf
       0.8339874 0.4643412 0.2980428 -0.6332681
000190 22 23 98 3e 48 75 47 3f 8d da c8 3f d1 e8 ae be
       0.29714304 0.7791333 1.5691696 -0.34162
0001a0 02 2f c0 bd 51 ec 65 bf 1f 72 2e 40 df 29 4a bf
       -0.09383966 -0.89813715 2.7257154 -0.7897014
0001b0 a6 5c 10 bf b9 3a 59 3e 22 71 a6 be 29 d4 ef 3f
       -0.5639137 0.21213807 -0.32508188 1.8736621
0001c0 7b f2 01 40 21 38 e0 be 4e e1 12 bf 99 c6 e9 3e
       2.0304248 -0.43792823 -0.5737504 0.4565933
0001d0 46 73 da 3f fd 3d 8b bf 32 eb 13 3e b7 6b c8 bc
       1.7066429 -1.0878292 0.14445189 -0.024465425
0001e0 2c f0 a0 3d 3d 34 5a bf 70 88 a8 be d6 c0 e1 3c
       0.07858309 -0.8523596 -0.32916594 0.027557772
0001f0 49 60 33 3f 92 cf f1 be 14 da df 3f 59 96 cf 3f
       0.70068794 -0.47228676 1.7488427 1.6217757
000200 92 cd 6a bf a8 50 26 bf 8a 51 3a bf dd f4 84 3f
       -0.91719925 -0.6496682 -0.7278067 1.0387226
000210 9e 3c fe bf a5 e0 25 bf fc 51 ac bf 38 0a 89 3f
       -1.9862249 -0.64795905 -1.346252 1.0706244
000220 43 97 20 3f 2e c6 c1 3f c7 cf 16 3f 3c e7 c2 be
       0.6273081 1.5138605 0.58910793 -0.38067043
000230 9c 8e 56 be 92 7f 87 bf c3 f2 27 3f 85 8d c0 3d
       -0.20952839 -1.0585806 0.656048 0.09401993
000240 dd 9f 8b 3f f3 7d 50 bd 29 3f 9a 3f ee 8b 01 40
       1.0908161 -0.050901365 1.2050525 2.0241656
000250 72 12 32 bf e0 45 13 be
       -0.69559395 -0.14382124

model.0.bias f4 [30]
000000 81 40 58 3f b7 a6 b7 3f 32 63 bb 3f 59 6c 0b 40
       0.84473425 1.4347752 1.4639647 2.178488
000010 16 ea 52 be 0a 01 1f 3f 54 8f cb 3f 42 83 ad 3e
       -0.20597109 0.6211096 1.5903115 0.33889204
000020 21 8e f9 3f 18 3d 58 bf f5 ad 8a 3f 57 8f 80 3f
       1.9496499 -0.8446822 1.0834337 1.0043744
000030 f0 46 b5 3f 7c 50 06 3f c4 89 a1 3f dc 68 f7 3f
       1.4162273 0.5246656 1.2620168 1.9328876
000040 af dc bc 3f 71 6a 6e 3f 89 cc ab 3f d0 59 b2 3e
       1.4754847 0.93131167 1.3421794 0.34834146
000050 e1 84 cf 3e f5 21 25 40 be 60 b4 bf 8f b3 e3 3f
       0.40531066 2.5801976 -1.4092023 1.7789172
000060 63 57 7c 3e da a0 ab bf cd 05 cf 3f 27 f0 53 bf
       0.2464271 -1.3408463 1.6173645 -0.8278832
000070 f3 a3 ce be 37 0b f8 3d
       -0.40359458 0.12111514

model.2.weight f4 [7, 30]
000000 9d 05 25 3e c0 9f a2 3e eb 3f 31 3f 04 69 14 40
       0.16115423 0.31762505 0.69238156 2.3189096
000010 5f 5c 30 bf aa f6 49 bd 79 65 e0 3f c8 7f f5 bd
       -0.6889095 -0.049307503 1.7530967 -0.11987263
000020 76 eb 11 40 ab c4 ca bb 4b 9f b7 3f 12 1d 53 3f
       2.2799964 -0.0061879954 1.4345487 0.8246623
000030 ff 6e a3 3f d0 da ac bf 70 0a a7 3e 3f a3 f2 3f
       1.2768248 -1.3504276 0.3262515 1.8956069
000040 f5 ac 08 40 2e 2b 5f 3f d6 0d 46 3f eb 1e 7b 3d
       2.1355565 0.8717526 0.7736486 0.061308783
000050 b5 c6 0b bf 1f 16 ba 3f d7 1a b5 be c3 26 e9 3f
       -0.5460008 1.4538001 -0.3537204 1.8214954
000060 f6 01 5f bd fe 17 1d bf ab f0 b7 3e 4f 14 b3 be
       -0.05444523 -0.61364734 0.35925803 -0.34976432
000070 ba 1e 01 bf 78 09 59 bf e0 dc 8f 3e bf fc 80 3e
       -0.5043751 -0.84780073 0.28098202 0.2519283
000080 b7 82 4e 3f 4a 80 f5 3f 3d e8 d8 be f9 06 35 3e
       0.80668205 1.9179776 -0.42364684 0.17678441
000090 2f e3 de 3f c6 af 16 3e bb 2a 08 40 e3 ac 97 bf
       1.7413081 0.1471549 2.127608 -1.1849636
0000a0 63 f3 94 3f d6 e6 80 3f d2 16 93 3f f4 d6 a3 bf
       1.1636776 1.0070446 1.1491339 -1.2799973
0000b0 8f 63 dd 3e b4 31 f8 3f af cc 0a 40 af 74 5e 3f
       0.4324002 1.9390168 2.168743 0.86896795
0000c0 71 e6 53 3f 4e 54 3e bd 40 d2 4c bf 8a d6 ba 3f
       0.827735 -0.046467118 -0.80008316 1.4596722
0000d0 53 f8 1f bf 54 fa e6 3f bb 4f a3 3e 50 13 37 bf
       -0.6248829 1.8045144 0.31896767 -0.71513844
0000e0 27 8b 00 3f b3 40 0e bf e1 63 d8 3c 88 9c 4f bf
       0.5021233 -0.55567473 0.026414813 -0.8109822
0000f0 f9 91 82 3c 5d 17 91 3d dd ca 38 3f d7 63 f4 3f
       0.015938746 0.07084534 0.72184545 1.9092969
000100 2b 8a 2e bf 65 b8 6c 3e ed 7b dd 3f 21 8c ba 3e
       -0.6817958 0.23117216 1.7303444 0.36435035
000110 ef 44 07 40 f8 29 bf be e7 57 b7 3f 0e 05 4c 3f
       2.1135824 -0.37336707 1.4323701 0.7969521
000120 ae 75 9c 3f 87 78 a8 bf 28 74 61 3f d2 e7 e5 3f
       1.2223413 -1.3161782 0.88067865 1.7961371
000130 51 53 06 40 ba e3 5f 3f 92 e2 61 3f 18 7f 46 be
       2.0988352 0.8745686 0.88236344 -0.1938442
000140 57 8a 63 bf 0e 7b d1 3f 1b 4f 32 bf ef f3 db 3f
       -0.88882965 1.6365678 -0.69651955 1.7183818
000150 0a 46 79 3e 93 11 26 bf b8 f3 17 3f db 46 1a bf
       0.24343124 -0.64870566 0.5935626 -0.60264367
000160 fe 04 15 bf b6 3a 32 bf 07 e9 ce 3e 77 fc 43 3e
       -0.5821074 -0.69620836 0.4041216 0.19139276
000170 ca 98 3c 3f ef be fe 3f 62 59 27 bf db e5 45 3e
       0.7367064 1.9902018 -0.6537076 0.19325964
000180 aa c6 db 3f 36 36 9f bd 4e 81 05 40 48 c9 3f bf
       1.7170002 -0.07774012 2.0860171 -0.74916506
000190 4f 3b b0 3f ba 98 6a 3f dd ea 9b 3f a2 00 a8 bf
       1.37681 0.9163929 1.218105 -1.3125193
0001a0 34 92 15 3f 07 d4 f8 3f 56 c6 08 40 c9 8a 52 3f
       0.58426213 1.9439706 2.1371055 0.8224302
0001b0 5c 72 66 3f b0 f2 54 3d e1 1b 65 bf da 14 ca 3f
       0.9001825 0.051989257 -0.89495665 1.5787613
0001c0 31 8e 18 bf 7f ea dc 3f 3d ee 09 be ad 98 2a bf
       -0.59591967 1.7259063 -0.13469787 -0.66639215
0001d0 25 32 f1 3e ae 0f db be 91 62 56 bd c0 de 2a bf
       0.4710857 -0.427854 -0.052340094 -0.6674614
0001e0 20 2b e9 3e 60 1a 75 3e 9a 3b 43 3f 44 c1 00 40
       0.45540714 0.23935843 0.7626282 2.011796
0001f0 eb 91 23 bf f3 cb 2b 3f bd 64 e5 3f d6 11 10 be
       -0.6389453 0.67108077 1.7921368 -0.14069304
000200 f5 1e 0d 40 d9 d1 10 bf 0c c7 99 3f 73 62 3d 3f
       2.2050145 -0.565702 1.2013869 0.73978347
000210 a1 cc 9a 3f 05 b1 a8 bf 08 d4 00 3f d4 e1 f7 3f
       1.2093698 -1.3179022 0.50323534 1.9365792
000220 de 0b 0a 40 ac 3c 5e 3f a0 68 5d 3f dc 36 0d 3e
       2.1569743 0.8681133 0.8648777 0.13790458
000230 53 cc 7a bf e8 6b ba 3f 61 97 db be fe c8 ed 3f
       -0.97968024 1.456418 -0.4288893 1.8576963
000240 c3 0c d7 be aa 04 46 bf 0e eb c8 3e 90 66 f9 be
       -0.42001924 -0.77350867 0.39241832 -0.4871106
000250 ee 1c a1 bd 75 40 06 bf 6d ff d9 3e 7c 66 29 3e
       -0.07866846 -0.52442104 0.42577687 0.16543001
000260 6e 93 49 3f 1e dc ed 3f 67 38 2d bf 83 e3 60 3e
       0.78740585 1.85828 -0.6766419 0.21961789
000270 3d 15 d6 3f a4 f6 b3 be f9 57 05 40 d1 b3 4a bf
       1.6725231 -0.3514911 2.0834944 -0.7918063
000280 ef 6e 99 3f c8 ba 3a 3f 60 f3 97 3f d9 7c a3 bf
       1.1986979 0.72941256 1.1871147 -1.2772475
000290 c8 13 2d 3f 3f 0d eb 3f 24 6a 0a 40 41 29 62 3f
       0.6760831 1.8363417 2.1627283 0.883442
0002a0 77 ef 90 3f 4e c4 76 3e ee 90 4c bf 03 24 c7 3f
       1.1323079 0.24098322 -0.79908645 1.5557865
0002b0 cc a7 0d bf 16 14 ea 3f 03 0e 8f 3e eb 5a 56 bf
       -0.5533416 1.828738 0.27940378 -0.8373248
0002c0 af c4 15 3f 32 9e ca be 20 42 ae be 12 09 30 bf
       0.5850324 -0.39573818 -0.34034824 -0.6876384
0002d0 36 9e c8 3e 14 98 73 3e 7c b4 1f 3f 2d e6 04 40
       0.39183205 0.23788482 0.6238477 2.0765488
0002e0 ac 71 4e bf 1a 02 50 3d 9d 85 dc 3f 49 5d a3 be
       -0.806422 0.050783254 1.7228276 -0.31907108
0002f0 d0 c3 06 40 66 b3 12 bf 01 d0 c1 3f f6 68 8e 3f
       2.1057014 -0.5730499 1.5141603 1.1125782
000300 76 47 9b 3f db 7d a7 bf a6 63 6f 3e f7 5d 00 40
       1.2131183 -1.3085283 0.23377857 2.0057352
000310 69 4d 0c 40 b8 05 46 3f 83 0c 66 3f a1 e2 47 3e
       2.1922247 0.77352476 0.8986284 0.19520046
000320 37 5b 42 bf 1a 44 c9 3f 69 b9 5b bf 6e 2b d6 3f
       -0.7592043 1.5723908 -0.8582979 1.6732004
000330 47 51 4b bd ec f7 86 be 05 0d da 3e 7b f6 3b be
       -0.04963806 -0.26361024 0.42588058 -0.18355744
000340 fe 53 1c be 34 d2 3f bf
       -0.15266415 -0.7493012

model.2.bias f4 [7]
000000 7b 14 86 3f c1 a6 9f 3f a4 c1 af 3f a4 2b 9d 3f
       1.0475 1.2472764 1.373097 1.2278943
000010 95 d6 8e 3f 64 f4 9c 3f 64 0f aa 3f
       1.1159235 1.2262082 1.3285947
