Challenge_3/checkpoints/npg_submission.pth (torch_old, 6866 bytes, 7 tensors)

sigma f4 [2]
-0.1105137 -0.051837437
00000000: 0255 e2bd 7e53 54bd

linear_input_to_hidden.weight f4 [32, 8]
0.13838595 0.86643636 -0.102853365 0.10837395 -0.27416572 -0.22002192 -0.5243816 -0.35348102
-0.73934835 0.4138715 -0.039997287 0.11330835 -0.15683895 -0.31241545 -0.28352636 -0.7109577
0.57703656 -0.86922413 0.71766806 0.3153587 -0.047360476 0.2759614 0.5150105 -0.51341844
-0.049344998 0.32067332 -0.025404401 1.1338072 -0.72031057 0.25400192 -0.7709003 -0.33064178
-0.83718854 -0.016168192 -0.05288299 -0.8592593 -0.30484417 -0.8014744 0.021349559 0.40079057
-0.034048725 -0.17133968 -0.042260345 0.2342312 0.27865085 0.037693758 -0.33959848 0.21337886
-0.4092961 -0.08202133 -0.46179798 0.1798977 -0.3414364 -1.0642155 0.15864052 -0.27939156
0.17963594 -0.00041544845 0.42403916 0.512001 0.815528 0.04555805 -0.11716405 0.2895388
0.6575713 0.23992836 -0.63889825 -0.1755199 -0.044257298 0.33418784 -0.10564741 -0.1819651
-0.6055722 -0.0076367455 0.1139652 0.15944378 0.23332326 0.49276266 0.38132626 -0.9917112
-0.70668894 -0.5027499 -0.3485168 -0.175901 -0.5174329 0.37848338 -0.55784243 -0.15718736
0.1357648 0.87458897 0.6259928 0.8212268 0.28738925 0.3399139 -0.09244524 0.031392083
0.4956773 -1.0164033 0.7760007 0.6701279 -0.39655498 -0.22762658 -0.28325567 -0.8399178
-0.08187414 0.50759226 -0.6230568 -0.15102981 0.112290025 0.5998182 -0.044059202 -0.4844077
-0.10015671 -0.5168199 -0.09142473 0.13064545 -0.5612067 -0.5584988 -1.022704 -0.39145276
-0.07452037 0.13233534 0.42370412 0.93474054 0.030406937 -0.77848375 0.6325972 -0.23530059
0.8606137 0.5612547 0.40203765 0.18639046 0.2617012 0.047384236 -0.19721197 -0.73013085
0.32470632 0.51508313 -0.70090216 -0.69142663 0.12184208 -0.28199568 0.17134677 -0.5935393
-0.22236992 0.083704844 0.7465 -1.0199455 -0.8830788 -0.0031896876 0.23768564 -0.37783387
-0.27129275 -0.52256143 -0.028348984 0.2975623 -0.16050147 0.35593733 -0.18955708 0.4161991
0.08334304 0.26509458 0.30832285 -0.23448868 -0.71713555 1.0628453 -0.5789841 0.48808897
-0.044498056 -0.23950465 -0.5090556 -0.07445843 -0.085592486 0.9674527 -0.19374754 -0.041019533
-0.12165307 -0.12059054 0.7381277 -1.1681802 1.0603908 0.3075535 -0.59584963 -0.6554033
0.56734 0.069177516 -0.477522 -0.3662965 -0.21247788 0.55090755 0.2953654 -0.024476716
0.3617498 0.47222343 -0.84667206 0.17201795 0.7407614 -1.1820531 -0.0849696 0.3627438
0.015046007 0.92760575 0.43211058 0.31284836 -0.89094996 -0.64322835 -0.32604894 -0.44552132
0.26050544 0.017043963 -0.36178148 -0.098137945 -0.10168012 0.5843058 -0.36120382 -0.40321594
-0.4824143 -0.0013014707 -0.39461455 -0.54776925 -0.74886996 0.61341715 -0.094879024 -0.12488601
0.08135244 -0.57666737 0.014926442 -0.9185587 0.0089131985 -1.2249955 -0.092509426 -0.70182323
-0.06323565 0.26972067 0.5828267 0.5459189 0.11215622 -0.4841093 -0.37171727 -0.5367168
0.364367 -0.8537806 1.1312057 -0.2461418 0.81635976 -0.45278004 -0.7702352 -0.24585152
0.14131457 0.08400294 0.59184504 -0.40647873 -0.14892991 0.2736458 -0.025300857 -0.12693065
00000000: 0cb5 0d3e c6ce 5d3f c9a4 d2bd 29f3 dd3d
00000010: 735f 8cbe 6d4d 61be df3d 06bf 77fb b4be
00000020: ef45 3dbf f7e6 d33e 32d4 23bd 350e e83d
00000030: 649a 20be ebf4 9fbe 5e2a 91be 5301 36bf
00000040: abb8 133f 7985 5ebf 18b9 373f b276 a13e
00000050: 0ffd 41bd d04a 8d3e bad7 033f 646f 03bf
00000060: fb1d 4abd 4b2f a43e e41c d0bc 9820 913f
00000070: 4666 38bf 8a0c 823e b959 45bf e149 a9be
00000080: fd51 56bf 2873 84bc d69b 58bd 6bf8 5bbf
00000090: 8914 9cbe 6d2d 4dbf 45e5 ae3c 6c34 cd3e
000000a0: ad76 0bbd ab73 2fbe 2f19 2dbd 4eda 6f3e
000000b0: 53ab 8e3e c564 1a3d dadf adbe fd7f 5a3e
000000c0: 428f d1be cdfa a7bd c970 ecbe 1a37 383e
000000d0: c0d0 aebe 3738 88bf a972 223e 690c 8fbe
000000e0: 7cf2 373e 8cd0 d9b9 a91b d93e 7f12 033f
000000f0: 71c6 503f 149b 3a3d b5f3 efbd 6e3e 943e
00000100: 9856 283f c8af 753e d68e 23bf 7dbb 33be
00000110: 2447 35bd ab1a ab3e ab5d d8bd 0f55 3abe
00000120: c806 1bbf aa3d fabb 9666 e93d 3b45 233e
00000130: 4bec 6e3e 634b fc3e 323d c33e c9e0 7dbf
00000140: 91e9 34bf 38b4 00bf cb70 b2be 641f 34be
00000150: 7c76 04bf 93c8 c13e c3ce 0ebf b9f5 20be
00000160: ed05 0b3e 10e5 5f3f 1041 203f eb3b 523f
00000170: af24 933e 3209 ae3e ee53 bdbd fc94 003d
00000180: 6ac9 fd3e 8119 82bf fba7 463f 818d 2b3f
00000190: 4109 cbbe f116 69be e306 91be da04 57bf
000001a0: a1ad a7bd 91f1 013f a780 1fbf 8fa7 1abe
000001b0: 50f8 e53d b08d 193f 6c77 34bd 4904 f8be
000001c0: f61e cdbd 4f4e 04bf e43c bbbd ecc7 053e
000001d0: 3eab 0fbf c7f9 0ebf f7e7 82bf 7f6c c8be
000001e0: 239e 98bd ea82 073e bfef d83e 284b 6f3f
000001f0: f817 f93c b64a 47bf e4f1 213f a3f2 70be
00000200: 2e51 5c3f 63ae 0f3f e1d7 cd3e 24dd 3e3e
00000210: b3fd 853e f915 423d eff1 49be dbe9 3abf
00000220: e83f a63e 7ddc 033f 536e 33bf 5601 31bf
00000230: 5788 f93d bd61 90be 8775 2f3e 31f2 17bf
00000240: f1b4 63be 726d ab3d a01a 3f3f 938d 82bf
00000250: 7411 62bf 140a 51bb dd63 733e 7173 c1be
00000260: e2e6 8abe 96c6 05bf 213c e8bc 165a 983e
00000270: 7f5a 24be 6b3d b63e 401b 42be 0c18 d53e
00000280: c1af aa3d 7aba 873e 7edc 9d3e cd1d 70be
00000290: 3296 37bf 510b 883f 4d38 14bf cce6 f93e
000002a0: 9843 36bd b540 75be 7851 02bf a97d 98bd
000002b0: 1d4b afbd fbaa 773f c165 46be 1904 28bd
000002c0: 3f25 f9bd 2cf8 f6bd f0f5 3c3f ee86 95bf
000002d0: e3ba 873f a777 9d3e 9a89 18bf 83c8 27bf
000002e0: 323d 113f f1ac 8d3d c37d f4be 378b bbbe
000002f0: cd93 59be 4708 0d3f 223a 973e 6583 c8bc
00000300: 4537 b93e 45c7 f13e 80bf 58bf 7925 303e
00000310: 8aa2 3d3f 844d 97bf 8b04 aebd 8eb9 b93e
00000320: 8783 763c 9277 6d3f 993d dd3e a92d a03e
00000330: 4c15 64bf 9daa 24bf e3ef a6be 5f1b e4be
00000340: f860 853e c89f 8b3c 6c3b b9be 8cfc c8bd
00000350: ab3d d0bd 1195 153f b5ef b8be 5272 cebe
00000360: 02ff f6be 1c96 aaba eb0a cabe 9b3a 0cbf
00000370: f1b5 3fbf e808 1d3f ef4f c2bd 3dc4 ffbd
00000380: 1c9c a63d 79a0 13bf 098e 743c aa26 6bbf
00000390: aa08 123c a7cc 9cbf 9575 bdbd b0aa 33bf
000003a0: b181 81bd d418 8a3e 2134 153f 57c1 0b3f
000003b0: 29b2 e53d 2ddd f7be ba51 bebe 4666 09bf
000003c0: 508e ba3e 5e91 5abf 59cb 903f 990c 7cbe
000003d0: f4fc 503f c9d2 e7be 222e 45bf 80c0 7bbe
000003e0: c4b4 103e bc09 ac3d 2883 173f fb1d d0be
000003f0: 1581 18be 4d1b 8c3e be43 cfbc 1cfa 01be

linear_input_to_hidden.bias f4 [32]
0.24353263 -0.15509441 0.383977 -0.08870679 0.25996393 -0.11030615 -0.1500218 -0.07650327
-0.1727024 -0.03758337 0.19870967 0.28993008 -0.04055927 -0.035672694 -0.34870875 0.07536293
0.02915187 0.07488469 0.15399358 0.077512205 -0.13793653 0.025705824 -0.06323411 0.02173123
0.012030238 -0.18778579 0.062682435 -0.032107297 -0.25121632 0.27507377 0.12090818 -0.21182984
00000000: 9e60 793e 12d1 1ebe a298 c43e e8ab b5bd
00000010: fe19 853e 31e8 e1bd 519f 19be bfad 9cbd
00000020: e6d8 30be 05f1 19bd 8c7a 4b3e b771 943e
00000030: 7a21 26bd 881d 12bd f489 b2be e157 9a3d
00000040: e7cf ee3c 255d 993d 7eb0 1d3e b8be 9e3d
00000050: 3c3f 0dbe 0595 d23c e380 81bd b105 b23c
00000060: 7a1a 453c eb4a 40be a65f 803d f182 03bd
00000070: 6d9f 80be 78d6 8c3e b59e f73d ece9 58be

hidden2.weight f4 [32, 32]
-0.19518158 -0.074441984 0.14955233 0.2955505 -0.034818105 -0.2598211 -0.06532691 -0.2542041
0.029020747 0.2670864 -0.32931712 -0.4455948 0.09758606 0.11900369 0.083038144 -0.018552389
0.09192101 -0.3994217 -0.056479827 0.3708041 0.010108322 -0.025069764 -0.4905726 0.123522684
0.4067629 -0.49212992 0.048811056 0.100899994 0.18360285 0.12042363 0.16346516 0.20397519
0.051789965 -0.40809923 -0.06985383 -0.027038742 -0.5244398 -0.17995252 0.01096024 -0.049175926
-0.012721179 0.14745992 0.014734466 -0.25149348 -0.21830644 -0.12400898 -0.15179582 -0.3397526
0.15392914 0.21281798 -0.4235527 -0.22375663 -0.2984024 -0.06972293 -0.38138357 0.33481845
0.0014219773 0.07794551 -0.22424223 -0.24049746 0.18986847 0.711449 -0.23440468 0.20096207
0.04590257 0.5023053 -0.22981183 0.23637809 0.38287434 0.19573148 0.06335719 -0.009942723
-0.19637333 0.16830257 -0.12709561 0.0140167065 0.17282298 -0.14177762 0.34397563 -0.0063847583
-0.20648792 0.46577674 0.32404718 -0.3581898 0.13746558 0.11915168 0.4255655 -0.10214495
-0.2117368 0.47312066 0.20533708 -0.25094634 0.17542006 -0.18989824 -0.24804588 0.3641018
0.122325115 -0.16253111 -0.18157665 0.109159626 -0.03930815 -0.2829476 0.30405498 -0.22847693
-0.09142705 -0.69927704 -0.07649218 -0.054164857 0.12621696 0.17250213 -0.15101963 0.3940751
-0.05188226 -0.3440998 -0.0011425723 -0.22232854 -0.011969588 0.37935138 0.008331335 0.11492538
0.41664147 -0.038556937 -0.3773345 0.110518396 0.094912104 -0.33125013 0.5482326 -0.031376798
0.05423884 0.19980758 0.20848672 0.021873565 -0.39468017 -0.15917686 -0.45505613 -0.3003218
0.29247066 -0.37452435 0.2737213 -0.32977104 0.31132132 -0.23478284 0.18080623 -0.2160383
0.2235671 -0.20652969 0.07243854 -0.06283571 0.18279958 -0.011074371 -0.19997884 -0.3703287
-0.05647854 -0.33380657 0.39844027 -0.040080056 0.56170774 -0.11129846 -0.034002356 -0.1165298
0.115225926 -0.354298 -0.32242295 -0.022164145 -0.12685348 0.039939433 -0.19096597 0.5767934
0.00019068025 0.23143381 -0.6158776 -0.16757765 0.3467491 0.18857893 -0.1412377 0.17236643
0.24220075 0.050304204 0.098108284 0.25454694 0.082166985 -0.09780185 -0.015494631 -0.38303798
-0.15691242 0.13723591 -0.25505257 -0.55413365 0.047119185 -0.16213904 -0.10522314 0.23466717
-0.4325136 0.11179651 0.22616436 0.15898523 -0.0001151273 0.01624131 0.33742133 -0.25051934
-0.07708642 0.25502178 -0.19657041 0.4617587 0.05884931 0.011381735 0.016427327 -0.21511893
0.0061933845 -0.4252546 0.2748428 -0.3730674 0.5943744 0.032521106 0.35062468 -0.4026939
0.19358897 0.11481617 0.67831546 -0.117687635 0.12440918 0.14977002 0.16570775 0.1683981
0.31452003 0.107549556 -0.20021147 -0.0126864 0.117270336 0.3064044 0.12189242 -0.17276932
0.09591612 -0.034287624 0.03346617 -0.46449092 -0.27812526 -0.123582035 0.17887667 -0.21381052
0.028327385 0.12448594 0.13257013 0.4079224 0.09124457 -0.3548733 -0.23357439 0.41572013
-0.039681107 -0.32761827 0.1978239 0.14917912 -0.18114866 -0.23608783 0.37326163 0.15852822
00000000: aedd 47be 0a75 98bd 3f24 193e 6552 973e
00000010: 6e9d 0ebd 4507 85be 1dca 85bd 0a27 82be
00000020: ebbc ed3c 8cbf 883e 419c a8be 0025 e4be
00000030: 33db c73d 35b8 f33d e70f aa3d 2efb 97bc
00000040: 1541 bc3d 0081 ccbe 6457 67bd 09da bd3e
00000050: 609d 253c 1b5f cdbc 552c fbbe 76f9 fc3d
00000060: 3a43 d03e 74f8 fbbe 1aee 473d a8a4 ce3d
00000070: 6302 3c3e aaa0 f63d 6963 273e dfde 503e
00000080: b721 543d 62f2 d0be 860f 8fbd 5a80 ddbc
00000090: b041 06bf 7945 38be 9492 333c b26c 49bd
000000a0: 7e6c 50bc bcff 163e d468 713c c1c3 80be
000000b0: b98b 5fbe 6cf8 fdbd 5d70 1bbe 0ef4 adbe
000000c0: 9a9f 1d3e f5ec 593e e6db d8be 7520 65be
000000d0: 33c8 98be e5ca 8ebd b544 c3be 536d ab3e
000000e0: a461 ba3a e5a1 9f3d c19f 65be f744 76be
000000f0: e16c 423e 8621 363f c807 70be 00c9 4d3e
00000100: 5504 3c3d 1597 003f cb53 6bbe 190d 723e
00000110: 1b08 c43e d56d 483e 6ac1 813d cee6 22bc
00000120: 1716 49be 8257 2c3e 5a25 02be 54a6 653c
00000130: 82f8 303e 272e 11be 931d b03e 3c37 d1bb
00000140: 9271 53be 4a7a ee3e 83e9 a53e a764 b7be
00000150: c7c3 0c3e cc05 f43d b9e3 d93e 5f31 d1bd
00000160: 88d1 58be df3c f23e e243 523e 0a7c 80be
00000170: 51a1 333e af74 42be bdff 7dbe 8d6b ba3e
00000180: 9785 fa3d 8e6e 26be 3bef 39be 158f df3d
00000190: 9501 21bd 82de 90be 18ad 9b3e dbf5 69be
000001a0: 1b3e bbbd d203 33bf efa7 9cbd f8db 5dbd
000001b0: 053f 013e 66a4 303e e4a4 1abe 36c4 c93e
000001c0: 7e82 54bd d92d b0be 5dc2 95ba 18aa 63be
000001d0: 171c 44bc 583a c23e 2780 083c ff5d eb3d
000001e0: 0852 d53e e1ed 1dbd fd31 c1be 7857 e23d
000001f0: 4761 c23d 9e99 a9be f958 0c3f f584 00bd
00000200: 8c29 5e3d 5c9a 4c3e 8b7d 553e 3130 b33c
00000210: 8513 cabe 42ff 22be 1efd e8be c7c3 99be
00000220: b7be 953e a8c1 bfbe 3325 8c3e c0d7 a8be
00000230: 8265 9f3e ea6a 70be 4525 393e 2539 5dbe
00000240: c6ee 643e 857c 53be a85a 943d 02b0 80bd
00000250: d02f 3b3e 4771 35bc 41c7 4cbe b99b bdbe
00000260: 0b56 67bd b2e8 aabe 5d00 cc3e fc2a 24bd
00000270: 14cc 0f3f 72f0 e3bd 0e46 0bbd 2da7 eebd
00000280: 92fb eb3d 8c66 b5be 9f14 a5be 9591 b5bc
00000290: e1e5 01be 8897 233d 958c 43be bba8 133f
000002a0: 57f1 4739 fcfc 6c3e 28aa 1dbf 7a99 2bbe
000002b0: 1989 b13e d61a 413e 9ea0 10be d380 303e
000002c0: 7903 783e c80b 4e3d ffec c83d fa53 823e
000002d0: 2a47 a83d 564c c8bd 31dd 7dbc 8e1d c4be
000002e0: a6ad 20be 9287 0c3e 4096 82be b4db 0dbf
000002f0: 0c00 413d c707 26be 3b7f d7bd 974c 703e
00000300: 6c72 ddbe 92f5 e43d a197 673e 06cd 223e
00000310: 8070 f1b8 7f0c 853c 7dc2 ac3e 1244 80be
00000320: 7cdf 9dbd 3792 823e c149 49be a36b ec3e
00000330: f90b 713d 757a 3a3c 9a92 863c 2348 5cbe
00000340: e0f1 ca3b f9ba d9be 32b8 8c3e b102 bfbe
00000350: ec28 183f da34 053d 1485 b33e e52d cebe
00000360: 303c 463e bd24 eb3d 15a6 2d3f 3706 f1bd
00000370: 3dca fe3d 505d 193e 4baf 293e 8d70 2c3e
00000380: c508 a13e f142 dc3d 3c04 4dbe 9eda 4fbc
00000390: 6e2b f03d 0ae1 9c3e bca2 f93d 71ea 30be
000003a0: ac6f c43d 2e71 0cbd d313 093d c1d1 edbe
000003b0: 6f66 8ebe 9418 fdbd 722b 373e 25f1 5abe
000003c0: d50e e83c 7cf2 fe3d 77c0 073e 34db d03e
000003d0: 6fde ba3d f4b1 b5be 202e 6fbe 45d9 d43e
000003e0: a888 22bd 95bd a7be 5992 4a3e 69c2 183e
000003f0: 097f 39be 02c1 71be 261c bf3e 3955 223e

hidden2.bias f4 [32]
0.032536343 0.06645223 -0.18044236 -0.042852316 -0.009247055 -0.059960168 -0.077162504 0.12873279
-0.027982773 -0.12693876 -0.22480606 0.011895266 0.017236605 0.13592033 -0.061736345 0.005472123
0.023144985 0.09865328 0.26843372 0.20690517 0.22433947 -0.013188774 -0.016934872 0.11081586
-0.12090682 0.005909344 0.1541944 -0.06079996 -0.12827674 0.03174673 0.05165483 0.026744537
00000000: d444 053d 1b18 883d e2c5 38be e985 2fbd
00000010: f680 17bc cb98 75bd 6007 9ebd 87d2 033e
00000020: 213c e5bc 3cfc 01be 8f33 66be 5de4 423c
00000030: c833 8d3c b32e 0b3e 40df 7cbd 7f4f b33b
00000040: 8d9a bd3c bb0a ca3d 2570 893e f3de 533e
00000050: 3fb9 653e ba15 58bc 00bb 8abc 6df3 e23d
00000060: ff9d f7bd 2ca3 c13b 23e5 1d3e 6109 79bd
00000070: fa5a 03be dc08 023d 0494 533d 5c17 db3c

linear_hidden_to_mean.weight f4 [2, 32]
-0.1955987 -0.112897635 -0.51491404 -0.0672401 -0.02754666 0.4044917 -0.3729581 0.48108646
0.28407097 -0.075945154 -0.46219155 -0.051951703 -0.52663225 0.37288547 -0.41422984 -0.08985716
-0.24449563 0.25680515 -0.6973921 0.09363348 0.571485 -0.15651211 -0.048885822 0.16462946
-0.2517571 0.045863755 -0.3028909 -0.549016 0.095982715 0.16721861 0.3304308 -0.0013189975
0.14117223 -0.15717885 -0.095523246 0.10375257 0.023577945 0.20165075 -0.09914033 0.19342217
-0.16318837 -0.40426335 -0.06526923 -0.32556373 0.65334034 0.3357133 0.14731085 -0.1836872
-0.007189866 -0.32882577 -0.07121768 0.4739558 0.050811738 -0.08140111 -0.04530172 -0.23573408
-0.07132873 -0.065535806 -0.32591093 -0.2828202 -0.39239064 0.31947178 0.1340919 0.1806973
00000000: 074b 48be e036 e7bd 68d1 03bf 2db5 89bd
00000010: 88a9 e1bc 8919 cf3e 5df4 bebe f750 f63e
00000020: c071 913e 2289 9bbd 5fa4 ecbe 4fcb 54bd
00000030: 5fd1 06bf d8ea be3e ef15 d4be 0807 b8bd
00000040: 105d 7abe f77b 833e 4a88 32bf e9c2 bf3d
00000050: d74c 123f b644 20be 803c 48bd a094 283e
00000060: 4ee6 80be a2db 3b3d 8414 9bbe 508c 0cbf
00000070: 9692 c43d 5b3b 2b3e 3a2e a93e 36e2 acba
00000080: 748f 103e 7ef3 20be b1a1 c3bd 3a7c d43d
00000090: 8926 c13c 897d 4e3e 160a cbbd 7610 463e
000000a0: da1a 27be 9bfb cebe e0ab 85bd 4ab0 a6be
000000b0: 5041 273f 9de2 ab3e a8d8 163e 7f18 3cbe
000000c0: f898 ebbb da5b a8be 93da 91bd 56aa f23e
000000d0: f81f 503d a0b5 a6bd 4c8e 39bd 4664 71be
000000e0: cc14 92bd a337 86bd ccdd a6be cfcd 90be
000000f0: 6de7 c8be ce91 a33e 634f 093e b708 393e

linear_hidden_to_mean.bias f4 [2]
0.31382245 0.05570774
00000000: 56ad a03e cd2d 643d
