Challenge_3/checkpoints/npg_submission.pth (torch_old, 6866 bytes, 7 tensors)

sigma f4 [2]
0.022681616 -0.04170954
00000000: ccce b93c 9fd7 2abd

linear_input_to_hidden.weight f4 [32, 8]
-0.15360849 -0.16705334 0.20248255 0.44922572 -0.11879862 0.6546621 -0.13093653 -0.056902014
0.44093564 -0.16082196 0.39752626 -0.22177452 0.5890315 -0.20411043 -0.13805966 -0.36180168
0.16813666 0.51694554 -0.34351963 -0.57097477 0.7867212 -0.54549384 -0.4838394 -0.45579523
0.44474944 0.6082704 0.18830195 -0.23081516 -0.4849265 0.05547188 0.25465325 -0.43131205
-0.2968801 0.49656266 0.5542931 1.4621961 0.37792027 -0.17629579 0.54965186 -1.315205
-0.66701883 0.22495256 -0.56750286 -0.9506098 -0.19435222 -0.34737498 0.1254255 -0.6336445
0.5428265 0.037814286 -0.2187394 0.14708376 1.0592083 0.3598317 -0.36336038 -0.447178
0.20759112 -0.3343149 -0.18501808 0.52785754 0.46298987 0.61147743 -0.5065382 -0.6186509
-0.39600658 0.06152791 0.279924 0.038618322 -0.8310523 0.09921694 0.096909285 -0.09293768
-0.4927556 0.52873737 -0.73754454 -0.31268653 0.057711516 -0.32630503 -0.35777736 -0.2450752
0.25596738 -0.38187152 0.4076222 0.73106736 -0.325054 0.22375457 -0.6365909 0.80278784
-0.053079147 0.32506305 0.32064947 0.42786956 0.2935686 -0.66414875 0.43756974 0.49132997
-0.3015266 -0.104924485 -0.3595361 -0.43041766 -0.39206842 0.13584071 0.46778953 -0.09314209
0.0041204086 -0.35303718 0.07573173 0.41915584 -0.3626766 -0.28415748 -0.21553433 0.36652118
0.10678747 0.10323167 0.53635633 -0.6305863 -0.7825445 0.39405417 0.4271092 0.40547326
-0.15908274 0.66592836 0.5491973 0.073931925 1.2674814 0.7288152 0.44742957 -0.85849833
0.23925741 -0.29443818 -0.8999036 0.52579105 0.54197866 0.24983726 -0.29416403 -0.92365015
0.32816353 0.1962817 -0.20816703 -0.3535584 -0.35984728 -0.43369612 0.63055634 -0.0047024046
0.4729331 -0.23474436 0.17104356 -0.041595463 -0.1695322 0.13569456 -0.015105475 0.06256849
-0.34994033 -0.14160201 0.21709728 -0.50889593 0.4993053 0.73389125 0.15948804 0.38351735
-0.26349363 0.13570966 -0.08672609 0.74963844 -1.932719 -0.5192114 0.33632725 -0.8866145
0.17810681 -0.6990706 0.8000062 -0.3714606 0.4343377 -1.0053228 -0.15446925 0.69389504
-0.06371469 -0.1395922 -0.32799488 0.22141719 -0.81957257 0.05421837 0.73579353 -0.1843836
-0.7739667 0.68932056 0.28068286 -0.5584407 -0.7552389 -0.6831058 -0.68273085 -0.81068635
-0.6883413 -0.12501404 -0.12214144 0.53929734 -0.2823809 0.035100926 0.25407508 0.30464193
0.29587793 -0.4016534 0.7187078 0.22790468 -0.89417416 -0.7927061 -0.20386909 -0.8616162
-0.27327564 -0.28033498 -0.6781677 0.39370257 -0.42763972 -0.110443346 -0.13968411 -1.0287327
-0.7604323 -0.80290663 0.21831693 0.038329963 0.5391125 0.2156342 0.30438304 -0.723345
-0.22567292 0.2700116 0.08506164 -0.13880166 0.318144 0.19374076 -0.078852914 -0.42966807
0.22420457 -0.23977093 -0.4934918 -0.12411014 0.43664452 0.5330245 -0.5570837 0.009486297
-0.5704787 0.42244297 0.10427843 0.2178108 -0.5452154 1.0210094 0.5791657 0.2645091
0.046198945 0.21016203 0.27506045 0.27526784 -0.70957094 0.20119327 -0.6685578 -0.18428825
00000000: 8b4b 1dbe 0810 2bbe 9657 4f3e ea00 e63e
00000010: b14c f3bd ef97 273f 3a14 06be 1612 69bd
00000020: 51c2 e13e 83ae 24be 9088 cb3e dc18 63be
00000030: c5ca 163f 5302 51be 835f 0dbe 123e b9be
00000040: 042c 2c3e 8b56 043f cee1 afbe 672b 12bf
00000050: 9066 493f 7ca5 0bbf ccb9 f7be fe5d e9be
00000060: 33b6 e33e 9cb7 1b3f 3ad2 403e cf5a 6cbe
00000070: 4948 f8be 7b36 633d e961 823e efd4 dcbe
00000080: ab00 98be 763d fe3e 27e6 0d3f 3e29 bb3f
00000090: c47e c13e e286 34be fcb5 0c3f a358 a8bf
000000a0: bfc1 2abf f759 663e de47 11bf 2a5b 73bf
000000b0: 4504 47be 22db b1be 8b6f 003e 8736 22bf
000000c0: adf6 0a3f 27e3 1a3d 39fd 5fbe 209d 163e
000000d0: 2394 873f dc3b b83e 5f0a babe 84f4 e4be
000000e0: c492 543e 532b abbe 6175 3dbe ac21 073f
000000f0: 020d ed3e c989 1c3f 7dac 01bf e85f 1ebf
00000100: 60c1 cabe b104 7c3d 3352 8f3e 3f2e 1e3d
00000110: d8bf 54bf 4032 cb3d 6078 c63d 1c56 bebd
00000120: 764a fcbe 555b 073f b8cf 3cbf 7318 a0be
00000130: e962 6c3d 7411 a7be 982e b7be fef4 7abe
00000140: 280e 833e aa84 c3be dbb3 d03e 3b27 3b3f
00000150: 7a6d a6be eb1f 653e 9ff7 22bf 8183 4d3f
00000160: 8569 59bd aa6e a63e 2b2c a43e b811 db3e
00000170: a04e 963e a705 2abf 2409 e03e 9a8f fb3e
00000180: b261 9abe a6e2 d6bd 1e15 b8be b45f dcbe
00000190: 31bd c8be d419 0b3e 1c82 ef3e 48c1 bebd
000001a0: 7e04 873b 4ac1 b4be 3d19 9b3d 989b d63e
000001b0: bfb0 b9be 177d 91be 08b5 5cbe aaa8 bb3e
000001c0: 64b3 da3d 206b d33d a64e 093f 1b6e 21bf
000001d0: d654 48bf 78c1 c93e 0fae da3e 319a cf3e
000001e0: 96e6 22be 487a 2a3f 3298 0c3f 9f69 973d
000001f0: d53c a23f a293 3a3f 7d15 e53e 8cc6 5bbf
00000200: e5ff 743e 9ac0 96be 1560 66bf 3e9a 063f
00000210: 1dbf 0a3f 57d5 7f3e ab9c 96be 5674 6cbf
00000220: 0d05 a83e 12fe 483e bd29 55be 9b05 b5be
00000230: e73d b8be 6b0d debe 246c 213f a116 9abb
00000240: 4a24 f23e d360 70be 0b26 2f3e 0160 2abd
00000250: d999 2dbe 84f3 0a3e f47c 77bc e923 803d
00000260: 612b b3be 1e00 11be c04e 5e3e 0147 02bf
00000270: f2a4 ff3e 4ce0 3b3f d550 233e 635c c43e
00000280: a3e8 86be 79f7 0a3e 739d b1bd 4ee8 3f3f
00000290: 5663 f7bf 0aeb 04bf 1633 ac3e 2bf9 62bf
000002a0: a261 363e 4af6 32bf 35cd 4c3f 1530 bebe
000002b0: 8361 de3e 6bae 80bf 302d 1ebe 1ba3 313f
000002c0: d97c 82bd 42f1 0ebe f2ee a7be 30bb 623e
000002d0: 82cf 51bf 1514 5e3d f75c 3c3f 0ecf 3cbe
000002e0: af22 46bf 5077 303f aab5 8f3e f8f5 0ebf
000002f0: 5657 41bf 06e0 2ebf 73c7 2ebf 2489 4fbf
00000300: 2337 30bf ae03 00be 4b25 fabd 640f 0a3f
00000310: 3b94 90be fdc5 0f3d 2116 823e 07fa 9b3e
00000320: 507d 973e 84a5 cdbe 3cfd 373f d85f 693e
00000330: 99e8 64bf c9ee 4abf 0fc3 50be e192 5cbf
00000340: c9ea 8bbe 1188 8fbe 669c 2dbf 6293 c93e
00000350: 98f3 dabe 1f30 e2bd 5a09 0fbe 83ad 83bf
00000360: b1ab 42bf 4a8b 4dbf 798e 5f3e e1ff 1c3d
00000370: 4703 0a3f 36cf 5c3e 18d8 9b3e 232d 39bf
00000380: cd16 67be f63e 8a3e cc34 ae3d 0622 0ebe
00000390: c5e3 a23e fa63 463e a37d a1bd 74fd dbbe
000003a0: e295 653e 8386 75be f5aa fcbe 752d febd
000003b0: df8f df3e 4b74 083f 0a9d 0ebf 6a6c 1b3c
000003c0: e40a 12bf 724a d83e ee8f d53d cb09 5f3e
000003d0: 3d93 0bbf 70b0 823f 3444 143f bd6d 873e
000003e0: 1b3b 3d3d b734 573e b9d4 8c3e e8ef 8c3e
000003f0: 71a6 35bf 9c05 4e3e 9b26 2bbf 0fb6 3cbe

linear_input_to_hidden.bias f4 [32]
-0.018440729 0.05174699 0.009381949 -0.047059085 0.14430656 0.069329895 -0.030746 -0.091199555
-0.062114246 -0.019395862 -0.05280188 0.06469556 0.0057262992 0.12469955 0.058394752 0.08197708
-0.018666487 0.011758892 -0.040026385 -0.008952463 -0.0050472734 0.05124286 0.016550086 -0.032845616
0.001444892 -0.0022976585 0.051651694 0.010590091 0.02474733 0.03304275 0.055205923 -0.022772172
00000000: 0311 97bc a7f4 533d bfb6 193c 07c1 40bd
00000010: 19c5 133e d5fc 8d3d 09df fbbc d5c6 babd
00000020: 826b 7ebd 12e4 9ebc c946 58bd 1b7f 843d
00000030: aea3 bb3b 7a62 ff3d 562f 6f3d 99e3 a73d
00000040: 76ea 98bc 5ea8 403c b5f2 23bd 5aad 12bc
00000050: 9963 a5bb 08e4 513d 0c94 873c 2089 06bd
00000060: 8862 bd3a 5094 16bb ba90 533d 1082 2d3c
00000070: eaba ca3c d657 073d 9b1f 623d b58c babc

hidden2.weight f4 [32, 32]
0.20064479 -0.21872734 -0.097690746 -0.5718727 0.01627608 0.6091853 -0.2948609 -0.20615236
-0.19036178 -0.26488712 -0.35965142 -0.23503493 0.30809265 -0.1789018 -0.24277094 0.096596204
-0.3277684 -0.09747582 0.35940784 -0.038785722 0.1997357 0.47901982 -0.1617461 0.015207119
-0.08578251 0.1681103 -0.047663808 0.0114118 0.3992972 0.053685393 -0.030047812 0.39140162
0.057605367 0.0431389 0.28333583 -0.14119112 -0.15822442 0.15830494 -0.11020903 -0.19713983
0.04354435 0.124050334 0.41436797 -0.11392614 0.00019320258 -0.080780424 -0.28855562 -0.14359272
0.11984618 -0.24893981 0.1884908 0.03609284 -0.17704085 -0.15071663 -0.027674112 -0.047669828
-0.5515728 0.22688659 -0.039000195 -0.55573034 -0.08831631 -0.038140506 -0.5203277 0.6007237
0.21987766 0.33763883 0.2464173 -0.2806676 -0.19743963 0.05153076 -0.13263555 0.57870495
0.040691722 0.27974424 0.21507676 0.036165167 -0.19565047 0.29852796 -0.8121302 0.044556648
-0.38651797 -0.28497458 0.32034203 0.18842192 -0.30776918 -0.12603712 0.0824372 -0.59927905
0.28831255 0.043999627 0.17677374 0.4488513 0.05736492 -0.13600928 0.2234388 -0.09535297
-0.2200881 0.53898346 -0.1692795 -0.66738605 -0.69681233 -0.38073498 0.4708623 -0.016793726
0.58390284 -0.3724095 -0.2514189 -0.49877647 0.057099633 0.14842589 0.25173658 0.33215123
-0.05344208 0.24253939 -0.34650737 0.13364574 0.21317 -0.19003804 -0.20393026 0.36201626
-0.13356382 -0.08301661 0.2657153 -0.118899226 0.23197208 -0.08739173 -0.033715636 -0.04823259
0.35460192 0.13068728 -0.017208662 0.29454124 -0.10599522 0.10138263 0.09542979 0.032023292
-0.21224797 0.13160454 -0.41679332 -0.04611629 0.03449353 -0.14018424 -0.09359407 -0.553222
0.117428824 -0.19610468 -0.021678459 -0.14177273 -0.08411628 0.3843187 -0.28063905 -0.05541268
0.16710076 0.5249637 -0.34927693 0.39554536 0.03161816 -0.0037666939 0.33816618 0.13003859
0.010497188 -0.20850338 -0.24645144 0.039448984 0.32730618 0.32832798 0.15606159 -0.21770377
0.06092277 0.32535166 -0.19540706 -0.067991085 -0.23413113 0.32104704 -0.019514015 -0.007938966
-0.04209074 -0.43295878 -0.45544806 -0.10657778 -0.02160893 -0.4662198 0.061221354 -0.06287863
0.071454704 0.014402855 -0.2429428 -0.23363489 -0.049922287 0.19047414 0.20755176 0.12334245
0.44975686 0.24948135 0.03876197 0.2827855 0.2509402 0.022419712 0.014740203 0.14286822
0.051547837 -0.22092628 -0.44951832 -0.10709794 -0.18782322 -0.03442803 0.263584 -0.10485432
-0.100559615 0.2953307 0.12530005 0.43490413 0.010741775 0.49148828 -0.14720848 -0.45049793
0.05578723 0.19335318 0.017769665 0.11638645 0.2537617 -0.20610718 -0.302144 -0.14943834
0.47475332 0.10287301 -0.32716006 -0.0017485247 -0.04699359 -0.026956225 0.4346448 -0.087918565
0.11977727 -0.060169872 0.008136136 -0.4313336 -0.021603165 -0.09214007 -0.5178973 -0.23783867
0.021011814 0.27363703 0.10273099 0.1498647 0.015030112 0.1859213 -0.20483956 -0.20900136
-0.116814084 0.31853983 0.03656479 -0.38716304 0.084934086 0.15393913 0.18485786 0.26084802
00000000: d475 4d3e 0ffa 5fbe 1612 c8bd 4066 12bf
00000010: 6a55 853c 91f3 1b3f 02f8 96be 9b19 53be
00000020: 33ee 42be 499f 87be 3b24 b8be ffac 70be
00000030: 52be 9d3e 0932 37be f298 78be 3bd4 c53d
00000040: 42d1 a7be 67a1 c7bd 4e04 b83e c7dd 1ebd
00000050: 8487 4c3e 1642 f53e c5a0 25be 4827 793c
00000060: beae afbd 1b25 2c3e 203b 43bd 8ff8 3a3c
00000070: af70 cc3e 37e5 5b3d d426 f6bc cb65 c83e
00000080: 9bf3 6b3d 6ab2 303d 6511 913e 6894 10be
00000090: 9505 22be b11a 223e 46b5 e1bd 06df 49be
000000a0: 8f5b 323d 1a0e fe3d 0a28 d43e 1c52 e9bd
000000b0: 6c96 4a39 3570 a5bd 90bd 93be f809 13be
000000c0: ea71 f53d 14ea 7ebe bb03 413e 16d6 133d
000000d0: 324a 35be 7655 1abe d2b4 e2bc 7041 43bd
000000e0: e033 0dbf f554 683e abbe 1fbd 5844 0ebf
000000f0: 2edf b4bd 3839 1cbd 3234 05bf 07c9 193f
00000100: 9c27 613e ffde ac3e d154 7c3e aab3 8fbe
00000110: 9d2d 4abe eb11 533d 9dd1 07be 0226 143f
00000120: 5dac 263d a33a 8f3e 153d 5c3e ed21 143d
00000130: 9958 48be a8d8 983e c4e7 4fbf 0881 363d
00000140: afe5 c5be 30e8 91be df03 a43e adf1 403e
00000150: ec93 9dbe e00f 01be d6d4 a83d 5a6a 19bf
00000160: b49d 933e f438 343d 2d04 353e d6cf e53e
00000170: 7af7 6a3d 0446 0bbe 24cd 643e 6b48 c3bd
00000180: c65e 61be d2fa 093f 9b57 2dbe d0d9 2abf
00000190: 4b62 32bf b2ef c2be dd14 f13e ff92 89bc
000001a0: a87a 153f 75ac bebe fab9 80be a15f ffbe
000001b0: 4ee1 693d f5fc 173e 9ee3 803e ba0f aa3e
000001c0: 15e6 5abd 3f5c 783e 6a69 b1be 6eda 083e
000001d0: 3d49 5a3e 5599 42be 18d3 50be 325a b93e
000001e0: f4c4 08be 9d04 aabd d60b 883e 7081 f3bd
000001f0: 178a 6d3e 6ffa b2bd 6819 0abd 898f 45bd
00000200: 628e b53e e3d2 053e 2ef9 8cbc 1cce 963e
00000210: 0614 d9bd b2a1 cf3d b270 c33d db2a 033d
00000220: 8857 59be 57c3 063e ef65 d5be 6fe4 3cbd
00000230: 1649 0d3d 758c 0fbe 3fae bfbd f59f 0dbf
00000240: 867e f03d aacf 48be 0697 b1bc df2c 11be
00000250: 2845 acbd 6cc5 c43e ecaf 8fbe 68f8 62bd
00000260: 761c 2b3e 0564 063f 6dd4 b2be ec84 ca3e
00000270: 0b82 013d a3da 76bb 1e24 ad3e d628 053e
00000280: 66fc 2b3c e981 55be c45d 7cbe 4295 213d
00000290: ad94 a73e 9b1a a83e 9cce 1f3e bded 5ebe
000002a0: 288a 793d 7e94 a63e ca18 48be e93e 8bbd
000002b0: 12c0 6fbe 4760 a43e dbdb 9fbc 7012 02bc
000002c0: 5767 2cbd c6ac ddbe 7d30 e9be 7345 dabd
000002d0: 3605 b1bc 5db4 eebe 3ec3 7a3d 83c6 80bd
000002e0: d856 923d f4f9 6b3c ffc5 78be fc3d 6fbe
000002f0: 507b 4cbd a70b 433e 7388 543e f79a fc3d
00000300: 8846 e63e 0a78 7f3e dfc4 1e3d 43c9 903e
00000310: 3c7b 803e 8ba9 b73c e480 713c 0c4c 123e
00000320: d323 533d 803a 62be 4427 e6be 2a56 dbbd
00000330: bb54 40be 6804 0dbd 7bf4 863e ddbd d6bd
00000340: 33f2 cdbd 9635 973e a84e 003e c1ab de3e
00000350: 45fe 2f3c 5aa4 fb3e d2bd 16be aaa7 e6be
00000360: 2781 643d 60fe 453e b091 913c 055c ee3d
00000370: 0eed 813e c30d 53be 9eb2 9abe 5d06 19be
00000380: de12 f33e 16af d23d 8681 a7be c12e e5ba
00000390: 5a7c 40bd 4dd3 dcbc c389 de3e a60e b4bd
000003a0: c94d f53d af74 76bd 6e4d 053c c2d7 dcbe
000003b0: 1ff9 b0bc efb3 bcbd eb94 04bf fb8b 73be
000003c0: f820 ac3c 271a 8c3e a064 d23d 2276 193e
000003d0: dc40 763c 2762 3e3e 76c1 51be 7404 56be
000003e0: 393c efbd a717 a33e f6c4 153d 3c3a c6be
000003f0: ecf1 ad3d 38a2 1d3e 614b 3d3e df8d 853e

hidden2.bias f4 [32]
0.03333674 -0.0016323654 0.023695078 0.019026976 -0.008668795 0.008492939 0.017709263 -0.058572613
-0.0957746 -0.07941921 -0.0011951141 -0.06691631 -0.009698171 0.015326967 -0.0043586367 0.043653548
0.0173296 -0.0047685658 0.01533273 -0.018501734 0.05451052 0.012102624 0.013866342 0.014948709
-0.03673548 -0.016596334 0.0068661934 0.0023046737 -0.020368312 0.025739094 0.026321117 -0.0056402287
00000000: 1b8c 083d 18f5 d5ba 2e1c c23c 76de 9b3c
00000010: 9007 0ebc f825 0b3c 0413 913c d6e9 6fbd
00000020: 7925 c4bd 8aa6 a2bd 60a5 9cba 6b0b 89bd
00000030: 14e5 1ebc f61d 7b3c e5d2 8ebb 10ce 323d
00000040: cef6 8d3c a141 9cbb 2136 7b3c f390 97bc
00000050: 6c46 5f3d 164a 463c a72f 633c 6eeb 743c
00000060: f177 16bd 09f5 87bc cefd e03b 020a 173b
00000070: 72db a6bc cbda d23c 629f d73c abd1 b8bb

linear_hidden_to_mean.weight f4 [2, 32]
0.2369468 -0.1237037 0.14857052 0.07478809 -0.068913236 -0.17268318 -0.49206793 0.003662073
-0.07945175 -0.097144134 0.035007335 0.6400802 -0.028020266 0.31141442 -0.20073536 0.465735
-0.054126807 0.13506477 -0.24772534 -0.09338635 -0.011134663 0.043419532 -0.23184334 -0.29499945
0.26483333 -0.1086974 0.17823029 -0.02555469 0.24730101 -0.3913459 -0.12720132 -0.3235655
0.046300747 -0.16464454 -0.01881019 0.16634934 0.23475206 -0.5967764 0.30185792 -0.2595276
-0.46129882 0.16591324 0.005651403 -0.14993072 -0.063303664 0.06368128 -0.045427866 -0.3308069
-0.48947796 -0.066374734 -0.37240037 -0.37696338 0.4561785 0.29958838 0.46086025 0.0122700315
0.3293984 0.27687773 0.28776065 -0.10024939 0.079001464 -0.32219738 -0.12738793 -0.31778196
00000000: 2fa2 723e 5e58 fdbd df22 183e 802a 993d
00000010: 6222 8dbd dcd3 30be 54f0 fbbe 64ff 6f3b
00000020: 99b7 a2bd 81f3 c6bd da63 0f3d 4cdc 233f
00000030: c28a e5bc b671 9f3e 928d 4dbe d174 ee3e
00000040: 12b4 5dbd 6b4e 0a3e b6ab 7dbe 5841 bfbd
00000050: 296e 36bc aed8 313d 5768 6dbe 2b0a 97be
00000060: 3c98 873e be9c debd 0082 363e 1258 d1bc
00000070: 7a3c 7d3e 7d5e c8be 1041 02be 61aa a5be
00000080: daa5 3d3d 9498 28be d417 9abc 7b57 2a3e
00000090: d862 703e 57c6 18bf 1f8d 9a3e cde0 84be
000000a0: 5c2f ecbe 29e5 293e 682f b93b 7087 19be
000000b0: 5aa5 81bd 556b 823d 9212 3abd 865f a9be
000000c0: db9c fabe 7aef 87bd 43ab bebe 5801 c1be
000000d0: 3a90 e93e a663 993e e0f5 eb3e 3e08 493c
000000e0: e8a6 a83e ebc2 8d3e 5d55 933e 8d4f cdbd
000000f0: 85cb a13d 0ef7 a4be fb71 02be 51b4 a2be

linear_hidden_to_mean.bias f4 [2]
0.044893723 -0.007191912
00000000: 7be2 373d 21aa ebbb
