Challenge_3/checkpoints/npg_submission.pth (torch_old, 6866 bytes, 7 tensors)

sigma f4 [2]
00000000: 3e3e 1339 1ac7 b9bb
0.000140422 -0.0056694867

linear_input_to_hidden.weight f4 [32, 8]
00000000: 89e2 343e 7ab4 5d3f 39ed 45bc 8465 1d3d
00000010: 2c1e 7abe 6f06 6ebe 1cbe 04bf f112 b5be
00000020: 4bdb 40bf 3a42 d03e 106b 18bd 3ca1 ea3d
00000030: a170 43be ef59 a6be 85ad 91be 9136 36bf
00000040: 5e81 123f b4f4 63bf 82c7 2f3f 4337 a83e
00000050: 7bbe 07bd 8e64 6d3e 11a6 033f 47ff 03bf
00000060: c61b 6bbd cfea a43e b199 95bc 79e6 903f
00000070: e206 30bf 4a70 8c3e f4b2 45bf fff3 a8be
00000080: f74a 61bf c4a3 2c3d 62da b43c 3762 54bf
00000090: 3316 87be 4e95 40bf 95f5 7c3c eb05 d03e
000000a0: 9e6d 2abc 7c3a 2fbe d80b 19bd 7144 6b3e
000000b0: 4961 ad3e bfdb 1d3d 1448 acbe 844a 5a3e
000000c0: 5d21 d1be 8a22 c7bd f6a7 fabe 0634 5a3e
000000d0: 8c60 8ebe 5bd5 88bf 24a4 213e d30d 90be
000000e0: 65cd 643e ab62 903b 3f5f db3e ac7b fb3e
000000f0: b691 523f 35d2 9f3d 0249 e5bd 09b8 943e
00000100: 0489 3d3f e694 6e3e 646a 17bf 8805 57be
00000110: 4843 133d e01b ac3e 7af3 c2bd 3f71 3bbe
00000120: 572d 17bf dfb5 a2bb cfa9 0a3e 45d2 0a3e
00000130: 9014 173e db65 023f 23c1 c43e 347c 7dbf
00000140: 4e68 35bf 00dc eabe 0591 92be 151c 80be
00000150: f017 09bf 8df1 a03e 1467 0ebf 4990 1abe
00000160: 446a bb3d c451 4a3f f409 f63e 21fc 4d3f
00000170: d4b1 c63e 86a1 c13e 7412 c9bd 403c b03c
00000180: 27ea fd3e fc88 85bf 3d85 363f 576a 2c3f
00000190: 9561 c8be db50 51be 5ea7 91be 05d5 57bf
000001a0: 3551 e6bd 7bc3 023f 8c72 1fbf 61e1 16be
000001b0: 9d4a d03d 7110 183f e295 44bd 76dd f7be
000001c0: 1fd4 d1bd 20c4 09bf facb b2bd b95c 1c3e
000001d0: 4132 12bf 4fdf 09bf a0f8 82bf c4b4 c9be
000001e0: b2c4 aabd 6e98 1f3e f90b e13e 80b2 6b3f
000001f0: d3a3 36bd fc41 43bf dcb6 213f ad16 6ebe
00000200: fb74 573f 2c01 0d3f e8c0 c03e 5696 4d3e
00000210: d7c7 723e 4aa7 823d 0e08 4cbe 3564 3bbf
00000220: 2950 a93e ffc4 113f 513d 2fbf 3909 32bf
00000230: 2d54 de3c af4b a9be b85e 303e 5c5a 16bf
00000240: c0a2 3abe 8a2a 9c3d 78c9 313f 94af 80bf
00000250: ad25 61bf 5426 bfbc 311b 773e 49d4 c1be
00000260: 2b88 84be 9917 05bf 1baf 663c ee4a 7d3e
00000270: 7568 953b 05ff ce3e 9046 41be c81a d53e
00000280: e96a f03d 9865 743e 5aff 9d3e d39b 77be
00000290: 3557 31bf d0f9 8b3f ead1 12bf e2c1 f83e
000002a0: 47af 8ebc 5266 76be c3cf 06bf 9d6b 87bd
000002b0: d2a7 cabd b44c 743f 1ced 42be f738 27bd
000002c0: e8f7 12be f03f 08be 2326 363f 78f9 93bf
000002d0: e09c 8d3f b0e7 893e 6a23 19bf 15f6 27bf
000002e0: c9ea 163f b66a a53d 6e21 edbe 9752 c6be
000002f0: a75b 5cbe 5e61 043f f16a 983e 1cf6 c0bc
00000300: fe4e af3e 348a ee3e 6059 5bbf 60bf 473e
00000310: f5a5 3f3f 4be4 90bf 492f b3bd 622e b93e
00000320: 725e 21bb ed32 6e3f a1f2 ee3e b542 9c3e
00000330: 2802 62bf 91dd 22bf 0eeb a7be 99de e3be
00000340: e1dd 823e 39ad 8d3b eb47 eebe 5b70 c4bd
00000350: f08d ccbd 2606 0a3f 54db b9be 28f7 cebe
00000360: 0db4 f4be 83dc 30bc e024 cdbe c26c 0dbf
00000370: effb 41bf 0293 213f 8dbf c0bd a04e 01be
00000380: 76ee 903d 49f2 20bf c0c7 cc3c 7244 67bf
00000390: 96c8 353d 7137 9cbf b2c4 c0bd 743f 35bf
000003a0: e347 82bd fc9f 843e 4a8a 133f d262 063f
000003b0: fa03 c23d e67e 03bf f830 bebe 34b6 09bf
000003c0: eacf 9b3e 3e49 5dbf 3c2f 8e3f aaa2 53be
000003d0: 0083 513f 263e e9be ff13 47bf 50c9 7dbe
000003e0: 7233 233e cc7e 903d 8fb2 193f e945 d3be
000003f0: 5ac3 05be 6556 a73e b6ba bfbc b3fd 03be
0.17664541 0.8660351 -0.012080484 0.03842689 -0.24425572 -0.23244642 -0.51852584 -0.35366014
-0.75334615 0.40675527 -0.037211478 0.11456534 -0.19085933 -0.3249049 -0.28452697 -0.7117701
0.5722865 -0.8904526 0.686638 0.3285466 -0.03314064 0.2318289 0.5142527 -0.515614
-0.057399534 0.32210395 -0.018261762 1.1320335 -0.687605 0.2742942 -0.77226186 -0.32998654
-0.8800501 0.042148367 0.02207679 -0.82962364 -0.26384124 -0.7522782 0.015439411 0.40629515
-0.010402111 -0.17112154 -0.03736481 0.22975327 0.33863285 0.038539644 -0.3364874 0.21317488
-0.40845767 -0.09723385 -0.4895627 0.21308908 -0.27808034 -1.0690111 0.15785271 -0.28135547
0.22343977 0.0044062934 0.42846105 0.49117792 0.8225359 0.07803766 -0.11195566 0.29046658
0.74037194 0.23298988 -0.59146714 -0.20998204 0.035952836 0.33615017 -0.09519096 -0.18304919
-0.5905356 -0.0049655284 0.1354134 0.13556774 0.14753938 0.5093667 0.38428602 -0.99017644
-0.7086228 -0.45870972 -0.28626266 -0.25021425 -0.5355215 0.3143429 -0.55626035 -0.15094103
0.09151128 0.79031014 0.4805447 0.80462843 0.38807547 0.37818545 -0.09817973 0.021513104
0.49592707 -1.0432429 0.71297055 0.6734976 -0.3913695 -0.20441 -0.28448004 -0.84309417
-0.11245958 0.5107953 -0.6228416 -0.14734413 0.10170481 0.5940009 -0.047994502 -0.4841115
-0.10245537 -0.5381489 -0.08730312 0.15269746 -0.5710793 -0.53856367 -1.0232124 -0.39395726
-0.08338298 0.15585491 0.43954447 0.92069244 -0.04458983 -0.7627256 0.63169646 -0.23250838
0.84162873 0.55079913 0.37647176 0.2007688 0.23709045 0.06379564 -0.19924948 -0.7319978
0.3306897 0.5694122 -0.68452936 -0.6954532 0.027139748 -0.33065554 0.17223632 -0.5873163
-0.18226147 0.07625301 0.6944804 -1.0053582 -0.87948114 -0.023333706 0.24131466 -0.37857273
-0.25885138 -0.5198913 0.014079834 0.24735615 0.0045595714 0.4042894 -0.18874574 0.41621995
0.117391415 0.2386688 0.3085888 -0.24180536 -0.6927369 1.0935612 -0.57351553 0.4858542
-0.017417563 -0.2406247 -0.5266077 -0.066123225 -0.098952904 0.9542954 -0.19035763 -0.04082581
-0.14352381 -0.1330564 0.7115194 -1.1560507 1.10635 0.26934576 -0.5981966 -0.65609866
0.58952004 0.08076994 -0.46314567 -0.38734886 -0.21519338 0.5171107 0.2976909 -0.023554854
0.34239954 0.46589816 -0.8568325 0.19506598 0.74862605 -1.131967 -0.08749253 0.361682
-0.0024622944 0.93046457 0.46669486 0.30519643 -0.8828454 -0.63619334 -0.3279652 -0.44505766
0.25559905 0.0043236283 -0.46539244 -0.095917426 -0.0998801 0.5391563 -0.36300147 -0.4042294
-0.47793618 -0.010794762 -0.40067196 -0.55244076 -0.75775045 0.6311494 -0.094115354 -0.1262765
0.07076733 -0.628697 0.024997592 -0.90338814 0.044380747 -1.2204419 -0.09412517 -0.70799947
-0.063613676 0.25903308 0.5763289 0.5249454 0.09473415 -0.51365507 -0.37146735 -0.53793645
0.30432063 -0.86439884 1.1108165 -0.2066752 0.81840515 -0.45555228 -0.77764887 -0.24783826
0.15937594 0.070554346 0.60038084 -0.41264275 -0.13062802 0.326831 -0.02340446 -0.12889747

linear_input_to_hidden.bias f4 [32]
00000000: 9441 8c3d 441c b53c a5b5 363e ccf7 99bd
00000010: 166c a03c 91e4 523d 4d9a a2bc 3746 02bd
00000020: bbec b5bd 7d01 b83b 7b9a dd3b 927e 2fbc
00000030: d6e9 f4ba 60d5 9c3d 88fc 25be b220 b0bd
00000040: 438c cbbd a8e7 82bc 0e44 efbc eeaf 55bc
00000050: 0d25 7a3d d886 8dbd 8091 78b9 a4e8 91bd
00000060: c6b5 8b3c 3b23 bbbd 0cd7 f3bc 7458 883c
00000070: 1757 063d 74f4 003d 0f9f 933d 7002 50bc
0.068484455 0.022108205 0.1784273 -0.07517967 0.01958279 0.05148751 -0.019848967 -0.031805243
-0.088830434 0.005615412 0.0067628003 -0.010711329 -0.0018685411 0.076578856 -0.16209614 -0.08599986
-0.09938862 -0.015979603 -0.029207256 -0.013042433 0.06107049 -0.06910485 -0.00023705326 -0.07124451
0.01705445 -0.09137579 -0.029765628 0.01664374 0.0327979 0.03148313 0.072080724 -0.012695894

hidden2.weight f4 [32, 32]
00000000: 498c 48be 5c05 a0bd 34aa 083e 835c 973e
00000010: 7139 0fbd 7c0f 85be 279d 85bd 3b0d 8dbe
00000020: be88 963c 3632 8f3e 10d2 a8be 35af e5be
00000030: 67fd c93d c955 013e aaaf c13d 7fff babc
00000040: 5a96 903d ec38 d5be 6ac4 56bd 0901 c33e
00000050: 60c4 b73c ed7f 93bc f095 ffbe 7f19 ee3d
00000060: c098 ba3e 50af f9be 0f17 4e3d eb7e d53d
00000070: 8229 343e 7109 d43d 351c 0b3e 060d 563e
00000080: 3285 413d ecdf d0be 0476 b9bd 7a8b e2bc
00000090: b5a9 07bf 432b 37be 9ca7 9f3c bd63 4dbd
000000a0: f337 8fbc afd7 163e 6b68 943c dd0f 89be
000000b0: 68ae 60be 259d fcbd a230 1bbe 6aab b2be
000000c0: 7fe9 0c3e 31a5 4e3e ffc4 d8be b102 65be
000000d0: 8569 97be e7a9 88bd 692a c3be 2d98 aa3e
000000e0: 1641 1fbc 1394 a23d cd05 66be 7690 75be
000000f0: ad70 3e3e bcd9 323f 26a8 7cbe 44ba 4d3e
00000100: 6121 1e3d 86c0 f63e e363 57be 64d1 643e
00000110: 7ac9 b93e ddba 473e 8deb 243d 58bd 00bc
00000120: 3bcb 4bbe cc8d 2e3e 7d57 d3bd 1f39 bf3b
00000130: fcd5 283e d186 0cbe 5abc 9f3e b996 41bc
00000140: 2976 5bbe f569 eb3e 94c4 953e 4eac acbe
00000150: 3561 0d3e c983 043e 84d2 d83e 740a d2bd
00000160: cfb0 4dbe c8d4 d93e feb6 5d3e 15b9 80be
00000170: 91f9 193e 96d1 3abe 9d9d 83be 4a73 ba3e
00000180: 3760 023e d0a6 29be 7e4f 30be e7f4 e13d
00000190: 4ad5 14bd 94de 92be c516 993e afde 70be
000001a0: f36c bfbd be76 33bf c1ac a2bd 752e 1ebd
000001b0: ab01 023e cc95 313e 5744 1ebe 3e3a cf3e
000001c0: 90f6 33bd ed88 adbe 2eec a3bb 061a 65be
000001d0: 5b0e aebc 2511 c13e 0593 2c3a 2569 de3d
000001e0: eb6a d63e 4f9c 3bbd 45d9 c0be bada d93d
000001f0: 9654 ca3d e9c6 a3be 9bb0 0c3f d2fd 07bd
00000200: 1290 5b3d 6ba1 4c3e 9051 593e 4920 ab3c
00000210: dc70 c8be 1f68 22be 3e24 e8be 217c 9abe
00000220: a068 943e 74ae bebe 74b0 8d3e 8059 aabe
00000230: 360a a13e 0797 71be dd17 393e ae94 5bbe
00000240: 29d4 643e bdc8 52be 3422 993d 9fc9 79bd
00000250: d63a 3b3e 8b89 3bbc fc2b 4abe ea3a bebe
00000260: e59c 69bd 3c52 aabe 32c2 cb3e 86ba 1cbd
00000270: e602 113f 6d50 e5bd 653e ffbc 1fb6 edbd
00000280: da8d f73d f269 b5be ee9e 92be 4343 a3bc
00000290: 5ad6 01be 68ce 083d 90e8 47be cefe 133f
000002a0: 0a26 9f3c 0536 7d3e 23a6 1cbf 0cb3 12be
000002b0: 8fae b23e 7142 4d3e b9ad 12be ee92 253e
000002c0: e030 8b3e 4074 8b3d e657 cc3d 9ca4 883e
000002d0: 5e2b c33d bc79 babd 251f 10bb cdae c3be
000002e0: 0b17 30be 4095 0e3e 1ac0 72be c26f 0dbf
000002f0: 9353 323d 0cf4 2dbe 69cd e0bd 9051 743e
00000300: dac6 eebe eb82 b73d bf2b 633e 07e5 1f3e
00000310: 88c3 abbc 6ebd e33c acbb a23e 9f38 65be
00000320: b3aa b3bd daa1 803e cd37 3abe 50f0 d23e
00000330: 3f97 883d 6f84 b83c ed5b 9bbb 56a9 6abe
00000340: e5c7 73bd fc2f e1be 9b04 5e3e 4f33 b9be
00000350: b486 173f 643e 523d 21c3 c13e 0ae7 c2be
00000360: 9fae 513e ab9f b33d de48 303f 3713 e9bd
00000370: bd8d a13d f894 0a3e a0f4 323e 8a63 283e
00000380: 0006 9b3e fb61 063e 769e 4dbe bff6 0ebd
00000390: 4f21 db3d df35 a13e fb3b 103e 930f 14be
000003a0: 0238 be3d d716 90bb 0641 86bc a0cd e1be
000003b0: ad1b 89be 2e9b 00be eea8 4a3e fd13 2cbe
000003c0: 2267 9c3d b762 0e3e 4645 033e 59e2 c93e
000003d0: a1c8 b53d 52f4 b9be 8786 48be 2d94 c73e
000003e0: 5b66 143d 6db9 9bbe aff4 283e df23 033e
000003f0: 2450 e5bd 180b 5bbe 6c6c e73e 3ad2 303e
-0.19584765 -0.07813522 0.13346177 0.29562768 -0.03496689 -0.25988376 -0.06524115 -0.27549157
0.01837575 0.27967995 -0.32972765 -0.44860235 0.09862786 0.1263038 0.094573334 -0.022826908
0.07059927 -0.4164499 -0.05243341 0.38086727 0.022432506 -0.018005336 -0.4991908 0.11625957
0.36444664 -0.48766565 0.05031496 0.10424598 0.17593959 0.10353363 0.13584979 0.20903406
0.047246166 -0.4079584 -0.09055713 -0.027654398 -0.5299333 -0.17887597 0.019489102 -0.050143946
-0.017482733 0.14730714 0.018116197 -0.26769915 -0.2194153 -0.123346604 -0.1515527 -0.34896404
0.13760947 0.20180203 -0.42337796 -0.22364308 -0.29572693 -0.06673031 -0.38118294 0.33319226
-0.009720108 0.07938399 -0.2246315 -0.23980889 0.1859767 0.69863486 -0.24673519 0.20090586
0.03860605 0.4819376 -0.21034198 0.22345501 0.36286527 0.19504876 0.0402637 -0.007857643
-0.19901745 0.17046279 -0.103194214 0.005835667 0.16487879 -0.13723303 0.31198388 -0.01181572
-0.21431793 0.45979276 0.2925154 -0.33725208 0.13806613 0.12940897 0.4234811 -0.102559
-0.20086978 0.42545152 0.21651837 -0.25141206 0.15036608 -0.18244013 -0.25706187 0.36416084
0.12732016 -0.1656754 -0.17217824 0.110330395 -0.03633622 -0.2868544 0.29900184 -0.23522447
-0.09346952 -0.7010306 -0.079431064 -0.038618524 0.12695949 0.17342299 -0.15455757 0.40474123
-0.043936312 -0.3389353 -0.00500252 -0.22373208 -0.02124708 0.37708393 0.0006583187 0.108598985
0.41878447 -0.045803364 -0.37665763 0.10637422 0.09879415 -0.31987694 0.5495698 -0.033201046
0.053604193 0.19983451 0.2122252 0.020889418 -0.39148605 -0.15860032 -0.4534015 -0.30172828
0.28986073 -0.37242472 0.27673686 -0.33271408 0.31453103 -0.23592769 0.1807551 -0.21443436
0.22346558 -0.20584388 0.07477227 -0.060983296 0.18284163 -0.011446367 -0.19743341 -0.37154323
-0.057034392 -0.33265865 0.39796597 -0.03826382 0.5664505 -0.111969806 -0.031157682 -0.116070025
0.12087603 -0.35432392 -0.2863688 -0.019929534 -0.12679425 0.03339997 -0.1952231 0.57810676
0.019427318 0.24727638 -0.61191005 -0.14326113 0.34898803 0.20044877 -0.14324082 0.1616933
0.27185726 0.06809282 0.09977703 0.26688087 0.09529756 -0.0910525 -0.002199122 -0.382193
-0.1719629 0.13924122 -0.23706093 -0.55248654 0.043536734 -0.16987628 -0.10976679 0.23859239
-0.46636087 0.089605175 0.22184657 0.15614711 -0.02096726 0.027800288 0.31783807 -0.2238488
-0.08772793 0.25123483 -0.18185349 0.4119897 0.06669473 0.022524087 -0.004741183 -0.22916159
-0.059516806 -0.43981922 0.21681444 -0.36171958 0.59189916 0.05132903 0.37844184 -0.38066894
0.20476769 0.087706886 0.68861187 -0.11380618 0.078883626 0.1353339 0.1747613 0.16444221
0.30278015 0.13123314 -0.2007998 -0.034903284 0.106997125 0.31486413 0.1408538 -0.14459066
0.092880264 -0.004397254 -0.016388427 -0.44102192 -0.26778927 -0.12559196 0.19791004 -0.168045
0.076368585 0.13904844 0.12819394 0.39430502 0.088761576 -0.36319214 -0.19582568 0.38980237
0.036230426 -0.30414906 0.1649959 0.12806652 -0.11196926 -0.2139095 0.45199907 0.17267695

hidden2.bias f4 [32]
00000000: e0e4 c13a 3c46 fe3c 4926 b8bd c039 c8bc
00000010: f580 2bbb a245 29bc 150b 3dbd d741 6e3d
00000020: b547 833c e6c8 6c3d 0732 03be dee1 013c
00000030: 8e16 9b3d 80ac b83d c033 8cbd d948 c5bc
00000040: 0842 cdbd 5184 dd3c a362 073d 82d3 b33d
00000050: aa03 1ebc c232 623c e708 b0bc 4652 693b
00000060: 754c 6ebd 1bcf 40bb 43ea aa3d 2aee 223e
00000070: 7dd5 c53d d405 d1ba 37c4 a9bd 0092 e73c
0.0014792942 0.03103935 -0.08991677 -0.0244416 -0.0026169394 -0.010331543 -0.046153147 0.05816826
0.016025404 0.05780878 -0.12812053 0.007927386 0.07572661 0.09017277 -0.06845808 -0.024082588
-0.1002236 0.027040632 0.03305305 0.08780576 -0.009644428 0.013806047 -0.02148862 0.0035602017
-0.058178384 -0.002942032 0.08345463 0.15911165 0.0965986 -0.0015947171 -0.08289378 0.02826786

linear_hidden_to_mean.weight f4 [2, 32]
00000000: 8a71 36be c8fd c4bd 6716 8fbe 47fd e43c
00000010: ca59 d53c a8c6 d03e 1a70 8ebe a159 db3e
00000020: 361f 883e 890b aebd cfb4 a9be 3900 e8bc
00000030: e2cd f2be 0fd8 aa3e 6360 f0be 3e92 12bd
00000040: 6f17 81be 2e67 703e 6d18 1cbf 8126 933c
00000050: aaa7 063f 19bb 03be 6b7e 2dbd 19a0 083e
00000060: d65b 21be d396 f73c 9209 92be 5ff5 12bf
00000070: b1e6 273e 633a 543d a1f8 9a3e ba9d 29bd
00000080: deb3 343e 72d4 1fbe 606e f2bd f74d e93d
00000090: c598 133d 82b4 5e3e 6a01 e2bd 7896 203e
000000a0: da68 59be e50d e7be 1c0a 34bd ea51 85be
000000b0: 9378 043f 037b 5b3e 574a 083e f17d 21be
000000c0: 1054 a53d e717 17be 77c7 683c 03b0 903e
000000d0: f37b bb3d 22d0 bdbd 256a 8d3c 72ef 47be
000000e0: 3b0e e0bc 448e c1bd 80c5 a9be 2f16 91be
000000f0: dac0 bebe 6736 993e 4b7a c73d f9ab 4e3d
-0.17816749 -0.096187174 -0.2794678 0.027952803 0.026043791 0.40776563 -0.27819902 0.4284182
0.26586312 -0.08498294 -0.33145759 -0.028320419 -0.474227 0.33367965 -0.46948537 -0.035784
-0.2521319 0.2347686 -0.6097477 0.017962696 0.52599585 -0.12864341 -0.04235689 0.13342322
-0.15757689 0.030223286 -0.28522927 -0.57405657 0.16396596 0.051813494 0.30267814 -0.041410185
0.17646739 -0.15608385 -0.118374586 0.11391824 0.036034364 0.21748546 -0.11035426 0.156824
-0.21231404 -0.45127788 -0.043954954 -0.26039058 0.5174648 0.21433644 0.13309608 -0.15770699
0.08072674 -0.14755212 0.014207712 0.28259286 0.09154501 -0.09268214 0.017262528 -0.19524935
-0.027350536 -0.09450963 -0.33158493 -0.28337237 -0.3725651 0.29924318 0.097401224 0.050456975

linear_hidden_to_mean.bias f4 [2]
00000000: 4395 103e d729 853d
0.14119439 0.06502121
