Challenge_3/checkpoints/reinforce_submission.pth (torch_old, 1086 bytes, 4 tensors)

model.0.weight f4 [8, 4]
1.4462725 0.2839276 0.42561632 0.29014665 0.81601083 -0.4837097 0.8553474 0.43897945
-0.59596306 0.54936004 0.99696845 0.56286 -0.32743597 -0.39615297 -0.097893596 0.41296387
0.12802806 -0.058372695 0.21145527 -0.87518317 0.37950742 1.3661722 0.17223883 -0.07518933
0.102133006 0.4909802 -0.23293957 0.9135125 -0.8824665 1.1796657 0.69177836 -0.17478397
00000000: 751f b93f f55e 913e 62ea d93e 1a8e 943e
00000010: 16e6 503f cca8 f7be 0cf8 5a3f eac1 e03e
00000020: 0991 18bf dca2 0c3f 5339 7f3f 9817 103f
00000030: b0a5 a7be 90d4 cabe 707c c8bd 0070 d33e
00000040: ca19 033e 3518 6fbd bb87 583e 010c 60bf
00000050: cc4e c23e bbde ae3f 605f 303e ddfc 99bd
00000060: 1c2b d13d c261 fb3e b687 6ebe f5db 693f
00000070: 53e9 61bf 49ff 963f 6318 313f 92fa 32be

model.0.bias f4 [8]
0.16659862 -0.16651829 0.16654241 0.019880839 0.18129304 0.16709605 0.16676238 0.16696623
00000000: d498 2a3e c583 2abe 188a 2a3e 24dd a23c
00000010: e2a4 393e 3a1b 2b3e c2c3 2a3e 32f9 2a3e

model.2.weight f4 [2, 8]
-0.46724904 0.3141622 0.03602223 -0.83787507 -0.32472986 0.071176864 -1.4215146 0.07754499
0.7783463 0.21512076 1.0375112 -0.5156332 0.185437 0.44247127 0.074108735 0.542835
00000000: 443b efbe ded9 a03e 0c8c 133d fb7e 56bf
00000010: fe42 a6be 2dc5 913d 31f4 b5bf e8cf 9e3d
00000020: b441 473f 9e48 5c3e 2bcd 843f 8a00 04bf
00000030: 32e3 3d3e 988b e23e 52c6 973d 3cf7 0a3f

model.2.bias f4 [2]
-0.16666982 0.16666982
00000000: 7eab 2abe 7eab 2a3e
