Challenge_1/Weights/model_dynamics_Qube-v0_mse_0.00019066.params (torch_old, 334228 bytes, 8 tensors)

model.0.weight f4 [200, 7]
000000 d9 08 7e 3f 52 f4 a3 3d d9 ea 44 bf 68 44 c3 be
       0.9923225 0.08005585 -0.7692085 -0.38138127
000010 a9 63 e1 3c b6 3c 25 3f 0c 4a 48 3f 7e 13 8b 3e
       0.027513342 0.6454576 0.78237987 0.2716331
000020 95 11 78 3f ee 38 b2 3e 7a 2e 43 3f 8b 34 4c 3f
       0.9690183 0.3480906 0.7624279 0.79767674
000030 69 18 0a 3c 46 88 ff be af 05 e4 be 76 8e da 3e
       0.008428671 -0.49908656 -0.44535586 0.42686814
000040 dd 73 88 3e 9f 8e 1c 3d 45 a2 0d bf 50 e4 9c 3d
       0.26650897 0.03822195 -0.5532573 0.07660735
000050 da 88 75 3e fd 7d 5d be 5f cc 52 3f 60 bb e6 3e
       0.23977986 -0.21630092 0.82343096 0.4506483
000060 5a 7b d6 be 02 76 d3 bc 98 e7 08 bf 71 74 b9 3e
       -0.41890985 -0.025813106 -0.53478384 0.3622165
000070 54 de 76 3e 9d 46 47 3e 63 8f 9b 3f 57 ed c9 3e
       0.24108249 0.1946053 1.2153133 0.39438888
000080 99 f9 96 3d bc a4 f7 be 15 81 03 3f 9c c1 72 bf
       0.07371826 -0.4836787 0.5136884 -0.94826674
000090 a0 55 8f 3e f3 a3 a7 bd 55 11 a0 3e a7 f6 12 3e
       0.27995014 -0.08185568 0.31263223 0.14351903
0000a0 95 7e 3a bf 6c 86 ca 3e 00 dc 10 be 10 26 26 3f
       -0.728494 0.3955568 -0.14146423 0.6490183
0000b0 f3 61 dd 3e d2 5e 0e 3f f4 e2 89 3f b5 fb b2 be
       0.43238792 0.55613434 1.0772386 -0.34957662
0000c0 d9 58 13 be e0 75 4a 3e 20 d1 b4 3e b8 ce 92 3e
       -0.14389361 0.19771528 0.353158 0.2867334
0000d0 b4 17 29 be 88 e0 64 be 73 40 78 be f8 be 56 bf
       -0.16512948 -0.22351277 -0.24243335 -0.83885145
0000e0 a8 6b 7c 3e b2 eb 99 be c6 a9 47 3f 0f f7 e5 bd
       0.24650443 -0.30062634 0.7799343 -0.11228763
0000f0 5e dc 79 3f c9 fa 08 be a4 d9 63 3f 4d c4 00 be
       0.9760188 -0.13376917 0.8900397 -0.12574883
000100 6b aa 8e be 48 ef 43 be 0b b3 b4 be 8d 46 6d be
       -0.27864394 -0.19134247 -0.3529285 -0.23171444
000110 46 23 c1 be eb 6e 2d 3f e5 ca 13 be 27 43 05 3c
       -0.37722224 0.6774737 -0.14432867 0.008133686
000120 a9 08 20 3e ae cb 85 be dd 2e 81 bf 2b dc 24 bf
       0.15628304 -0.26131958 -1.0092427 -0.6439845
000130 20 e2 82 3e 07 73 e7 be 0d 81 22 be c9 3e c5 3e
       0.25563145 -0.45204946 -0.15869541 0.38524464
000140 08 90 6a be 74 99 92 be 0e 91 67 3e 0c b8 7f 3e
       -0.22906506 -0.286327 0.22613928 0.24972552
000150 52 c6 1e bf 7d 38 77 3e c4 98 9f bf 4c 78 4c be
       -0.6202136 0.24142642 -1.2468495 -0.19967765
000160 44 77 2b 3f 17 f4 f2 3e 75 c5 41 be cf 09 b6 3e
       0.6697886 0.4745185 -0.1892298 0.35554358
000170 f9 5a 61 3e 01 74 24 bf 3b 84 2d bf dd 5b 86 3e
       0.2200736 -0.6423951 -0.6777989 0.2624196
000180 97 84 18 3c e8 53 dd 3e b6 24 b9 bd a2 b9 9d be
       0.009308956 0.43228078 -0.09040205 -0.3080569
000190 f4 2e 77 3f c7 80 8a bf 4d e5 69 3e 14 36 84 3e
       0.9655602 -1.082055 0.22841378 0.25822508
0001a0 a6 70 a0 3d 8b c7 06 3f f1 10 5e bd bc c0 8e 3d
       0.07833986 0.5264823 -0.054215375 0.06970355
0001b0 d1 ff ad 3b 12 7d ab 3e 7b 33 8a bf 1c a8 1e 3f
       0.0053100367 0.3349386 -1.079696 0.61975265
0001c0 06 7d 65 bf 46 9a fb 3e f1 74 05 bf 8c 99 9b 3d
       -0.89643896 0.4914114 -0.52131563 0.07597646
0001d0 13 b0 28 3f 09 6b c7 be 08 99 f3 bd 40 be b9 be
       0.6589367 -0.3894885 -0.11894423 -0.36277962
0001e0 e1 41 ac be 5e 26 cb 3e 5c fd 67 3e ea 68 73 3d
       -0.33644012 0.3967771 0.22655243 0.059426226
0001f0 b9 18 4e 3f c2 22 31 3f 10 6f 7f bc 2e ec 2d 3f
       0.80506474 0.6919366 -0.015590444 0.67938507
000200 d4 d8 57 3d 86 fd aa bb 8e 5b e8 be 26 38 0d bf
       0.052697018 -0.0052182106 -0.4538235 -0.551638
000210 2c cb 35 be d0 52 b8 3e b1 74 9a be 1f 68 21 bf
       -0.17753285 0.3600068 -0.30167153 -0.630495
000220 4c 19 48 3f ad a2 65 3f 52 31 bf 3e f3 ec 69 bf
       0.781636 0.8970135 0.37342316 -0.9137718
000230 ed 2c bd be e0 f6 83 be b4 a8 50 3f fe 58 56 be
       -0.36948338 -0.25774288 0.8150742 -0.20932385
000240 f0 12 87 3f d4 84 10 3f ee c4 b2 bd 7d 17 1f 3f
       1.0552654 0.5645268 -0.087289676 0.62145215
000250 7f 95 6d bf 7b da 5c 3e db c1 bb 3e 22 ad 01 bf
       -0.9280624 0.21567719 0.36671337 -0.50654805
000260 8b 8c 1a bf ad 34 87 3e 6a 87 04 3e 80 a7 3b 3f
       -0.603707 0.26407376 0.12942281 0.7330246
000270 aa 17 cf be e5 fc dc bd 4e dc ab 3e e3 25 dc bd
       -0.40447742 -0.10790423 0.33566517 -0.10749414
000280 36 8f 04 3f f9 75 b4 3e e5 6e 20 be e2 d8 cf bd
       0.5178102 0.35246256 -0.15667303 -0.10148789
000290 1b 63 57 3f 73 65 dc bd 66 d9 30 3f 2a 59 95 3e
       0.841356 -0.107615374 0.69081724 0.2916959
0002a0 1c 19 71 bf d6 90 46 bf 87 fa 40 bd dc 43 d5 3b
       -0.9417894 -0.7756475 -0.04711392 0.0065083336
0002b0 0a 4b c4 bd 81 84 1f bd 31 8e 50 bf 9f 48 5f 3f
       -0.09584625 -0.038944725 -0.81466967 0.87220186
0002c0 2a 90 6c be 64 04 b9 be 6b 89 32 3f 11 9d c5 be
       -0.23101869 -0.36136162 0.69740933 -0.38596395
0002d0 38 42 99 bd 6a 7c 26 3e 61 4a 22 be 76 69 9d 3e
       -0.07483333 0.16258398 -0.15848686 0.30744523
0002e0 9f 3e 29 bd e5 69 e8 bd b3 2f b5 be 3c bf 13 3e
       -0.041319486 -0.11348323 -0.35387954 0.14428419
0002f0 6b 18 63 bf 0c ff cf be 7f 0f 3a bf 15 cd 21 3e
       -0.88709134 -0.40624273 -0.72679895 0.15800889
000300 1c 09 e6 be d1 ab 4d 3f e5 38 6d 3e 54 8d 1f 3f
       -0.44928825 0.80340296 0.23166235 0.62325025
000310 c5 5d 4a be 42 7a 25 bf f4 34 e8 3e 68 62 87 3f
       -0.19762333 -0.64639676 0.453529 1.0576906
000320 1d f7 30 3f b1 12 c9 3e 8f 74 fd be 6c 18 a0 be
       0.69127065 0.39272073 -0.4950299 -0.31268632
000330 6b e8 09 3f 8e 2f ce bf 02 99 a3 3e 98 0a e6 3e
       0.53870267 -1.6108263 0.31952673 0.44929957
000340 b7 fc 94 bd fa 77 0f bf 0d 79 20 3f 1f 8e ca be
       -0.07274764 -0.56042445 0.6268471 -0.39561555
000350 7c 78 40 3e 29 9d 25 3f fa 57 04 bf 0d 3d 08 be
       0.18795961 0.6469293 -0.5169674 -0.13304539
000360 07 ef 48 bf dd e9 22 be 55 dd c8 bd 6c c6 b5 3e
       -0.78489727 -0.15909524 -0.09807841 0.35502946
000370 b6 fa 87 3e 96 f7 bd bd 5a 0f 68 bf 2e 08 32 bf
       0.26558465 -0.09275739 -0.90648425 -0.6954373
000380 88 d5 b8 3e 84 ff 0c 3e f6 3c a5 be 2c 09 dc 3e
       0.3610041 0.13769346 -0.32273072 0.42975748
000390 2a f7 e4 3d 34 60 2b 3f 65 fd 8a be f7 7f d2 be
       0.11179955 0.6694367 -0.2714645 -0.41113254
0003a0 ee 34 36 3f 60 e4 47 3f 41 30 ba bd 3f 69 90 3d
       0.71174514 0.7808285 -0.09091235 0.07051324
0003b0 27 13 5d 3e 67 ae 5b 3f d4 c1 18 be 47 e3 89 3d
       0.21589337 0.8581299 -0.1491769 0.06732803
0003c0 a2 af 15 3d 7d 41 5e be 42 2b 72 be 5e 3a 67 3e
       0.03654445 -0.2170467 -0.23649314 0.22580859
0003d0 a8 46 e4 3e c0 ff 46 3e 8c 41 0f bf 48 ab 32 3f
       0.44585156 0.19433498 -0.5595939 0.69792604
0003e0 e2 ac 7c bd 70 b9 9d 3e 43 d7 86 be d2 65 c4 be
       -0.06168831 0.3080554 -0.26336107 -0.38358933
0003f0 46 3d 00 bf 24 30 44 bf 81 42 c5 be ae 47 be bd
       -0.50093496 -0.76635957 -0.385273 -0.092910156

model.0.bias f4 [200]
000000 d9 36 2a be 02 af 85 bd 82 73 4b bb de 76 16 3c
       -0.16622485 -0.06527521 -0.003104419 0.009183614
000010 b3 c4 8f bd 44 78 eb 3c f5 9f 58 3d ab a6 a4 bd
       -0.07019939 0.02874387 0.052886922 -0.08039602
000020 3c c2 18 bd 15 95 59 3e 00 00 00 00 4b 36 d7 3d
       -0.03729461 0.21248277 0.0 0.105084024
000030 ba 43 b4 3c 1a 49 a9 bd 0c fe b7 bd 1c 10 82 bd
       0.02200495 -0.08265896 -0.089840025 -0.06350729
000040 70 48 53 bd 88 25 9a bb 59 9d ee 3c 46 3a d1 bd
       -0.051582754 -0.004704181 0.029127764 -0.10216193
000050 b6 89 39 bd 34 e7 65 bc 52 f6 f2 3c dd 83 4e be
       -0.045297347 -0.014032174 0.02965847 -0.2016749
000060 00 00 00 00 aa 71 13 be cb 60 5b bc ba 8e bd bd
       0.0 -0.14398828 -0.013389776 -0.092557386
000070 af c4 e1 3d 5f f7 38 bb 53 f3 98 3d 63 00 12 3d
       0.110238425 -0.0028223617 0.074682854 0.0356449
000080 00 d4 e5 bd 45 e6 cb bd 32 31 04 be bf 87 bb 3c
       -0.112220764 -0.0995603 -0.12909392 0.022891877
000090 00 00 00 00 08 f0 eb bd 61 ec 8d 3b 82 90 58 be
       0.0 -0.11520392 0.004331157 -0.21148875
0000a0 c4 45 80 bd 45 d6 23 bc de 2d 9f 3b 5c 85 63 bd
       -0.06263307 -0.009999816 0.0048577627 -0.055547103
0000b0 50 77 f5 3d f4 36 e5 3c 13 ec 90 bb f6 28 b1 bd
       0.11985648 0.027980305 -0.0044226735 -0.08650391
0000c0 3f f0 d5 bc 44 fb 22 3d 41 d7 c3 3d 1d ce 8c bd
       -0.026115535 0.039790407 0.09562541 -0.068752505
0000d0 a6 cd 06 be 23 21 d8 bd 56 5b 73 bd 2e d2 23 bc
       -0.13164386 -0.10553195 -0.059413277 -0.009998841
0000e0 2a ce cf 3c 75 87 8b bb 31 15 18 3b 32 a4 89 bd
       0.025366861 -0.004258091 0.002320599 -0.06720771
0000f0 d1 3e 5c bd 75 3b 05 3d 36 7c 53 3c 00 00 00 00
       -0.053770844 0.032527406 0.012908032 0.0
000100 00 00 00 00 37 17 e3 bd 1d d7 41 3c 07 a9 d5 bd
       0.0 -0.11088412 0.011831072 -0.1043263
000110 8c 34 2b 3c e5 d4 05 be dd f1 b3 bd 6b e7 ca bd
       0.01044954 -0.13069494 -0.08786366 -0.09907421
000120 7e 7d 99 3c f5 ca bc bc 6e 26 3b 3d 10 61 33 bd
       0.018736597 -0.023045996 0.045690946 -0.043793738
000130 00 00 00 00 ae 53 ae bd f3 52 c4 bc 42 cc 05 bd
       0.0 -0.085120544 -0.023965335 -0.0326655
000140 d9 bf 34 3d 3e e8 1d be ea 9d 64 bd 00 00 00 00
       0.044128273 -0.15420625 -0.05581466 0.0
000150 22 73 ee 3c 2d a2 e6 bc ab 68 cd bd e4 b8 fb 3d
       0.029107634 -0.028153503 -0.100297295 0.122911245
000160 d9 f3 99 bd 86 7f 0f be de f2 8d bd 1b d6 68 3d
       -0.075172134 -0.1401349 -0.06931089 0.056844812
000170 11 55 d8 bc d0 35 04 bd 18 aa 2d bc 6c ea 92 bb
       -0.02640775 -0.032277882 -0.010599636 -0.0044835117
000180 78 34 6f bd 94 87 a6 bd 5e 77 a9 bc bb 5b 1c 3e
       -0.058399647 -0.08131328 -0.020686802 0.15269367
000190 6d d9 4c 3d 87 4d 93 bd 76 65 bf bd 60 ea c8 bc
       0.05001204 -0.071925215 -0.09345524 -0.024525821
0001a0 00 00 00 00 26 a1 0c be 25 86 b0 bd 33 7d 00 be
       0.0 -0.13733348 -0.08619336 -0.1254776
0001b0 91 a7 fc 3a 55 64 b9 bd a2 35 2e bd 01 fc 3c 3e
       0.0019276013 -0.0905234 -0.042531617 0.18455507
0001c0 73 1a 8c bd 71 ef a2 bc c5 cc ac bd 0f 38 c3 bc
       -0.06840982 -0.019889565 -0.08437494 -0.023830442
0001d0 50 6d f4 3b fe 8b 40 3d 6a f1 19 bc 81 63 8f bc
       0.00745932 0.047008507 -0.0093959365 -0.017503502
0001e0 b8 a7 82 bc e2 48 12 3d 00 00 00 00 6b 22 c6 ba
       -0.015949115 0.035714038 0.0 -0.0015116459
0001f0 52 bc eb bd 6d ee a6 3b 00 00 00 00 13 89 8e b9
       -0.115105286 0.0050943405 0.0 -0.0002718648
000200 b3 a0 59 3d 73 24 c6 3c 62 8f 68 3c 8b 57 57 3d
       0.05313177 0.024187302 0.014194341 0.05257372
000210 44 e6 d6 bd 9d 5d ba bd 63 1d 28 3b 48 fc 0f bd
       -0.104931384 -0.090998866 0.0025652281 -0.035152704
000220 80 56 87 bd 65 f1 5e bc e7 47 93 bc ab 7a 48 bd
       -0.066082954 -0.013607358 -0.017978622 -0.04894511
000230 28 b0 d5 3d 11 17 78 3d 75 e2 53 bd e8 25 dd 3c
       0.1043399 0.060568873 -0.051729638 0.026995614
000240 26 e4 7d 3d 12 b7 f1 bd c2 d0 30 bd e0 5e 17 bd
       0.061985157 -0.11802496 -0.043167837 -0.036955714
000250 df fb 00 bb 7e 3e 49 bd c9 66 1c 3e ce 8a a2 bd
       -0.0019681377 -0.049131863 0.15273584 -0.07936631
000260 58 ae 7d bd ab 8f b0 3c 77 29 d9 bb 12 b9 07 3d
       -0.061933845 0.021552881 -0.0066272574 0.03313548
000270 d1 dd 91 bd 76 a5 e4 ba 54 d0 99 bd 92 36 ea 3a
       -0.07122386 -0.0017444331 -0.075104386 0.0017869046
000280 18 1e c7 bc 51 80 ce 3a 62 8f 9a bc 79 14 28 3d
       -0.024306342 0.0015754794 -0.018867198 0.04103515
000290 83 9b 8a 3d fb c3 f4 bd 56 30 7d bd 00 00 00 00
       0.06767943 -0.11951443 -0.061813675 0.0
0002a0 b0 d5 61 3d 60 df 05 bd 8f bd 77 bd 86 f3 e5 bc
       0.05513543 -0.03268373 -0.06048351 -0.028070223
0002b0 fa b1 49 3d 74 2e 36 bd 04 46 01 3d f8 21 16 3b
       0.049241997 -0.044477895 0.031560913 0.002290843
0002c0 6e 94 e6 bd 6a 56 49 3d 9e 1d 42 bd 00 00 00 00
       -0.112587795 0.049154676 -0.047391526 0.0
0002d0 2c f2 0f 3d 1c 0a 61 bd dd 5c cd 3c 63 a3 f9 bd
       0.035143062 -0.05494128 0.025068695 -0.12189367
0002e0 25 85 90 3c 69 2e 48 3e 32 73 64 bc 9f f5 06 bc
       0.017641613 0.19548954 -0.01394348 -0.008237272
0002f0 fb 44 c9 bd de 37 ee 3d a5 59 76 bd f0 e5 42 3d
       -0.0982761 0.116317496 -0.060144085 0.047582567
000300 35 cc 63 3d b4 d4 56 bd 05 b1 f1 3c b8 2e 6b bb
       0.05561467 -0.052448943 0.029503355 -0.0035886
000310 8c 25 a3 bd 2a 9e ee 3c 84 28 75 bc 7f 46 65 bd
       -0.07966146 0.029128153 -0.014963273 -0.055975433

model.2.weight f4 [200, 200]
000000 fe ab c9 bd 33 58 31 be 7d c6 dc bc 44 ad 02 be
       -0.09847258 -0.17318802 -0.026950115 -0.12761408
000010 df e0 8a bc 5a a1 9e 3d 31 6b 7b 3d 13 68 0f 3c
       -0.01695293 0.07745619 0.061381523 0.008752841
000020 74 e5 cb bb d8 a1 a3 3d 34 a5 99 bd 12 3f 60 3c
       -0.0062224213 0.079898536 -0.07502213 0.013686912
000030 a9 61 ce bd fe 00 c0 bd 9d a0 ae bd e4 44 cd 3c
       -0.10077221 -0.09375189 -0.08526728 0.025057264
000040 76 91 70 bb f1 4a d2 bc 79 8d 94 bd f4 ec 39 be
       -0.0036707795 -0.0256705 -0.07253546 -0.18156797
000050 e2 27 9b bd e5 96 1b bd 23 b2 dd 3d 18 b8 14 be
       -0.075759664 -0.0379857 0.108249925 -0.14523351
000060 b8 4c e9 bc 70 96 d2 3c 3e a7 0b bd 61 50 23 be
       -0.028478965 0.0257065 -0.03409504 -0.15948631
000070 12 ef 48 bc 72 2f 40 3c 1f 5b 36 be 31 11 b2 3d
       -0.01226403 0.011730062 -0.17808197 0.08694685
000080 7e 06 de 3d 7e fc 83 3d ca 86 91 3e 48 d1 24 3d
       0.10841082 0.064446434 0.28423148 0.04023865
000090 88 0f e3 bb 7c 2c 92 3c b7 e4 5c be a3 c3 ca bd
       -0.0069293417 0.017843477 -0.21571623 -0.09900596
0000a0 cf 86 62 3d 10 8d 1c 3e 52 f3 3b 3e 54 b0 35 bc
       0.055304345 0.15288186 0.18354538 -0.011089403
0000b0 87 f0 58 bd 5b d2 40 bd 51 ef 33 bd a7 1f ab 3d
       -0.05296376 -0.04707561 -0.0439294 0.083556466
0000c0 96 30 ad 3b ac 97 e0 3c c9 f6 28 be 5d 51 04 3e
       0.005285333 0.027416073 -0.16500391 0.12921663
0000d0 68 ae e4 39 b3 25 c4 3d 3d e8 9a bd 06 49 d6 3c
       0.00043617492 0.09577503 -0.07563827 0.026157867
0000e0 59 56 25 be 9a a1 67 3d 07 0f 23 be 0f 84 41 be
       -0.1614622 0.0565506 -0.15923701 -0.18898033
0000f0 32 ce 62 bc 40 08 9a bd 02 10 48 3e 1d c5 74 3d
       -0.013843106 -0.07521105 0.19537356 0.059758294
000100 b5 a7 e5 3b 98 09 2d be 3f e2 a7 be 8c 88 2d bd
       0.0070085176 -0.16898191 -0.327898 -0.04236655
000110 80 3c 08 3e 13 35 9d bd b0 34 3b 3d 27 0c c3 3d
       0.13304329 -0.07676139 0.045704544 0.09523802
000120 45 d8 56 3d 88 78 df 3c 4a 90 1e 3e 5a f6 d1 bd
       0.052452344 0.027279153 0.1548473 -0.10252066
000130 35 63 be bd 49 6f 08 be 19 43 da bd d1 c8 ca 3c
       -0.09296266 -0.13323702 -0.10657329 0.02475396
000140 e9 43 77 be 06 57 8f bc e6 41 b8 bd 57 bf 9a 3d
       -0.24147 -0.01749755 -0.08996944 0.075560264
000150 31 7f 84 bd ab bf f5 bc 1c 3b 49 3d 41 31 36 3e
       -0.06469572 -0.029998621 0.049128637 0.17792226
000160 58 b3 86 be 5a 30 99 3d f6 97 9c bd 4a aa 49 3e
       -0.26308703 0.074799255 -0.07646172 0.19693866
000170 de 10 06 3e 37 08 44 3d d1 ae 02 3c b5 d6 d7 3d
       0.13092372 0.047859397 0.00797625 0.10538999
000180 97 b5 d8 bc 44 8d 32 be 53 7b a7 bc 0b 5c 86 bd
       -0.026453776 -0.17436701 -0.020444548 -0.065605246
000190 a2 e7 67 3c ba f7 c3 ba ee 4b a8 bd 78 01 e6 3c
       0.014154347 -0.0014951148 -0.082176074 0.028076872
0001a0 44 3c 2e bd 89 85 da 3d 22 e3 8e bc cd 63 17 be
       -0.042537943 0.10670001 -0.01744229 -0.14784165
0001b0 d2 0c f9 3b 20 0c c0 bd cd 78 1a bc d0 b8 d4 bd
       0.0076004053 -0.09377313 -0.009428215 -0.10386813
0001c0 2e 3f 39 3d 94 2d b2 bd 12 19 ad bd 6a 2b 93 3d
       0.04522627 -0.087000996 -0.084520474 0.07186015
0001d0 61 3c 24 bd 82 99 5e 3b 30 74 b4 bd 03 aa b2 bc
       -0.040096644 0.003396601 -0.088112235 -0.021809584
0001e0 33 24 ca bd 75 fc 19 be 14 a7 12 bd 81 05 93 3d
       -0.09870186 -0.15037711 -0.03580387 0.07178784
0001f0 6f 71 a6 bd fe 02 52 3d fa 66 d4 bb 66 14 82 bd
       -0.081271045 0.051272385 -0.0064820023 -0.06351547
000200 1f 30 31 3e 49 a3 ee 3c 9d 04 78 3c 7b 9b 84 bd
       0.17303513 0.029130595 0.015137819 -0.06474968
000210 cc fe 3f 3d b3 70 4c bc 42 24 cc 3d e1 53 84 bd
       0.046873853 -0.012478041 0.09967853 -0.06461311
000220 1e 8e df 3c 01 c4 80 3d bb 8d db bb c3 35 eb 3d
       0.027289446 0.06287385 -0.006700245 0.114848636
000230 8b 1a ca 3d 03 01 86 3d aa a5 57 3e 1f 44 44 3e
       0.09868344 0.06543162 0.2105929 0.19166611
000240 a0 87 c3 bc 30 75 b7 bc 9a 6a ed 3b 30 05 06 3c
       -0.023868382 -0.022394747 0.007245374 0.008179948
000250 6b d7 d1 3d 3d 08 87 3d 43 19 64 3b eb bf 2a 3d
       0.10246166 0.06593368 0.0034805096 0.041686933
000260 55 47 7f bd 17 55 ae bd 8c 6b 09 3e 3b 02 02 bb
       -0.062323887 -0.08512323 0.13419932 -0.0019837755
000270 ce eb d0 3d 0f 90 00 be bb df 17 3c 47 4f c6 bc
       0.10201226 -0.12554954 0.00926965 -0.024207724
000280 81 14 25 3d 4d 4d dc 3c 3d d9 9b 3c 10 14 6c 3c
       0.040302757 0.026892329 0.019024486 0.01440908
000290 ea 7e 7b 3d ba a8 37 bd fb 57 64 3b 74 78 9b bd
       0.06140033 -0.044838645 0.003484248 -0.07591334
0002a0 d6 c0 11 be f2 08 d8 3d 86 20 10 3e d6 88 e6 bd
       -0.14233717 0.10548581 0.14074907 -0.11256568
0002b0 cf e3 89 be 87 b7 18 be 1f 4b 5e 3d ab 74 ae bc
       -0.26931617 -0.1491376 0.05427086 -0.021295866
0002c0 98 27 e9 bd 86 3e 1c 3d 63 85 0f bd 23 68 98 3d
       -0.11384505 0.038145564 -0.035039317 0.074417375
0002d0 e8 5f 3c 3d c9 21 7a 3d 03 0a 0b be 91 b5 0c 3d
       0.0459899 0.061067376 -0.13578038 0.034352843
0002e0 e6 25 c8 bd 19 f8 9b 3c 39 ec 03 3c 3e 03 f8 bc
       -0.097728536 0.0190392 0.008051925 -0.030274983
0002f0 b3 f9 0d be 73 6a 8a 3d 9f 5a 81 be d6 e5 63 bd
       -0.13864784 0.06758585 -0.2526445 -0.05563911
000300 9a c9 2d bd 64 75 66 3c ff 08 6a bd 80 a8 cb 3c
       -0.04242859 0.014066074 -0.057137486 0.02486062
000310 37 89 9a 3d db 2e a6 3c 70 db 0a 3e 60 7b b5 3c
       0.07545703 0.020286014 0.13560271 0.022153556
000320 05 c4 6e 3d 5d 71 23 3e 9b 67 0d 3e a5 92 6e 3d
       0.058292408 0.15961213 0.13809054 0.05824532
000330 2e 8d a4 3c ab 66 a5 3d b0 2e 49 bd 24 e6 17 3d
       0.020086851 0.08076223 -0.04911679 0.037084714
000340 26 87 35 3d 6e e6 06 be 2a 9b d0 3c 9b 05 de 3d
       0.04431834 -0.1317384 0.025464613 0.10840913
000350 a6 f1 20 be 97 61 11 bc 1a 03 f5 bd 36 46 04 3d
       -0.15717182 -0.008873365 -0.11963482 0.03229352
000360 28 d3 24 bd 6b ee 62 be 29 c7 fd 3d f5 59 aa 3d
       -0.040240437 -0.22161262 0.123915024 0.08317939
000370 2a 94 58 bd b5 14 3b bc 31 f2 c6 bd b4 fb 05 bd
       -0.052875675 -0.011418511 -0.09714163 -0.032710746
000380 fd 94 df bd 92 25 25 bd bc 15 1c 3e aa 8f 10 be
       -0.10917089 -0.040319033 0.15242666 -0.14117303
000390 eb e1 f5 bd 58 0b a1 3b 3e 5c cf 3c 39 0e 13 bd
       -0.12005981 0.0049146824 0.02531254 -0.035902236
0003a0 27 87 36 be 86 ec 56 be 31 de b0 3d 5f 3a 4a 3d
       -0.17824994 -0.20988664 0.0863613 0.049372073
0003b0 1a 69 41 3d 10 83 c7 3d c0 fa 8d be 18 03 74 bd
       0.047219373 0.09741795 -0.2773037 -0.059573263
0003c0 e2 d2 af bd 45 c2 d8 3c 32 7d d5 3d ea 5f 08 3d
       -0.085851446 0.026459822 0.1042427 0.033294596
0003d0 c2 fc 6b be 41 06 09 3c 33 58 82 bd da c0 d2 bd
       -0.23045638 0.008363307 -0.06364479 -0.1029069
0003e0 89 2d bc bd ca 80 f5 bb 1f cc 30 bc 94 5c 64 bc
       -0.09188373 -0.0074921595 -0.010790854 -0.013938088
0003f0 b6 c9 9e bd a1 aa c8 bb 72 54 3b 3e 64 6d 50 3c
       -0.07753317 -0.006123856 0.18293932 0.012721393

model.2.bias f4 [200]
000000 81 9a 99 bc 20 7a 22 bc 00 00 00 00 01 d7 23 bc
       -0.018750431 -0.009916812 0.0 -0.009999991
000010 3d e9 8e bc 3e 8f 17 bc 05 d7 23 bc 42 3e 84 bc
       -0.017445201 -0.00925046 -0.009999995 -0.016142968
000020 28 4f 90 bc 61 6a de bc d5 9f 09 bc 21 42 d8 3b
       -0.01761587 -0.027150335 -0.008399923 0.00659968
000030 ae 25 d0 bc fa 14 c6 bc 19 64 11 bd e2 25 9d bc
       -0.025408592 -0.024179924 -0.03549585 -0.019183103
000040 ca 32 88 bc a8 24 31 bb 80 fc 10 bb 9c ed 68 bc
       -0.01662578 -0.0027029905 -0.0022123158 -0.014216807
000050 03 ad 0d 3d e9 dd f3 bc 36 e1 8b bc 27 dd 9d bc
       0.034588825 -0.029768901 -0.017075162 -0.019270493
000060 5a 64 96 ba 00 00 00 00 1a ea 84 bc 3c 46 3c bc
       -0.0011473999 0.0 -0.01622491 -0.011491355
000070 4e 50 aa bc 40 fd c4 bc f8 d5 cf 3b 0a d7 23 bc
       -0.020790245 -0.02404654 0.0063426457 -0.01
000080 13 02 d3 bc 46 15 dd bc 8f 3f 99 bc ab 00 83 bc
       -0.025757825 -0.026987683 -0.018707065 -0.01599153
000090 d0 4f 5e bc 00 00 00 00 a0 8b de bc cf 29 ea bc
       -0.0135688335 0.0 -0.027166188 -0.028584389
0000a0 04 2d 92 bc 00 00 00 00 f8 4f e1 bc 98 f5 45 bd
       -0.01784373 0.0 -0.027503952 -0.04832992
0000b0 50 a6 79 3d 80 24 de bc 38 6b d5 bc 04 d7 23 bc
       0.060949624 -0.027117014 -0.026052102 -0.009999994
0000c0 ff 5d 18 3d 2c 8e 8f bd 3d 4f e0 bb 82 3f c1 bd
       0.037199017 -0.07009539 -0.0068453834 -0.09435941
0000d0 46 d0 22 3e d4 fc 65 bc cd 27 5e 3b 86 c8 ef bb
       0.15899763 -0.01403733 0.0033898235 -0.0073176054
0000e0 cf fe 70 bc 40 38 87 bc db 46 46 bc 00 00 00 00
       -0.014709189 -0.016506314 -0.012101854 0.0
0000f0 00 00 00 00 b0 ec 3e bc a5 24 e6 bc 1a 80 5d bc
       0.0 -0.01165311 -0.028093645 -0.013519311
000100 32 86 22 bb f6 d6 23 bc 0c bd 44 bc 2d 35 9a 3d
       -0.0024799225 -0.009999981 -0.012007963 0.07529674
000110 33 28 97 bc 77 4b bd bc 66 00 4f bc 00 00 00 00
       -0.018451786 -0.023107274 -0.012634372 0.0
000120 30 56 ce bc 7f af 46 bd 13 ca 0a bd 72 40 80 bd
       -0.025187582 -0.04850721 -0.03388412 -0.06262292
000130 03 61 3e bd dc 17 e4 bc 00 00 00 00 49 4e 05 bd
       -0.046479236 -0.027843408 0.0 -0.03254536
000140 c2 d8 b9 bc 2b 70 97 bc 80 17 22 bc 55 46 b9 bc
       -0.022686366 -0.018486103 -0.009893298 -0.022616545
000150 68 05 ce bc 9e 23 e5 bc 98 14 a8 bc dc 25 f2 bc
       -0.025149062 -0.027971085 -0.020517632 -0.029559068
000160 0a d7 23 bc ff c0 9a bc 50 9d aa bc 00 00 00 00
       -0.01 -0.018890856 -0.020826966 0.0
000170 ec 9c d7 bc 42 c5 6a bc 92 2a 37 bd eb 76 a8 bc
       -0.026319943 -0.0143292565 -0.044718333 -0.020564517
000180 a0 72 9e bc d3 d7 97 bc 51 8a a6 bc 48 6a 4f bc
       -0.019341767 -0.01853553 -0.020329626 -0.012659617
000190 07 7a ca bc 81 43 a4 bc 1c 30 c2 bb de 1a a4 bc
       -0.02471639 -0.02005172 -0.0059261452 -0.020032343
0001a0 82 2c 6e bc fd f5 e0 bc bb 69 0d bd 4a ae b8 3a
       -0.014536979 -0.027461046 -0.03452466 0.0014090028
0001b0 09 d7 23 bc cc 70 90 bc 2b bf 75 bc b7 d3 23 bc
       -0.009999999 -0.01763191 -0.014999191 -0.009999207
0001c0 17 d1 a3 bb dc 35 ab bc 00 00 00 00 12 f8 b1 bc
       -0.0049992907 -0.020899706 0.0 -0.021724734
0001d0 e4 ed b6 bc 00 7b 2e bd 50 b0 62 bc 07 d7 23 bc
       -0.022330232 -0.04259777 -0.0138359815 -0.009999997
0001e0 54 d5 a2 3c 00 00 00 00 ea e7 fc bc ed 98 18 bc
       0.019877113 0.0 -0.030872304 -0.009313804
0001f0 2f f7 86 3d 7b 2f 21 bc 98 6d 88 bc 6f df c0 bc
       0.06590115 -0.00983798 -0.01665382 -0.023544041
000200 43 2f f2 bb ff 2f a8 bb b7 95 6a bc fb 28 af bb
       -0.007390888 -0.0051326747 -0.014317921 -0.0053454614
000210 6e 1a 2e 3a fe 99 88 bd 3d 10 3a bd 0c ef 2e bc
       0.00066415116 -0.06669997 -0.045425642 -0.01067711
000220 1e ae 69 bc c4 6d 13 bc 65 2a c2 bc 0e 2a 7d bc
       -0.014262704 -0.008998338 -0.023701856 -0.015451921
000230 00 d0 a3 bb db b3 66 bc 88 b4 98 bc b3 98 6f bc
       -0.0049991608 -0.014080967 -0.018640772 -0.014623809
000240 93 33 d0 bc 72 23 2b bd 2a c3 a3 bb 9e 19 40 bc
       -0.025415218 -0.04178185 -0.0049976306 -0.011724858
000250 db 8a 94 bc b6 07 6a 3d 6a 76 5e 3b 2b a3 4d bc
       -0.018132618 0.05713626 0.0033945092 -0.012551109
000260 3b aa f5 bc 35 61 ba bc 56 e7 90 bc ac f9 15 bd
       -0.029988399 -0.02275143 -0.017688435 -0.03661506
000270 5a 3c ef bc 65 89 9c bc 67 ed bb bc 00 00 00 00
       -0.029203583 -0.019108484 -0.02294035 0.0
000280 c0 55 ec b7 08 d7 23 bc 54 46 15 bd d9 d1 51 bc
       -2.8173323e-05 -0.009999998 -0.036444023 -0.012806379
000290 be ae d3 bc c2 5d c8 bc c8 b1 bd bc 23 40 93 3c
       -0.02584016 -0.02445877 -0.023156062 0.017974919
0002a0 3a a9 d6 bc be 06 b4 bc b7 f2 11 bc 91 7c bf bb
       -0.02620374 -0.021975871 -0.008907965 -0.005843707
0002b0 89 37 ab bc e4 e2 01 bd d2 f5 8d bc 3e a0 70 bc
       -0.020900505 -0.03171052 -0.01732913 -0.014686642
0002c0 c2 5e 25 ba da 62 3f bc 22 2f af bc 7f aa 7f 3c
       -0.00063083705 -0.011681283 -0.02138478 0.015604614
0002d0 c4 b9 f6 bc d7 72 9f ba f7 7a 88 bc 09 d7 23 bc
       -0.030117877 -0.0012164962 -0.016660197 -0.009999999
0002e0 7e e6 bf bc 08 d7 23 bc 98 bc 1c bc 9c 2d a0 bc
       -0.023425337 -0.009999998 -0.009566449 -0.019552998
0002f0 9a b9 a3 bb 8b 43 90 bc 1c f9 7f 3a 86 11 76 bc
       -0.0049964907 -0.017610332 0.0009764598 -0.015018826
000300 a0 72 21 bc 37 d6 23 bc dc f2 c3 bc 00 00 00 00
       -0.009853989 -0.009999803 -0.023919515 0.0
000310 85 e4 87 bc 00 00 00 00 d2 60 33 bc 00 00 00 00
       -0.016588459 0.0 -0.010948377 0.0

model.5.weight f4 [200, 200]
000000 8c 7e b9 bd 14 fd de 3d 1b 61 63 3b ed 1e 8c bd
       -0.0905734 0.108881146 0.003469533 -0.06841836
000010 a6 33 b3 bd 7e ed c9 3c 74 ec c7 bd b3 77 ec 3d
       -0.087500855 0.024649378 -0.09761897 0.11546268
000020 f1 38 2d 3e 18 a4 16 3e 76 a4 5a 3d 72 d3 19 be
       0.16916253 0.14711034 0.0533795 -0.15022066
000030 f3 1c 73 bd 88 91 77 3d 72 e2 e9 3d 50 f0 35 3e
       -0.05935378 0.060441524 0.11420144 0.17767453
000040 07 e8 8a bb a3 b7 6f bc 3b 8c 46 bd 87 87 d6 3d
       -0.0042390856 -0.014631185 -0.048473578 0.104750685
000050 d4 58 bb bc e5 54 85 3d e8 0a 88 bb 68 d5 f8 b8
       -0.022869505 0.06510333 -0.0041516908 -0.000118653115
000060 1d df cf 3c 42 d6 e4 bd d5 94 86 3d 7c ae fc 3d
       0.025374943 -0.11173679 0.06571356 0.12337968
000070 04 02 50 3d 27 c0 0b 3e ac ef 24 bd cf 0c 21 3e
       0.050783172 0.13647519 -0.04026763 0.15727542
000080 f2 94 31 bd 2a 1b 37 be cb 9a 2b 3d b6 2b b5 3d
       -0.043354936 -0.17881456 0.04189567 0.08846228
000090 ea a3 05 bd 42 31 ea bc 94 5e 47 3d 40 ff d8 3d
       -0.032627024 -0.028587941 0.04867418 0.1059556
0000a0 1e f3 27 3d 61 74 36 3e 73 30 4c 3e 1f bd 18 3c
       0.04100334 0.17817833 0.19940357 0.009322434
0000b0 95 a6 9b bd 9e 79 1e 3e 8c eb b7 3d e9 4f 54 3e
       -0.076001324 0.15476081 0.08980474 0.20733608
0000c0 ab 94 99 bd 2b ec ef bd 24 ed 32 bd c5 a5 e4 bd
       -0.07499059 -0.11714967 -0.043683186 -0.111644305
0000d0 aa c7 c2 bd 95 58 dc 3c 4e 68 f9 3d 0f d6 ca bd
       -0.09510739 0.026897708 0.12178098 -0.0990411
0000e0 44 7b 29 be 93 b0 ad bc 8a b3 0a bd 15 a0 ce bc
       -0.16550928 -0.021202361 -0.033862628 -0.025222817
0000f0 8b b8 6c 3c e0 04 a3 bd 9d 4e 66 be 2a ae 9d 3d
       0.014448295 -0.07959914 -0.22490926 0.07699235
000100 06 1b e6 ba 1f 30 71 bd b4 b7 2c 3e 7d 45 88 3d
       -0.0017555661 -0.058883782 0.16866952 0.06653879
000110 27 65 9e bd a8 6a b5 bc a3 d4 6a 3d 75 6a dc bd
       -0.07734137 -0.022145584 0.057331692 -0.107624926
000120 ca 40 d5 3d 4a 84 54 bc 43 2e 9e 3d 9e a7 a9 3d
       0.10412748 -0.012970993 0.077236675 0.082839236
000130 fb 9f e6 bc a2 b6 04 3e f8 13 ab bd e7 b1 77 bd
       -0.028152457 0.12960294 -0.08353418 -0.060472395
000140 85 3a bc bc d4 22 4b 3d 60 a0 10 bd 49 6d 8b 3c
       -0.022977123 0.04959376 -0.035309196 0.017019885
000150 66 29 95 3c bf e4 5e bd 8f 8f 9a bd 15 21 a1 bd
       0.018208217 -0.054417368 -0.07546913 -0.07867638
000160 f5 f1 59 3e 96 26 0c 3e 22 6e 33 3e b0 b4 aa bd
       0.21283706 0.13686594 0.17522481 -0.08335245
000170 cf b6 0a 3e ed 44 4a be d0 91 00 be f6 13 fd bd
       0.13546298 -0.19752856 -0.12555623 -0.12357323
000180 d8 f3 0c bd 00 db b2 3d 2f ae bf 3d 3b 6c 19 3d
       -0.034412235 0.08733177 0.09359395 0.037456732
000190 24 e3 6e 3e bc ab 4d bd 52 26 8b 3d b8 c3 7e 3d
       0.23328835 -0.050212607 0.067944184 0.06219837
0001a0 52 65 04 3e f0 81 d3 3d 0d 24 da 3d a6 03 50 3e
       0.12929276 0.10327518 0.106514074 0.20313892
0001b0 a2 33 19 3e 32 a3 59 bd ec 0a e9 bc 5e c1 00 3e
       0.14961103 -0.05313415 -0.02844759 0.12573764
0001c0 67 db b6 bd 61 f6 b4 bd 16 78 2e bd 71 4b c4 3d
       -0.089285664 -0.088360555 -0.04259499 0.09584702
0001d0 c5 87 57 3d 78 26 eb bd d5 3e b6 3d 57 78 1e be
       0.052619714 -0.11481947 0.08898703 -0.15475594
0001e0 40 22 02 3b 4d d9 48 3d f4 80 82 bd e0 c9 f7 bd
       0.001985684 0.04903536 -0.06372252 -0.120990515
0001f0 98 cc d8 bc ff b0 71 bc c4 d3 c3 3c 6a f8 12 ba
       -0.026464745 -0.014751672 0.023904689 -0.00056064746
000200 82 e9 2e 3e 88 fe ae 3d 8b 37 50 be a8 7e 22 3d
       0.17081264 0.08544642 -0.20333688 0.03967157
000210 04 f0 57 3d 26 76 e9 bc 7e bf f0 bd 7c 54 dd bd
       0.05271913 -0.02849872 -0.11755274 -0.1080713
000220 6a 88 77 bd 89 0c 8a bd fb 42 ab b9 bd 14 7b bc
       -0.06043283 -0.06740672 -0.00032665566 -0.015324769
000230 99 39 85 3b 9c 8b bf 3d 28 da b5 bd 1e 55 1b bd
       0.004065704 0.093528 -0.08879501 -0.03792297
000240 52 f6 16 be 81 ce b8 bd 3b 75 23 3e d3 1e 0a 3e
       -0.14742401 -0.090237625 0.15962689 0.13488321
000250 29 01 6f bc 5c be 45 3d 9e 4d 26 3d 1a 23 81 bd
       -0.014587679 0.048277244 0.040601365 -0.06305523
000260 e0 29 90 bd f9 9e 0a 39 f3 c4 0f 3e 8d 5f 53 bc
       -0.07039237 0.00013219927 0.14039974 -0.012901199
000270 4f 3f 54 bd 8e ca f9 bd 31 08 11 3e f1 11 13 bc
       -0.05181819 -0.12196837 0.14163281 -0.0089764455
000280 ff cf 8c be 20 9a 74 3d 04 55 c6 3c 2b 84 f7 3d
       -0.27502438 0.059717298 0.02421046 0.12085756
000290 c0 25 01 be ee 32 1f bd c7 e0 6e 3d bc 13 18 3e
       -0.12612057 -0.03886693 0.058319833 0.14851278
0002a0 1d 2a 21 3e 4e 2f 02 be 75 6c 9d bd 7b ec 00 bd
       0.15738721 -0.12713358 -0.07686702 -0.031475525
0002b0 51 31 c4 bd 09 d5 09 3e 93 55 1e be f3 bd 87 bd
       -0.09579719 0.13460173 -0.15462331 -0.06628027
0002c0 e7 27 21 be 36 64 5a be 2d 4b 81 3d 02 99 0a 3e
       -0.15737878 -0.2132729 0.06313167 0.1353493
0002d0 50 54 03 3d 8a a2 b6 3d be e8 62 bd 73 27 a8 bd
       0.03206283 0.089177206 -0.05539774 -0.08210649
0002e0 66 eb ed 3c 8d 94 08 be 67 da 15 3c fc 53 77 bd
       0.02904291 -0.13337918 0.009146309 -0.060382828
0002f0 63 29 85 3d 99 47 9a 3d e6 4c d3 3d 83 f1 31 3d
       0.065020345 0.075331874 0.103174016 0.043443214
000300 bc e4 0b bd 02 4b ff 3d 2e 04 1e 3e 65 ae e8 3d
       -0.034153685 0.124654785 0.15431282 0.11361388
000310 45 80 cb bd 82 ed 9d bd ce 60 02 3d 4d 68 b8 3d
       -0.09936575 -0.07711317 0.0318306 0.09004269
000320 56 df 7b 3c 84 3e 9e bd 0d b1 09 bb 1d 2f 21 bd
       0.015373072 -0.07726768 -0.0021010072 -0.03935157
000330 57 f2 95 bc 6e 4a b5 bd 0a aa 10 3d e9 98 6c 3d
       -0.018304033 -0.08852087 0.035318412 0.057763014
000340 a6 8f 9d 3d d2 a9 1a 3d ea fc a7 bc 1a 30 84 3d
       0.076934144 0.03775961 -0.020506341 0.06454487
000350 0f bf f5 bd a1 e7 b9 3d ad 82 9e bd 23 7f d7 bd
       -0.11999332 0.09077383 -0.07739768 -0.10522296
000360 91 9e 1d be 41 7a 38 bd 44 f2 4b 3d df 2c e7 3c
       -0.1539252 -0.045038465 0.04979159 0.028219638
000370 49 02 d2 3d 2d 1a 6a ba 6e 23 07 3e 08 ef f7 bc
       0.10254342 -0.0008930292 0.13197109 -0.030265346
000380 49 25 34 3e cc d6 19 be 00 9e 8b bd c5 7a 83 bd
       0.17592348 -0.15023345 -0.068172455 -0.06419901
000390 83 db d6 bd de d8 c3 3c 6c d9 ae 3c c6 dc bb bd
       -0.10491087 0.023907121 0.02134391 -0.091729686
0003a0 3e 9a b0 bd ae 55 ed bd 5f 73 1b 3e 9a df af bd
       -0.08623169 -0.11588608 0.1518073 -0.085875705
0003b0 53 e8 4e bc 1a 4f 28 3d 8b 40 b7 bd 27 5e df 3d
       -0.012628633 0.041091062 -0.089478575 0.1090663
0003c0 26 9e ee bc 0a 52 de bd 16 85 50 be 50 96 36 3e
       -0.029128145 -0.108554915 -0.20363268 0.17830777
0003d0 bd 37 c4 3c 7a 29 ee bc 9a 33 00 bd 3a c3 dd bd
       0.02395236 -0.029072512 -0.03129921 -0.10828252
0003e0 70 65 b8 3d 24 81 a5 3b e7 cf 17 3d b4 e7 ac bd
       0.09003723 0.005050795 0.037063506 -0.08442631
0003f0 3d 52 69 be fb 77 e2 3c 7c 53 33 3e 18 0c 34 3d
       -0.22785278 0.027645102 0.17512316 0.043956846

model.5.bias f4 [200]
000000 e4 05 94 bc 88 72 d2 bc d2 96 18 bd 46 61 32 bd
       -0.018069215 -0.025689378 -0.03725321 -0.0435498
000010 66 ed 71 bd 55 15 b8 bd dc be 8e bb 8c 0e 9e bd
       -0.05906429 -0.08988444 -0.0043562483 -0.07717618
000020 c3 7b 2b bd 97 f2 9a bd 35 e7 87 bd d7 58 81 3c
       -0.041866075 -0.075658016 -0.06635896 0.015789432
000030 fd ba 28 bb bf c1 0c bd d8 f8 90 bd f4 b7 3e bd
       -0.002574622 -0.03436446 -0.07078713 -0.04656215
000040 eb a0 a0 bc ab 33 31 bd 16 a7 33 bd 2f 20 8b bd
       -0.019607982 -0.043262165 -0.043860517 -0.06793248
000050 fd f8 05 bd eb d0 9a bc 6f cd 4c bc db 80 52 bd
       -0.032708157 -0.018898448 -0.012500151 -0.051392417
000060 21 1e 0e bd c9 4a ac bc e6 5b 8d bc 62 5e b0 3c
       -0.034696702 -0.021031754 -0.017255735 0.02152938
000070 12 e8 c3 bd 00 e6 80 bd 8e 46 21 bd 48 12 9d bb
       -0.09565748 -0.06293869 -0.039373927 -0.004793439
000080 5b f0 62 bd b9 77 f1 bc 64 32 43 bd 58 61 c1 bd
       -0.055405002 -0.029476034 -0.047655478 -0.09442395
000090 31 59 9b bd 70 b3 9c bd 2d 29 5c bd be eb 31 bc
       -0.07585371 -0.076514125 -0.053750206 -0.010859428
0000a0 a7 74 21 3d 97 24 90 bd 2d 24 a1 3c df 7c 7a bc
       0.03941789 -0.07038229 0.01967057 -0.015288561
0000b0 fc 39 00 bd 2e 95 23 bd e5 62 90 bd 86 7c 24 bd
       -0.0313053 -0.03993719 -0.07050113 -0.040157817
0000c0 06 da 81 bd 77 11 7b 3c 0a cf 54 bd ed 8e f8 bc
       -0.06340413 0.015323988 -0.05195526 -0.03034159
0000d0 02 de 2d bd be 1a 25 bd 1b 9d 52 bd fb 40 5b bd
       -0.04244805 -0.040308706 -0.05141936 -0.053528767
0000e0 a8 53 92 bd e2 94 c3 bd 3d 6e ac bd b1 65 65 bd
       -0.071448624 -0.095498815 -0.08419464 -0.056005184
0000f0 e8 97 7b bd 41 b6 88 bd ad a7 b0 bd 80 c6 1d bd
       -0.061424166 -0.06675387 -0.086257316 -0.038519382
000100 f1 59 08 bd 55 58 1b 3d 1c 2e 80 bc 1c ae a7 bb
       -0.0332889 0.037926037 -0.015646987 -0.005117191
000110 73 69 2d 3d 35 0d 20 bd 61 e8 16 bd e3 12 a0 bd
       0.042336892 -0.039075095 -0.036842708 -0.07816102
000120 dd b7 5a bd 73 81 91 3d 4b 53 22 bd a1 ea b7 bd
       -0.053398002 0.071047686 -0.039630216 -0.08980299
000130 a4 f8 f4 bc 47 4a 6a bd 9e 83 7e bd b4 ab ae bc
       -0.029903717 -0.057199743 -0.06213724 -0.021322109
000140 7f ee 79 bd 58 61 85 bd 14 e2 22 bd 20 c5 07 bd
       -0.061018463 -0.065127075 -0.039766386 -0.033146977
000150 30 1e fb bc 45 96 9a bc e4 a8 a0 bd d1 b0 f9 bc
       -0.030654043 -0.018870482 -0.07844713 -0.03047982
000160 65 2c 4f bd e6 a9 45 bd 15 5f ba bd bb 5c a9 bd
       -0.050579447 -0.04825773 -0.09100167 -0.0826964
000170 df 4d 9e bd 39 af 6c bd 48 87 86 bc f1 1e 46 bd
       -0.077296965 -0.057784293 -0.016421929 -0.04836935
000180 55 35 aa bd f6 e1 89 bc 1a 9b 8b bd b8 7e 7b bd
       -0.083109535 -0.01683138 -0.06816693 -0.061400145
000190 31 5f 40 bd 35 be 9b bd 36 76 5d bd b3 b1 35 bd
       -0.04696578 -0.076046385 -0.054067813 -0.04435892
0001a0 07 a5 ab bd 80 25 14 bd af 27 5e bd 55 b7 85 bc
       -0.08381086 -0.036168575 -0.054237064 -0.016322771
0001b0 e0 0d 97 bd 7a 87 62 bb ef 2e 5a bd fb e8 06 ba
       -0.07375693 -0.0034565614 -0.053267416 -0.0005146411
0001c0 cc 2d 8b bd cf c3 68 bd c1 30 3b 3c 4b 7b 5a bd
       -0.067958444 -0.056827363 0.011425198 -0.053340238
0001d0 1f 01 32 bd 7c 43 57 bb b5 97 3c bd 8b 9a 07 bd
       -0.0434581 -0.003284662 -0.046043117 -0.033106368
0001e0 a5 0b 13 bd 0e f8 ee bc b3 50 53 3c f8 ad 39 bd
       -0.035899777 -0.029171016 0.012897658 -0.045331925
0001f0 f8 9a 3b bd cc d0 cd bc e1 24 82 bd 1a f8 78 bd
       -0.045802087 -0.025123976 -0.0635469 -0.060783483
000200 c8 0d a5 bc 9e b4 78 bd b0 a1 2f bd 80 da 98 bd
       -0.020148173 -0.060719125 -0.042878807 -0.074635506
000210 1a 95 2b bd 55 8b 31 bd 25 dd 81 bd 58 9a 38 bd
       -0.04189024 -0.043345768 -0.06341008 -0.04506907
000220 09 5d b5 bc 05 fe a0 bd ad 36 0e bd 1e 0a 40 bd
       -0.02213909 -0.078609504 -0.03472011 -0.04688465
000230 5c 61 ae bd 75 ac 51 bd 92 7b 4e bd da 35 0a bd
       -0.085146636 -0.05118986 -0.050410815 -0.033742763
000240 e2 78 14 3d b5 c1 16 bd af 94 61 bd 07 e4 84 bd
       0.036248095 -0.036805827 -0.055073436 -0.06488805
000250 3c 32 a7 bd 2d 6f e5 bb dc fc 3d bd 77 c2 31 bd
       -0.08163878 -0.0070017786 -0.046383724 -0.043398347
000260 b6 e4 87 bd 84 65 27 3d b2 0c d8 bc 8e 0b f6 bc
       -0.0663542 0.040868297 -0.026373241 -0.030034807
000270 2e ed ac bc e2 2f 68 bc aa 61 34 bd a3 2e 8a bc
       -0.02110919 -0.014171572 -0.044038452 -0.016867941
000280 66 a7 ca 3b f5 29 12 bd 10 0e 41 3d 6b 32 63 3c
       0.006184506 -0.035684545 0.04713255 0.013867001
000290 36 76 b6 bc 23 e7 65 bd 42 a9 c5 bc 7a 2e 7a bd
       -0.022273164 -0.056128632 -0.02412856 -0.06107948
0002a0 0d db 7b bd 81 bb 93 bd 4b ea 7e bd 12 99 b7 3c
       -0.0614882 -0.07213498 -0.062235158 0.022411857
0002b0 15 8c f2 bc 99 39 90 bc 04 9e 85 bd bf 13 3d bd
       -0.029607812 -0.01760559 -0.0652428 -0.04616141
0002c0 7f 4f db bc 6c 6c 5e bd 7d dc b1 bd 8a b5 05 bd
       -0.026771305 -0.054302618 -0.08684633 -0.032643832
0002d0 64 ff 9d bb 78 66 32 3c aa fb 46 bd 78 05 73 3a
       -0.0048217047 0.010888688 -0.04857985 0.0009270529
0002e0 d6 6e 80 bd 37 7e 1e bd 26 bc 64 bd ec a7 07 bd
       -0.0627114 -0.038694587 -0.055843495 -0.033119127
0002f0 bf 2a a3 bd 0d 80 ce bc fe 4c 7d bd 43 51 34 bc
       -0.079671375 -0.025207544 -0.061841004 -0.011005702
000300 86 7b 82 bd 58 1f 17 bc 9c b7 bd bc c3 60 8b bd
       -0.063712165 -0.0092237815 -0.02315884 -0.06805565
000310 58 20 89 bc 0a 5a 72 bd 09 b8 a2 3d 73 0f 3c bd
       -0.016739056 -0.0591679 0.07945258 -0.04591317

model.8.weight f4 [6, 200]
000000 85 b8 b4 be 86 0f 82 3d 29 9f 3c be 3c 6d b0 3d
       -0.35297027 0.06350617 -0.1842009 0.08614585
000010 17 54 d5 3d a1 16 0f be e4 67 25 bd e0 57 c9 3d
       0.104164295 -0.13973476 -0.04038228 0.09831214
000020 8d a9 d6 be 44 6a f9 3c 22 e9 a5 3c f8 3c d3 3e
       -0.41926232 0.03044618 0.020252768 0.41257453
000030 db 70 42 3f 96 82 1f 40 90 bb 4f 3e 45 bb cd 3f
       0.75953454 2.4923453 0.20286393 1.6072775
000040 51 f2 96 be fe f0 78 bd f0 d2 f8 3c cb cf e2 3d
       -0.29481748 -0.060776703 0.03037402 0.110747896
000050 68 1e 37 3f 9c 0f b9 bd f4 ba 4a be a8 55 32 3d
       0.7153077 -0.090361804 -0.1979788 0.04353872
000060 8b f6 c4 bd 09 f3 f5 3c b4 0d 83 3d f7 f2 c6 3e
       -0.09617337 0.030023115 0.06399098 0.38857242
000070 61 61 dd bc 7c 08 0f bc 30 e7 13 be fb e4 46 be
       -0.027023973 -0.00873005 -0.1444366 -0.19423287
000080 99 12 37 be 68 59 27 3f 8b 4c 31 3e 94 ca 5c 3e
       -0.17878188 0.653708 0.17314355 0.21561652
000090 6a b7 02 3f fa 47 ea bd e3 46 05 3e a6 fe 05 3f
       0.5106112 -0.1143951 0.13015322 0.5234169
0000a0 bb bf 89 3e 7f 2c 59 3e 5d 55 a6 be 16 2e 17 be
       0.2690409 0.2120838 -0.32487002 -0.14763674
0000b0 7a 12 20 be d7 3b 14 3e 3a f0 e4 bc 6c b5 0f 3d
       -0.15632048 0.14475952 -0.02794658 0.035085127
0000c0 ed b2 99 be 0b cf cd be 24 ae 9c 3d e1 b4 8f be
       -0.30019322 -0.40197024 0.07650402 -0.28067687
0000d0 c2 5c 32 3e 6c 9f fa bd 11 14 9e bb 6a b6 a6 bd
       0.17418197 -0.122374386 -0.0048241694 -0.081402615
0000e0 48 a3 ea 39 83 74 c1 3d 14 29 75 be 57 90 70 bd
       0.00044753612 0.09446051 -0.23941451 -0.058731403
0000f0 dd 31 9d bd 08 84 e9 ba 6d 10 2f be c0 17 b9 3d
       -0.07675526 -0.0017815838 -0.1709611 0.09037733
000100 52 6e 04 bc 26 a7 c4 3f 82 2b 1e 3f 5b f5 2c 3d
       -0.008082943 1.536351 0.6178514 0.042226177
000110 68 6c 7f 3f a3 15 6e 3d bd 3b 02 3e c5 cc e4 bd
       0.9977479 0.058126103 0.12718101 -0.11171869
000120 e9 23 74 bd 0c 2a 28 3d 26 b1 fa be 1e 66 50 3e
       -0.05960456 0.041055724 -0.4896328 0.20351455
000130 8d 2c a6 3f ce f1 f0 be 40 4f 43 be 1d 90 dc 3f
       1.2982346 -0.47059482 -0.190732 1.723148
000140 7b 3f 97 3e af b8 dc 3d b4 9e 94 3c 09 b3 47 3c
       0.2954062 0.10777413 0.018142082 0.012188681
000150 23 64 16 bc 6f f1 4c be 00 75 ee 3e a1 60 5a be
       -0.009179148 -0.20013975 0.4657364 -0.21325924
000160 72 90 41 bd de 97 98 3f 81 59 4b 3d f5 43 2c 3d
       -0.047256894 1.1921346 0.049645904 0.042056996
000170 69 2a 99 bd 59 7b 14 bd 20 df ab be f7 97 31 3f
       -0.07478792 -0.036250446 -0.33568668 0.69372505
000180 ee fb ca bc bb a3 ef be 78 40 9e be 0d 20 c3 3e
       -0.024778333 -0.46804604 -0.3090856 0.3811039
000190 db 43 64 3e 8c ed c0 3d d2 ec 62 3e 7b 5c 86 bd
       0.2229151 0.094203085 0.22160652 -0.06560608
0001a0 f7 3d 2e bd 86 55 fe bd 24 43 fe bd 19 ba 9c be
       -0.042539563 -0.12418656 -0.1241515 -0.3061073
0001b0 3a 85 eb 3d d3 49 0e 3e 20 cc 76 bc b5 90 44 3f
       0.1150002 0.13895349 -0.015063316 0.76783305
0001c0 38 39 63 3a e2 43 1b 3f a4 65 9d 3d c3 c0 86 be
       0.0008667889 0.60650456 0.07685402 -0.2631894
0001d0 ba 37 a7 3e 10 a0 23 40 9c f7 9a 3c 8b cd 1f bd
       0.32659703 2.5566444 0.018916897 -0.03901438
0001e0 02 77 3f 3e 9b 35 59 3d aa fc a3 3e d3 f9 9c be
       0.18697742 0.053029638 0.32028705 -0.3065935
0001f0 03 46 8e 3f 40 14 cb be 5a c6 2b 3c 94 21 c2 3e
       1.1115116 -0.39663887 0.010484302 0.37916243
000200 5f 58 94 3e 3f 6f 54 bd 9e 06 e6 3d d7 40 db 3b
       0.28973672 -0.051863905 0.11231731 0.006691079
000210 41 7f 44 be c2 b2 3a 3e d9 14 10 3d 36 31 aa 3c
       -0.19189169 0.18232253 0.035176132 0.020775419
000220 73 c4 b4 3c a5 10 bc bd 02 c5 5e be e3 85 88 be
       0.02206633 -0.09182862 -0.2175484 -0.26664647
000230 bf 62 86 3b 5e 50 40 3f 3a 07 f3 3f 9f c7 16 3f
       0.004101127 0.7512263 1.898658 0.5889835
000240 53 a2 1d 3e ce d5 86 3f fd 97 03 be 57 7c 5e 3d
       0.15393953 1.0533998 -0.12850948 0.0543178
000250 de fe 50 bd e1 90 16 3f 6b b4 b3 3e 99 bf 08 be
       -0.05102431 0.5881482 0.35098585 -0.13354339
000260 f7 85 4b 3e 6e d1 d4 3e 0d 62 30 3f ef 41 ad be
       0.19875322 0.41566032 0.68899614 -0.33839366
000270 1d 10 aa 3d 38 9f 4e bb 75 6f 14 bd 36 26 83 be
       0.083038546 -0.0031528007 -0.036239106 -0.2561509
000280 5f 37 ca 3b 0a c4 f8 be d2 11 cb be b3 bb 94 3f
       0.0061711515 -0.48587066 -0.39662033 1.1619781
000290 c3 ce 04 3f da 72 d2 3d 56 19 96 3f 80 d6 ed bd
       0.51877993 0.102758124 1.1726482 -0.11613178
0002a0 3d 66 6d 3c cd 2d a0 bd f0 2a 6a 3c b4 8a b6 be
       0.014489708 -0.07821236 0.014292464 -0.35652697
0002b0 3f b2 c0 be 22 04 8a 3f ce fd fa 3d 94 d2 9e be
       -0.3763599 1.0782511 0.12255441 -0.31020033
0002c0 33 69 af 3d 37 c6 73 be da 4d 90 3d b7 02 80 3e
       0.08564987 -0.23806082 0.07046099 0.2500207
0002d0 9b 67 45 3f 8d 1a 93 3e 8e 38 de bc e4 1e ee 3d
       0.77111214 0.28731194 -0.027126577 0.11626986
0002e0 f4 a9 04 3e 51 63 56 3e a7 d2 b2 3e 74 6e 57 bd
       0.12955457 0.20936324 0.3492634 -0.05259557
0002f0 02 29 e4 3d 93 dc bd bd d3 b4 a5 bd 19 74 e5 3d
       0.11140634 -0.09270587 -0.0809113 0.112037845
000300 d4 c9 35 3e 9e 4e 61 3e 3a b0 f9 3d c8 1b f8 bc
       0.17752773 0.22002646 0.12191816 -0.030286685
000310 12 6b 66 be 06 76 96 be 94 b2 71 3f a2 d1 d7 39
       -0.22501782 -0.2938692 0.94413114 0.00041164184
000320 33 34 4c 3f 05 71 df 3c aa 23 bb 3e 3a 08 c1 bd
       0.7976715 0.027275572 0.36550647 -0.09425397
000330 3c ce 92 bd b4 56 56 3e 25 b3 23 3e 0c 27 02 3e
       -0.07168242 0.20931512 0.15986307 0.12710208
000340 ac d7 2c bd ea d1 b3 3c 75 da e0 3e 9d 04 02 be
       -0.04219787 0.02195068 0.4391667 -0.12697072
000350 a3 8c 65 3d 4f cd 56 3e e6 37 db 3a 8c a6 42 bd
       0.056042325 0.20976757 0.0016725033 -0.047522113
000360 4d f0 1a 40 fd 6c be 3e 76 12 20 3e 6e 59 8e 3d
       2.4209168 0.37192526 0.15632042 0.06950651
000370 64 18 3a 3f 05 3d 04 40 11 c2 dd 3f 37 49 66 3d
       0.7269347 2.0662243 1.7324849 0.056222167
000380 bd 15 7a 3e 7b a9 8f bd 95 30 e6 bd 6c dd 6d 3f
       0.24422355 -0.07014748 -0.11239735 0.9291599
000390 16 da 1f 3e c4 32 ad 3d 52 42 5b 3b 60 df e3 3d
       0.15610537 0.084569484 0.0033456278 0.1112659
0003a0 dc 84 aa 3b 3c 66 f7 3d c4 ad ba bd 47 48 3c be
       0.0052038264 0.120800465 -0.091151744 -0.18386947
0003b0 86 c9 92 3c d6 b2 56 3e fa b4 18 3e 09 d9 8d 3e
       0.01791836 0.20966658 0.14912787 0.27704647
0003c0 3c 34 81 be 54 07 35 3e c3 3c cd be 4d 4e 3e be
       -0.25235164 0.17678577 -0.4008542 -0.18584557
0003d0 8a b7 2f bd ee 19 2e 3e d0 88 f1 3c 06 69 90 bb
       -0.042899646 0.17002079 0.029484183 -0.004407051
0003e0 df 28 f6 be 4a e5 ee 3e 1f e4 2c 3d 5d e6 a2 3e
       -0.48078057 0.4665931 0.04220974 0.31816378
0003f0 18 d4 83 3f 36 0d 0d 3f 92 c2 73 3e c6 ac c1 3d
       1.0299101 0.55098283 0.23804691 0.09456782

model.8.bias f4 [6]
000000 cc 53 ca 3e 26 3f be 3d b3 ae ab bc e6 56 42 3e
       0.39517057 0.09289388 -0.020957327 0.18978462
000010 f3 14 53 3c a9 d5 07 3c
       0.012883413 0.008290687
