Challenge_1/Weights/model_reward_Qube-v0_mse_0.00000354.params (torch_old, 330207 bytes, 7 tensors)

model.0.weight f4 [200, 7]
0	0xbecfcff9	-0.40588358
1	0x3f01e5db	0.50741357
2	0x3f77ce43	0.96799105
3	0xbf048829	-0.51770264
4	0xbe607f97	-0.21923672
5	0xbea21076	-0.31653184
6	0x3e8e330a	0.27773315
7	0xbe5c8659	-0.21535625
8	0x3eecfd1f	0.46286866
9	0xbf4e08b4	-0.8048203
10	0x3ec6507a	0.38733274
11	0xbf236584	-0.63826776
12	0x3f19a52e	0.6001767
13	0xbc6ba912	-0.014383571
14	0xbddfa81a	-0.10920735
15	0xbe2e920c	-0.170479
16	0x3f4fb908	0.8114171
17	0x3d3e22a2	0.046419747
18	0x3eb734b0	0.35782385
19	0x3eec1f2c	0.46117532
20	0x3d7e04bd	0.062016238
21	0x3f2a6a41	0.6656838
22	0x3ef04871	0.46930268
23	0x3e3a835b	0.1821417
24	0x3eb67e42	0.35643202
25	0x3ecf18fd	0.40448752
26	0x3e80e96e	0.25178093
27	0x3f8f65bd	1.1202923
28	0x3e048966	0.12943038
29	0xbf01af08	-0.506577
30	0x3edb53f8	0.428375
31	0xbe4274fc	-0.18989938
32	0x3f81d7a6	1.0143936
33	0xbeb46a57	-0.3523738
34	0xbe998a36	-0.2998826
35	0x3eb84b4b	0.35994944
36	0xbf093c76	-0.5360788
37	0xbe419287	-0.18903552
38	0xbc3c6f62	-0.011501165
39	0x3f9612d4	1.1724496
40	0xbe0220ff	-0.127079
41	0x3ee43811	0.44574025
42	0xbf17ea5a	-0.5934197
43	0xbd0d39e3	-0.034479033
44	0x3d76d70f	0.06026369
45	0x3de2fc14	0.11083236
46	0x3da41ce5	0.08013324
47	0x3edc70df	0.43054864
48	0x3eed4cf5	0.46347776
49	0xbdde054e	-0.108408555
50	0xbe92166b	-0.2853273
51	0xbf7c8e82	-0.9865495
52	0x3f28eb1d	0.65983754
53	0xbe0230f6	-0.1271399
54	0xbed0b5d6	-0.4076373
55	0xbeaea10c	-0.34107244
56	0x3f01cd0d	0.5070351
57	0x3e086ca0	0.13322687
58	0xbe7b1de5	-0.24523123
59	0x3ededaaf	0.43526217
60	0x3bdcb51f	0.0067354585
61	0xbea9c12d	-0.33155194
62	0xbe5a7279	-0.2133273
63	0xbecfe380	-0.40603256
64	0xbf1b9e8f	-0.60788816
65	0xbef1bf23	-0.47216138
66	0x3f3ae2e8	0.7300248
67	0x3f887fcd	1.0664002
68	0x3e9aa2a3	0.30202207
69	0xbedf6ea0	-0.43639088
70	0xbe345541	-0.17610647
71	0xbd967c2b	-0.07347902
72	0xbcc91898	-0.02454786
73	0x3ee81edc	0.45336044
74	0xbf8774a1	-1.0582467
75	0x3efb4e3a	0.4908312
76	0xba5db750	-0.00084577966
77	0x3d950ef4	0.07278243
78	0x3f0609ff	0.52359
79	0xbec9171c	-0.39275444
80	0x3ea3fde7	0.3202965
81	0xbf09da74	-0.5384896
82	0xbd4ae0f6	-0.049530946
83	0xbf62798a	-0.88466704
84	0xbed42204	-0.41432202
85	0x3ec383e7	0.3818657
86	0xbf4883d4	-0.78326154
87	0x3e811875	0.25213972
88	0xbea0be4a	-0.3139518
89	0xbdd400cb	-0.10351714
90	0xbd7e1b78	-0.062037915
91	0xbec0236e	-0.3752703
92	0xbf8ef8b5	-1.1169649
93	0xbef3f281	-0.47645953
94	0xbe0b20aa	-0.13586679
95	0xbf11f216	-0.5701002
96	0xbf2ce31d	-0.6753405
97	0x3df43e56	0.11925952
98	0xbf104b73	-0.56365126
99	0xbe92a27a	-0.28639585
100	0xbe9427f4	-0.28936732
101	0x3f9577fb	1.167724
102	0xbcffb2e5	-0.031213233
103	0xbf8ba571	-1.0909864
104	0xbd4e77f1	-0.050407354
105	0x3e6ae6dc	0.22939628
106	0x3d9b6024	0.07586697
107	0x3f5a5ca8	0.8529763
108	0xbee8ab14	-0.45443022
109	0xbf52b5e3	-0.8230879
110	0xbf465b11	-0.77482706
111	0xbe4d7dc3	-0.20067506
112	0xbe1cc7fc	-0.15310663
113	0x3ed6120e	0.4181065
114	0xbf817bff	-1.0115966
115	0xbeed3d5f	-0.46335885
116	0x3f8e0be1	1.1097375
117	0xbecab273	-0.3958927
118	0xbe465b47	-0.19370757
119	0x3f171db3	0.5902969
120	0x3f1c970b	0.61167973
121	0xbf315f21	-0.6928578
122	0x3dfd6fd5	0.12374846
123	0x3f81ea20	1.0149574
124	0xbeed7ccc	-0.46384275
125	0xbef98dc4	-0.4874097
126	0xbf768cb6	-0.9630846
127	0x3dffa964	0.124834806
128	0x3ce5fdce	0.028075125
129	0x3ea72c0e	0.326508
130	0xbda35c67	-0.07976609
131	0xbea66eb9	-0.3250635
132	0xbf4cde30	-0.8002653
133	0x3d77dbe7	0.06051245
134	0x3ea99b35	0.33126226
135	0xbf18bb2f	-0.5966062
136	0xbebeae78	-0.37242484
137	0xbe998495	-0.29983965
138	0x3fc603a9	1.5469867
139	0x3f383368	0.7195344
140	0xbf673961	-0.9032193
141	0xbe80ff5e	-0.2519483
142	0x3f8e7680	1.1129913
143	0xbe2ba36b	-0.16761558
144	0xbee09551	-0.4386392
145	0x3ebb3c50	0.36569452
146	0xbf8c8055	-1.0976664
147	0x3efa2b69	0.48861244
148	0xbef54550	-0.47904444
149	0x3ee384a8	0.44437146
150	0xbe83d658	-0.2574947
151	0xbd46df9c	-0.048553094
152	0x3e8d1ac3	0.2755948
153	0x3c82523b	0.015908351
154	0x3ecb5bf9	0.39718607
155	0xbf4b153c	-0.79329276
156	0x3f548e07	0.83029217
157	0xbe14ae4d	-0.14519615
158	0x3f48d2a9	0.7844644
159	0xbe2c8778	-0.16848552
160	0x3ece723a	0.40321523
161	0xbc71a8c9	-0.014749714
162	0x3f314079	0.69239
163	0x3f11851e	0.56843746
164	0x3e25f3b7	0.16206251
165	0x3e0858cb	0.13315122
166	0x3e8a14f8	0.26969123
167	0xbf5f6148	-0.87257814
168	0x3d5774a9	0.05260149
169	0xbf76d7e4	-0.9642317
170	0x3f1b1bd5	0.60589343
171	0xbea234de	-0.3168096
172	0x3f0c8cbf	0.5490226
173	0x3f603a03	0.8758852
174	0xbeca9da0	-0.39573383
175	0x3eb054a4	0.34439576
176	0xbcaa5477	-0.02079223
177	0xbdf1dd04	-0.118097335
178	0x3e577e3e	0.21044251
179	0x3e33c050	0.1755383
180	0x3c46098e	0.012087239
181	0xbf520108	-0.82032824
182	0x3dfb0b90	0.12258065
183	0x3e0510ec	0.12994736
184	0xbe64ab6f	-0.22331022
185	0xbe73a1a7	-0.23792134
186	0x3f1487d3	0.5801975
187	0x3f837cef	1.0272502
188	0xbde9662d	-0.113964416
189	0x3ee264d9	0.44217566
190	0x3f0e2e1e	0.5553912
191	0xbf4b9a52	-0.7953235
192	0x3edf1610	0.4357152
193	0xbd23d377	-0.03999659
194	0xbf78e580	-0.9722519
195	0x3e91bba3	0.28463468
196	0x3f0b0480	0.5430374
197	0xbed34818	-0.4126594
198	0x3f4476c9	0.7674375
199	0xbe1381d8	-0.14405
200	0x3ef8db3c	0.48604763
201	0x3b8e111f	0.004335537
202	0xbce15cc4	-0.027510054
203	0xbe291e2b	-0.16515414
204	0x3f2efb2e	0.6835202
205	0x3e33c779	0.17556562
206	0x3f1e194a	0.6175734
207	0xbccbf198	-0.024895474
208	0xbd66bfb2	-0.05633516
209	0x3e0a7f7b	0.13525192
210	0x3f892758	1.0715132
211	0xbf061af7	-0.52384895
212	0x3e37d8e3	0.1795383
213	0x3f14e750	0.58165455
214	0x3f3c0000	0.734375
215	0x3e8df0a5	0.2772266
216	0x3e9c2f5a	0.30504876
217	0xbf31ae58	-0.6940665
218	0x3ecbaaf3	0.3977886
219	0x3c0186bb	0.007905657
220	0xbde3ef6a	-0.11129649
221	0xbc67badf	-0.014143675
222	0x3f09c49d	0.53815633
223	0xbf1c34c9	-0.61018044
224	0xbe366bb8	-0.17814529
225	0xbe7e5de6	-0.24840507
226	0x3e63254b	0.22182195
227	0x3e4dc98f	0.2009642
228	0x3f7ca6f3	0.98692244
229	0x3c8b0cb8	0.016973838
230	0x3e9b8c5a	0.30380517
231	0x3d125e2c	0.03573434
232	0x3f153747	0.5828747
233	0xbd19da3b	-0.037561636
234	0xbf9f5943	-1.2449116
235	0x3e63cc7a	0.2224597
236	0x3e85f667	0.26164553
237	0xbeb443b8	-0.35207915
238	0xbf13b527	-0.5769829
239	0xbd825fdd	-0.06365941
240	0x3f7e6d15	0.99385196
241	0x3efc1b10	0.49239397
242	0xbf8812ef	-1.0630778
243	0x3ea2d05c	0.3179959
244	0x3dc1417a	0.09436317
245	0x3d063c02	0.03277207
246	0xbf036735	-0.51329356
247	0x3d2496e4	0.040182963
248	0x3f5b5481	0.8567582
249	0xbf3e53fb	-0.74346894
250	0x3f3866ca	0.72031844
251	0xbcd011bc	-0.025399081
252	0xbf9ce97a	-1.2258751
253	0xbf1f2aa0	-0.62174416
254	0x3de8a5e6	0.113597676
255	0x3f415cf7	0.7553248

model.0.bias f4 [200]
0	0x3c3f802c	0.011688273
1	0x3d9c9a3f	0.076466076
2	0xbd021700	-0.031760216
3	0xbe50795f	-0.203588
4	0xbd12cb73	-0.035838556
5	0xbdbe8861	-0.09303356
6	0xbdf67ee9	-0.12035925
7	0x3e3dad9a	0.18523255
8	0xbe1656cb	-0.14681546
9	0xbcee1296	-0.029061597
10	0x3da3cce9	0.07998068
11	0xba234963	-0.0006228892
12	0x3b0fad9d	0.002192355
13	0x00000000	0.0
14	0x3e3a04cf	0.18165897
15	0x3dc3e9bc	0.09566066
16	0xbcc04312	-0.023469482
17	0xbe1bd460	-0.15217733
18	0xbd92ac2a	-0.07161744
19	0xbdd16b98	-0.102256
20	0xbd65a890	-0.056068957
21	0xbcd56d52	-0.026053105
22	0xbc666db0	-0.0140642375
23	0xbd9c2137	-0.07623523
24	0x3d90885b	0.07057258
25	0xbd9556c2	-0.07291938
26	0xbd4ec5a2	-0.050481446
27	0xbc27cb72	-0.010241376
28	0x3c8cfb4a	0.017209668
29	0xbe2d3a2d	-0.16916724
30	0xbe04489f	-0.12918328
31	0x3d67b88e	0.05657249
32	0xbdbf57ee	-0.09342943
33	0x3dfc3323	0.12314441
34	0x3da8d512	0.08243765
35	0x3d3c0009	0.04589847
36	0xbcc93eba	-0.024566043
37	0x3cf4bec0	0.029876113
38	0x3d94cc55	0.07265536
39	0x3b4f7919	0.0031657873
40	0x00000000	0.0
41	0x399c6f22	0.0002983744
42	0xbe56c3eb	-0.20973174
43	0x3e8fa946	0.28058833
44	0x3dd82ad3	0.10555043
45	0x3d43a7b7	0.047767367
46	0x3dea6261	0.114445455
47	0xbe2aee0f	-0.16692375
48	0x3df5dc09	0.12004859
49	0x00000000	0.0
50	0x3c5da9de	0.013529269
51	0x3d8f5080	0.06997776
52	0xbdc0bc5f	-0.09410929
53	0xbe36db10	-0.17857003
54	0xbdc79f6c	-0.09747204
55	0xbc0adc3c	-0.0084753595
56	0x3dc29655	0.0950133
57	0x3d834067	0.06408768
58	0x39a780bc	0.00031948637
59	0x3d7d3626	0.061819218
60	0x3d32c9e5	0.043649573
61	0xbd2f0b29	-0.042735253
62	0xbd724d16	-0.059155546
63	0xbe326bc3	-0.1742392
64	0xbd8582a8	-0.06519061
65	0xbcbf7d2d	-0.023375118
66	0xbddbe308	-0.10736662
67	0xbde98961	-0.11403156
68	0x3e0921ec	0.13391846
69	0xbdf8db78	-0.12151235
70	0x00000000	0.0
71	0x3beeb3ef	0.0072846333
72	0xbdd7a1c2	-0.105289
73	0x3d5c4cd1	0.053784195
74	0x3dc37c47	0.095451884
75	0x3df8b669	0.12144167
76	0x3aa1e86b	0.0012352591
77	0x3e191ee7	0.14953195
78	0x00000000	0.0
79	0xbd731753	-0.059348416
80	0x3d5478c6	0.05187299
81	0x3d3c5bff	0.04598617
82	0x3c56b4ee	0.01310466
83	0x3c3f74b3	0.011685538
84	0x3ccfb44a	0.025354523
85	0xbdd1b1ba	-0.10238977
86	0xbb9d8ad6	-0.0048078103
87	0x3d8c9a4d	0.06865368
88	0x3d039767	0.03212681
89	0x3e09315f	0.1339774
90	0xbc982223	-0.018570965
91	0xbd470b8a	-0.04859499
92	0x00000000	0.0
93	0xbcc86c46	-0.024465691
94	0xbe12ef67	-0.14349137
95	0x3cdc789f	0.026912985
96	0x3d99d7e1	0.07511879
97	0x3cf37a23	0.029721325
98	0x3bbf4f84	0.0058383364
99	0xbbde937e	-0.006792485
100	0x3db783dc	0.08960697
101	0xbd94c97b	-0.07264992
102	0x3d2a7b00	0.04162121
103	0x00000000	0.0
104	0x3df42439	0.119209714
105	0x3d919e26	0.071102425
106	0xbd439f57	-0.04775938
107	0xbdc4b6c1	-0.0960517
108	0x3d85708c	0.06515607
109	0x3e38ce94	0.18047553
110	0x3decbdd6	0.11559646
111	0x3c17ade2	0.0092577655
112	0x3d80e2ea	0.062932804
113	0x3e01eaaf	0.12687181
114	0x00000000	0.0
115	0xbd7e5866	-0.062096022
116	0xbe205c83	-0.1566029
117	0xbd09ecea	-0.033673204
118	0xbd9ebd6a	-0.077509716
119	0x00000000	0.0
120	0x3d4039df	0.04693019
121	0x00000000	0.0
122	0x3d514470	0.051090658
123	0xbdc603cf	-0.09668695
124	0xbd2eb97c	-0.04265736
125	0xbd3baa06	-0.045816444
126	0xbdd7371a	-0.10508557
127	0xbdb7910a	-0.08963211
128	0xbdde5ef1	-0.108579524
129	0xbd107d46	-0.03527572
130	0xbd99efc5	-0.075164355
131	0x3c51d695	0.012807508
132	0xbdbe8d9c	-0.093043536
133	0xbd75ee2c	-0.06004159
134	0x3e6079b0	0.2192142
135	0xbd8046dc	-0.06263515
136	0x00000000	0.0
137	0xbc77dd34	-0.0151284225
138	0xbd0b1934	-0.033959582
139	0x3bc7ea8a	0.0061009573
140	0xbd83f9ec	-0.06444153
141	0xbda37864	-0.07981947
142	0x3d246444	0.040134683
143	0xbd46244f	-0.04837447
144	0xbb7a0e59	-0.0038155525
145	0x3e1bb806	0.15206918
146	0xba684ba8	-0.00088613713
147	0x3c159027	0.009128607
148	0x3c7e55c5	0.015523379
149	0x3db4206d	0.08795247
150	0xbd18b500	-0.03728199
151	0x3d213c11	0.039363924
152	0xbe53b383	-0.20673947
153	0x3bb75e37	0.005595948
154	0x3d045a53	0.032312702
155	0xbba792ea	-0.005113949
156	0x3c02663e	0.007958947
157	0x3e68e55e	0.22743747
158	0xbe85df5c	-0.26146972
159	0x3e1eff6e	0.15527126
160	0x00000000	0.0
161	0x3dc5dfb5	0.09661809
162	0x3bcf871c	0.006333245
163	0x3d3df5b6	0.046376906
164	0x3d256112	0.040375777
165	0x3e0bf888	0.13669026
166	0xbe4eb327	-0.20185529
167	0x3dcc3094	0.09970203
168	0x3db7496d	0.08949552
169	0x3dae1803	0.085006736
170	0xbe230e70	-0.15923476
171	0x3d41dbab	0.047328632
172	0xbda562dd	-0.08075497
173	0xbc994fe7	-0.018714858
174	0x3c449b02	0.011999847
175	0xbd99f569	-0.075175114
176	0x3d9e3c41	0.07726336
177	0xbd49aa11	-0.049234454
178	0xbd151227	-0.036394265
179	0x3cfcef23	0.030875748
180	0xbd636280	-0.05551386
181	0xbe0d0764	-0.1377235
182	0x3de4ff8f	0.111815564
183	0xbc2d1e26	-0.01056627
184	0x3d4cee73	0.05003209
185	0x00000000	0.0
186	0x3dc2a47a	0.09504028
187	0x00000000	0.0
188	0xbe3499ab	-0.17636745
189	0xbd69fefd	-0.05712794
190	0x3d3be207	0.045869853
191	0xbdbc6ac3	-0.09200051
192	0x3d836fe4	0.06417826
193	0x3d163e7e	0.03668069
194	0xbd65cfbe	-0.05610632
195	0x3db9596d	0.0905026
196	0x3e4c74e6	0.19966468
197	0xbe03afbf	-0.1286001
198	0xbe6b21eb	-0.22962157
199	0xbcff6584	-0.031176336

model.2.weight f4 [200, 200]
0	0x3d856eac	0.065152496
1	0x3d4e51af	0.05037087
2	0x3d8c2e07	0.068447165
3	0x3d1a2672	0.03763432
4	0x3cee155e	0.029062923
5	0xbdde46fc	-0.10853383
6	0x3d3aade4	0.04557599
7	0x3e916bb9	0.28402498
8	0xbd651bb8	-0.055934638
9	0xbdb0f94e	-0.08641301
10	0x3e56f75e	0.209928
11	0x3c9557d4	0.018230356
12	0x3e2266dc	0.1585955
13	0x3da19cc2	0.07891227
14	0x3e27ea7b	0.16398041
15	0x3cf05320	0.029336512
16	0x3e842e18	0.25816417
17	0xbd43d4f5	-0.047810514
18	0xbd928b98	-0.07155532
19	0x3cc3098b	0.023808261
20	0xbe3deffa	-0.18548575
21	0x3db32992	0.08748163
22	0x3d747791	0.05968434
23	0x3cfd4ebd	0.030921334
24	0x3c31e232	0.010857152
25	0x3c859925	0.016308377
26	0xbc0f1204	-0.008732323
27	0xbc108791	-0.008821384
28	0xbe15cff1	-0.14630105
29	0x3d0589ed	0.03260224
30	0xbc758315	-0.014984866
31	0xbc86af63	-0.016441053
32	0x3c391110	0.011295572
33	0xbea7fe65	-0.32811275
34	0xbe1f3517	-0.15547596
35	0x3d80843c	0.06275222
36	0xbc2be821	-0.010492356
37	0xbd0b3c85	-0.033993263
38	0xbd4eb453	-0.05046494
39	0x3d2e15ad	0.04250114
40	0x3de3bc13	0.11119857
41	0xbcf002a6	-0.029298138
42	0x3d82fade	0.06395505
43	0x3c525a3d	0.012838897
44	0x3dc54337	0.09631961
45	0x3e6b5fa0	0.22985697
46	0x3e683456	0.22676215
47	0x3d3df5a0	0.046376824
48	0x3e0a85dd	0.13527627
49	0xbd11711f	-0.03550827
50	0x3cb0ad51	0.021567019
51	0xbe13e495	-0.14442666
52	0x3df3566f	0.1188172
53	0x3dce17a0	0.100631
54	0x3dfba868	0.1228798
55	0x3e52ef69	0.2059914
56	0xbe5de9a3	-0.21671157
57	0xbe133626	-0.14376125
58	0xbe311e4a	-0.1729671
59	0x3e1a03a9	0.15040459
60	0x3e2bca0d	0.16776295
61	0x3dc3e407	0.09564977
62	0x3e86fdf2	0.2636562
63	0x3db2bc26	0.08727293
64	0x3dc00295	0.093754925
65	0xbc7eaf57	-0.015544734
66	0x3c3451a5	0.011005794
67	0x3d865b4b	0.065603815
68	0x3e1e90b0	0.15484881
69	0x3c049e24	0.008094344
70	0xbd24a2b8	-0.040194243
71	0xbc94ef83	-0.018180614
72	0xbc19a9bb	-0.009378846
73	0xbda9c661	-0.08289791
74	0xbe7493de	-0.23884532
75	0x3dbdfe43	0.09277012
76	0xbd00e4c4	-0.031468168
77	0xbe6acc6a	-0.2292954
78	0xbe2b5cf8	-0.16734684
79	0x3d91f29b	0.071263514
80	0x3d26e64d	0.040746976
81	0xbda1f41a	-0.07907887
82	0xbd354feb	-0.04426567
83	0xbd268304	-0.04065229
84	0xbd9e56e1	-0.077314146
85	0x3c431e93	0.011909145
86	0xbdf347ba	-0.11878915
87	0x3db1ed0f	0.086877935
88	0xbd88762e	-0.06663166
89	0x3da4c80b	0.08045968
90	0xbe10a7b8	-0.1412648
91	0xbd1fd420	-0.039020658
92	0x3d63d09f	0.05561888
93	0x3dc1cc80	0.094628334
94	0xbdb1d59d	-0.086833216
95	0xbd2c944e	-0.042133622
96	0x3e7aba5a	0.2448515
97	0x3e20da9b	0.15708391
98	0x3de8c591	0.11365808
99	0xbda80d38	-0.08205646
100	0xbc88c3ff	-0.01669502
101	0x3d5abbf6	0.05340191
102	0xbb20930b	-0.0024501707
103	0xbde005a7	-0.10938578
104	0x3e72e396	0.2371963
105	0x3b0596be	0.0020384039
106	0xbddab618	-0.10679263
107	0xbd820d17	-0.06350153
108	0x3eac0385	0.33596435
109	0xbcf73caa	-0.030180294
110	0x3df43b1b	0.11925336
111	0xbe81abab	-0.25326285
112	0xbcdec6fe	-0.027194496
113	0x3db596fc	0.088666886
114	0x3de890a2	0.113557115
115	0xbb0ba3fc	-0.002130746
116	0xbe04f747	-0.12984954
117	0xbd8a4ede	-0.06753324
118	0x3d513999	0.05108032
119	0xbd9cb122	-0.07650973
120	0xbd579056	-0.052627884
121	0xbcfc77ab	-0.03081878
122	0x3c9a6306	0.018846046
123	0x3e0e405f	0.13891743
124	0x3d84d7d8	0.064864814
125	0xbd3bf796	-0.045890413
126	0x37754eb6	1.4621464e-05
127	0x3cf2f800	0.029659271
128	0xbc727b9d	-0.0147999795
129	0x3d8057c0	0.06266737
130	0xbdde6520	-0.10859132
131	0x3d177004	0.03697206
132	0xbd442027	-0.047882225
133	0x3d324f7a	0.043532826
134	0x3e94ec32	0.29086453
135	0x3e44e062	0.1922622
136	0x3d1725cf	0.03690129
137	0xbd2d865a	-0.042364456
138	0xbe25c0be	-0.16186807
139	0xbc2ad0f9	-0.0104257995
140	0xbdc3da9e	-0.09563182
141	0x3cc97887	0.024593605
142	0x3e316cb8	0.17326629
143	0xbe07d5d9	-0.1326517
144	0xbd9ad3d1	-0.07559932
145	0xbd51bd9b	-0.051206212
146	0x3d3ff543	0.04686476
147	0xbd79f530	-0.061024845
148	0x3e18db73	0.14927463
149	0x3db42b75	0.08797351
150	0x3e22cd0c	0.15898532
151	0x3df3cd06	0.119043395
152	0x3d408740	0.047003984
153	0xbca94fb2	-0.020667884
154	0x3e515c12	0.20445278
155	0xbd8fe358	-0.07025784
156	0x3db18837	0.08668559
157	0x3de34b33	0.110983275
158	0x3c13c9f4	0.009020317
159	0x3e7f8349	0.24952425
160	0x3e0bae3a	0.13640681
161	0x3ce99153	0.028511679
162	0x3e79953f	0.24373339
163	0x3d8983e1	0.06714607
164	0x3dc9eebb	0.09859987
165	0xbe3bfc8e	-0.1835806
166	0xbdcc2a2e	-0.09968983
167	0x3e2d8099	0.16943587
168	0x3d0c517e	0.034257405
169	0x3e303919	0.17209281
170	0xbdf1032e	-0.117681846
171	0x3cdbd8d7	0.026836796
172	0xbd49189c	-0.049095735
173	0xbdfd0640	-0.12354708
174	0xbc01ad1f	-0.00791481
175	0xbc39ea3f	-0.0113473525
176	0x3d246559	0.040135715
177	0x3c165e12	0.009177702
178	0x3e1a544c	0.15071219
179	0xbe0cf2a3	-0.13764434
180	0x3e99a7d5	0.30010858
181	0xbdbfc4e1	-0.093637235
182	0x3c1e2d37	0.009654335
183	0x3e116b9f	0.1420121
184	0xbd7debce	-0.06199246
185	0x3d41344a	0.047169007
186	0x3d998604	0.074962646
187	0x3e1b7613	0.1518176
188	0xbcbbd32f	-0.022927849
189	0xbbd64e9a	-0.0065401318
190	0x3dd54fe0	0.104156256
191	0xbda3fbcb	-0.0800701
192	0xbcb0da5e	-0.0215885
193	0x3e8d85de	0.27641195
194	0xbd9651ca	-0.07339819
195	0x3d1fa1e1	0.03897274
196	0x3e166a66	0.14689025
197	0xbe4bad4d	-0.19890328
198	0xbd9d8e32	-0.07693137
199	0x3d6fa1ad	0.058503795
200	0x3e488f1a	0.19585839
201	0xbd47a628	-0.048742443
202	0xbe312ba8	-0.1730181
203	0xbcdfadfa	-0.027304638
204	0xbd33167c	-0.043722615
205	0xbe0a82c7	-0.1352645
206	0xbccef241	-0.025262
207	0x3c648b25	0.01394919
208	0x3e4890b6	0.19586453
209	0x3d9c77c2	0.076400295
210	0xbde60873	-0.1123208
211	0x3d97a76b	0.07404979
212	0xbdb54925	-0.08851842
213	0x3d02b60e	0.031911902
214	0x3d8a5c2a	0.0675586
215	0x3dfd10fb	0.123567544
216	0x3da14cd4	0.07875982
217	0xbde1a3e4	-0.11017588
218	0xbbd7d400	-0.0065865517
219	0x3d8a0cac	0.06740698
220	0xbda4a568	-0.08039361
221	0x3e473a67	0.19455872
222	0x3dc34471	0.095345385
223	0x3d02eec1	0.031965975
224	0xbe0038a3	-0.12521605
225	0x3d8b4a6c	0.06801304
226	0x3d3da52b	0.046300095
227	0x3cceb3c3	0.025232201
228	0x3d66a9ee	0.0563144
229	0x3c6bbdbc	0.014388498
230	0x3cc1e98f	0.02367094
231	0x3e437d57	0.19090782
232	0xbe1e0bd1	-0.15434195
233	0xbd56f07a	-0.05247543
234	0xbe06e5c9	-0.13173594
235	0x3dedf96c	0.11619839
236	0xbd6be29b	-0.057589155
237	0x3d911e5a	0.07085867
238	0x3b80a428	0.003925819
239	0xbe142b4d	-0.14469643
240	0x3ca7ac54	0.020467915
241	0xbd697a85	-0.05700161
242	0xbd95b609	-0.07310111
243	0xbdc8234d	-0.09772358
244	0x3dc5ec8a	0.09664257
245	0xbe3f88e9	-0.18704571
246	0x3c03e0ad	0.008049172
247	0xbd32853e	-0.0435841
248	0xbdb0a0dd	-0.08624432
249	0xbe445bed	-0.19175692
250	0xbc7217e7	-0.014776207
251	0xbe0cd905	-0.13754661
252	0x3da38ff5	0.07986442
253	0x3b791f29	0.0038012958
254	0xbe5fe076	-0.21862969
255	0x3df310d0	0.11868441

model.2.bias f4 [200]
0	0x3d666524	0.0562488
1	0xbc2e7f73	-0.010650503
2	0x3b33d911	0.0027442614
3	0x3b49decc	0.0030802963
4	0xbd56cea5	-0.052443165
5	0xbc23d6f2	-0.009999977
6	0xbd8b3923	-0.06798007
7	0xbc23864c	-0.009980749
8	0xbca8d29d	-0.02060824
9	0x00000000	0.0
10	0x3c2dcafe	0.010607479
11	0x3df1f14f	0.11813604
12	0xbd51afff	-0.051193234
13	0x3e1836ab	0.14864604
14	0xbde29cc2	-0.110650554
15	0x3c9177d2	0.01775733
16	0x3db40d6d	0.08791623
17	0xbc6d5877	-0.014486424
18	0xba2def95	-0.0006635127
19	0xbda2c66b	-0.079480015
20	0x3dfb50a0	0.122712374
21	0x00000000	0.0
22	0xbc7b3551	-0.015332536
23	0xbc23d3a7	-0.009999192
24	0xbcc898e5	-0.024486968
25	0xbc268e2a	-0.0101657305
26	0xbc19a826	-0.009378469
27	0xbaf21883	-0.001847044
28	0x00000000	0.0
29	0xbcbfa661	-0.023394765
30	0xbc85550a	-0.016275901
31	0x3b4aa3ac	0.003092031
32	0xbc9318eb	-0.017956218
33	0x3c56becd	0.013107014
34	0xbc23d6fa	-0.009999985
35	0xbc23d6b9	-0.009999924
36	0xbcf2da22	-0.02964503
37	0xbccb9198	-0.024849698
38	0x00000000	0.0
39	0xbc23b051	-0.009990768
40	0x3dcca1aa	0.099917725
41	0x00000000	0.0
42	0xbb53761b	-0.0032266441
43	0xbcd0f3ac	-0.025506817
44	0xbc971726	-0.018443655
45	0x3bdb87d1	0.00669954
46	0xbc9dd007	-0.019264234
47	0xbc6d0c47	-0.014468259
48	0xbc871ca6	-0.016493153
49	0x3c53492c	0.0128958635
50	0xbc8ab8c4	-0.016933806
51	0xbc1e9558	-0.009679161
52	0xbc82b42c	-0.015955053
53	0xbcceaa55	-0.025227705
54	0x00000000	0.0
55	0x3c597b70	0.013274059
56	0xbccb578e	-0.024822023
57	0xbdfab5c2	-0.12241699
58	0xbd4538e3	-0.048149955
59	0xbc74aa26	-0.014933145
60	0xbc7e0d3e	-0.015506087
61	0xbd077fce	-0.03308087
62	0xbc239243	-0.009983602
63	0x3d812297	0.063054256
64	0x3ccf3c58	0.025297329
65	0xbc7a757d	-0.0152868
66	0xbbe811e2	-0.00708221
67	0xbcc61575	-0.024180153
68	0xbc56e43a	-0.013115937
69	0xbd6eee55	-0.05833276
70	0xbdd4a03e	-0.10382126
71	0xbc66ccaa	-0.014086882
72	0xbcdd6a76	-0.027028304
73	0xbd0d284d	-0.034462262
74	0xbc381a35	-0.011236717
75	0xbc815d8d	-0.015791679
76	0xbc5e11be	-0.013554035
77	0xbd19f7df	-0.037589904
78	0xbbc1150b	-0.005892401
79	0x3c72c2c6	0.014816945
80	0xbce27190	-0.027642041
81	0x3d5bf484	0.053699985
82	0xbae8e80b	-0.001776935
83	0xbc241dcc	-0.01001687
84	0xbc314174	-0.010818828
85	0x00000000	0.0
86	0xbd3123e6	-0.043247126
87	0xbdac977f	-0.08427333
88	0xbdcf4cfb	-0.10122105
89	0xbc18e548	-0.009332009
90	0xbdb5d7aa	-0.08879025
91	0x3cc5b5dd	0.02413457
92	0xbc9cf435	-0.019159416
93	0xbd5df887	-0.054192092
94	0x3a6d09c8	0.000904229
95	0xbcf9d951	-0.030499132
96	0xbcd9b35d	-0.026574785
97	0xbc99eeb8	-0.018790588
98	0x3d503290	0.05082947
99	0xbcb086b4	-0.021548606
100	0x3d3337c5	0.043754358
101	0xbe2be456	-0.16786322
102	0xbccb6241	-0.024827125
103	0xbc8baefa	-0.017051209
104	0x3d3d1542	0.04616285
105	0xbcb2e8b7	-0.021839483
106	0x3de2688c	0.11055097
107	0x00000000	0.0
108	0xbc23d6fc	-0.009999987
109	0xbc85d2ea	-0.016335923
110	0xbcb9a152	-0.022659931
111	0x00000000	0.0
112	0xbc436acd	-0.011927319
113	0xbc58223a	-0.013191754
114	0x00000000	0.0
115	0x3de60dad	0.11233077
116	0x3c0b80d3	0.008514601
117	0x00000000	0.0
118	0xbc384dd4	-0.011249024
119	0xbca7c99b	-0.020481875
120	0xbdeed3f5	-0.11661521
121	0xbc0d40ce	-0.008621408
122	0xbdded9a4	-0.108813554
123	0x00000000	0.0
124	0xbcbc1c5e	-0.022962745
125	0xbc36d497	-0.011159084
126	0x3c3a040b	0.011353503
127	0xbc837314	-0.016046084
128	0xbc744bef	-0.014910682
129	0x3dabb8d4	0.083848625
130	0xbc996fb3	-0.01873002
131	0xbd2b6ecc	-0.04185371
132	0x3bd387e5	0.006455409
133	0x00000000	0.0
134	0x3cc5d0fb	0.024147501
135	0xbcd8cf10	-0.026465923
136	0xbccfd3a8	-0.02536948
137	0xbc89e592	-0.0168331
138	0x3c951021	0.018196167
139	0xbd50035a	-0.050784446
140	0x3bcb31e8	0.0062010176
141	0x3dde5423	0.108558916
142	0xb90d5638	-0.00013478927
143	0x00000000	0.0
144	0x00000000	0.0
145	0x00000000	0.0
146	0xbbda8134	-0.0066682342
147	0x3cb58736	0.0221592
148	0xbc23d6ba	-0.009999925
149	0xbca2092c	-0.019779764
150	0xbc66947e	-0.014073489
151	0xbc440435	-0.011963894
152	0xbd9cc5a0	-0.076548815
153	0xbd3148d3	-0.04328234
154	0xbc6eff80	-0.014587283
155	0xbc819d94	-0.01582221
156	0xbd506813	-0.050880503
157	0xbdc7462a	-0.097301796
158	0xbc5ddc06	-0.013541227
159	0xbd7f2bb5	-0.06229754
160	0xbc3e5f9e	-0.011619477
161	0x3cac586e	0.02103826
162	0xbc7c9f12	-0.015418785
163	0xbc5d9cbc	-0.013526138
164	0xbc13a31c	-0.009011056
165	0xbc23d544	-0.009999577
166	0xbc0eeda8	-0.008723654
167	0x3e27aaa5	0.1637369
168	0xbc962633	-0.018328762
169	0xbd609ddc	-0.054838046
170	0xbc23d3cb	-0.009999226
171	0xbd0ce989	-0.034402404
172	0xbc9afd47	-0.0189196
173	0x3d556e26	0.052107
174	0xbd732210	-0.059358656
175	0xbc42b3a1	-0.011883647
176	0x3dc1e69d	0.09467814
177	0x00000000	0.0
178	0xbcf046f5	-0.02933071
179	0xbce6ef6c	-0.028190337
180	0xbc085688	-0.008321412
181	0xbc23c23d	-0.0099950405
182	0x3d35a73a	0.044348933
183	0x3cbd97f0	0.023143739
184	0xbc61a7db	-0.01377293
185	0xbd09475f	-0.03351533
186	0x3c595063	0.013263795
187	0x3dcf8397	0.10132521
188	0xbc51bcf1	-0.012801395
189	0xbc926e57	-0.01787488
190	0x3ca681b9	0.020325528
191	0x00000000	0.0
192	0xbba828cd	-0.005131817
193	0xbc1fc673	-0.009751904
194	0xbb824026	-0.0039749322
195	0x00000000	0.0
196	0x00000000	0.0
197	0x00000000	0.0
198	0x3d441d54	0.047879532
199	0xbcb75214	-0.022378005

model.5.weight f4 [200, 200]
0	0xbe23d6b7	-0.15999876
1	0xbc8bab88	-0.017049566
2	0xbd62ce48	-0.055372506
3	0xbcf376da	-0.029719759
4	0x3d1379a8	0.036004692
5	0x3db6953d	0.08915184
6	0x3cb1750d	0.02166226
7	0xbdc34c73	-0.09536066
8	0xbd57cdf0	-0.05268663
9	0x3b94e8ff	0.004544377
10	0xbd31977d	-0.04335736
11	0x3d1b4254	0.037905052
12	0xbde4ca8f	-0.111714475
13	0xbc886a23	-0.016652172
14	0xbbe25412	-0.0069069946
15	0xbe87f4e6	-0.2655403
16	0x3dcbe494	0.09955707
17	0x3d408db1	0.047010127
18	0xbcb33ddc	-0.021880083
19	0x3df50bb7	0.11965125
20	0xbc984d5d	-0.018591577
21	0xbe109f2b	-0.14123218
22	0x3e100785	0.14065368
23	0xbd9d12a1	-0.07669569
24	0x3e4a79cb	0.19773023
25	0x3bfbd755	0.0076855817
26	0x3dd3747f	0.10324954
27	0xbd9f3010	-0.07772839
28	0x3d93709c	0.07199213
29	0x3daf8470	0.08570182
30	0x3dcb9505	0.099405326
31	0x3e5c1aee	0.21494648
32	0xbe170721	-0.14748813
33	0xb80ec8e0	-3.4042518e-05
34	0x3d15661b	0.03647433
35	0x3e3e1860	0.18563986
36	0x3d5fd2b2	0.054644294
37	0xbd769756	-0.06020292
38	0x3da53993	0.08067622
39	0x3ce64170	0.028107375
40	0xbdea1517	-0.11429804
41	0xbd84510a	-0.064607695
42	0xb9cb24c7	-0.00038746579
43	0xbdaf0b1b	-0.0854704
44	0x3cd0be67	0.025481416
45	0x3e2c2988	0.16812718
46	0xbacc0a74	-0.001556708
47	0xbde8f2bc	-0.11374423
48	0x3e3337aa	0.17501703
49	0xbdae5afb	-0.08513447
50	0xbb952ede	-0.004552706
51	0x3dcaf6fa	0.09910388
52	0x3d7faf4a	0.062423028
53	0xbddac891	-0.10682786
54	0xbc82e425	-0.015977928
55	0x3d00d0e6	0.03144922
56	0xbd4983bb	-0.049197894
57	0x3c74c569	0.014939644
58	0x3dc1ac21	0.09456659
59	0xbe119fc6	-0.14221105
60	0x3e229157	0.15875755
61	0xbe155b48	-0.14585602
62	0x3e448683	0.19191937
63	0xbca3f139	-0.020012485
64	0xbd46cd0a	-0.048535384
65	0x3d28524c	0.04109411
66	0xbdce05ac	-0.100596756
67	0x3d08fb1e	0.03344261
68	0x3e39e2cf	0.18152927
69	0xbc7ea0e1	-0.015541286
70	0x3df3a622	0.11896922
71	0xbda7afb5	-0.0818781
72	0xbc16a781	-0.0091952095
73	0x3c837fe3	0.016052192
74	0x3d6629d3	0.05619223
75	0x3de036a6	0.10947923
76	0x3b168e7a	0.0022973106
77	0x3dcf736d	0.101294376
78	0x3bf5252d	0.0074812383
79	0x3dfc6a60	0.12324977
80	0x3d3904da	0.045170642
81	0xbd2d12b2	-0.042254157
82	0x3df340ea	0.11877616
83	0x3c2a97ad	0.010412139
84	0xbe280950	-0.16409802
85	0x3e0abf22	0.13549474
86	0xbe077e18	-0.13231695
87	0x3ad51d08	0.0016259262
88	0xbb857052	-0.0040722275
89	0x3dca8dfc	0.098903626
90	0x3d8c7124	0.06857517
91	0xbd9085a3	-0.07056739
92	0xbd3e6b0b	-0.046488803
93	0xbd18a867	-0.037269976
94	0x3e0415e4	0.12898976
95	0x3e13af32	0.144223
96	0xbd206573	-0.03915925
97	0xbdf8cb22	-0.121481195
98	0x3e485fc5	0.19567783
99	0xbc9bf071	-0.01903555
100	0xb9edc346	-0.00045349653
101	0x3d99faac	0.07518515
102	0xbc80a2da	-0.015702654
103	0xbd110e48	-0.03541401
104	0xbdd8fde0	-0.10595298
105	0xbe21e808	-0.15811169
106	0x3d0ff7a3	0.035148274
107	0xbdafb6f2	-0.08579816
108	0xbd246a4a	-0.040140428
109	0xbdca4be2	-0.09877755
110	0xbd8a2bcc	-0.06746635
111	0xbd88918e	-0.06668387
112	0xbe0d7e0d	-0.13817616
113	0x3d263b05	0.04058363
114	0xbd17d23b	-0.037065726
115	0xbd84f915	-0.06492821
116	0xbe27ff50	-0.16405988
117	0x3d7cb9e3	0.061700713
118	0x3db93942	0.09044124
119	0x3c53fcef	0.012938722
120	0xbd5cf82a	-0.053947605
121	0x3da68a87	0.08131891
122	0xbd3237bc	-0.043510184
123	0xbdec48e5	-0.11537341
124	0x3dbaad2d	0.09115062
125	0xbe0c408b	-0.13696496
126	0xbdde6fff	-0.10861205
127	0xbe44bd32	-0.19212797
128	0xbd197455	-0.03746446
129	0xbd8f7f3d	-0.07006691
130	0xbd9bd938	-0.076097906
131	0x3d8642df	0.065557234
132	0xbd110d1f	-0.035412904
133	0xbd97ef3f	-0.074186794
134	0x3d9cf0d6	0.07663123
135	0xbc376b53	-0.011195022
136	0xbe12db9f	-0.14341591
137	0x3d989bcc	0.07451591
138	0x3e19b469	0.15010227
139	0xbd93b5b3	-0.07212391
140	0xbd57abe6	-0.05265417
141	0x3e531872	0.20614794
142	0x3d2247fe	0.03961944
143	0xbd90b19a	-0.07065125
144	0x3ca87f41	0.020568492
145	0x3e30c448	0.17262375
146	0xbe3fdaa1	-0.18735744
147	0xbd629451	-0.055317227
148	0xbe2acb3b	-0.16679089
149	0x3e0014e2	0.12507966
150	0xbd7d04a0	-0.06177199
151	0x3e321b93	0.17393331
152	0xbdaa6f14	-0.08321968
153	0xbd0e8894	-0.03479822
154	0xbd32ce21	-0.04365361
155	0x3dbd0739	0.09229893
156	0x3c5ecdf0	0.013598904
157	0xbe70d21f	-0.23517655
158	0x3e015536	0.12630162
159	0x3d1f69ab	0.038919132
160	0x3d2780cb	0.04089431
161	0x3e0f07fc	0.1396789
162	0xbca25500	-0.019815922
163	0x3d8b965c	0.06815788
164	0xbe4f4f50	-0.20245099
165	0x3cc061f3	0.023484206
166	0x3e22407a	0.15844908
167	0x3d14cf24	0.036330357
168	0x3d3102d6	0.043215595
169	0xbe085bcf	-0.13316272
170	0x3cd77b4b	0.026303908
171	0xbdf71214	-0.12063995
172	0x3d890924	0.066911966
173	0xbe054675	-0.13015158
174	0x3dfe921a	0.124302104
175	0xbda6dc45	-0.08147482
176	0xbe094626	-0.13405666
177	0xbe28a0e4	-0.16467625
178	0xbe4d1042	-0.20025733
179	0x3e0d60d7	0.13806473
180	0xbe3b37d9	-0.18283023
181	0xbdd590da	-0.10428019
182	0xbde6887e	-0.112565026
183	0xbc5a1ed2	-0.013313012
184	0xbe6bc315	-0.23023637
185	0x3d764320	0.06012261
186	0xbb9d5760	-0.0048016757
187	0xbd82a29d	-0.06378672
188	0xbe261905	-0.16220482
189	0xbdb39064	-0.08767775
190	0xbe3e369d	-0.18575521
191	0xbc9a6f9f	-0.018852053
192	0xbb21c2f8	-0.002468286
193	0xbd02c39a	-0.03192482
194	0xbdc5ed5e	-0.09664415
195	0xbe0ecb5a	-0.1394476
196	0x3d3ad877	0.045616593
197	0x3dc2940f	0.09500896
198	0x3da9c875	0.08290187
199	0xbcc9bef4	-0.024627186
200	0xbdac5fbf	-0.084166996
201	0x3d277fef	0.04089349
202	0xbd34f9a8	-0.044183403
203	0xbdc16767	-0.094435506
204	0x3d23cdbc	0.039991125
205	0xbd4e872f	-0.05042189
206	0xbd9833e5	-0.07431773
207	0x3dcf0c3f	0.10109758
208	0x3cced997	0.02525024
209	0xbaedb07f	-0.0018134265
210	0xbcb5c4e5	-0.022188613
211	0x3cf0165d	0.029307539
212	0x3d825cb8	0.06365341
213	0xbe39531b	-0.18098108
214	0x3e3db761	0.18526985
215	0xbe0593fe	-0.13044736
216	0xbdb3d154	-0.087801605
217	0x3d9f2d4c	0.077723116
218	0xbcebe952	-0.02879778
219	0x3d950737	0.07276767
220	0x3d8e4f60	0.06948733
221	0x3c751422	0.014958413
222	0x3da272b3	0.079320334
223	0x3d170586	0.036870502
224	0x3c29f4f9	0.010373347
225	0x3dfb71b0	0.122775435
226	0x3d9987a1	0.07496572
227	0x3d525039	0.051346038
228	0xbc2fb4c2	-0.010724248
229	0xbc2c01c7	-0.010498471
230	0x3e3b3637	0.182824
231	0x3e013499	0.1261772
232	0xbe35aa53	-0.17740755
233	0xbd90da48	-0.07072884
234	0xbe0e424b	-0.13892476
235	0x3d4543e2	0.04816044
236	0x3cf7504b	0.030189654
237	0xbbd97f15	-0.006637464
238	0xbd863d95	-0.065547146
239	0x3e2bf95c	0.16794342
240	0xbdc39402	-0.095497146
241	0xbd7d5beb	-0.061855238
242	0x3d5d23fa	0.053989388
243	0x3d9366d7	0.071973495
244	0xbde3e1bc	-0.1112704
245	0x3defa94c	0.11702213
246	0x3acfc628	0.0015851902
247	0x3e21b39c	0.15791172
248	0xbda0f55a	-0.07859297
249	0xbe314ac3	-0.17313676
250	0xbd1eb6d6	-0.038748585
251	0x3d86e4de	0.06586622
252	0xbe62890e	-0.22122595
253	0xbc6fb2dc	-0.014630046
254	0xbdf85440	-0.121254444
255	0x3d18b633	0.037283134

model.5.bias f4 [200]
0	0xbc55e723	-0.013055596
1	0xbbba7886	-0.005690637
2	0xbcc3387c	-0.023830645
3	0xbd0d0596	-0.034429155
4	0xbd235cdb	-0.039883476
5	0xbda95017	-0.08267229
6	0xbcfede40	-0.031111836
7	0xbc1cd4af	-0.009572192
8	0xbcb5c212	-0.022187266
9	0xba0f514e	-0.00054671324
10	0xbd883e2f	-0.066524856
11	0xbd0f04e0	-0.03491676
12	0xbc9e7560	-0.019343078
13	0xbc6a8b0c	-0.014315378
14	0xbc9c7a48	-0.019101277
15	0xbd2b207d	-0.04177903
16	0xbcd3f1ef	-0.025872199
17	0xba99ca38	-0.001173324
18	0x3d4cdb23	0.050013673
19	0xbceb3446	-0.02871145
20	0xba82d3f9	-0.0009981386
21	0xbbb6358f	-0.005560584
22	0xbcd26665	-0.025683591
23	0xbcc9930e	-0.024606254
24	0xbcc52910	-0.024067432
25	0xbd3301b7	-0.043702807
26	0xbc3c39e7	-0.011488414
27	0xbcdf0111	-0.027222188
28	0x38646e0e	5.4461932e-05
29	0xbd06a65f	-0.032873508
30	0xbcf173a7	-0.029474093
31	0xbc72758e	-0.014798535
32	0xbccba1fa	-0.02485751
33	0xbcea686f	-0.028614251
34	0xbcca4991	-0.024693282
35	0xbd01e1ec	-0.031709597
36	0xbd1163d2	-0.035495587
37	0xbc28adae	-0.010295315
38	0xbca30fee	-0.019905057
39	0xbcda79a5	-0.026669333
40	0xbd44a2d6	-0.048006855
41	0xbd117519	-0.035512064
42	0xbc7a4796	-0.0152758565
43	0xbbd435e3	-0.0064761504
44	0xbc68f05e	-0.014217464
45	0xbcde92ca	-0.027169604
46	0xbcc3d61c	-0.023905806
47	0xbca20a88	-0.019780412
48	0xbccbf567	-0.02489729
49	0x3b18f82d	0.0023341284
50	0xbd6a215b	-0.057160717
51	0xbc90507e	-0.017616507
52	0xbcac6ad1	-0.021047028
53	0xbd8dc59f	-0.06922459
54	0x3b302cfd	0.0026882284
55	0xbc138958	-0.009004913
56	0xbc2f383e	-0.0106945615
57	0xbd973ebb	-0.07385012
58	0xbd3d89c5	-0.046273965
59	0xbca1f01e	-0.019767817
60	0xbd4bcde4	-0.0497569
61	0x3d978b10	0.07399571
62	0xbd34c324	-0.044131413
63	0xbc7b1888	-0.015325673
64	0xbc89e617	-0.016833348
65	0xbcdc7909	-0.026913183
66	0xbc85da62	-0.016339485
67	0xbba18384	-0.004929008
68	0xbc5bc056	-0.013412556
69	0xbc11727d	-0.008877394
70	0xbc2db927	-0.010603226
71	0xbd372dda	-0.04472146
72	0xbd02a7b9	-0.031898234
73	0xbcbbe92d	-0.022938335
74	0xbc46f93c	-0.012144383
75	0xbcf9c27a	-0.030488241
76	0x3dacb43f	0.08432817
77	0xbc9a424b	-0.01883044
78	0xbb8a2796	-0.004216145
79	0x3c4c8957	0.012483916
80	0xbd8e3b18	-0.06944865
81	0xbd8acd57	-0.06777447
82	0xbcf00cc4	-0.029302962
83	0xbc8241f6	-0.015900593
84	0xbcd66857	-0.0261728
85	0xbd55e38d	-0.052218962
86	0xbd0d1ecf	-0.03445321
87	0xbd463286	-0.048388027
88	0xbd1cde39	-0.038297866
89	0xbceeb499	-0.02913885
90	0xbdc6bd67	-0.097040944
91	0xbce0161c	-0.027354293
92	0xbc8b56f8	-0.017009243
93	0xbd245eda	-0.04012952
94	0xbba0717e	-0.004896342
95	0xbd119d92	-0.03555066
96	0xbd578d5f	-0.052625056
97	0xbcb1912c	-0.021675669
98	0xbd08c7ae	-0.033393554
99	0xbc970555	-0.01843516
100	0xbd0e2a69	-0.034708414
101	0x3c496781	0.012292744
102	0xbc3360f0	-0.010948405
103	0xbc57eb20	-0.013178617
104	0xbcfde137	-0.03099118
105	0xbd32daf2	-0.043665834
106	0xbd8e9645	-0.069622554
107	0xbcaeb258	-0.021325275
108	0xbcfc1865	-0.030773351
109	0xbc6bf45c	-0.0144015215
110	0xbce1d288	-0.02756621
111	0xbb0f5de7	-0.0021876039
112	0xbd0f3c9f	-0.034969922
113	0xbdc1a734	-0.094557196
114	0x3d77462a	0.060369648
115	0xbcd9239e	-0.026506241
116	0xbd38394d	-0.04497652
117	0xbd062065	-0.032745738
118	0x3d5a04c4	0.0532272
119	0xbcdaf730	-0.026729196
120	0xbccaecb4	-0.024771072
121	0xbbef5f0c	-0.0073050316
122	0xbc988adc	-0.0186209
123	0xbbd1c2c1	-0.0064013903
124	0x3e05a77e	0.13052174
125	0xbc028238	-0.007965617
126	0xbb84f88f	-0.004057951
127	0xbb97dcbe	-0.004634469
128	0xbcaaf5f4	-0.020869233
129	0xbc33e706	-0.010980373
130	0xbc2135b8	-0.009839468
131	0xbd6a6326	-0.05722346
132	0xbce9ba47	-0.028531207
133	0x3db9ba72	0.09068765
134	0xbb7899f9	-0.0037933572
135	0xbd001a3f	-0.03127503
136	0xbb93489b	-0.004494739
137	0xbd822a9c	-0.06355783
138	0xbd116483	-0.035496246
139	0xbd491022	-0.04908765
140	0xbc6e5c62	-0.014548393
141	0xbd7c9ef5	-0.06167503
142	0xbd180f11	-0.037123743
143	0xbbc7db72	-0.006099158
144	0xbcb27dcd	-0.021788502
145	0xbcf12bbe	-0.029439803
146	0x3d858444	0.06519368
147	0xbc5ff41f	-0.013669043
148	0xbd706e43	-0.058698904
149	0xbce92e62	-0.0284645
150	0xbc6ed7b8	-0.014577799
151	0x3c226175	0.009910931
152	0xbbe3c1c1	-0.0069505875
153	0xbdb06894	-0.08613697
154	0xbd9f930f	-0.07791721
155	0xbc6005a8	-0.013673224
156	0xbd034839	-0.0320513
157	0xbcd9a7df	-0.026569305
158	0xbd02d565	-0.03194179
159	0x3c0da47f	0.008645176
160	0x3d6a9cee	0.057278566
161	0x3c92ad5f	0.017904935
162	0xbcc4ddb6	-0.024031501
163	0xbd1ba2fd	-0.037997235
164	0xbcac5e30	-0.021041006
165	0xbc674d78	-0.014117591
166	0x3c53e138	0.012932114
167	0x3cc79963	0.024365133
168	0xbd797701	-0.060904507
169	0xbc8c7558	-0.017145798
170	0xbcd2556c	-0.025675498
171	0xbc43b533	-0.011945057
172	0x3ce3cb27	0.027806832
173	0xbce454da	-0.027872492
174	0xbc5e9bfc	-0.013586994
175	0xbd179474	-0.03700681
176	0xbd145f2e	-0.036223583
177	0xbd16db10	-0.036830008
178	0xbb9334d3	-0.004492381
179	0xbd8d4552	-0.068979874
180	0xbd615269	-0.055010233
181	0xbd191367	-0.03737202
182	0xbce60a4f	-0.028081087
183	0xbcf4b9b7	-0.029873712
184	0x3c89b446	0.016809594
185	0xbd2cb56b	-0.0421652
186	0xbc69407d	-0.014236567
187	0xbcea3f64	-0.02859468
188	0x3d464637	0.048406806
189	0xbd581a68	-0.052759558
190	0xbd623485	-0.055225868
191	0xbd16fc54	-0.036861733
192	0xbc8ffd10	-0.017576724
193	0xbce4ee4b	-0.027945658
194	0xbc9e068a	-0.019290227
195	0x3d563a36	0.052301608
196	0xbc85f552	-0.01635233
197	0xbd0e0301	-0.034670833
198	0xbcba6bd7	-0.0227565
199	0xbcda97e9	-0.026683765

model.8.weight f4 [1, 200]
0	0x3c7e0ef4	0.015506495
1	0x3de58061	0.11206127
2	0x3daf56b9	0.08561463
3	0x3e0e4f13	0.13897352
4	0x3b7f7788	0.0038981158
5	0xbd260cf0	-0.040539682
6	0xbe1ea94b	-0.15494268
7	0x3d58775a	0.052848198
8	0xbe47050e	-0.19435522
9	0x3c0d6560	0.008630127
10	0xbca4838d	-0.02008226
11	0xbe42ba6b	-0.19016425
12	0x3e322c79	0.17399777
13	0xbca25ec5	-0.01982058
14	0x3e6d5b09	0.23179258
15	0xbd5ea757	-0.054358806
16	0xbc95a396	-0.01826648
17	0xbdd11f2b	-0.10211023
18	0xbcc1485d	-0.023594076
19	0x3d940982	0.07228376
20	0x3d48d5aa	0.04903189
21	0xbc59b012	-0.013286607
22	0x3c930543	0.017946845
23	0x3e3bdfaa	0.1834704
24	0xbc7f9daa	-0.015601555
25	0x3b6de513	0.003629987
26	0x3e34fa75	0.17673667
27	0xbdb2416e	-0.08703886
28	0x3d0d15a4	0.034444466
29	0xbda8c745	-0.08241133
30	0xbc3e150c	-0.011601698
31	0xbd4e94fb	-0.050435048
32	0xbde03fe6	-0.10949688
33	0x3d76190d	0.060082484
34	0x3c3c0a56	0.011477074
35	0xbd1ffe64	-0.039060965
36	0xbe6fa99e	-0.23404548
37	0x3d195576	0.037435018
38	0x3c026a9a	0.007959986
39	0x3c8bcba2	0.017064873
40	0xbc859d9f	-0.016310511
41	0x3cd66664	0.02617187
42	0xbe1dfaff	-0.15427779
43	0xbca6fe35	-0.020384887
44	0xbd7d33fc	-0.061817154
45	0xbc353f47	-0.01106245
46	0xbceee680	-0.029162645
47	0xbc2326dc	-0.009957995
48	0xbaf8ea30	-0.0018990692
49	0xbc9409ee	-0.018071141
50	0xbaaf2ef8	-0.0013365438
51	0xbe0cb1a3	-0.13739638
52	0x3c9f9dfc	0.019484513
53	0xbdd66714	-0.10468879
54	0xbc8a4803	-0.016880041
55	0x3d430d3f	0.047620054
56	0xbc946d42	-0.018118504
57	0xbd044327	-0.032290604
58	0xbc8e05fd	-0.01733684
59	0xbdc98219	-0.09839267
60	0xba30be1f	-0.00067421974
61	0xbcbf9ba2	-0.023389641
62	0x3c65a6cc	0.014016818
63	0xbd01b01f	-0.031662103
64	0x3c48c434	0.01225381
65	0x3e0e3930	0.13889003
66	0xbe4f197c	-0.20224565
67	0xbde578da	-0.11204691
68	0x3dd1a0c1	0.102357395
69	0xbc868693	-0.016421592
70	0xbc1df8c6	-0.009641832
71	0xbc5e9877	-0.013586155
72	0x3b004f76	0.0019578612
73	0xbc7d87c3	-0.015474263
74	0x3de2c486	0.1107264
75	0x3c867ee0	0.01641792
76	0xbcb58a55	-0.022160688
77	0xbdc8589c	-0.09782526
78	0x3e070242	0.13184455
79	0x3c93a656	0.018023651
80	0xbcde25e7	-0.027117683
81	0xbce0555a	-0.027384449
82	0x3d97ba9f	0.07408642
83	0x3db653e1	0.089027174
84	0x3ce5d9a8	0.028057888
85	0x37759a00	1.4638994e-05
86	0x3c23577e	0.00996959
87	0xbcf55e6e	-0.029952254
88	0xbd245e90	-0.040129244
89	0x3c555f28	0.013023175
90	0xb9b44b10	-0.000343882
91	0x3b9c0e73	0.0047624647
92	0xbccf6faa	-0.0253218
93	0x3c557d9a	0.013030434
94	0x3d66ba2a	0.056329884
95	0x3dbe5e4c	0.092953295
96	0x3d42140d	0.047382403
97	0x3c9bb3a9	0.019006567
98	0x3e8515d6	0.25993222
99	0xbdef9128	-0.11697608
100	0xba2e2ca4	-0.0006644225
101	0xbc98d924	-0.018658228
102	0xbd225de9	-0.03964034
103	0xbcabf971	-0.020992966
104	0x3d85c91f	0.065325014
105	0x3ced00bf	0.02893102
106	0x3c21d403	0.009877208
107	0xbe22e868	-0.15908968
108	0x3a27bd7c	0.000639878
109	0x3cc4745d	0.023981268
110	0x3c69be10	0.014266506
111	0xbd29feac	-0.04150264
112	0x3d9e97ee	0.07743822
113	0xbc61b2d3	-0.013775545
114	0xbd0de370	-0.03464073
115	0xbcbf2d36	-0.023336988
116	0x3bd08df4	0.0063645784
117	0xbc990d51	-0.018683108
118	0xbd12a8a5	-0.035805363
119	0x39635840	0.00021681283
120	0xbe0f0ab4	-0.13968927
121	0x3dfaa253	0.12237992
122	0xbddcac8d	-0.10775099
123	0x3dc25423	0.09488704
124	0xbd3d969a	-0.046286203
125	0x3c9788b2	0.018497799
126	0x3c36a456	0.011147579
127	0xbda39b6e	-0.0798863
128	0x3d31df7d	0.043426026
129	0x3e2d62d1	0.16932227
130	0x3e17236b	0.14759605
131	0x3c10270a	0.00879837
132	0xbd44af6e	-0.048018865
133	0xbd365512	-0.044514723
134	0x3d9dda1f	0.07707619
135	0xbe00a1fc	-0.12561792
136	0x3c5ea0f3	0.013588178
137	0x3c80d7f5	0.015727976
138	0xbe58d84e	-0.21176264
139	0xbcfaf716	-0.030635398
140	0xbca31a46	-0.01990999
141	0xbc81d876	-0.015850287
142	0xbe437a63	-0.19089656
143	0x3d158197	0.03650054
144	0x3c388e36	0.0112643745
145	0xbaa54550	-0.0012609158
146	0xbccbc672	-0.0248749
147	0x3c026f1f	0.007961064
148	0xbca77d9f	-0.020445643
149	0xba4f2cb0	-0.00079030823
150	0xbcb69696	-0.022288602
151	0xbc8675c4	-0.016413577
152	0x3c9072bf	0.01763284
153	0xbb225a8b	-0.0024773206
154	0xbd50549a	-0.050861932
155	0x3d4fd6b6	0.050741874
156	0xbc9aa01d	-0.018875176
157	0x3dde3b4f	0.10851156
158	0xbdb9d89c	-0.09074518
159	0xbc44d7a5	-0.012014304
160	0xbd919034	-0.07107583
161	0xbd0845c9	-0.033269677
162	0x3bf6839e	0.007523014
163	0xbb3d5df6	-0.0028895116
164	0xbcd82896	-0.02638654
165	0xbc4e1f14	-0.012580652
166	0x3d02c16e	0.03192275
167	0xbd1049b3	-0.035226535
168	0xbce07a21	-0.027401986
169	0xbe287aa5	-0.16453035
170	0xbc253344	-0.010083023
171	0x3dd48ed4	0.10378805
172	0xbc1341ae	-0.008987827
173	0xbe0b0ec3	-0.1357985
174	0xbe199dd9	-0.1500162
175	0x3c64868b	0.013948093
176	0xbda29e5f	-0.07940363
177	0x3b29c242	0.002590314
178	0x3e1a4515	0.15065415
179	0xbd016a46	-0.03159549
180	0x3ae023f7	0.0017100562
181	0xbb441560	-0.0029919967
182	0x3cea0fb4	0.028571941
183	0xbddd9e7e	-0.108212456
184	0xbd08da1c	-0.03341113
185	0xbdf3e9ca	-0.11909826
186	0xbc9b46c9	-0.018954651
187	0xbc65ae29	-0.014018574
188	0xbcdf48bf	-0.027256368
189	0xbcb2cfcf	-0.021827606
190	0x3caa415e	0.020783123
191	0x3d31d8d1	0.043419663
192	0x3c9eb7b2	0.019374702
193	0x3d1f0e66	0.03883209
194	0x3d8ad9a5	0.06779794
195	0xbcdb41d3	-0.026764786
196	0xbd8d62cf	-0.06903612
197	0xbda50b0d	-0.080587484
198	0xbc55b81f	-0.013044386
199	0x3d20e93a	0.039284922
