Challenge_1/Weights/model_reward_Qube-v0_mse_0.00000310.params (torch_old, 330207 bytes, 7 tensors)

model.0.weight f4 [200, 7]
0.054906875 0.16449276 0.44317228 -0.20468843 1.4511223 0.124519944 0.46428284 0.5797002
-0.5877635 0.2810217 -0.27769664 -0.5065444 0.14814676 0.49183714 0.23323768 -0.5687384
-0.22784731 0.4377779 -0.40724868 0.89199775 0.2813882 -0.54644567 0.56200075 -0.3004356
0.1359718 -0.10193947 0.5578988 -0.2678471 0.7339002 0.2997728 0.19614768 -0.66495746
-0.3144488 0.8020038 0.37666255 -0.31710917 0.2677426 -0.4590953 -0.02547011 0.20148395
-0.5976239 1.1320598 0.11706663 0.12106067 -0.014375629 -0.31739822 0.39760342 0.5653773
-0.793538 -0.25972712 -0.35630095 -0.44654337 0.38047633 0.7671037 0.8017251 -0.1890018
0.16400012 0.34289372 0.63524276 -0.18347263 0.48916668 -0.39298242 0.4451159 0.69179165
0.06204342 -0.48492703 1.065007 -0.056419555 -0.32927546 0.39573476 -0.8882395 0.3251913
0.49871925 -0.19594702 0.2518596 -0.58086085 0.5667571 -0.16549654 -0.9504674 0.055629387
0.1883372 0.12929377 -0.11739991 0.07181665 -0.3866987 -0.48092726 -0.9263558 0.42615
-0.65606284 -0.014637583 0.8373266 0.5239731 0.27199134 0.12567778 -0.28299022 1.0845934
-0.5641598 0.2103009 0.5492957 0.15585437 0.27831236 -0.103864826 -0.039283905 -0.62906295
-0.27211258 0.20362501 0.4920306 0.79240406 0.5775355 0.16182296 -0.6423648 0.77077925
0.3136767 -0.46472943 -0.69220895 0.7345728 0.84795606 -0.38602042 0.53854924 0.017649237
-0.090074785 0.21778136 -0.013185273 -0.070465356 -0.748091 -0.8052713 -0.25651762 -0.39932904
0.25200865 0.39446288 0.83121103 -0.4449791 -0.06947303 0.14850686 0.70201933 0.31178337
-0.96389794 -0.16907059 0.17062847 0.25313166 0.1295463 -0.10231193 -0.60299695 0.21909888
0.0012414652 0.75403357 0.32946256 0.60008377 -0.40400106 0.154871 -0.23819296 0.25701094
-0.32265124 0.3244691 0.8747289 0.94923353 0.9150361 1.0035887 -0.12222495 -0.55369043
0.1622826 0.48328602 -0.20100033 0.7805373 -0.36775392 -0.3756353 0.44853142 -0.4274725
-0.047953986 -0.7872026 -0.8128929 0.11259204 0.7495272 0.11680205 -0.37724963 0.67402464
-0.30429772 1.4805579 -0.46892503 0.59115213 0.19901991 -0.060050447 0.04832373 0.18978816
0.83960414 -0.49501097 -0.87464666 -0.9481065 -0.111381 -0.692645 -0.22868314 0.78398526
-0.21374646 -0.011377412 -0.29716533 -0.020298865 -0.81040025 0.36083838 0.17678238 -0.24090879
0.035387505 0.37078282 -0.113191105 0.45565876 -0.13879277 -0.53427345 0.69436675 -0.5914718
0.3075871 -0.50385714 -0.14646615 0.18694423 1.1848228 -0.19732802 -0.30667767 -0.38795123
-0.54068416 0.35979295 -0.30707517 -0.17291649 -0.2698483 0.7774655 -0.6764296 0.071066745
0.23216878 -0.039798718 0.84809965 -0.1679744 -0.29966673 -0.97905684 -0.20859766 1.1193192
-0.15945093 -0.48365432 0.24040966 -0.05426225 -0.5046853 -0.63984674 -0.9153666 -0.31545094
-0.22968075 -0.045607217 -0.14145128 -0.23844336 -0.18419667 0.40654466 0.27096128 -0.46432257
-0.86054385 -0.4534716 1.0871391 0.5592641 -0.21132983 -0.17443837 1.0515789 -0.07561897
00000000: 08e6 603d ca70 283e 7ae7 e23e d899 51be
00000010: 60be b93f 5004 ff3d 7bb6 ed3e 3b67 143f
00000020: ab77 16bf 14e2 8f3e 412e 8ebe e5ac 01bf
00000030: c9b3 173e 14d2 fb3e dcd5 6e3e d798 11bf
00000040: ce50 69be 6d24 e03e e682 d0be f759 643f
00000050: 1d12 903e dde3 0bbf 48df 0f3f b2d2 99be
00000060: 313c 0b3e a4c5 d0bd 75d2 0e3f 4123 89be
00000070: e2e0 3b3f d27b 993e f0da 483e a73a 2abf
00000080: 6fff a0be 1f50 4d3f ead9 c03e 225c a2be
00000090: 8f15 893e 8a0e ebbe b1a6 d0bc cf51 4e3e
000000a0: e1fd 18bf 56e7 903f a1c0 ef3d a8ee f73d
000000b0: c287 6bbc 0582 a2be ad92 cb3e 91bc 103f
000000c0: 4e25 4bbf f4fa 84be 146d b6be 55a1 e4be
000000d0: cbcd c23e e860 443f db3d 4d3f b089 41be
000000e0: a6ef 273e c48f af3e 459f 223f 40e0 3bbe
000000f0: 0e74 fa3e fe34 c9be 3be6 e33e 4219 313f
00000100: 3e21 7e3d 5b48 f8be 2652 883f 3118 67bd
00000110: cb96 a8be bf9d ca3e aa63 63bf 797f a63e
00000120: 2158 ff3e 56a6 48be bef3 803e 4cb3 14bf
00000130: fe16 113f ed77 29be d551 73bf a4db 633d
00000140: 78db 403e 9665 043e 5d6f f0bd 9c14 933d
00000150: 5ffd c5be 193c f6be a725 6dbf 5530 da3e
00000160: bcf3 27bf 79d2 6fbc 095b 563f 1a23 063f
00000170: 7342 8b3e adb1 003e 18e4 90be f5d3 8a3f
00000180: c76c 10bf 1e59 573e a59e 0c3f 4a98 1f3e
00000190: f57e 8e3e 15b7 d4bd 29e8 20bd 450a 21bf
000001a0: 5752 8bbe 1383 503e 6feb fb3e feda 4a3f
000001b0: 5ed9 133f ebb4 253e 0572 24bf ca51 453f
000001c0: 3c9a a03e 04f1 edbe 9b34 31bf f70c 3c3f
000001d0: a613 593f 78a4 c5be 5dde 093f 2295 903c
000001e0: 2179 b8bd 1402 5f3e 0b07 58bc 2450 90bd
000001f0: e482 3fbf 4326 4ebf 4756 83be db74 ccbe
00000200: 4707 813e 0af7 c93e 3fca 543f 4dd4 e3be
00000210: e047 8ebd 2f12 183e 8ab7 333f 12a2 9f3e
00000220: 04c2 76bf d720 2dbe 3bb9 2e3e 799a 813e
00000230: c9a7 043e eb88 d1bd 025e 1abf 755b 603e
00000240: a9b8 a23a 5808 413f 51af a83e 179f 193f
00000250: 3ad9 cebe 8196 1e3e dbe8 73be f096 833e
00000260: 8b32 a5be d020 a63e 3cee 5f3f f800 733f
00000270: ce3f 6a3f 9875 803f 1351 fabd a8be 0dbf
00000280: 692d 263e 4471 f73e 08d3 4dbe 4bd1 473f
00000290: 3e4a bcbe 4553 c0be e9a5 e53e addd dabe
000002a0: 666b 44bd 1c86 49bf c019 50bf a896 e63d
000002b0: 04e1 3f3f ea35 ef3d dd26 c1be e18c 2c3f
000002c0: e9cc 9bbe ec82 bd3f f116 f0be bf55 173f
000002d0: e0cb 4b3e 75f7 75bd 1aef 453d d457 423e
000002e0: 4cf0 563f 1472 fdbe d8e8 5fbf 1cb7 72bf
000002f0: b91b e4bd 2f51 31bf ea2b 6abe 42b3 483f
00000300: 5ae0 5abe 5368 3abc 0e26 98be ce49 a6bc
00000310: 6476 4fbf cfbf b83e 7106 353e cbb0 76be
00000320: 7df2 103d 3fd7 bd3e bdd0 e7bd 1b4c e93e
00000330: b11f 0ebe 25c6 08bf 05c2 313f b26a 17bf
00000340: 0e7c 9d3e c8fc 00bf 39fb 15be 4f6e 3f3e
00000350: 46a8 973f 5b10 4abe db04 9dbe 8ba1 c6be
00000360: 476a 0abf c836 b83e f538 9dbe 0511 31be
00000370: 8e29 8abe fb07 473f 7e2a 2dbf 718b 913d
00000380: a7bd 6d3e fb03 23bd 0f1d 593f 7b01 2cbe
00000390: eb6d 99be 78a3 7abf a09a 55be da45 8f3f
000003a0: 1b47 23be 8aa1 f7be f32d 763e 1842 5ebd
000003b0: 0e33 01bf ffcc 23bf 7755 6abf c982 a1be
000003c0: 6e31 6bbe a2ce 3abd 9bd8 10be 7f2a 74be
000003d0: 0d9e 3cbe 9f26 d03e 70bb 8a3e b0bb edbe
000003e0: 9a4c 5cbf 6e2d e8be 6027 8b3f ef2b 0f3f
000003f0: d966 58be f99f 32be 239a 863f 1ede 9abd

model.0.bias f4 [200]
-0.12264385 0.005190961 -0.05323441 -0.00861304 -0.014930141 -0.08270897 -0.082684815 -0.14153573
-0.08883634 -0.07318912 0.17033942 0.20294797 0.15281962 -0.057635553 0.055904873 -0.07469335
-0.110239 0.0 -0.0054448955 -0.03405114 -0.094176345 -0.047438294 -0.13195519 0.20419976
0.20464848 -0.013202244 -0.015416111 0.03640219 0.12218279 0.061872844 0.053298533 0.02409674
0.07578984 0.049298152 0.0 -0.038872153 -0.09412397 -0.033949107 0.029573038 0.07882373
0.04199451 0.014567732 -0.006478129 -0.20499487 -0.14732805 0.08719108 0.0 0.0116362395
-0.009977644 -0.013250695 0.0 0.16682875 0.029716777 -0.15494569 -0.124406114 -0.12349677
-0.0041455165 -0.0669977 0.12534189 0.09808828 -0.08497224 -0.024840305 0.07725634 0.0
0.10716711 0.035751708 -0.037751116 0.06018206 0.0 0.0 -0.00797162 -0.028840052
-0.0553279 -0.15380484 -0.021311093 0.035766587 0.13690358 0.056453563 0.105649285 0.06513591
-0.061936 -0.1020197 0.014900313 -0.116869494 -0.04418144 -0.025552964 -0.19294748 -0.03785522
0.030485004 -0.11084688 -0.042495683 0.048088245 0.04059691 0.06773171 -0.16020213 -0.027173206
0.0 -0.10150788 -0.10824941 -0.055880196 -0.019550567 -0.18322855 -0.09101829 0.0
-0.08795141 0.08031579 0.14249685 -0.0037938922 0.03189664 0.10034483 0.08567073 0.0837487
-0.10980328 -0.04742632 0.01749503 -0.016448423 -0.13006964 0.13934803 -0.059302386 0.12733267
-0.04469017 0.12792344 -0.17443815 0.051941402 -0.13732915 -0.13719025 -0.14029413 0.00542728
-0.061977364 -0.064822964 0.13113718 -0.005475008 -0.11722549 0.013269868 0.050596535 -0.05540012
-0.013334946 0.0519776 0.12699609 -0.05828299 -0.16956224 -0.10107049 0.025769271 -0.054951075
0.03706229 0.0 0.0 0.1255728 0.086208716 -0.034754854 -0.007770917 -0.07451091
-0.14482452 -0.17852245 -0.08778344 -0.05873189 0.0066622845 0.12294584 0.0 -0.023015678
-0.019922394 0.020228054 0.037413135 0.073457725 0.114985146 0.05351294 0.020525487 0.03611896
-0.18283217 -0.06403782 0.0 -0.09895057 0.034887318 -0.08236062 0.22359219 -0.0114791095
-0.124803714 -0.049279045 -0.012582443 -0.06526144 0.011826059 0.29977587 0.039645813 0.26397997
-0.17588651 0.06851106 0.031066066 0.086256616 -0.015852287 0.0 -0.14371331 -0.06868992
0.14433025 0.057413504 0.0 0.035512865 0.07164139 0.08385878 -0.08301993 -0.14568187
00000000: b32c fbbd f018 aa3b 530c 5abd b51d 0dbc
00000010: 8d9d 74bc 5263 a9bd a856 a9bd beee 10be
00000020: d4ef b5bd 2de4 95bd 756d 2e3e 98d1 4f3e
00000030: bf7c 1c3e 4213 6cbd 82fc 643d d4f8 98bd
00000040: fcc4 e1bd 0000 0000 186b b2bb 3579 0bbd
00000050: 87df c0bd a84e 42bd 431f 07be be19 513e
00000060: 5f8f 513e 3a4e 58bc db93 7cbc 761a 153d
00000070: f83a fa3d 616e 7d3d 904f 5a3d 8766 c53c
00000080: b437 9b3d dcec 493d 0000 0000 6838 1fbd
00000090: 11c4 c0bd 380e 0bbd 2843 f23c 566e a13d
000000a0: 6f02 2c3d 7fad 6e3c 7c46 d4bb 2dea 51be
000000b0: 2add 16be 3d91 b23d 0000 0000 eda5 3e3c
000000c0: 4679 23bc 7119 59bc 0000 0000 28d5 2a3e
000000d0: 9970 f33c 15aa 1ebe a2c8 febd e0eb fcbd
000000e0: 1dd7 87bb 1736 89bd a059 003e 82e2 c83d
000000f0: ed05 aebd e57d cbbc 9238 9e3d 0000 0000
00000100: 6e7a db3d 6270 123d eaa0 1abd 7781 763d
00000110: 0000 0000 0000 0000 669b 02bc f941 ecbc
00000120: 829f 62bd 047f 1dbe 9a94 aebc fc7f 123d
00000130: 7430 0c3e da3b 673d a75e d83d fa65 853d
00000140: 9ab0 7dbd b4ef d0bd 7120 743c 4659 efbd
00000150: 99f7 34bd 7354 d1bc 0694 45be 130e 1bbd
00000160: b0bb f93c b003 e3bd f40f 2ebd 2ef8 443d
00000170: f248 263d ecb6 8a3d 070c 24be 589a debc
00000180: 0000 0000 5de3 cfbd deb1 ddbd a2e2 64bd
00000190: 8328 a0bc 44a0 3bbe cc67 babd 0000 0000
000001a0: de1f b4bd 9b7c a43d b2ea 113e f3a2 78bb
000001b0: 0da6 023d 9781 cd3d 2374 af3d 7084 ab3d
000001c0: 8be0 e0bd 1a42 42bd bd51 8f3c d8be 86bc
000001d0: fa30 05be 40b1 0e3e 0fe7 72bd 7f63 023e
000001e0: 0a0d 37bd 5dfe 023e ea9f 32be 82c0 543d
000001f0: 03a0 0cbe 9a7b 0cbe 44a9 0fbe 53d7 b13b
00000200: fadb 7dbd e7c1 84bd d348 063e b267 b3bb
00000210: eb13 f0bd dc69 593c 503e 4f3d 3ceb 62bd
00000220: d17a 5abc 77e6 543d 430b 023e 25ba 6ebd
00000230: b9a1 2dbe 0cfe cebd 141a d33c 6114 61bd
00000240: a1ce 173d 0000 0000 0000 0000 2896 003e
00000250: 328e b03d 1b5b 0ebd 2da3 febb 2d99 98bd
00000260: e14c 14be 97ce 36be cec7 b3bd da90 70bd
00000270: 4b4f da3b 07cb fb3d 0000 0000 608b bcbc
00000280: 4a34 a3bc 4eb5 a53c 843e 193d 0171 963d
00000290: 557d eb3d 6230 5b3d 1125 a83c 79f1 133d
000002a0: 5b38 3bbe 4326 83bd 0000 0000 99a6 cabd
000002b0: 01e6 0e3d afac a8bd 5af5 643e e012 3cbc
000002c0: 1799 ffbd d3d8 49bd 9726 4ebc caa7 85bd
000002d0: 16c2 413c 397c 993e a663 223d 6228 873e
000002e0: 981b 34be 874f 8c3d 437e fe3c 4fa7 b03d
000002f0: a8dc 81bc 0000 0000 9529 13be 4dad 8cbd
00000300: 4fcb 133e 6c2a 6b3d 0000 0000 f075 113d
00000310: b9b8 923d 27be ab3d 5a06 aabd a12d 15be

model.2.weight f4 [200, 200]
0.007247669 -0.045805708 -0.020349026 -0.06611307 0.095814474 -0.032369114 -0.17530495 -0.04352
0.033733156 0.047822412 0.05530669 -0.025320228 0.012640912 0.12695974 -0.11544727 0.041867323
-0.07788126 -0.2224727 0.0036150482 -0.055453833 -0.09894584 -0.020601403 -0.06836608 -0.088920854
0.033391967 0.028940072 0.15480018 0.16079423 -0.18307981 -0.078470886 0.05442664 0.09723281
0.09231308 -0.11008186 -0.09800392 -0.010358664 -0.021705605 -0.11255194 -0.10247881 -0.21504329
0.12820528 0.03518407 -0.044793855 0.15696558 -0.15040952 0.14072254 0.0619 -0.24183881
0.084399335 0.096699946 0.123570636 -0.10467242 -0.18511117 -0.15331596 0.009285712 0.021084808
-0.043746904 0.10237077 0.035631947 0.0033476977 0.028336938 0.09589222 0.060699016 0.09769914
0.037302725 0.068134755 0.042899176 -0.07714161 -0.015601339 0.04537023 0.00995465 -0.12660019
0.09966071 -0.019640358 0.019769497 0.039999757 -0.09167689 0.12535399 -0.06866504 -0.002368342
-0.010603284 0.03689082 0.11977666 -0.097452834 -0.020946024 0.022260608 -0.012722746 -0.026108334
0.15499634 0.02002641 0.04378547 -0.04723752 -0.07798115 0.0067532305 -0.22206646 0.018618044
-0.14808188 -0.10966692 -0.082797326 0.057076547 0.06927997 -0.15052393 -0.08052893 -0.06556406
0.043019153 -0.12364015 -0.019879365 0.018843587 0.07442044 0.02643712 -0.075158335 -0.04872855
0.04872355 -0.017891355 0.08838959 0.08119503 -0.18557264 -0.1355049 -0.049445912 -0.0073768287
0.01832915 -0.052496694 0.06806969 0.09524699 0.026210656 -0.16990504 -0.039041813 0.053083066
-0.08467885 -0.06667028 0.097151384 0.107002735 -0.13093923 -0.14455765 0.01083455 -0.20038483
-0.048016343 0.011608318 -0.09449624 -0.21599048 -0.03347582 -0.19025898 0.08368938 -0.016677948
0.06456629 0.21870159 0.066306494 0.01576346 -0.0054635894 -0.08259419 -0.0463368 0.060102288
-0.08398147 -0.020668494 -0.064443864 -0.079003975 -0.048767883 -0.1083244 0.23086484 -0.025318922
-0.1034152 0.105805814 0.13387983 0.23544508 0.1763142 -0.116147645 0.06822928 0.04710286
0.005857232 -0.09657884 -0.03851597 -0.053918082 -0.11742981 -0.10998796 -0.022116156 0.10851984
-0.0773193 -0.07160379 -0.051215526 -0.12448551 0.0018138599 0.11268029 -0.12563673 -0.02364675
-0.012977315 -0.04164974 0.08529001 -0.081792735 0.13066606 0.034742508 -0.07680924 -0.25851446
0.032880034 -0.26341084 0.06514028 -0.09148684 -0.15046656 0.05269953 0.23275828 0.050640475
-0.017662987 -0.17488898 -0.09939205 -0.08180967 0.110698774 -0.06591787 -0.020842146 -0.074150965
0.048973214 -0.09111012 0.08270748 0.052028377 0.17950815 -0.048558842 0.041642774 -0.06898062
-0.12711711 -0.031519827 0.10769469 -0.010200621 0.107038535 0.24925214 -0.113197185 -0.09914153
0.0047515756 -0.16561133 0.010338132 0.022232806 -0.028518466 -0.0042025694 -0.022570709 0.17680892
-0.12812433 0.06097156 -0.010490573 -0.013761569 -0.073465526 -0.12142933 -0.07001893 0.043518294
0.03219768 -0.0044012177 -0.07991223 0.0049616816 0.026071675 -0.034880463 -0.2444165 0.16741447
0.23548332 0.009125734 -0.16202594 0.034908004 -0.0058109746 0.033616368 0.017452523 0.05770462
00000000: db7d ed3b c49e 3bbd 00b3 a6bc 4a66 87bd
00000010: 613a c43d 7a95 04bd 2483 33be 0742 32bd
00000020: c72b 0a3d 6fe1 433d 4589 623d 5e6c cfbc
00000030: d41b 4f3c bc01 023e 9e6f ecbd 127d 2b3d
00000040: 3680 9fbd e2cf 63be 72ea 6c3b 8f23 63bd
00000050: 1ea4 cabd 46c4 a8bc 8403 8cbd 231c b6bd
00000060: 04c6 083d bb13 ed3c f083 1e3e 3ea7 243e
00000070: 4679 3bbe 58b5 a0bd 78ee 5e3d ff21 c73d
00000080: a40e bd3d 9972 e1bd 47b6 c8bd 63b7 29bc
00000090: f4cf b1bc a281 e6bd 69e0 d1bd 4f34 5cbe
000000a0: 3f48 033e 2c1d 103d c379 37bd 96bb 203e
000000b0: f404 1abe 9219 103e db8a 7d3d 98a4 77be
000000c0: 8fd9 ac3d 9f0a c63d 9a12 fd3d 7e5e d6bd
000000d0: c88d 3dbe dcfe 1cbe 1923 183c 0cba ac3c
000000e0: f42f 33bd c4a7 d13d cef2 113d 0c65 5b3b
000000f0: de22 e83c 2463 c43d 889f 783d 7d16 c83d
00000100: beca 183d 3c8a 8b3d 0cb7 2f3d 6cfc 9dbd
00000110: c29c 7fbc 22d6 393d d418 233c 7ba3 01be
00000120: ea1a cc3d d1e4 a0bc a4f3 a13c c9d6 233d
00000130: 18c1 bbbd cc5c 003e 42a0 8cbd 2f36 1bbb
00000140: 66b9 2dbc d41a 173d 774d f53d 5a95 c7bd
00000150: ff96 abbc e15b b63c 1073 50bc 25e1 d5bc
00000160: 5cb7 1e3e 6d0e a43c 6558 333d 217c 41bd
00000170: 95b4 9fbd 344a dd3b 6465 63be de84 983c
00000180: c7a2 17be 0d99 e0bd a591 a9bd 19c9 693d
00000190: a8e2 8d3d f222 1abe 5aec a4bd 7346 86bd
000001a0: da34 303d 0c37 fdbd 0dda a2bc de5d 9a3c
000001b0: be69 983d a992 d83c 9dec 99bd 9797 47bd
000001c0: 5892 473d e490 92bc 9a05 b53d 9449 a63d
000001d0: c106 3ebe ccc1 0abe cc87 4abd 53b9 f1bb
000001e0: 0327 963c c606 57bd 1f68 8b3d db10 c33d
000001f0: bbb7 d63c 96fb 2dbe 4fea 1fbd a16d 593d
00000200: 1b6c adbd 6e8a 88bd 4ef7 c63d 4024 db3d
00000210: ef14 06be ec06 14be 6583 313c ae31 4dbe
00000220: c9ac 44bd d130 3e3c 3f87 c1bd 9c2c 5dbe
00000230: f11d 09bd 40d3 42be 5665 ab3d 31a0 88bc
00000240: 553b 843d 4ff3 5f3e b3cb 873d 5f22 813c
00000250: e907 b3bb 2527 a9bd a8cb 3dbd d12d 763d
00000260: 7afe abbd f950 a9bc 25fb 83bd d6cc a1bd
00000270: d5c0 47bd 2fd9 ddbd d567 6c3e a169 cfbc
00000280: 59cb d3bd b8b0 d83d cb17 093e 8418 713e
00000290: b68b 343e d1de edbd cbbb 8b3d eeee 403d
000002a0: 06ee bf3b 20cb c5bd ecc2 1dbd 35d9 5cbd
000002b0: 0a7f f0bd 5e41 e1bd f12c b5bc a63f de3d
000002c0: 9559 9ebd 02a5 92bd 5fc7 51bd 42f2 febd
000002d0: 0abf ed3a edc4 e63d eaa6 00be d4b6 c1bc
000002e0: ce9e 54bc eb98 2abd 87ac ae3d f382 a7bd
000002f0: 53cd 053e 294e 0e3d 2a4e 9dbd 025c 84be
00000300: 37ad 063d c9dd 86be 4468 853d 745d bbbd
00000310: e813 1abe 76db 573d 3058 6e3e 636c 4f3d
00000320: f8b1 90bc 1916 33be 0f8e cbbd d48b a7bd
00000330: 0ab6 e23d f3ff 86bd 26bd aabc 76dc 97bd
00000340: 2398 483d f197 babd 8a62 a93d b51b 553d
00000350: fcd0 373e a3e5 46bd 9d91 2a3d b645 8dbd
00000360: fd2a 02be ef1a 01bd 098f dc3d 8120 27bc
00000370: 0537 db3d f43b 7f3e edd3 e7bd b70a cbbd
00000380: 1bb3 9b3b 0496 29be 4561 293c 9321 b63c
00000390: 8f9f e9bc b5b5 89bb 35e6 b8bc 660d 353e
000003a0: 0633 03be 51bd 793d a7e0 2bbc 3478 61bc
000003b0: 1875 96bd f1af f8bd 1666 8fbd 3d40 323d
000003c0: b7e1 033d 1738 90bb 06a9 a3bd 9a95 a23b
000003d0: 4494 d53c d1de 0ebd 5248 7abe b36e 2b3e
000003e0: 8a22 713e 1a84 153c 21ea 25be b2fb 0e3d
000003f0: fd69 bebb 51b1 093d 98f8 8e3c ae5b 6c3d

model.2.bias f4 [200]
-0.0306782 -0.014539364 -0.019020623 0.021711463 -0.010462147 0.015471185 -0.0046064015 0.024258079
0.012746563 -0.014419731 -0.0014009764 -0.044255562 -0.026879322 -0.026762329 -0.0039877854 0.031568598
-0.025173394 -0.022539416 -0.0015880789 -0.13706139 -0.024902657 -0.015513437 -0.032133035 -0.028104287
-0.0124186985 -0.039694678 -0.00055227074 -0.11816283 -0.060248923 0.033637162 -0.040979657 0.108844936
-0.06361379 -0.0033372277 0.011579818 0.103144005 -0.012959956 -0.009913033 0.09627768 -0.0374433
-0.0024681431 0.06447304 -0.016978499 0.032155737 9.468222e-05 -0.009993918 0.07172986 -0.014531707
0.052080356 -0.13730253 0.027169969 -0.08296524 -0.0567138 0.0007832584 0.0 0.005008518
-0.090572 0.010695963 -0.021324579 -0.029810369 -0.02712702 0.02551951 -0.011076316 -0.0060806717
-0.011125489 -0.052463856 -0.021136876 0.0 -0.010747376 0.0061639096 0.09717 0.018577315
-0.004858299 -0.013240744 0.019294864 -0.13678785 -0.01795496 0.001020505 -0.086022496 -0.019981548
0.01900058 -0.032368433 0.0 0.06288144 -0.02511688 -0.03761957 -0.021174168 -0.024224458
-0.018874314 0.0 -0.030039351 -0.026191747 -0.023431592 0.0055696946 0.07237901 0.055868447
-0.09388216 0.042978946 0.0 -0.089739166 0.048405033 -0.0202471 -0.0038543548 0.0
-0.06706458 -0.04344499 -0.017774055 -0.10981414 0.19128071 -0.026742691 0.014402688 -0.009999779
-0.031015122 -0.0036310903 -0.0008608598 -0.009999459 0.05152744 -0.009999765 -0.0107985735 0.011353509
-0.00999988 -0.0442061 -0.009992336 -0.030919142 -0.00866482 0.04786378 -0.028918548 -0.100277774
0.1078498 -0.0247424 0.08701059 0.0 0.21823037 0.02065184 -0.021852005 -0.009984484
0.013949778 -0.0362963 0.021033812 0.11794163 -0.10056865 -0.009999046 -0.08801796 -0.024320673
-0.0017259871 -0.04194937 0.053009417 -0.02840207 0.016839836 0.05402982 -0.0074136076 -0.05868714
-0.0849193 0.022083491 -0.014904622 -0.025845446 -0.024419717 -0.021136295 -0.017694501 -0.022459488
-0.0043537235 0.12776601 0.0 -0.025041902 -0.07817805 0.0008760198 0.16477713 -0.08832974
-0.023336232 -0.0156248305 0.19173308 0.12012529 -0.0036350996 -0.029070653 -0.035901126 -0.010756724
-0.012881557 -0.014334202 -0.06626554 -0.0063469587 -0.020850688 -0.014807453 -0.024137903 -0.03221287
0.07244644 -0.023124926 0.0 0.10759919 -0.025014143 0.03270464 -0.009999449 -0.03077447
0.0 0.0865643 -0.015793795 0.0364441 -0.027579892 0.020915894 0.026006758 -0.021782737
00000000: d950 fbbc 8336 6ebc 23d1 9bbc 3ddc b13c
00000010: 6d69 2bbc da7a 7d3c 4cf1 96bb e1b8 c63c
00000020: f6d6 503c bc40 6cbc f8a0 b7ba 5245 35bd
00000030: 0632 dcbc ac3c dbbc f8ab 82bb 134e 013d
00000040: 6f38 cebc 95a4 b8bc 1627 d0ba d259 0cbe
00000050: a800 ccbc 122c 7ebc ee9d 03bd f63a e6bc
00000060: cc77 4bbc e396 22bd 43c6 10ba 5bff f1bd
00000070: 93c7 76bd 1fc7 093d 49da 27bd 18ea de3d
00000080: f247 82bd 64b5 5abb 47b9 3d3c 2a3d d33d
00000090: ff55 54bc 466a 22bc 3b2d c53d 255e 19bd
000000a0: 92c0 21bb 710a 843d 7e16 8bbc bcb5 033d
000000b0: 2190 c638 88bd 23bc 1be7 923d 6616 6ebc
000000c0: 3652 553d 0999 0cbe 8e93 de3c aee9 a9bd
000000d0: bb4c 68bd 9553 4d3a 0000 0000 7f1e a43b
000000e0: d07d b9bd 1f3e 2f3c e2b0 aebc e034 f4bc
000000f0: 7c39 debc 4b0e d13c 7079 35bc 5f40 c7bb
00000100: af47 36bc 57e4 56bd 3e27 adbc 0000 0000
00000110: c315 30bc 9ffa c93b 1101 c73d 742f 983c
00000120: 5e32 9fbb b5ef 58bc 4310 9e3c 1d12 0cbe
00000130: 4816 93bc 77c2 853a 902c b0bd 58b0 a3bc
00000140: 1ba7 9b3c c394 04bd 0000 0000 fcc7 803d
00000150: eac1 cdbc fa16 1abd 7375 adbc 5f72 c6bc
00000160: 4e9e 9abc 0000 0000 1615 f6bc 1390 d6bc
00000170: 9cf3 bfbc fc81 b63b 723b 943d 50d6 643d
00000180: 4a45 c0bd b10a 303d 0000 0000 2bc9 b7bd
00000190: 5b44 463d 3fdd a5bc 5899 7cbb 0000 0000
000001a0: 2859 89bd 60f3 31bd e59a 91bc 3ce6 e0bd
000001b0: 17df 433e 7d13 dbbc 40f9 6b3c 1dd6 23bc
000001c0: 6d13 febc 96f7 6dbb 53ab 61ba c5d4 23bc
000001d0: 700e 533d 0ed6 23bc 80ec 30bc 1104 3a3c
000001e0: 89d6 23bc 7511 35bd e5b6 23bc 244a fdbc
000001f0: e4f6 0dbc d00c 443d 97e6 ecbc 6f5e cdbd
00000200: 5be0 dc3d 93b0 cabc 9c32 b23d 0000 0000
00000210: c877 5f3e 0c2e a93c fa02 b3bc f695 23bc
00000220: 9c8d 643c 6eab 14bd 1a4f ac3c 628b f13d
00000230: f0f6 cdbd 0ad3 23bc c342 b4bd 263c c7bc
00000240: 843a e2ba 1ad3 2bbd 6720 593d 75ab e8bc
00000250: b2f3 893c 5f4e 5d3d d9ed f2bb ed61 70bd
00000260: 2cea adbd 70e8 b43c 8432 74bc d4b9 d3bc
00000270: dc0b c8bc 0626 adbc 0ff4 90bc f6fc b7bc
00000280: aea9 8ebb 18d5 023e 0000 0000 ad24 cdbc
00000290: d01b a0bd b2a4 653a 56bb 283e 39e6 b4bd
000002a0: a02b bfbc 4aff 7fbc ad55 443e 3f04 f63d
000002b0: da3a 6ebb 9425 eebc 0f0d 13bd f83c 30bc
000002c0: 2b0d 53bc 00da 6abc 3ab6 87bd 26fa cfbb
000002d0: 10cf aabc f69a 72bc dabc c5bc a4f1 03bd
000002e0: cd5e 943d 7c70 bdbc 0000 0000 f75c dc3d
000002f0: 76ea ccbc 4df5 053d bbd4 23bc be1a fcbc
00000300: 0000 0000 a048 b13d fd61 81bc 6946 153d
00000310: 3aef e1bc cf57 ab3c 200c d53c b671 b2bc

model.5.weight f4 [200, 200]
-0.20300697 0.11536987 0.16709213 0.14238212 0.036594775 -0.0021498746 0.0997322 0.068527654
0.1070709 -0.10363569 0.008846753 0.026197715 -0.07343376 0.08443628 0.13639224 0.06285984
0.036881622 0.049442407 0.08961134 -0.13171871 -0.1921957 0.101647094 -0.11938325 0.16078456
0.2613182 -0.072955735 0.04372276 0.086381346 -0.04756783 0.05459534 -0.004473409 -0.064894095
-0.028474515 0.07009595 0.0787323 -0.063660674 0.15436296 -0.06700858 0.0967717 -0.07003059
-0.09231859 -0.13819847 -0.14542244 -0.12779544 0.08116108 0.073815055 0.031057816 -0.040089335
-0.22678782 -0.04270093 0.06780414 0.16515794 -0.01834007 -0.20082785 0.09267939 -0.026658788
-0.045660157 0.054353066 -0.014963015 -0.07413302 0.024407048 0.008573032 0.056195512 -0.0519323
0.06454887 0.17109595 0.011011394 0.20648196 0.19506109 -0.10700193 0.0031444263 -0.07109419
0.08219285 0.15246738 -0.0062542413 -0.058299575 -0.23536143 -0.07985452 0.009084259 -0.039877705
-0.10038679 -0.11289572 0.048588037 -0.08809265 -0.06067528 0.056494456 -0.07181736 -0.054885145
-0.2619202 0.031099385 -0.09423205 -0.017638586 0.1739155 -0.28327942 0.06904659 0.003160798
0.054649804 -0.05906886 0.005851324 -0.13027847 0.13829117 0.11374043 -0.07646996 -0.10664318
-0.026365533 0.044410042 0.13238795 -0.025610933 0.07717712 0.009933977 -0.07676925 -0.09640288
-0.064033344 0.20886318 -0.17359066 0.101946235 -0.13551912 -0.14275222 0.16887236 0.00050659804
0.11243813 0.11568378 -0.050799705 -0.031991035 -0.041754786 -0.04579555 0.09057637 -0.16660601
-0.023337487 0.014277507 0.020852864 -0.1000401 -0.021748872 0.17782421 0.13397193 0.07980307
-0.16623235 -0.071483865 -0.11360162 -0.16331144 -0.11038722 0.0007152902 -0.05947706 0.037800733
0.11240508 0.13372415 -0.076763794 0.0453373 -0.03149258 -0.035506424 0.04159117 0.123980545
-0.2501734 0.060535524 0.17928103 0.057216525 -0.032628782 0.08007561 -0.005419188 -0.019789878
-0.07292783 0.045679238 -0.15457907 0.20935707 0.0076324106 -0.018769525 0.025256766 0.066319875
-0.012589541 0.18013397 -0.0008305515 0.05654306 -0.07262333 -0.14732201 0.16347174 -0.27809328
0.08789689 -0.1938367 0.042332705 -0.07696151 -0.16318625 -0.083927095 -0.03456609 0.0014068494
-0.045503195 0.11221874 -0.1361528 0.06643542 -0.12118162 0.12960865 -0.08868174 -0.13849698
0.023290046 -0.13839926 -0.0043827514 0.030084826 0.18209936 -0.22597688 -0.066302605 0.07282648
0.004796591 0.118058205 0.044394262 -0.08662267 -0.0042523295 -0.07964882 0.12712231 -0.16090445
-0.089454636 -0.052666187 0.12425359 -0.01314767 0.037639007 -0.064161435 0.08235848 0.04072411
-0.0123249125 -0.007977593 -0.14256854 0.14419621 0.061140463 0.11306267 0.13434337 0.118583806
0.029398685 0.0037164278 -0.04935078 0.011239113 0.24162917 0.149832 -0.124184154 0.07328051
-0.09993471 -0.15840574 -0.2044861 0.069497794 -0.022550957 -0.0056949356 0.10997762 -0.08663332
-0.1443551 0.11727376 0.004939168 -0.17585886 0.11796851 0.026961317 -0.05846625 0.06464347
0.056464143 0.02250425 -0.010548338 0.15940611 0.19158684 -0.076137096 0.09750546 -0.2801419
00000000: 0fe1 4fbe 0a47 ec3d 331a 2b3e 9ecc 113e
00000010: 67e4 153d e9e4 0cbb 6540 cc3d 3a58 8c3d
00000020: fd47 db3d f33e d4bd f9f1 103c 979c d63c
00000030: 7064 96bd eeec ac3d 68aa 0b3e a9bc 803d
00000040: 2f11 173d 1f84 4a3d 2686 b73d 45e1 06be
00000050: f3ce 44be 5a2c d03d 357f f4bd b5a4 243e
00000060: 80cb 853e d169 95bd a316 333d b4e8 b03d
00000070: 7cd6 42bd 5d9f 5f3d ad95 92bb 32e7 84bd
00000080: 6343 e9bc 778e 8f3d 663e a13d 8760 82bd
00000090: 5311 1e3e cb3b 89bd 3e30 c63d 336c 8fbd
000000a0: 8711 bdbd e683 0dbe 9fe9 14be cfdc 02be
000000b0: c837 a63d 592c 973d f66c fe3c b734 24bd
000000c0: 113b 68be 2ce7 2ebd e6dc 8a3d 2a1f 293e
000000d0: ea3d 96bc d1a5 4dbe b1ce bd3d 8863 dabc
000000e0: 2506 3bbd 52a1 5e3d 6f27 75bc 0ed3 97bd
000000f0: 4af1 c73c e775 0c3c 442d 663d f7b6 54bd
00000100: 3332 843d c733 2f3e 2269 343c 0270 533e
00000110: 18be 473e d423 dbbd b812 4e3b d599 91bd
00000120: ba54 a83d 6920 1c3e 61f0 ccbb 89cb 6ebd
00000130: 9602 71be c48a a3bd 25d6 143c ce56 23bd
00000140: 9797 cdbd df35 e7bd 4004 473d eb69 b4bd
00000150: a486 78bd bb66 673d fb14 93bd 3fcf 60bd
00000160: 681a 86be 23c4 fe3c bcfc c0bd cc7e 90bc
00000170: e816 323e 000a 91be 4c68 8d3d 6425 4f3b
00000180: 79d8 5f3d 30f2 71bd 77bc bf3b b867 05be
00000190: 339c 0d3e bef0 e83d 489c 9cbd bd67 dabd
000001a0: 88fc d7bc 4ee7 353d b590 073e 05ce d1bc
000001b0: 0a0f 9e3d 1fc2 223c 3239 9dbd e06e c5bd
000001c0: ea23 83bd 3be0 553e c0c1 31be 30c9 d03d
000001d0: 86c5 0abe a32d 12be e0ec 2c3e 38cd 043a
000001e0: f645 e63d 9eeb ec3d 5a13 50bd 0809 03bd
000001f0: 1107 2bbd 1d94 3bbd 1b80 b93d c49a 2abe
00000200: 422e bfbc 34ec 693c a0d3 aa3c d3e1 ccbd
00000210: b12a b2bc 8d17 363e f02f 093e cb6f a33d
00000220: d038 2abe 2266 92bd f7a7 e8bd 1d3b 27be
00000230: b212 e2bd 5082 3b3a 389e 73bd f1d4 1a3d
00000240: a234 e63d fcee 083e 5636 9dbd 9bb3 393d
00000250: 5dfe 00bd 2f6f 11bd 815b 2a3d 83e9 fd3d
00000260: ba16 80be 19f4 773d 7295 373e e05b 6a3d
00000270: c2a5 05bd aefe a33d 7293 b1bb 621e a2bc
00000280: 305b 95bd 271a 3b3d fa49 1ebe b361 563e
00000290: 4d19 fa3b 8cc2 99bc 47e7 ce3c b7d2 873d
000002a0: 5d44 4ebc 0a75 383e 5eb9 59ba b299 673d
000002b0: 8abb 94bd 95db 16be 2365 273e 3e62 8ebe
000002c0: 4903 b43d 217d 46be 0f65 2d3d ff9d 9dbd
000002d0: 4c1a 27be f8e1 abbd 2c95 0dbd 0866 b83a
000002e0: 8f61 3abd f0d2 e53d a46b 0bbe 4b0f 883d
000002f0: 122e f8bd 21b8 043e c69e b5bd 27d2 0dbe
00000300: c4ca be3c 89b8 0dbe 2f9d 8fbb 7474 f63c
00000310: 4178 3a3e 7c66 67be a9c9 87bd 0d26 953d
00000320: b92c 9d3b 80c8 f13d c2d6 353d 3a67 b1bd
00000330: 2057 8bbb ec1e a3bd 5a2c 023e 23c4 24be
00000340: fe33 b7bd 80b8 57bd ab78 fe3d 5369 57bc
00000350: 5c2b 1a3d 1267 83bd 90ab a83d 53ce 263d
00000360: 6eee 49bc 73b4 02bc 7dfd 11be 2ca8 133e
00000370: 6c6e 7a3d 678d e73d 4f91 093e 11dc f23d
00000380: 83d5 f03c 508f 733b 0b24 4abd 4224 383c
00000390: a36d 773e 8f6d 193e 4354 febd 1814 963d
000003a0: 92aa ccbd 1d35 22be ce64 51be dc54 8e3d
000003b0: c9bc b8bc 959c babb f23b e13d cf6c b1bd
000003c0: d3d1 13be 3a2d f03d bfd8 a13b 5814 34be
000003d0: 7999 f13d fbdd dc3c 4e7a 6fbd cc63 843d
000003e0: f246 673d d55a b83c f0d2 2cbc 5b3b 233e
000003f0: 572f 443e c4ed 9bbd f1b0 c73d c26e 8fbe

model.5.bias f4 [200]
-0.032297537 -0.0076098125 -0.10093355 0.00043730455 0.015622178 -0.006213695 -0.027519917 -0.011388669
-0.01981301 -0.022817502 -0.012643666 -0.012769365 -0.008075599 -0.0012003762 0.002889542 -0.04449958
-0.019648224 -0.0052632554 -0.047714815 -0.024593985 -0.013480323 -0.06170926 -0.0065198154 -0.019536996
-0.036477875 0.021317653 -0.026920008 -0.037221953 -0.03179428 -0.002736684 -0.033736095 -0.005138348
-0.017118717 -0.031248985 -0.00508501 -0.023167595 0.0073744906 -0.08226512 -0.03195075 -0.05024726
-0.062464513 -0.024747271 -0.04024793 -0.025021896 0.00038359984 -0.027377194 -0.03583192 -0.02509506
-0.03603552 -0.026150808 -0.0051118894 -0.02709483 0.010071431 -0.02095778 -0.017608255 -0.029795911
-0.021960277 -0.0028898243 -0.009823891 -0.0018288651 -0.026807833 -0.028590785 -0.009999654 -0.01294853
-0.004898804 -0.045368217 -0.023170335 0.00025042883 -0.036488693 -0.026885435 -0.012509912 -0.03302866
-0.045890715 -0.015019566 -0.0017929007 -0.010742206 0.03230457 -0.046059407 -0.006078301 -0.03297832
-0.028406791 -0.017582778 -0.025257895 -0.014759893 0.002890567 0.050234273 -0.013592485 0.061534833
0.016242651 -0.011108812 -0.026735509 -0.0075476803 -0.0070577012 -0.031354964 -0.039216883 -0.068071485
0.00079333805 -0.035166167 0.009623518 -0.042749602 -0.03652007 -0.03180221 -0.028189212 -0.05587189
-0.029893577 -0.06200554 -0.020478847 -0.012194929 -0.0039250725 -0.018447986 -0.019837633 0.009999985
-0.027253497 -0.025845073 0.008042201 -0.0064771757 -0.01898457 -0.020242654 -0.04414198 -0.017034018
-0.014881568 0.051923994 -0.022585457 -0.035744905 -0.025489978 -0.042658836 -0.04822475 -0.014384791
-0.011605868 0.007862995 -0.016556626 -0.0060460856 -0.02099909 -0.020013295 0.11216369 -0.044973306
-0.023826746 0.042940363 -0.03858656 -0.062093258 0.016146986 -0.0668623 -0.012777446 -0.015525091
-0.018668996 0.01855343 -0.03063871 -0.0044269925 -0.04716795 0.0077369455 -0.03602572 0.006818921
-0.047865782 -0.024305876 -0.043487214 -0.023344481 -0.049780905 -0.057683267 -0.039973438 0.12075381
-0.0017574206 -0.063625015 -0.00819295 0.02679652 -0.029559009 -0.041850314 -0.0018015984 -0.036003064
-0.017761024 -0.020089125 -0.02236603 3.794217e-05 -0.047048654 -0.023628712 -0.039318834 0.035930954
-0.047761116 -0.02061705 -0.015350507 -0.016220357 -0.039311998 -0.026725793 -0.033663083 -0.020587044
-0.009168173 -0.03999126 -0.012709632 -0.028229175 -0.01505001 -0.026082575 -0.06112274 -0.0014414056
0.011039034 -0.0056170793 -0.040443305 -0.055871718 -0.031866495 0.015288268 -0.09963201 -0.014347255
00000000: 6c4a 04bd bc5b f9bb 40b6 cebd 0646 e539
00000010: 2af4 7f3c 409c cbbb 7371 e1bc 8a97 3abc
00000020: e54e a2bc c5eb babc 6127 4fbc 9936 51bc
00000030: 844f 04bc f155 9dba 785e 3d3b 3145 36bd
00000040: 50f5 a0bc 6377 acbb 9c70 43bd 5379 c9bc
00000050: 93dc 5cbc d9c2 7cbd 2da4 d5bb 0d0c a0bc
00000060: d369 15bd 5ca2 ae3c 5987 dcbc 0c76 18bd
00000070: b83a 02bd f059 33bb dc2e 0abd 965f a8bb
00000080: 8d3c 8cbc dffd ffbc 28a0 a6bb f8c9 bdbc
00000090: b6a5 f13b 9e7a a8bd cade 02bd 12d0 4dbd
000000a0: cada 7fbd caba cabc 03db 24bd b8fa ccbc
000000b0: e61d c939 2346 e0bc 7ec4 12bd 2894 cdbc
000000c0: fb99 13bd 383a d6bc a381 a7bb faf5 ddbc
000000d0: a502 253c a6af abbc 303f 90bc 8e16 f4bc
000000e0: 0ae6 b3bc 3563 3dbb 63f4 20bc 88b6 efba
000000f0: 1a9c dbbc 3937 eabc 97d5 23bc 1226 54bc
00000100: 2586 a0bb 06d4 39bd b7cf bdbc fd4b 8339
00000110: 2b75 15bd d83e dcbc 60f6 4cbc 0f49 07bd
00000120: e7f7 3bbd a014 76bc c4ff eaba 1400 30bc
00000130: cc51 043d caa8 3cbd 7c2c c7bb 4614 07bd
00000140: 5cb5 e8bc c209 90bc a5e9 cebc 7ad3 71bc
00000150: ab6f 3d3b 74c2 4d3d 04b3 5ebc f30b 7c3d
00000160: 4f0f 853c bc01 36bc 6d04 dbbc 8852 f7bb
00000170: 4a44 e7bb 106e 00bd e2a1 20bd 1069 8bbd
00000180: 04f8 4f3a 660a 10bd f6ab 1d3c 351a 2fbd
00000190: 1296 15bd 0943 02bd 10ed e6bc ecd9 64bd
000001a0: 60e3 f4bc 85f9 7dbd 41c3 a7bc 3dcd 47bc
000001b0: e59d 80bb 3b20 97bc 8882 a2bc fad6 233c
000001c0: ba42 dfbc 0cb9 d3bc 70c3 033c 7d3e d4bb
000001d0: 8785 9bbc ecd3 a5bc 39ce 34bd ed8a 8bbc
000001e0: d2d1 73bc 41ae 543d 2305 b9bc 4069 12bd
000001f0: 5cd0 d0bc 08bb 2ebd 5187 45bd 30ae 6bbc
00000200: 8a26 3ebc cbd3 003c c3a1 87bc 3e1e c6bb
00000210: 4906 acbc ecf2 a3bc 14b6 e53d ee35 38bd
00000220: 4f30 c3bc 3ce2 2f3d f10c 1ebd 8055 7ebd
00000230: af46 843c 1aef 88bd 7e58 51bc f45c 7ebc
00000240: b9ef 98bc 5dfd 973c 08fe fabc 4e10 91bb
00000250: 2e33 41bd 3486 fd3b b58f 13bd 4171 df3b
00000260: e90e 44bd 1e1d c7bc a61f 32bd ed3c bfbc
00000270: 10e7 4bbd 4a45 6cbd 30bb 23bd c64d f73d
00000280: 4059 e6ba d54d 82bd b93b 06bc 6084 db3c
00000290: bc25 f2bc 3c6b 2bbd 9c23 ecba f377 13bd
000002a0: 917f 91bc f391 a4bc f738 b7bc 1824 1f38
000002b0: 17b6 40bd 0091 c1bc c90c 21bd 562c 133d
000002c0: 29a1 43bd 16e5 a8bc b180 7bbc 8ee0 84bc
000002d0: 9e05 21bd 0df0 dabc 4de2 09bd 29a6 a8bc
000002e0: 1b36 16bc e0cd 23bd 0f3c 50bc df40 e7bc
000002f0: 5194 76bc 20ab d5bc d75b 7abd 8ced bcba
00000300: 11dd 343c 7a0f b8bb e1a7 25bd bed9 64bd
00000310: 7186 02bd a57b 7a3c de0b ccbd c010 6bbc

model.8.weight f4 [1, 200]
-0.053456377 0.016953781 -0.02446038 -0.044403914 -0.021228055 0.0699578 0.09513321 -0.015326765
0.15192316 -0.12663189 0.05473771 -0.012445832 -0.11929711 -0.092583776 -0.013376436 -0.018491201
0.12555067 0.004958463 0.020448329 -0.0132963555 0.027791245 -0.02240011 0.023120273 -0.015773596
-0.045265816 -0.026550215 -0.04817524 0.021792447 0.041494764 -0.015307802 -0.06864632 0.004367421
0.09638156 0.055534057 -0.10988715 -0.021964088 0.0191744 -0.01845385 0.037035502 0.04665181
0.002273236 0.02141897 0.014393354 0.02688014 -0.0092804255 0.06321081 0.10619648 0.0958227
0.097804666 0.11369396 -0.013760473 0.007932133 0.013986124 0.103332005 -0.12933974 0.011829466
0.025195442 -0.093390904 -0.03607841 0.02987164 0.09056102 -0.039702233 0.04988855 -0.046053037
-0.026701147 0.039768193 0.010822092 0.016217472 -0.018578313 -0.12746412 -0.014122267 0.07331059
0.058237135 -0.12123562 0.0033165365 -0.02242737 -0.01285782 0.09258409 -0.014908377 -0.09627599
0.12021001 -0.0808576 0.10584181 -0.11956024 -0.0064699897 -0.016832713 0.15685824 -0.017882906
-0.0118853925 0.29229385 0.15301658 -0.014001869 -0.22570428 -0.18072392 0.018567586 -0.0022785137
0.04603856 0.13092427 -0.010964045 -0.037547063 0.06174939 0.024408504 0.0077952454 0.0033082948
0.16526268 0.0005770298 -0.062526 -0.082157955 -0.16219401 0.08940517 0.14388089 0.17115028
0.10760614 0.12510931 -0.013661471 0.08209552 0.0057668397 -0.15507802 -0.0122217825 -0.076230265
0.007859908 -0.016368337 -0.017759064 0.08575539 0.023903875 0.0017718184 0.00092508434 -0.1192417
-0.17340206 -0.011960605 -0.055175807 0.026245397 -0.012282849 -0.062394407 -0.0705445 0.085514836
0.1406882 -0.030185414 -0.0015611984 0.0015421152 -0.01651769 -0.014446097 -0.09959061 0.00971075
0.008700495 -0.019181652 -0.09673832 0.16333665 -0.027138146 0.0050523826 0.0018815519 -0.03881162
-0.016074477 0.066686034 0.07395903 0.0012526773 0.12881495 0.002275275 9.92039e-05 -0.02779771
0.090635404 0.027118504 -0.11071158 -0.021653002 0.0480632 -0.017097943 -0.19430368 0.0079365345
0.25903445 0.008334441 -0.026986903 -0.011720702 0.033937387 -0.18685591 0.054813705 -0.009927552
0.05986536 -0.24578328 -0.12992035 -0.20120579 -0.09024855 -0.09270371 -0.03052457 -0.035718363
0.0063820966 0.068622075 -0.121326946 -0.21105433 0.26934966 0.08223488 -0.02701088 0.034623705
-0.024809819 -0.1933628 0.0012851539 0.0010459609 0.009879691 -0.009113629 -0.025129132 0.010926889
00000000: 13f5 5abd a8e2 8a3c 2361 c8bc e1e0 35bd
00000010: 75e6 adbc 0946 8f3d 33d5 c23d 1d1d 7bbc
00000020: bf91 1b3e caab 01be a634 603d 9ae9 4bbc
00000030: 0b52 f4bd 909c bdbd d728 5bbc dc7a 97bc
00000040: 5b90 003e 9a7a a23b 4183 a73c f5d8 59bc
00000050: 77aa e33c 6f80 b7bc ba66 bd3c a137 81bc
00000060: a668 39bd d67f d9bc 6753 45bd 1386 b23c
00000070: 6af6 293d 93cd 7abc 7196 8cbd 951c 8f3b
00000080: b263 c53d ae77 633d 840c e1bd 08ee b3bc
00000090: a213 9d3c 872c 97bc 8ab2 173d f815 3f3d
000000a0: 92fa 143b d676 af3c 1ad2 6b3c bd33 dc3c
000000b0: ed0c 18bc ab74 813d 8a7d d93d b13e c43d
000000c0: d04d c83d 61d8 e83d 9b73 61bc c7f5 013c
000000d0: 0e26 653c bb9f d33d a371 04be 60d0 413c
000000e0: ac66 ce3c bb43 bfbd f4c6 13bd 5fb5 f43c
000000f0: 0e78 b93d cf9e 22bd f057 4c3d 1ca2 3cbd
00000100: 5dbc dabc f9e3 223d 254f 313c 81da 843c
00000110: 8c31 98bc f485 02be 1561 67bc dd23 963d
00000120: 108a 6e3d 614a f8bd 405a 593b 9bb9 b7bc
00000130: 9ba9 52bc ba9c bd3d 4442 74bc 592c c5bd
00000140: aa30 f63d ab98 a5bd 97c3 d83d 00dc f4bd
00000150: 3502 d4bb c2e4 89bc 729f 203e 2c7f 92bc
00000160: f3ba 42bc 8aa7 953e 61b0 1c3e 1868 65bc
00000170: 061f 67be b10f 39be 0d1b 983c 1e53 15bb
00000180: ee92 3c3d 0311 063e 8aa2 33bc f3ca 19bd
00000190: eeec 7c3d 58f4 c73c 426f ff3b facf 583b
000001a0: 9f3a 293e d043 173a a20d 80bd 6e42 a8bd
000001b0: 3016 26be 0f1a b73d 8355 133e 0542 2f3e
000001c0: 9c60 dc3d a81c 003e 5dd4 5fbc b221 a83d
000001d0: c2f7 bc3b c6cc 1ebe df3d 48bc 9d1e 9cbd
000001e0: d8c6 003c e416 86bc 757b 91bc 86a0 af3d
000001f0: 0fd2 c33c 5c3c e83a 5c81 723a fe34 f4bd
00000200: 4f90 31be 6af6 43bc 0700 62bd 9600 d73c
00000210: 013e 49bc 4791 7fbd a379 90bd 6722 af3d
00000220: 9110 103e 6747 f7bc 20a1 ccba cd20 ca3a
00000230: 1b50 87bc 53af 6cbc 29f6 cbbd d619 1f3c
00000240: 858c 0e3c d722 9dbc be1e c6bd b941 273e
00000250: d150 debc 758e a53b 689e f63a eff8 1ebd
00000260: 9fae 83bc b092 883d d577 973d e030 a43a
00000270: 11e8 033e c81c 153b b00b d038 06b8 e3bc
00000280: 0e9f b93d a027 de3c c1bc e2bd a361 b1bc
00000290: ebdd 443d fc10 8cbc 8bf7 46be 3d08 023c
000002a0: 2aa0 843e 2e8d 083c a313 ddbc 3008 40bc
000002b0: ee01 0b3d 2857 3fbe 5684 603d 2ca7 22bc
000002c0: 6135 753d 9dae 7bbe d709 05be e408 4ebe
000002d0: 3bd4 b8bd 71db bdbd aa0e fabc 6b4d 12bd
000002e0: e820 d13b bb89 8c3d 437a f8bd a01e 58be
000002f0: 33e8 893e c36a a83d ec45 ddbc 96d1 0d3d
00000300: f63d cbbc e600 46be 9c72 a83a a018 893a
00000310: 6dde 213c 5551 15bc 9cdb cdbc b206 333c
