Challenge_1/Weights/model_reward_Qube-v0_mse_0.00000272.params (torch_old, 330207 bytes, 7 tensors)

model.0.weight f4 [200, 7]
0.024210084 -0.6588627 -0.34571224 0.05550332 0.4928044 -0.19340776 0.15512589 -0.35351342
0.4463194 0.56804615 -0.8933805 -0.48008817 0.42093068 -0.24170278 0.55255866 0.049352925
-0.017991947 -0.0017954475 -0.35116622 -0.25450906 -0.1721599 0.18729047 0.2895751 -0.6186037
-0.081195034 -0.6911115 0.16315126 0.3475232 0.33119047 -0.27053508 -0.70113415 0.094165266
-0.021711148 -0.24221797 -0.090352654 0.2455723 0.055990547 -0.7486153 -0.58993834 0.62861186
-0.13889009 0.55057853 0.79972047 0.68274105 0.54863644 -0.5154962 -0.9743888 -0.36562508
0.42807633 0.2382339 -0.14337838 -0.7491022 -0.2588672 0.22049432 0.67810476 -0.40324143
0.056720532 0.2082013 0.08790871 0.11623706 0.1359489 -1.0440209 0.06399523 0.47998744
-0.1906405 -0.044852927 -0.5008093 0.39653784 -0.3581023 0.9633524 -1.1720934 -0.21661542
0.063863195 -0.041197687 0.38031206 -0.1954448 0.5638742 -0.40231168 1.28615 -0.5671815
0.28990766 0.19213745 -0.81019205 0.6721451 -0.78529537 0.2915432 -0.6636949 -0.24878398
-0.2722603 0.19700079 -0.5394678 0.24947728 -0.21083575 -0.1474941 0.36044824 0.080469124
0.29778272 0.27670744 0.1437118 0.8056004 -0.03624109 0.22249569 -0.45412397 0.37819645
0.29304227 -0.15444429 0.57101953 -0.42195752 0.04722015 0.211344 0.32608432 -0.51456326
-0.99099773 -1.4470619 0.32211834 -0.09257115 -0.15995158 -0.78118134 -0.1567957 -0.46796238
0.020497907 -0.06434673 -1.0265774 0.6423361 0.7189922 0.3140835 -0.10432224 -0.1903676
-0.18832187 1.1104442 0.10701931 -0.5535223 0.26519173 0.95487577 0.47561702 -0.32126662
-0.08626598 0.075947426 -0.5080994 0.08050762 -1.0665536 1.0723948 0.75061154 0.43240112
-1.595638 0.14046805 -0.9964437 -0.16799587 -0.09184277 0.76597875 0.422438 -0.4880492
-0.3019464 0.04898229 -1.0616734 0.17746623 -0.1886419 0.02541775 -0.13110292 -0.16980545
0.0059524016 -1.1724395 -0.18954015 -0.97186756 -0.22823669 0.35973907 0.1219949 -0.46664205
-0.5949142 0.65481526 0.32218644 0.38246578 -0.07826254 -0.5320775 -0.16838521 0.6415476
-0.5488502 0.4574517 0.5429396 -0.045513835 -0.0810329 0.10819297 0.051144365 -0.52414066
-0.36564755 0.8855573 0.23679817 0.18967418 -0.5611979 0.15532696 0.27156577 0.06884497
0.48504445 0.22092731 0.51423746 0.25345334 0.15555222 -1.1423272 0.13967185 -0.41528246
-0.54128194 0.006127735 -0.60203195 0.236584 -0.054603137 -0.6823042 -0.06638744 0.6341843
-0.045235332 0.8605459 0.22285038 -0.3851508 -0.10823219 0.32055685 -1.0162227 0.012427273
-0.82028896 -0.38173088 -0.28732798 -0.6468574 1.4672048 -0.5164045 0.39990035 0.48248798
-0.2943932 -0.18516846 0.010090195 0.03736199 1.1991985 0.1687206 0.21112078 0.22366066
-0.36393568 0.05221565 0.25532314 0.76537603 0.59514207 -0.35955966 -0.28250587 -0.17953238
-0.2051321 -0.26981106 -0.619299 0.8876642 -0.08546594 0.5453943 0.15403207 0.4526289
-1.4530185 -0.020300495 -0.20204976 -0.28617662 0.401026 0.23404388 0.23638512 -0.60735875
00000000: 3a54 c63c 3aab 28bf 3201 b1be 7357 633d
00000010: dc50 fc3e af0c 46be 52d9 1e3e b6ff b4be
00000020: fa83 e43e 796b 113f 96b4 64bf 1ece f5be
00000030: 3a84 d73e ef80 77be 7c74 0d3f 4b26 4a3d
00000040: d963 93bc 3955 ebba 0fcc b3be 034f 82be
00000050: af4a 30be 13c9 3f3e 3043 943e d05c 1ebf
00000060: 9549 a6bd afec 30bf 2011 273e 90ee b13e
00000070: cc91 a93e 9383 8abe 877d 33bf b8d9 c03d
00000080: 94db b1bc fd07 78be d00a b9bd 4e77 7b3e
00000090: 5856 653d 41a5 3fbf 3306 17bf b5ec 203f
000000a0: 3439 0ebe b7f2 0c3f 7bba 4c3f 1ec8 2e3f
000000b0: 7073 0c3f 8ff7 03bf 8b71 79bf 3633 bbbe
000000c0: d22c db3e 96f3 733e c8d1 12be 29c5 3fbf
000000d0: 3e8a 84be 43c9 613e 4698 2d3f a975 cebe
000000e0: ca53 683d b932 553e 7b09 b43d b20d ee3d
000000f0: 3036 0b3e 7aa2 85bf ee0f 833d eac0 f53e
00000100: 4337 43be b4b7 37bd 0a35 00bf 0207 cb3e
00000110: 2f59 b7be 439e 763f 2807 96bf 6fd0 5dbe
00000120: b5ca 823d e8be 28bd 43b8 c23e af22 48be
00000130: 0f5a 103f ccfb cdbe 90a0 a43f cf32 11bf
00000140: c76e 943e aebf 443e bf68 4fbf b411 2c3f
00000150: 1e09 49bf 2645 953e e9e7 29bf 3ac1 7ebe
00000160: b465 8bbe 93ba 493e 901a 0abf f976 7f3e
00000170: 54e5 57be b108 17be ac8c b83e ffcc a43d
00000180: fa76 983e 99ac 8d3e 3029 133e d43b 4e3f
00000190: 8a71 14bd e9d5 633e f082 e8be f7a2 c13e
000001a0: a309 963e a526 1ebe 562e 123f d10a d8be
000001b0: ea69 413d 906a 583e 86f4 a63e 6bba 03bf
000001c0: 07b2 7dbf 5339 b9bf b2ec a43e f195 bdbd
000001d0: 59ca 23be 80fb 47bf 0d8f 20be c498 efbe
000001e0: 3aeb a73c 38c8 83bd e366 83bf 2370 243f
000001f0: df0f 383f 8dcf a03e e6a6 d5bd b9ef 42be
00000200: 73d7 40be 0923 8e3f f12c db3d a3b3 0dbf
00000210: 36c7 873e bd72 743f 1384 f33e 0f7d a4be
00000220: 38ac b0bd 538a 9b3d cd12 02bf 2ee1 a43d
00000230: d484 88bf 3c44 893f 1428 403f ae63 dd3e
00000240: de3d ccbf dbd6 0f3e ef16 7fbf 1c07 2cbe
00000250: 1018 bcbd 2f17 443f cb49 d83e 96e1 f9be
00000260: b898 9abe a7a1 483d eae4 87bf b5b9 353e
00000270: 582b 41be e338 d03c d83f 06be 7be1 2dbe
00000280: 5d0c c33b 7f12 96bf d016 42be 50cc 78bf
00000290: e1b6 69be b82f b83e 76d8 f93d b5eb eebe
000002a0: 4c4c 18bf f9a1 273f 9ff5 a43e 8ed2 c33e
000002b0: 1c48 a0bd 3b36 08bf 2c6d 2cbe 773c 243f
000002c0: 7281 0cbf 1c37 ea3e 17fe 0a3f b76c 3abd
000002d0: 94f4 a5bd 4794 dd3d c17c 513d 152e 06bf
000002e0: 2836 bbbe e2b3 623f 387b 723e f339 423e
000002f0: aaaa 0fbf 080e 1f3e ab0a 8b3e 97fe 8c3d
00000300: bf57 f83e c53a 623e 11a5 033f a3c4 813e
00000310: 1549 1f3e c737 92bf 2306 0f3e e79f d4be
00000320: 7491 0abf 2bcb c83b c41e 1abf 1343 723e
00000330: 8aa7 5fbd 7dab 2ebf 23f6 87bd e759 223f
00000340: af48 39bd bc4c 5c3f e432 643e 7c32 c5be
00000350: d7a8 ddbd 0720 a43e 9613 82bf c39b 4b3c
00000360: 75fe 51bf 3b72 c3be a71c 93be 7298 25bf
00000370: 5ecd bb3f 1633 04bf bdbf cc3e aa08 f73e
00000380: b5ba 96be cd9c 3dbe 5851 253c e308 193d
00000390: 567f 993f 18c5 2c3e 0c30 583e 4d07 653e
000003a0: c755 babe 14e0 553d b7b9 823e afef 433f
000003b0: 3b5b 183f 3418 b8be 9ca4 90be 56d7 37be
000003c0: 260e 52be ad24 8abe 618a 1ebf f63d 633f
000003d0: c408 afbd f69e 0b3f 95ba 1d3e fabe e73e
000003e0: 83fc b9bf 394d a6bc 22e6 4ebe be85 92be
000003f0: 4853 cd3e 33a9 6f3e f10e 723e dd7b 1bbf

model.0.bias f4 [200]
0.07067378 0.1770122 0.039479673 0.018311892 0.076457955 -0.087907344 0.076576315 -0.011832346
0.033937264 -0.11232733 0.15375069 -0.07608893 0.0 -0.06987111 -0.031036573 -0.071812965
0.0 0.005483007 -0.14579962 -0.13574305 0.094425015 -0.0036184352 0.0 0.0
-0.014249896 -0.023565963 -0.11820995 -0.17022814 0.0 -0.13576789 0.046861794 -0.043820564
-0.08180213 -0.16789936 0.09980774 0.05707498 -0.03610827 -0.04074568 0.10194461 -0.13419116
0.13614336 -0.09393595 -0.015488653 0.041863218 0.10662915 0.10445315 0.05504682 -0.10349784
-0.02263729 -0.011918965 0.09473911 -0.081786186 0.08385327 0.012185152 -0.14758655 0.0
0.06502075 0.046639547 -0.059115257 0.031148324 -0.14437212 -0.08700775 0.038322035 0.0
-0.2546783 -0.08897515 0.0 -0.03924549 -0.039824095 0.07318368 0.05518918 -0.041742437
-0.052006803 -0.015987553 0.0 0.16387762 0.11113142 0.053999282 -0.098812446 0.0
-0.08925712 0.13608678 0.031493697 0.05999071 0.06673771 0.05253474 0.088475734 0.109799504
-0.14966172 0.086333305 -0.14277782 0.10207948 -0.0029175635 0.0 0.053826123 -0.20455974
0.04939733 -0.1579495 -0.1875632 0.12675305 0.010427129 0.017429931 0.17528796 -0.06602955
0.06868585 0.016713036 0.0075030625 -0.0035839344 -0.049982727 -0.15957786 -0.049609322 0.08832197
-0.0041162195 0.026121339 -0.0957551 0.0 -0.07985196 0.034014806 -0.14880536 0.019185714
-0.014787755 0.2786505 -0.026060436 -0.01517159 -0.08553784 -0.14919211 -0.0099928025 0.0
0.08067943 -0.16241379 0.05191614 0.04907482 0.051426135 0.04087534 0.2680921 -0.04621404
0.048305515 -0.035890188 -0.046741858 0.09925 -0.008568294 -0.15712737 -0.05540126 0.0215163
0.027171452 -0.02568131 -0.001151553 0.0 0.09815649 -0.12569772 0.042819925 0.070164256
0.004670873 -0.08354196 0.10654859 -0.004884026 0.2803138 0.038666267 0.07017938 -0.13216813
-0.084491275 -0.08037795 -0.024890598 -0.0030112104 0.002509381 0.0 0.10699589 -0.14037612
0.0 -0.028449224 0.049657576 0.1765546 -0.19959481 0.09739357 0.0 -0.049176306
-0.074682355 0.0 0.03643181 -0.09831399 -0.17169568 0.20296435 0.039559744 -0.058526043
-0.052018095 -0.00882132 -0.10725514 -0.11230236 -0.054843605 0.047200978 0.0 -0.14558417
-0.0010810375 0.20444813 0.07780312 -0.09889488 0.04699997 -0.068121225 0.03817075 0.045958888
00000000: 6abd 903d b042 353e 70b5 213d d202 963c
00000010: fd95 9c3d c408 b4bd 0bd4 9c3d 75dc 41bc
00000020: cd01 0b3d df0b e6bd d270 1d3e 83d4 9bbd
00000030: 0000 0000 9618 8fbd 6940 febc ad12 93bd
00000040: 0000 0000 ccaa b33b 7f4c 15be 3a00 0bbe
00000050: e761 c13d 4523 6dbb 0000 0000 0000 0000
00000060: 6578 69bc 680d c1bc 0f18 f2bd 4950 2ebe
00000070: 0000 0000 bd06 0bbe 27f2 3f3d 317d 33bd
00000080: e087 a7bd cfed 2bbe 0068 cc3d 74c7 693d
00000090: 44e6 13bd f1e4 26bd 56c8 d03d 6869 09be
000000a0: 2a69 0b3e 7e61 c0bd 1fc4 7dbc c478 2b3d
000000b0: 6260 da3d 88eb d53d c678 613d adf6 d3bd
000000c0: d771 b9bc c347 43bc 9406 c23d 847f a7bd
000000d0: 43bb ab3d 3ba4 473c ee20 17be 0000 0000
000000e0: 9929 853d 1c09 3f3d d722 72bd c52a ff3c
000000f0: 49d6 13be 1f31 b2bd 91f7 1c3d 0000 0000
00000100: 3265 82be 9a38 b6bd 0000 0000 e1bf 20bd
00000110: 971e 23bd 53e1 953d 0d0e 623d 1efa 2abd
00000120: 1605 55bd 54f8 82bc 0000 0000 89cf 273e
00000130: df98 e33d 5a2e 5d3d 2e5e cabd 0000 0000
00000140: 70cc b6bd 555a 0b3e 89ff 003d d2b8 753d
00000150: c8ad 883d ab2e 573d c432 b53d 90de e03d
00000160: ec40 19be 84cf b03d 5934 12be 0c0f d13d
00000170: 9834 3fbb 0000 0000 c878 5c3d 1c78 51be
00000180: db54 4a3d 84bd 21be 9110 40be 8dcb 013e
00000190: 8dd6 2a3c 37c9 8e3c b07e 333e 803a 87bd
000001a0: 2bab 8c3d c7e9 883c 40dc f53b 71e0 6abb
000001b0: b0ba 4cbd 6168 23be 2533 4bbd 26e2 b43d
000001c0: 5ae1 86bb 6bfc d53c 401b c4bd 0000 0000
000001d0: 6d89 a3bd 1c53 0b3d 6f60 18be 5c2b 9d3c
000001e0: 5748 72bc 47ab 8e3e b27c d5bc 4392 78bc
000001f0: 772e afbd d1c5 18be dab8 23bc 0000 0000
00000200: 423b a53d cd4f 26be 05a6 543d ae02 493d
00000210: 36a4 523d e76c 273d 5e43 893e ef4a 3dbd
00000220: 01dc 453d 9701 13bd 6474 3fbd 9643 cb3d
00000230: 0862 0cbc ffe5 20be 6eec 62bd f442 b03c
00000240: aa96 de3c 9c61 d2bc b5ef 96ba 0000 0000
00000250: 4506 c93d e7b6 00be f263 2f3d 47b2 8f3d
00000260: 1f0e 993b 0c18 abbd 2636 da3d 2e0a a0bb
00000270: 4a85 8f3e 8560 1e3d 35ba 8f3d 1557 07be
00000280: c309 adbd 329d a4bd 5ee7 cbbc ba57 45bb
00000290: 6d74 243b 0000 0000 a920 db3d c2be 0fbe
000002a0: 0000 0000 590e e9bc be65 4b3d bbca 343e
000002b0: 9562 4cbe 4876 c73d 0000 0000 186d 49bd
000002c0: 10f3 98bd 0000 0000 8639 153d d858 c9bd
000002d0: fed0 2fbe e3d5 4f3e 6609 223d 01b9 6fbd
000002e0: ed10 55bd 4c87 10bc 95a8 dbbd c8fe e5bd
000002f0: b0a3 60bd d055 413d 0000 0000 0414 15be
00000300: 99b1 8dba da5a 513e 3e57 9f3d 6689 cabd
00000310: 0a83 403d 2483 8bbd ef58 1c3d 633f 3c3d

model.2.weight f4 [200, 200]
0.066188194 -0.0054319617 -0.019620512 0.0350372 -0.026842423 0.10199406 -0.114585295 0.012120943
-0.14584632 -0.12741114 -0.029871784 -0.028689293 0.13909212 0.11106131 0.02261041 -0.030391548
-0.0059731887 0.075154275 -0.013221544 0.09794836 -0.029474236 -0.12319836 0.107408516 0.13241346
0.033913035 0.053415366 0.0429282 0.10952798 0.13372426 -0.0868676 0.1256511 -0.20892495
-0.09195808 -0.091720596 -0.08799648 0.10734867 0.025046766 -0.024875423 -0.009429501 0.084103465
-0.14141916 -0.022457851 0.10002887 -0.10102859 0.038190864 0.109331146 -0.063457154 0.032561455
-0.09759633 0.025200434 -0.1017373 -0.23719275 0.13984017 -0.0705186 0.078208335 0.091186255
-0.011630543 -0.1635662 -0.15082881 -0.06495064 0.10972927 0.057678003 -0.13618046 0.060480367
0.08939277 -0.07050092 0.05325986 0.005475348 -0.00380308 0.20403145 -0.18747345 0.042527996
0.0005308564 -0.12546042 0.053604044 0.028597806 0.04644092 -0.14139912 -0.013153662 0.07975653
0.07709861 -0.21181116 -0.12389358 -0.06649835 -0.099018894 -0.1225636 0.019604964 -0.20573762
0.022245232 -0.08643525 -0.068442956 -0.024907721 -0.111099795 0.12039272 0.039228998 -0.006126217
0.24607432 -0.020350147 0.009828653 -0.14874195 0.22565028 -0.0062515372 0.1588522 0.023144675
-0.14639738 -0.07056781 0.015730226 -0.06485375 -0.09260742 0.0052652187 0.06878895 -0.10567919
0.08762311 -0.06905176 -0.16032383 -0.006914653 -0.05389421 -0.13497691 -0.078292914 -0.031092916
-0.013520777 -0.034874618 0.015738608 -0.0436263 0.21759698 0.07687775 0.08227845 0.09477273
-0.009258207 -0.06170141 0.015335165 -0.013853188 -0.18383496 0.051746145 -0.12257736 -0.07113386
-0.011453303 -0.072128415 0.0068432675 -0.014699023 0.036001977 0.03949767 0.093761526 -0.058294006
0.09376108 -0.006360328 -0.16579387 -0.015761957 -0.111537434 -0.0684668 -0.12081234 -0.031626523
0.024679895 0.017772347 -0.036858227 0.07813546 0.02429111 -0.013341834 -0.05932637 -0.037890777
-0.02144813 -0.15729693 -0.040998086 0.09094369 0.0040616016 -0.23565431 0.07092146 0.017036421
-0.023678966 -0.011123491 -0.22622311 0.02410034 -0.029936148 0.027053587 0.018267624 0.10455033
0.14206398 0.031578865 0.00723782 0.17441025 -0.008044641 0.038944848 0.1365137 -0.008680863
0.005975886 -0.23155351 -0.082606494 -0.023123104 -0.0640318 -0.18819115 -0.020000698 0.024219528
-0.02115224 -0.1755262 -0.055289753 -0.039581876 -0.09122041 -0.07787113 -0.034914695 -0.1344545
-0.017456258 -0.112500586 -0.02238818 -0.019445462 -0.16496122 0.07209097 -0.089545816 0.04696874
0.022995299 0.08379701 -0.118674055 0.012350751 0.09648122 0.013882971 0.1637725 -0.115525246
-0.10477664 -0.14287351 -0.032339886 0.0006200381 -0.186599 -0.012678522 -0.13508227 -0.086396515
0.13343184 0.04105988 -0.0517941 -0.113022625 0.013077636 -0.007904513 0.04103544 0.060415823
0.09557497 -0.042477716 -0.071780525 -0.17025785 -0.1373826 -0.060524743 0.10561234 0.15941511
-0.08867263 -0.06246079 0.039431125 0.10112863 0.032928012 -0.2168438 0.13061129 0.017071823
-0.21575983 -0.023456726 0.070318244 0.058845747 0.18698682 -0.06889997 -0.10175244 0.065107055
00000000: ad8d 873d 99fe b1bb 32bb a0bc 2b83 0f3d
00000010: a4e4 dbbc 43e2 d03d b2ab eabd eb96 463c
00000020: bd58 15be 1178 02be acb5 f4bc cf05 ebbc
00000030: 2a6e 0e3e 1d74 e33d 7739 b93c b2f7 f8bc
00000040: bdba c3bb 7cea 993d 2d9f 58bc 2699 c83d
00000050: f473 f1bc 6c4f fcbd fff8 db3d 6597 073e
00000060: 65e8 0a3d 12ca 5a3d 7bd5 2f3d 3550 e03d
00000070: 03ef 083e a4e7 b1bd afaa 003e 6cf0 55be
00000080: 8554 bcbd 02d8 bbbd 8037 b4bd 9fd9 db3d
00000090: e02e cd3c 8bc7 cbbc 327e 1abc 703e ac3d
000000a0: 2fd0 10be 87f9 b7bc f0db cc3d 14e8 cebd
000000b0: 066e 1c3d 02e9 df3d d3f5 81bd 295f 053d
000000c0: 96e0 c7bd 2471 ce3c a55b d0bd a8e2 72be
000000d0: 4332 0f3e 0e6c 90bd b12b a03d dcbf ba3d
000000e0: 088e 3ebc e67d 27be de72 1abe d704 85bd
000000f0: bdb9 e03d c53f 6c3d e472 0bbe 43ba 773d
00000100: 8e13 b73d c962 90bd 0327 5a3d 8c6a b33b
00000110: 183d 79bb 9fed 503e 0af9 3fbe d631 2e3d
00000120: 2c29 0b3a b278 00be ea8f 5b3d f245 ea3c
00000130: d638 3e3d eeca 10be 7582 57bc 6457 a33d
00000140: e0e5 9d3d 06e5 58be ebbb fdbd 4930 88bd
00000150: 6bca cabd a002 fbbd 979a a03c e2ac 52be
00000160: a23b b63c f704 b1bd d22b 8cbd 470b ccbc
00000170: 4a88 e3bd 7590 f63d 96ae 203d 6fbe c8bb
00000180: e8fa 7b3e 5ab5 a6bc 5c08 213c cf4f 18be
00000190: de10 673e b2d9 ccbb 27aa 223e e799 bd3c
000001a0: 32e9 15be db85 90bd addc 803c 0bd2 84bd
000001b0: f6a8 bdbd db87 ac3b 39e1 8c3d 556e d8bd
000001c0: bf73 b33d 026b 8dbd ee2b 24be 5094 e2bb
000001d0: 2dc0 5cbd 6337 0abe 0958 a0bd 92b6 febc
000001e0: 4086 5dbc b0d8 0ebd 41ee 803c 7eb1 32bd
000001f0: bed1 5e3e 1572 9d3d 9b81 a83d 3418 c23d
00000200: bcaf 17bc 9eba 7cbd 5840 7b3c 7bf8 62bc
00000210: 3b3f 3cbe c4f3 533d d709 fbbd a1ae 91bd
00000220: a2a6 3bbc 10b8 93bd 7d3d e03b 2cd4 70bc
00000230: cf76 133d 4fc8 213d 0b06 c03d b2c5 6ebd
00000240: cf05 c03d 4c6a d0bb dec5 29be 381f 81bc
00000250: bd6d e4bd 5238 8cbd 766c f7bd d08a 01bd
00000260: 7e2d ca3c 5097 913c a7f8 16bd 7c05 a03d
00000270: 26fe c63c b597 5abc 3500 73bd 5c33 1bbd
00000280: fdb3 afbc 7212 21be 9ced 27bd af40 ba3d
00000290: 2f17 853b 5d4f 71be 453f 913d f78f 8b3c
000002a0: 64fa c1bc 4e3f 36bc 08a7 67be 146e c53c
000002b0: a73c f5bc 7c9f dd3c fca5 953c 7c1e d63d
000002c0: 3879 113e d758 013d 3c2b ed3b 9a98 323e
000002d0: accd 03bc a284 1f3d 3fca 0b3e 2e3a 0ebc
000002e0: 5dd1 c33b 5d1c 6dbe 982d a9bd aa6c bdbc
000002f0: 1b23 83bd 2eb5 40be 81d8 a3bc 0868 c63c
00000300: 7647 adbc 24bd 33be 8277 62bd 9b20 22bd
00000310: c4d1 babd e67a 9fbd b602 0fbd 71ae 09be
00000320: 6d00 8fbc b566 e6bd 6b67 b7bc 174c 9fbc
00000330: 98eb 28be 6ea4 933d cc63 b7bd 4b62 403d
00000340: a360 bc3c c49d ab3d 620b f3bd ce5a 4a3c
00000350: f297 c53d 6775 633c fab3 273e 8098 ecbd
00000360: 2395 d6bd 6f4d 12be d476 04bd 0d8a 223a
00000370: cf13 3fbe 93b9 4fbc 0253 0abe a8f0 b0bd
00000380: 5ba2 083e 682e 283d 0d26 54bd 6878 e7bd
00000390: 9543 563c ee81 01bc c714 283d 9576 773d
000003a0: cfbc c33d 1dfd 2dbd ab01 93bd 1358 2ebe
000003b0: 06ae 0cbe cbe8 77bd 484b d83d b73d 233e
000003c0: ff99 b5bd e3d6 7fbd 8882 213d 871c cf3d
000003d0: 86df 063d 4d0c 5ebe f7be 053e 35da 8b3c
000003e0: 25f0 5cbe 5228 c0bc 0303 903d 3d08 713d
000003f0: 7979 3f3e 6d1b 8dbd 9563 d0bd d956 853d

model.2.bias f4 [200]
-0.018591002 0.0 0.074365035 -0.1151601 -0.011327424 -0.018785298 -0.05133675 0.009105298
0.0066347485 -0.011557486 -0.024065662 -0.013766902 -0.06415473 -0.01795442 -0.055314798 -0.09089394
-0.011465878 -0.015917888 -0.028049223 0.14658278 -0.0064308713 0.06193336 -0.009396978 -0.025058929
-0.005776943 -0.07212794 0.0073127933 0.01537539 -0.021486787 -0.009999704 -0.08570889 -0.03618604
-0.02196427 -0.11955708 -0.025215074 -0.02839713 0.108602725 -0.098683305 0.026528364 -0.009999581
-0.00999974 0.054276034 0.10244112 -0.005057454 0.0 -0.020692559 -0.032739736 0.07480561
-0.011446955 -0.014617478 0.04961955 -0.023405975 -0.017146753 -0.06142581 -0.01259688 -0.011615858
0.13556872 -0.009998763 0.035112835 -0.0042833523 0.0054962314 0.13455923 0.08265974 -0.027607383
-0.029567782 -0.06053622 -0.020833872 -0.015362288 -0.004665858 0.0 -0.039191127 0.009522704
-0.01471069 0.12968183 -0.014191025 0.0 0.043624997 -0.01308579 0.0051970626 0.0
0.0077681104 -0.027299903 -0.00807601 -0.02483209 -0.018988384 -0.06407443 -0.008471326 -0.06547042
-0.03747707 -0.016154688 0.08540778 -0.006369666 0.032071788 -0.029377295 -0.08771104 0.051479008
-0.01561718 0.018844705 -0.0118655255 -0.015400115 -0.032157015 -0.035056084 0.017854942 0.057039432
-0.033183046 -0.09370135 0.011656502 -0.0113017075 -0.048935723 0.06965883 -0.042048655 -0.009998815
0.027026942 -0.03341028 -0.03973874 -0.023354294 -0.021718066 -0.06144121 -0.011263006 -0.009408779
-0.014244194 -0.03224184 -0.028771803 -0.016949765 -0.009993948 0.06910063 -0.005354667 0.0138924
-0.0013292904 0.029466163 0.0 -0.08086927 0.19083609 0.0011747065 0.06665965 -0.017446931
-0.023527998 -0.030711921 -0.02935597 -0.019507144 -0.03866353 -0.07034476 -0.0019105496 -0.0119929155
-0.005234249 -0.10797374 0.025808696 -0.0048225923 -0.017995544 -0.048884667 -0.00068787084 -0.086940184
0.01034165 -0.017235888 -0.03425434 0.025507165 0.0 0.12188885 -0.08620923 -0.012943121
-0.13282068 -0.025275536 -0.018784402 0.07454254 -0.021985209 0.14150596 0.18150209 -0.032247446
-0.06311606 0.10555091 0.0 -0.07878316 0.053249374 0.015614893 -0.024303794 0.032766566
-0.08677547 -0.016610365 0.033763457 -0.0063007157 -0.014833411 0.0 -0.024756875 -0.027991964
-0.021145925 -0.003091877 -0.024507968 -0.07885041 -0.019551981 -0.10572978 -0.017497137 0.17948847
-0.03353732 0.060319986 0.0 -0.025046008 -5.53492e-05 -0.00991189 0.022144243 0.000104056584
00000000: 284c 98bc 0000 0000 b24c 983d 0fd9 ebbd
00000010: a996 39bc a0e3 99bc 7c46 52bd 632e 153c
00000020: 4e68 d93b 9c5b 3dbc 5a25 c5bc 928e 61bc
00000030: 8e63 83bd 2615 93bc c591 62bd 9a26 babd
00000040: 61db 3bbc 3b66 82bc 7cc7 e5bc cc19 163e
00000050: 0fba d2bb d6ad 7d3d c8f5 19bc 6248 cdbc
00000060: 834c bdbb d0b7 93bd 28a0 ef3b 0fe9 7b3c
00000070: 0f05 b0bc ccd5 23bc 2488 afbd d037 14bd
00000080: 6aee b3bc 58da f4bd d88f cebc 19a1 e8bc
00000090: 1b6b de3d 791a cabd 0352 d93c 48d5 23bc
000000a0: f3d5 23bc 8c50 5e3d a6cc d13d 00b9 a5bb
000000b0: 0000 0000 7183 a9bc 1a1a 06bd af33 993d
000000c0: 028c 3bbc 257e 6fbc df3d 4b3d e3bd bfbc
000000d0: 5977 8cbc a199 7bbd 2563 4ebc 7150 3ebc
000000e0: 87d2 0a3e dad1 23bc 7ad2 0f3d 5d5b 8cbb
000000f0: bb19 b43b e5c9 093e 8249 a93d e128 e2bc
00000100: 2238 f2bc d4f4 77bd ccab aabc 1bb2 7bbc
00000110: 0ee4 98bb 0000 0000 e086 20bd 1e05 1c3c
00000120: 1b05 71bc 50cb 043e 7981 68bc 0000 0000
00000130: 20b0 323d c865 56bc 1f4c aa3b 0000 0000
00000140: a28b fe3b 0ca4 dfbc 3e51 04bc ab6c cbbc
00000150: 878d 9bbc 7439 83bd 51cb 0abc 5b15 86bd
00000160: 8e81 19bd d656 84bc 46ea ae3d a2b8 d0bb
00000170: b55d 033d a7a8 f0bc d9a1 b3bd a7db 523d
00000180: 33df 7fbc 3660 9a3c 9f67 42bc c450 7cbc
00000190: 13b7 03bd f896 0fbd 8744 923c 2ea2 693d
000001a0: f2ea 07bd 7ee6 bfbd eafa 3e3c cc2a 39bc
000001b0: d370 48bd 4aa9 8e3d 363b 2cbd 12d2 23bc
000001c0: 9b67 dd3c 38d9 08bd 17c5 22bd 8151 bfbc
000001d0: 16ea b1bc c7a9 7bbd 7988 38bc 4827 1abc
000001e0: 7b60 69bc 0510 04bd d8b2 ebbc 3cda 8abc
000001f0: a8bd 23bc a284 8d3d 3476 afbb f39c 633c
00000200: 963b aeba 0663 f13c 0000 0000 ca9e a5bd
00000210: 896a 433e 9cf8 993a db84 883d deec 8ebc
00000220: cabd c0bc 9197 fbbc ee7b f0bc 72cd 9fbc
00000230: a65d 1ebd ea10 90bd 686b faba ef7d 44bc
00000240: 1084 abbb 5621 ddbd c26c d33c d606 9ebb
00000250: 646b 93bc 4a3b 48bd 3b52 34ba b20d b2bd
00000260: 0670 293c 4732 8dbc 474e 0cbd 67f4 d03c
00000270: 0000 0000 dda0 f93d 778e b0bd 620f 54bc
00000280: 2502 08be a40e cfbc bfe1 99bc c2a9 983d
00000290: 531a b4bc f0e6 103e afdb 393e e615 04bd
000002a0: fe42 81bd 132b d83d 0000 0000 1159 a1bd
000002b0: 041c 5a3d 9cd5 7f3c c018 c7bc 3c36 063d
000002c0: 56b7 b1bd 7612 88bc 8d4b 0a3d 3c76 cebb
000002d0: d607 73bc 0000 0000 eece cabc 674f e5bc
000002e0: 383a adbc 17a1 4abb efc4 c8bc 537c a1bd
000002f0: 7a2b a0bc db88 d8bd 2856 8fbc d3cb 373e
00000300: 6e5e 09bd 1712 773d 0000 0000 492d cdbc
00000310: c026 68b8 7b65 22bc d867 b53c f438 da38

model.5.weight f4 [200, 200]
0.035219375 0.1818612 -0.050315153 -0.073120415 -0.10273778 -0.06083118 0.12187137 -0.058435768
-0.27430555 -0.018030962 0.044980157 0.060980458 -0.13365293 0.3128015 -0.060928997 -0.07611105
-0.004350508 0.056746203 -0.12351439 -0.07208162 -0.049251415 -0.11374988 0.047145944 -0.13048586
-0.16021901 0.0060650376 -0.11073396 -0.052451473 0.16349274 0.05656892 -0.038024195 0.056422465
-0.082301274 0.010592768 -0.1053694 -0.023905575 -0.028402694 -0.06503638 -0.04800005 0.014334743
-0.11784631 -0.043939825 -0.11213116 -0.20335993 -0.21169534 -0.03340011 -0.20804611 -0.069058865
0.0017209502 -0.097049676 0.093939655 -0.13358377 0.023333576 -0.045362864 0.057145026 -0.013153964
-0.08412202 0.13532999 -0.14221656 0.12452849 -0.052564003 0.046535034 0.102110595 -0.21022446
-0.056004826 0.017212976 -0.07287467 0.13192329 0.02119744 -0.049602795 -0.10324389 -0.083860196
-0.028385133 -0.014542987 -0.10960871 0.100536905 -0.070553586 0.18336335 -0.051820163 -0.06214564
-0.028780231 -0.073874 0.02278864 -0.15343426 0.14421424 0.064900175 -0.09100605 -0.033901177
0.029362721 0.18318515 -0.09383469 -0.023467207 0.08108152 -0.20596375 0.015793383 0.026293997
0.055574246 0.07242769 0.028625086 0.052964684 -0.23274648 -0.0053736437 0.017519511 0.13562833
0.022014687 -0.11024003 -0.10948165 -0.12246482 -0.057062946 -0.14294353 0.12040454 -0.020323053
-0.13163568 0.07156393 0.2440631 0.044354975 -0.13748111 -0.15294391 0.024487842 0.10504039
-0.08818315 -0.07378519 -0.11810333 -0.056069426 0.32167017 -0.07766733 -0.06278343 -0.052817546
-0.18423982 -0.062063 0.053694934 0.082696654 0.0014623902 -0.0725928 -0.053490564 -0.05285928
-0.05107059 -0.12723924 -0.14094123 -0.17002478 0.14194816 -0.08937592 0.06396955 -0.121249996
-0.11313962 -0.24430817 -0.1030956 0.1164302 -0.12535013 0.0068358644 0.103047036 0.023175884
-0.057158876 -0.015490988 -0.15193807 0.10016203 0.04434893 -0.17064151 0.1446415 0.055734873
-0.18014063 0.17110014 -0.07701814 -0.010037207 -0.066865616 -0.039083254 0.06024461 -0.0026133317
-0.04228846 -0.0054301447 0.35684493 -0.056881916 -0.096848994 -0.23138241 -0.0152587835 -0.09179286
0.081587836 -0.07524779 -0.040793266 -0.04997453 -0.111359134 -0.08843332 -0.04512797 0.028477626
-0.008788043 -0.074902534 0.110849746 -0.06548058 -0.0495043 0.04834307 -0.07944441 -0.014166281
-0.09848254 -0.02050151 0.09410182 0.009441517 -0.117209375 -0.1671562 0.03185544 -0.06256599
0.13467829 -0.021981187 -0.076251015 -0.025073972 0.108478725 0.17194925 -0.20465773 -0.08840102
-0.2424917 0.034291334 0.19926147 0.04436107 0.023554888 -0.109012775 -0.057823572 -0.030061867
-0.1574066 -0.23070872 0.001876208 -0.20244387 -0.23151836 0.091610305 -0.06525235 -0.06134876
-0.07873759 -0.111326605 0.023056705 0.040109437 0.09207595 0.031245569 -0.007255909 0.21155375
0.09066545 0.056416098 0.005164451 0.008812614 0.06337751 -0.32276887 0.011291252 -0.0840648
-0.0889646 0.007101873 0.009332482 -0.11188016 0.07656984 0.08932922 -0.09253748 -0.18271853
0.046149272 -0.0038332376 0.16616037 0.055490583 -0.021984175 -0.13198009 0.08971512 -0.024932135
00000000: 3142 103d d339 3a3e 4317 4ebd 28c0 95bd
00000010: 2f68 d2bd 1e2a 79bd b297 f93d 585a 6fbd
00000020: c771 8cbe abb5 93bc 1d3d 383d a5c6 793d
00000030: 50dc 08be 8527 a03e af90 79bd 1ce0 9bbd
00000040: b58e 8ebb b56e 683d 1df5 fcbd 879f 93bd
00000050: dabb 49bd b2f5 e8bd 1b1c 413d 169e 05be
00000060: 7410 24be 39bd c63b 7dc8 e2bd 5bd7 56bd
00000070: a46a 273e d0b4 673d 42bf 1bbd 3e1b 673d
00000080: 928d a8bd 4a8d 2d3c e9cb d7bd a0d5 c3bc
00000090: c4ac e8bc cb31 85bd b39b 44bd 45dc 6a3c
000000a0: 6859 f1bd 3ffa 33bd 06a5 e5bd 963d 50be
000000b0: aac6 58be 8ece 08bd 0a0a 55be bc6e 8dbd
000000c0: 8291 e13a fbc1 c6bd 6f63 c03d 2fca 08be
000000d0: 0e26 bf3c 69ce 39bd e710 6a3d b983 57bc
000000e0: 2a48 acbd f293 0a3e 38a1 11be cb08 ff3d
000000f0: 5a4d 57bd 859b 3e3d 5c1f d13d 1545 57be
00000100: 5165 65bd 3a02 8d3c 513f 95bd e616 073e
00000110: 41a6 ad3c 4d2c 4bbd 8871 d3bd e5be abbd
00000120: f087 e8bc b545 6ebc 887a e0bd 4be6 cd3d
00000130: 667e 90bd 9ac3 3b3e 6141 54bd 6d8c 7ebd
00000140: 85c4 ebbc 404b 97bd 3eaf ba3c df1d 1dbe
00000150: e6ac 133e 62ea 843d 6161 babd f6db 0abd
00000160: 178a f03c e394 3b3e 672c c0bd 4d3e c0bc
00000170: 110e a63d 29e8 52be 2061 813c 8266 d73c
00000180: d2a1 633d f854 943d 287f ea3c 7ff1 583d
00000190: 1855 6ebe 6415 b0bb 1485 8f3c 27e2 0a3e
000001a0: 2558 b43c 86c5 e1bd ea37 e0bd d6ce fabd
000001b0: d6ba 69bd ca5f 12be a896 f63d 887c a6bc
000001c0: 81cb 06be 1c90 923d adeb 793e 90ad 353d
000001d0: d9c7 0cbe 549d 1cbe ba9a c83c 6a1f d73d
000001e0: 5e99 b4bd b11c 97bd 29e0 f1bd 0ea9 65bd
000001f0: f4b1 a43e 0d10 9fbd 9994 80bd 3657 58bd
00000200: 5da9 3cbe c635 7ebd 38ef 5b3d dd5c a93d
00000210: acad bf3a 89ab 94bd ec18 5bbd f982 58bd
00000220: 652f 51bd 014b 02be e652 10be fa1a 2ebe
00000230: dc5a 113e b90a b7bd 7802 833d eb51 f8bd
00000240: bfb5 e7bd ec2b 7abe c923 d3bd f572 ee3d
00000250: c95b 00be 63ff df3b 530a d33d 5adb bd3c
00000260: 6d1f 6abd eacd 7dbc a795 1bbe c021 cd3d
00000270: 39a7 353d a6bc 2ebe e71c 143e 404a 643d
00000280: c976 38be e034 2f3e b0bb 9dbd 1973 24bc
00000290: d7f0 88bd c315 20bd 0dc3 763d 6e44 2bbb
000002a0: aa36 2dbd 5bef b1bb 61b4 b63e 03fd 68bd
000002b0: c458 c6bd 83ef 6cbe faff 79bc e5fd bbbd
000002c0: 8617 a73d 831b 9abd d716 27bd 18b2 4cbd
000002d0: 4210 e4bd 871c b5bd 1bd8 38bd e949 e93c
000002e0: b9fb 0fbc 8066 99bd 3105 e33d af1a 86bd
000002f0: 05c5 4abd 6203 463d c0b3 a2bd b019 68bc
00000300: 37b1 c9bd c8f2 a7bc 74b8 c03d 98b0 1a3c
00000310: 780b f0bd ff2a 2bbe da7a 023d 9922 80bd
00000320: 1be9 093e e411 b4bc 7e29 9cbd ee67 cdbc
00000330: 182a de3d 7713 303e cc91 51be 980b b5bd
00000340: bf4f 78be 1275 0c3d 330b 4c3e f4b3 353d
00000350: 2ef6 c03c 1742 dfbd 69d8 6cbd 4e44 f6bc
00000360: 322f 21be e83e 6cbe 18eb f53a 724d 4fbe
00000370: 2613 6dbe 2f9e bb3d 06a3 85bd d648 7bbd
00000380: 2c41 a1bd 34ff e3bd 6ae1 bc3c cb49 243d
00000390: 5192 bc3d b5f6 ff3c fac2 edbb 8ca1 583e
000003a0: cfae b93d 9114 673d 8e3a a93b c862 103c
000003b0: 11cc 813d f641 a5be f2fe 383c 2a2a acbd
000003c0: 1233 b6bd d4b6 e83b 44e7 183c 6d21 e5bd
000003d0: a6d0 9c3d 3df2 b63d 4a84 bdbd 911a 3bbe
000003e0: 0507 3d3d 0e37 7bbb f225 2a3e 184a 633d
000003f0: 2818 b4bc ca25 07be 90bc b73d 7a3e ccbc

model.5.bias f4 [200]
-0.09287758 -0.043565847 -0.026416527 -0.01963445 -0.034565 -0.06684442 0.07464675 -0.07159212
-0.057431735 -0.017272132 -0.03654927 0.05112581 0.012774932 -0.054799117 -0.0269492 -0.02305481
-0.017127674 -0.01689976 -0.0113154445 -0.022947751 -0.067654595 -0.036038704 -0.020385459 -0.06802789
-0.005387572 -0.0792106 0.012188596 -0.024536604 -0.02556447 -0.036129758 0.07048156 -0.035112385
0.098757684 -0.037100676 -0.026739785 -0.038025536 -0.031526238 -0.018692723 -0.0048880703 -0.038833912
-0.021524144 0.021742249 -0.051929 0.010068338 -0.014742491 0.104239434 -0.024800373 0.0034711617
0.059610423 -0.010237777 -0.028008327 -0.048976053 -0.09422837 -0.057919 -0.076007344 -0.0342175
-0.013923585 -0.03463632 -0.04334749 -0.04151242 0.0051126657 -0.013112703 -0.04230541 -0.03940089
-0.037963778 -0.02152142 -0.056723002 0.031304043 -0.024820454 -0.075748004 -0.07791652 -0.06438466
0.08972312 -0.009627725 -0.040578414 0.012580323 -0.048369713 -0.033404652 -0.011132475 -0.013931478
-0.00960035 -0.03676236 -0.04794145 -0.059937578 -0.009038049 -0.0021067953 -0.034286972 0.011040096
-0.037746135 -0.038441323 -0.014810448 -0.028625695 -0.041475516 -0.006651683 -0.06626988 -0.03652443
-0.039392095 -0.014299205 -0.0018060065 -0.023215536 0.07216107 -0.03393463 -0.05194612 -0.022557756
-0.040098496 -0.048100222 0.018796137 -0.029080583 -0.05301776 -0.009823977 0.016083734 -0.09045097
-0.04125388 -0.006581541 -0.04354092 -0.019375907 -0.03518435 -0.013397059 -0.037651163 -0.032102477
-0.032198608 -0.04321406 -0.012548546 -0.03507764 -0.031119619 -0.0063234214 -0.04775537 -0.040635988
-0.03820283 -0.049334932 -0.021896705 -0.044257496 -0.010828508 -0.045284033 0.054592397 -0.013599299
-0.04274753 -0.048625223 -0.030183334 -0.025053546 -0.057158258 -0.035336778 -0.01875774 -0.06886155
-0.029249208 -0.028199429 -0.039221957 -0.04982726 -0.045676336 -0.0032265922 -0.015742743 0.01849805
-0.03665451 -0.043539327 0.010413131 -0.042539313 0.006396354 -0.022195704 -0.019132929 -0.02837669
0.012101382 -0.004195953 -0.0037513045 -0.019828573 -0.023053281 -0.030376118 -0.073838204 -0.043455314
-0.027988553 -0.062151473 -0.0236471 0.0044508195 -0.049754687 -0.019987687 -0.022298507 -0.037980977
-0.033010233 -0.014751194 -0.033315703 -0.02708825 -0.0074426383 -0.01428584 -0.013213869 -0.024357453
-0.036817912 -0.014833389 0.0015557902 -0.017339936 -0.04444115 -0.030701485 -0.008974199 -0.026845481
-0.013530433 -0.02072066 -0.039579634 -0.0002931212 -0.022788975 -0.03058094 -0.01253381 -0.027175188
00000000: 9a36 bebd 1a72 32bd 7967 d8bc 6dd8 a0bc
00000010: 0894 0dbd bae5 88bd 65e0 983d e49e 92bd
00000020: 8a3d 6bbd 497e 8dbc b0b4 15bd 4c69 513d
00000030: f34d 513c 0a75 60bd 92c4 dcbc 71dd bcbc
00000040: 564f 8cbc 5e71 8abc 6a64 39bc ecfc bbbc
00000050: 7e8e 8abd 529d 13bd 68ff a6bc 3552 8bbd
00000060: 3b8a b0bb 2b39 a2bd adb2 473c fd00 c9bc
00000070: 946c d1bc ccfc 13bd a358 903d 01d2 0fbd
00000080: 7841 ca3d e1f6 17bd 650d dbbc aac0 1bbd
00000090: a821 01bd 7b21 99bc 1b2c a0bb 4f10 1fbd
000000a0: 6753 b0bc cd1c b23c 81b3 54bd acf5 243c
000000b0: 7d8a 71bc 7c7b d53d 272a cbbc 6e7c 633b
000000c0: 0f2a 743d 59bc 27bc b871 e5bc 1d9b 48bd
000000d0: cefa c0bd 793c 6dbd bda9 9bbd a627 0cbd
000000e0: c01f 64bc d0de 0dbd 238d 31bd ed08 2abd
000000f0: 2688 a73b aad6 56bc 7048 2dbd d462 21bd
00000100: e87f 1bbd b04d b0bc 6156 68bd ab38 003d
00000110: 4454 cbbc c521 9bbd b292 9fbd 1bdc 83bd
00000120: c1c0 b73d 9bbd 1dbc 8d35 26bd b31d 4e3c
00000130: 521f 46bd 51d3 08bd fc64 36bc db40 64bc
00000140: c94a 1dbc 2194 16bd 415e 44bd 1b81 75bd
00000150: 5314 14bc 2912 0abb 7f70 0cbd 85e1 343c
00000160: b19b 1abd a674 1dbd 85a7 72bc 6f80 eabc
00000170: 3be2 29bd 5cf6 d9bb 81b8 87bd a49a 15bd
00000180: 9b59 21bd 3647 6abc 86b7 ecba 822e bebc
00000190: 2fc9 933d 0aff 0abd 74c5 54bd 0bcb b8bc
000001a0: 523e 24bd bd04 45bd 5bfa 993c 673a eebc
000001b0: 2729 59bd bff4 20bc 09c2 833c 5c3e b9bd
000001c0: d4f9 28bd f8a9 d7bb f757 32bd 39ba 9ebc
000001d0: 771d 10bd 577f 5bbc 1b38 1abd e37d 03bd
000001e0: b0e2 03bd 3a01 31bd 6b98 4dbc 92ad 0fbd
000001f0: 92ee febc b434 cfbb 239b 43bd ec71 26bd
00000200: 927a 1cbd 6d13 4abd b860 b3bc 5947 35bd
00000210: 0e6a 31bc c07b 39bd 479c 5f3d 98cf 5ebc
00000220: 0918 2fbd 3e2b 47bd 0a43 f7bc 183d cdbc
00000230: c71e 6abd 4cbd 10bd d5a9 99bc 4907 8dbd
00000240: 099c efbc 7d02 e7bc 34a7 20bd ab17 4cbd
00000250: 1c17 3bbd 3c75 53bb edf6 80bc 3989 973c
00000260: 0a23 16bd 4b56 32bd d69b 2a3c b43d 2ebd
00000270: 8298 d13b c4d3 b5bc a9bc 9cbc 3b76 e8bc
00000280: e044 463c 347e 89bb 72d8 75bb 886f a2bc
00000290: 3cda bcbc 56d7 f8bc 7c38 97bd 33fe 31bd
000002a0: 4048 e5bc 8b92 7ebd 90b7 c1bc 2ed8 913b
000002b0: 92cb 4bbd 38bd a3bc 5cab b6bc f191 1bbd
000002c0: bd35 07bd feae 71bc 0c76 08bd 2de8 ddbc
000002d0: 60e1 f3bb 280f 6abc fc7e 58bc 4889 c7bc
000002e0: 61ce 16bd be07 73bc a8eb cb3a 7b0c 8ebc
000002f0: ec07 36bd ae81 fbbc 8508 13bc 0eeb dbbc
00000300: c0ae 5dbc 60be a9bc 411e 22bd 10ae 99b9
00000310: f2af babc e184 fabc 9c5a 4dbc 809e debc

model.8.weight f4 [1, 200]
-0.005834498 0.025608089 0.0016817567 0.016844044 -0.082863405 -0.010997599 -0.0818995 -0.061565414
-0.058593802 0.010085073 0.06257876 -0.023330878 -0.009684249 -0.047261402 0.09447661 0.04905093
-0.014520188 -0.17910136 0.04958114 0.020288426 -0.026877522 0.00047037238 -0.07424048 -0.024801083
-0.017141324 0.029737322 -0.01430772 -0.049015854 0.11929148 0.031748906 -0.015918715 0.088445514
-0.023162218 0.004147776 -0.03321891 0.06706925 0.031048208 -0.051340792 0.0046468438 0.054192927
-0.15035537 0.01766203 0.0039909584 -0.009951701 0.11763536 -0.017290156 -0.01523894 -0.0953352
-0.022363419 -0.015415701 0.014648354 -0.03621171 0.029944057 -0.025531605 -0.0134929735 0.039455693
-0.021612378 -0.03380917 0.0048482525 0.05089392 -0.013522274 0.047518164 -0.049900282 0.025253259
-0.101739064 -0.0047253985 0.009365559 -0.037123784 0.11431468 -0.0035574806 0.0006537002 -0.03207628
-0.025373591 0.04228034 0.023952909 -0.021280633 -0.09795156 -0.047287673 -0.021242576 -0.15814129
0.023773273 0.15874526 0.07894166 -0.024670867 -0.015273874 0.020709451 0.013394222 -0.0100324815
0.17229414 -0.15971115 -0.056536995 -0.018107194 -0.06560764 0.1408172 -0.014948371 -0.06264249
-0.010301389 0.017442185 -0.018919814 -0.0022067886 -0.02005115 -0.08754506 -0.0074617537 0.06574224
-0.09362177 0.13461056 -0.016345523 0.1301746 0.016837033 0.0090142125 -0.011812637 -0.022462854
-0.12939818 0.01600408 0.0056676357 -0.0023751156 0.09451052 0.02925585 -0.10968833 0.01397828
-0.106589004 -0.047468416 -0.21040866 -0.1486517 0.045912664 0.0006260481 -0.012749683 0.00034935283
-0.07918927 -0.0005002594 0.008568493 -0.13041615 -0.004617789 -0.017073143 -0.021881687 -0.020511884
0.056508858 0.0091090435 -0.030936357 0.09772818 0.00013495458 0.025380475 0.07037004 -0.00096773985
0.070226945 0.008907253 0.014437593 0.0016050189 -0.017094485 -0.11367301 -0.10054483 -0.019493628
-0.059011437 -0.016619341 0.026675854 -0.053571314 0.011733704 0.020879561 0.001311688 0.0005014454
-0.029654892 0.024451934 -0.02605134 0.11623504 0.1480478 -0.20639782 -0.017328208 0.01376768
0.10626857 -0.0032422182 0.07412635 -0.16919349 -0.014818898 0.066877 0.015279482 0.038853664
-0.023120679 -0.009212099 0.11640376 -0.026552988 0.025733553 0.014947817 -0.015815603 0.018885339
0.04692647 0.015816936 -0.18334201 -0.002505235 -0.023890184 0.16544229 -0.014922052 -0.018816186
-0.009869288 -0.041984554 0.025750881 -0.07359477 0.09218643 0.03214705 0.013042036 -0.069104314
00000000: 512f bfbb 0ec8 d13c 646e dc3a 85fc 893c
00000010: 4ab4 a9bd 462f 34bc edba a7bd 042c 7cbd
00000020: 0e00 70bd dd3b 253c 4b29 803d 6620 bfbc
00000030: afaa 1ebc 2c95 41bd f47c c13d a1e9 483d
00000040: 15e6 6dbc 5966 37be 9815 4b3d ea33 a63c
00000050: 402e dcbc 509c f639 650b 98bd a42b cbbc
00000060: f66b 8cbc af9b f33c ed6a 6abc d9c4 48bd
00000070: 174f f43d 240b 023d f767 82bc ec22 b53d
00000080: b1be bdbc 11ea 873b 8d10 08bd 9a5b 893d
00000090: d058 fe3c b94a 52bd 8d44 983b 67f9 5d3d
000000a0: c2f6 19be f6af 903c 96c6 823b 760c 23bc
000000b0: cfea f03d 16a4 8dbc bfac 79bc 1a3f c3bd
000000c0: 7d33 b7bc 2392 7cbc a6ff 6f3c bb52 14bd
000000d0: 3d4d f53c a827 d1bc a211 5dbc 4b9c 213d
000000e0: 710c b1bc 7c7b 0abd 17de 9e3b 2576 503d
000000f0: 878c 5dbc 68a2 423d 3d64 4cbd ecdf ce3c
00000100: 925c d0bd 84d7 9abb 0072 193c 1c0f 18bd
00000110: d11d ea3d 9f24 69bb 145d 2b3a 6b62 03bd
00000120: 47dc cfbc 262e 2d3d e438 c43c b954 aebc
00000130: d49a c8bd b8b0 41bd e904 aebc caef 21be
00000140: 2bc0 c23c 1e8e 223e 2aac a13d 8f1a cabc
00000150: 453f 7abc dea6 a93c 7073 5b3c 475f 24bc
00000160: e06d 303e 528b 23be 5693 67bd 8a55 94bc
00000170: 4c5d 86bd 6232 103e 03ea 74bc b54a 80bd
00000180: 28c7 28bc eae2 8e3c bafd 9abc c59f 10bb
00000190: 4f42 a4bc d34a b3bd ba81 f4bb dea3 863d
000001a0: c5bc bfbd 5ad7 093e 0ce7 85bc 7e4c 053e
000001b0: d1ed 893c 59b0 133c ca89 41bc 0504 b8bc
000001c0: f580 04be fd1a 833c 93b7 b93b d4a7 1bbb
000001d0: bb8e c13d f7a9 ef3c 46a4 e0bd 2805 653c
000001e0: 564b dabd 3e6e 42bd 5e75 57be 2738 18be
000001f0: eb0e 3c3d 601d 243a 0ce4 50bc 5829 b739
00000200: fc2d a2bd d723 03ba dd62 0c3c d08b 05be
00000210: d250 97bb fadc 8bbc 3941 b3bc 8a08 a8bc
00000220: d575 673d 193e 153c 3e6e fdbc b625 c83d
00000230: 9882 0d39 b7ea cf3c 2b1e 903d ecaf 7dba
00000240: 25d3 8f3d baef 113c a78b 6c3c 7f5f d23a
00000250: bc09 8cbc 65cd e8bd 73ea cdbd 1ab1 9fbc
00000260: fab5 71bd 4925 88bc 5287 da3c 986d 5bbd
00000270: b93e 403c 9d0b ab3c f2ec ab3a 6e73 033a
00000280: d1ee f2bc 6c4f c83c 9f69 d5bc a30c ee3d
00000290: d899 173e f359 53be e3f3 8dbc d691 613c
000002a0: 56a3 d93d 657b 54bb 8ecf 973d 0f41 2dbe
000002b0: f7ca 72bc cff6 883d cb56 7a3c 0525 1f3d
000002c0: 9467 bdbc 58ee 16bc 1865 ee3d a785 d9bc
000002d0: 2ccf d23c b0e7 743c b98f 81bc 6db5 9a3c
000002e0: f835 403d 8592 813c 02be 3bbe de2e 24bb
000002f0: 59b5 c3bc b469 293e 9f7b 74bc 6724 9abc
00000300: cbb2 21bc fff7 2bbd 83f3 d23c dbb8 96bd
00000310: 3dcc bc3d a0ac 033d 44ae 553c 9086 8dbd
