Challenge_1/Weights/model_reward_Pendulum-v0_mse_0.00064798.params (torch_old, 327807 bytes, 7 tensors)

model.0.weight f4 [200, 4]
000000 d1 0c b4 be 8d 30 95 bf 4b 64 86 3d 91 bd 01 3d
       -0.35166028 -1.1655442 0.06562098 0.031674925
000010 28 e5 11 bf 23 af 1d 3f 4b 6b 59 bd ac f2 c7 3d
       -0.5699029 0.6159536 -0.05308084 0.09763083
000020 93 71 13 3f 23 9c 30 3e 6e 3d 68 3d 3d bb 6c bf
       0.57595176 0.17247061 0.05669921 -0.924732
000030 d6 07 e9 be 73 bb 54 3f 79 67 56 be f7 59 fa be
       -0.4551379 0.83098525 -0.20937909 -0.48896763
000040 e6 57 4c 3d f0 1e 38 bf cf f3 47 bf 6e e2 84 bf
       0.049888514 -0.71922207 -0.781064 -1.0381601
000050 63 6d f7 be 6d fc 40 bf ce d7 21 3f 32 99 24 3f
       -0.48325643 -0.7538517 0.63219917 0.6429626
000060 f4 e8 52 be c3 c1 04 3f 4a 70 98 be 47 80 14 3f
       -0.20596677 0.51858157 -0.2977317 0.58008236
000070 06 b8 d7 be 19 16 80 3c f5 b1 6b 3e 1b 30 bc bd
       -0.42132586 0.015635537 0.23017104 -0.09188863
000080 39 bc 92 be 4c 9a 8f bd 7f 31 e2 3e df f7 ed bd
       -0.28659227 -0.07011852 0.44178388 -0.11619543
000090 a2 8c 06 bf e3 ae a7 be dc aa 85 3f a4 64 c5 3d
       -0.5255834 -0.32750615 1.0442767 0.09638336
0000a0 55 1d 1a bf 49 ae c0 3d 6f ac 46 3e fb bb eb be
       -0.6020101 0.09408242 0.19401716 -0.46041855
0000b0 23 2f 29 3e 9a 65 da 3e a7 e1 75 bf c5 5c 45 3f
       0.16521887 0.4265564 -0.96047443 0.7709468
0000c0 68 47 32 3f 6e 13 69 bf 2f b3 a6 3e 93 64 16 be
       0.6964021 -0.9104527 0.3255858 -0.14686804
0000d0 1d 9b 24 be bc 4f 31 3e 44 9a 62 3f c9 46 a9 3e
       -0.16074796 0.17315573 0.8851664 0.33061817
0000e0 b1 38 a6 3f e2 36 7a 3f c3 85 32 3e f1 25 03 bf
       1.2986051 0.97739995 0.17433839 -0.5122977
0000f0 7b 58 7a 3e 8d 1b b2 be dc bc 99 3d 6d 73 69 be
       0.24447815 -0.34786645 0.07506725 -0.22797938
000100 53 8f cc 3f 9b 5c 5b bc fd db 76 3f 45 50 1e 3f
       1.5981239 -0.013388778 0.96429425 0.6184123
000110 f1 af 28 be c7 57 77 bf 5e d9 0d 3f 4d a4 af 3e
       -0.16473366 -0.9661831 0.554098 0.3430504
000120 db be 4b 3f 26 ec 4f bf dc 03 28 3d 22 ad 11 bf
       0.795881 -0.8121971 0.041019306 -0.56904805
000130 ed a5 cb 3e e7 d0 a2 3e c3 02 93 bf 0e 1a ea be
       0.3977503 0.31800005 -1.1485218 -0.45723003
000140 25 4c b7 bf e5 cb 0b 3f 0d 02 76 3f 32 36 05 be
       -1.4320112 0.54607993 0.9609688 -0.13008955
000150 b8 c5 52 bf 9c 05 18 3e 55 0d c7 be fe ec 56 3e
       -0.82332945 0.1484589 -0.3887736 0.20988843
000160 d9 3a 57 3a 5b 2f bb be 83 ad c5 3e 84 b8 9e be
       0.0008210368 -0.36559567 0.3860894 -0.3100015
000170 e1 46 91 bf 58 ba 2e bf 02 04 f3 3e 26 10 f8 3d
       -1.1349756 -0.6825309 0.47463995 0.12112455
000180 d2 f6 4f 3f a3 5f 5c bf f0 80 29 3f 00 b8 a8 be
       0.8123599 -0.8608343 0.6621237 -0.3295288
000190 a3 b6 1e bf e7 d0 a7 be a7 35 12 bf f3 5e ed 3d
       -0.6199743 -0.32776567 -0.57113117 0.11590376
0001a0 b2 c6 ce 3f 68 2a 8b be c3 07 b1 3f 92 bd 40 bf
       1.6154387 -0.2718079 1.3830494 -0.7528926
0001b0 ab fe 16 c0 d1 75 d3 be 60 bb 0f bc 95 0f ec be
       -2.3592937 -0.41300824 -0.008772701 -0.46105638
0001c0 4f ce 35 3f 0c b0 61 be b6 ac d5 3e 4a f3 09 bf
       0.71017927 -0.22039813 0.4173333 -0.53886855
0001d0 0d 9e 8a bf f6 1e 76 be e2 c0 04 be 20 7d 73 3f
       -1.0829483 -0.24035248 -0.12964204 0.951128
0001e0 6f d9 6d 3f d9 4a 73 bf 50 af b4 3e 16 ed a2 3d
       0.929099 -0.95036083 0.35290003 0.07955377
0001f0 ac 16 69 bf 10 c6 7c 3f 7e 91 07 bf 26 b0 ee be
       -0.9105022 0.9873972 -0.5295638 -0.46618766
000200 e4 5f ad 3f e2 b7 10 bf 03 61 40 3f 79 ed c8 3f
       1.3544888 -0.5653058 0.7514803 1.5697471
000210 7e 6d 80 3c 72 34 74 3f 22 83 d5 3e a7 08 d8 bd
       0.01567721 0.95392525 0.4170161 -0.10548525
000220 ce 48 50 3e c3 48 38 bf b9 0a 7c 3f 48 74 9d 3e
       0.20340273 -0.71986026 0.9845386 0.30752778
000230 34 9d eb be 4a db 24 40 4e 96 81 bc f0 03 9e bf
       -0.46018374 2.5758843 -0.015818741 -1.2344952
000240 6c 1e fb 3e 67 39 a3 3d d4 53 01 bf 4c 68 6b bf
       0.49046648 0.07969933 -0.50518537 -0.9195602
000250 d9 5c 4e 3f b5 27 f7 3d 78 00 c3 bf b4 32 92 bf
       0.80610424 0.120681204 -1.5234518 -1.1421723
000260 71 4e 80 3e 73 ea 90 be bb 3f a8 be 7d 57 ed 3d
       0.25059846 -0.2830387 -0.32861122 0.11588953
000270 ce e6 33 be 4e 9b 24 bf f3 01 63 3f 31 3a de be
       -0.17568514 -0.64299476 0.8867485 -0.43403772
000280 79 5a f8 3e 7f f9 61 bf bd 5f ed 3e 4a fc 93 3e
       0.48506525 -0.88271326 0.46362105 0.2890342
000290 65 f3 8e 3e 5a 01 2b bf c0 f6 57 be 81 e7 5c 3f
       0.2792007 -0.6679894 -0.21090221 0.86290747
0002a0 6f 8c ce be 60 67 65 bf ad 58 c2 3e 20 72 7d be
       -0.40341517 -0.8961086 0.3795828 -0.24750566
0002b0 e4 2a 16 bd 89 e8 17 be 0a af ea be f4 84 fc 3e
       -0.036661997 -0.14834799 -0.4583667 0.49320185
0002c0 42 f0 a6 3f 3d 37 55 be 6b fd 09 be 20 c2 b0 be
       1.3042071 -0.20821853 -0.13475578 -0.34523106
0002d0 ac 9b bb 3f ad b0 bb bb df 45 63 bf a9 fe dd 3e
       1.4656882 -0.0057278485 -0.8877849 0.43358353
0002e0 05 84 78 be d4 a4 e4 3e 42 85 a8 be 74 22 21 3e
       -0.24269111 0.44657004 -0.32914168 0.15735799
0002f0 d0 60 4e bf a8 c5 a6 3e 5a b8 b6 be 44 a8 53 bf
       -0.80616474 0.32572675 -0.35687524 -0.8267863
000300 1c 94 a0 3f 8d a6 32 3a 7a ee 81 3f 1f 77 13 bf
       1.2545199 0.0006814979 1.0150902 -0.5760364
000310 46 61 50 bf bf fa 25 bf df f2 34 3f a3 79 e5 3e
       -0.8139843 -0.64835733 0.7068309 0.44819364
000320 1f cc 5b be 1d 65 35 3e 24 fe 66 be 92 99 cf 3d
       -0.21464585 0.17714353 -0.22557884 0.10136713
000330 f2 5e b6 be 33 a7 d8 bc 36 4c 8b bf ac ce b2 be
       -0.35619313 -0.026446914 -1.0882633 -0.34923303
000340 1f 4c 02 3f 95 5c 0f 3f 48 ec 9b bf 8e 5e a9 bc
       0.508974 0.56000644 -1.2181482 -0.02067497
000350 ea cf f9 3e 69 3e 72 3f 56 ea 03 3e c7 09 00 be
       0.48791438 0.9462648 0.12882361 -0.1250373
000360 53 94 68 be f2 92 0d 3e b5 ec 8c bf 56 c7 cf 3e
       -0.22712831 0.13825586 -1.1009737 0.4058177
000370 64 79 82 be c7 0a 0e 3f 05 af a9 bd 81 d0 d5 3d
       -0.2548324 0.55485195 -0.082853355 0.104401596
000380 d6 22 13 3f 82 5d c2 3c 66 a3 9a 3e 72 d6 ac be
       0.5747503 0.023726229 0.30202788 -0.3375736
000390 d0 ad ce bf f3 5c dc 3e 8f 4c 9e 3e a9 65 9a be
       -1.6146793 0.43039665 0.30917785 -0.30155686
0003a0 75 71 d5 3f 67 89 05 bf a2 3d 77 bf a7 bd 94 3f
       1.6675249 -0.52162784 -0.9657842 1.1620377
0003b0 fa 17 1f 3f 4c 23 a7 be af 38 08 3f ee 07 ca 3f
       0.6214596 -0.32644117 0.5321149 1.578367
0003c0 0a 47 8b 3f e0 9f e0 3e 3a e2 4b bf 59 7d b4 be
       1.0881054 0.43871975 -0.7964207 -0.35251883
0003d0 83 d0 86 be 0f e1 8e 3e 94 0a 7d 3e 01 db 9d 3e
       -0.26330957 0.2790608 0.24711066 0.3083115
0003e0 bf f6 bf 3e f6 7a 69 3f 4c 99 b1 be 5c d9 6e bf
       0.3749294 0.9120325 -0.3468727 -0.93300414
0003f0 4f 02 48 bf 0d 2b a3 bf 26 6b ee 3e e3 df e4 3b
       -0.7812852 -1.2747513 0.46566123 0.006984697

model.0.bias f4 [200]
000000 00 00 00 00 76 b9 59 bd db 51 28 bc 34 b2 36 bd
       0.0 -0.053155385 -0.010273422 -0.04460354
000010 00 00 00 00 66 26 f5 3c 40 9f 09 bc d6 38 b1 3d
       0.0 0.029925536 -0.008399785 0.08653419
000020 74 c7 4c ba e3 ce 00 3d eb f0 80 3c 84 24 9b bd
       -0.0007811703 0.031447303 0.015739879 -0.07575324
000030 fb c9 c6 3e 31 f0 b4 be 45 2f ff bd 0c 15 59 3d
       0.38825974 -0.35339502 -0.12460188 0.052998587
000040 08 06 0a be 93 63 9b bd 8d c6 c6 3c 98 ad 19 3e
       -0.13478863 -0.07587352 0.024264598 0.15007627
000050 39 eb d0 3c 68 90 bb 3d c1 02 b7 3e af ec 06 be
       0.025502788 0.09158403 0.3574429 -0.13176225
000060 52 44 c2 3d 00 00 00 00 3e 3a 8b be 00 00 00 00
       0.09485687 0.0 -0.27192873 0.0
000070 dc 54 10 3e 22 d1 b8 3d 2c 55 16 3e 41 f1 8e 3d
       0.14094871 0.09024264 0.14680928 0.06979609
000080 ba 53 b1 be 9f d1 91 be ab 8e 60 be 41 4e 01 be
       -0.3463419 -0.2848024 -0.21929424 -0.12627508
000090 67 66 74 3e 4e 0f bd 3d 4f 19 80 3e 4e 38 01 be
       0.23867188 0.09231435 0.2501931 -0.12619135
0000a0 c3 88 11 3d 49 64 17 be 54 90 8f bc c2 79 2d be
       0.035530817 -0.1478435 -0.017524876 -0.16940978
0000b0 c5 45 3b 3d 3a c7 66 bd 80 c0 40 3d 68 c2 1a 3e
       0.045720834 -0.05634234 0.047058582 0.15113223
0000c0 b5 d3 62 be 6e 49 46 3d 69 cd 21 3e 00 00 00 00
       -0.22151072 0.04840987 0.15801014 0.0
0000d0 77 1d 47 3d f0 47 18 be f7 1f a1 3e 74 0a 37 be
       0.048612084 -0.14871192 0.314697 -0.17875081
0000e0 eb 62 3f bd 51 d2 7d 3d ea af b5 bd 44 4d 94 be
       -0.046725195 0.06196815 -0.088714436 -0.289652
0000f0 21 c5 fb 3d 57 c9 9c be b2 f4 4f ba 7c 75 2e bd
       0.12293459 -0.3062236 -0.0007932886 -0.04259251
000100 6b 60 5d 3d 39 d6 7f 3d 42 23 99 bd 35 94 6d 3d
       0.05404703 0.062460158 -0.07477428 0.05800267
000110 49 4d 27 3e b8 63 81 3c 8a 45 d4 3e ca 65 76 3d
       0.16338076 0.01579462 0.41459304 0.060155667
000120 b9 73 98 be 49 95 28 be 06 d6 f7 3a 92 39 06 be
       -0.2977579 -0.16463198 0.0018908388 -0.13107899
000130 02 da 7f 3e a7 76 07 be 08 96 8b 3e b8 02 28 be
       0.24985507 -0.13228856 0.27262902 -0.16407287
000140 df da 02 3e 58 ca 32 be 8b c2 1c be 9b c1 ed bd
       0.12778805 -0.1746 -0.15308587 -0.11609193
000150 00 00 00 00 4a 07 06 bc 00 00 00 00 e2 64 ca 3d
       0.0 -0.008180449 0.0 0.09882523
000160 bc e5 d8 3d 19 93 5d 3d a3 3e 36 3d 77 df 12 be
       0.10590693 0.05409536 0.04449333 -0.14343058
000170 b3 75 34 be 4c fc a5 3e fd 84 1f be b0 63 e2 3d
       -0.17623024 0.3241905 -0.15578075 0.1105417
000180 e0 74 59 3c 00 00 00 00 45 99 2d be bb e8 89 3d
       0.013272494 0.0 -0.16952999 0.06733843
000190 81 91 a9 bd 49 c7 bf be 7d 68 a2 bd 00 00 00 00
       -0.08279706 -0.3745673 -0.07930086 0.0
0001a0 ef df 39 be b6 78 95 bd 12 ae c4 3c b0 59 cf 3d
       -0.1815183 -0.072984144 0.024008784 0.101245284
0001b0 b2 42 b3 3c f4 74 fd bd 8a 6a b3 3b f3 78 50 3e
       0.021882389 -0.12375823 0.005475347 0.20358638
0001c0 3f be 09 bd bd 96 01 3e a7 6d dd bd 00 00 00 00
       -0.0336287 0.12655158 -0.1081193 0.0
0001d0 ee de 8b 3e ce 8a b9 3c ee 11 ea bd fd 0e cc bd
       0.2731852 0.022649195 -0.11429201 -0.09963796
0001e0 72 d1 97 3e 10 d3 c5 3d 3a 72 c2 be 66 c4 11 3c
       0.29651982 0.096593976 -0.37977773 0.008896923
0001f0 b1 5e cf bd 54 ca 0b bd 8e 32 2c be ed 66 b7 bb
       -0.10125483 -0.034128502 -0.1681616 -0.0055969865
000200 46 16 3e 3e db 06 af bd cf 04 6c 3e 99 5b 1e be
       0.18563184 -0.085462295 0.2304871 -0.15464629
000210 9a 7e b6 bc e3 fc 8f 3e 84 49 45 3e b7 c7 4e 3e
       -0.022277165 0.28122625 0.19266325 0.20193373
000220 33 4a a7 be d8 4c 3a 3e 61 03 d1 bd 6c 1c 9c 3d
       -0.32673797 0.18193376 -0.102057226 0.076226085
000230 bc 9f 85 be 00 f6 43 3e 55 15 02 3c 00 00 00 00
       -0.2609843 0.1913681 0.007939656 0.0
000240 38 4d cb ba 8e d9 ac 3d 29 62 54 3e cb 9e bc 3c
       -0.0015510684 0.08439933 0.2074057 0.023024937
000250 00 00 00 00 18 1a ee 3c 29 6f 29 3d 86 50 4a 3d
       0.0 0.029065177 0.041365776 0.0493932
000260 b6 2c 09 be 5a 38 59 bc ab 12 c8 3c e8 a9 94 3c
       -0.13395962 -0.013258064 0.024422964 0.018147424
000270 ab 53 6c 3d 24 4d 46 bd 88 25 ae be 29 fc c4 3d
       0.05769698 -0.04841341 -0.3401301 0.09618408
000280 48 e2 1d bd 00 00 00 00 3f e9 13 be 90 d4 8c 3e
       -0.038545877 0.0 -0.14444445 0.27505922
000290 ea 1a 94 be 5e e2 75 3e 97 ea ef bd 61 df a1 bd
       -0.28926784 0.24012133 -0.11714666 -0.07903934
0002a0 d1 6d 00 3c ac d1 a4 be 7e 33 d9 bc a8 9a 03 be
       0.007838682 -0.32191217 -0.026513811 -0.12851965
0002b0 cc 44 f3 bb 38 9d fa bd 06 98 09 bc 00 a4 4f 3e
       -0.0074239727 -0.12237018 -0.008398062 0.20277405
0002c0 0c 6c 20 bc 00 00 00 00 19 75 98 be 79 4b cf 3e
       -0.009791385 0.0 -0.29776838 0.4048727
0002d0 e2 ae 06 3e c8 6e 0d bd 00 00 00 00 da 75 54 3e
       0.1315265 -0.034529477 0.0 0.20748082
0002e0 1c b4 1e 3d b4 75 7a bd da 5b b7 3d a3 70 8e be
       0.038745984 -0.061147407 0.08953066 -0.2782031
0002f0 a5 23 c2 bd 47 9f 20 3d 00 00 00 00 34 91 7f 3e
       -0.09479455 0.0392144 0.0 0.24957734
000300 7c 1b 21 3e 2f b2 aa bd da 9f 5a bd 35 b0 a8 bd
       0.1573314 -0.08334767 -0.053375103 -0.08236734
000310 33 48 96 bd f7 a1 a0 bd ed a3 84 bd 49 c9 f9 bc
       -0.0733799 -0.07843392 -0.06476579 -0.030491488

model.2.weight f4 [200, 200]
000000 bf e9 bd 3c e5 70 f6 bb 07 99 ed 3d c1 03 fe bd
       0.023182748 -0.0075207823 0.11601453 -0.1240306
000010 71 5a 3d bc 02 01 da bd 86 fe 87 3d 92 43 1a be
       -0.011557207 -0.106447235 0.06640343 -0.15064839
000020 5f 6c 8a bd 00 54 ad 3d c4 e4 9d 3d bb 3a 8d bd
       -0.067589514 0.08463287 0.07709649 -0.068959676
000030 f9 3e 29 3d 4c ee 0a be a3 5b 5b bd b1 91 3e bd
       0.04131982 -0.13567466 -0.05355419 -0.04652566
000040 1e 1d 3b bd 13 dc 64 bd db 86 57 bb 42 a5 93 bd
       -0.045682065 -0.05587394 -0.0032886777 -0.07209255
000050 3f 15 be 3d 4a 39 45 3d ce d7 36 3e 11 63 14 b9
       0.09281396 0.04815034 0.1785576 -0.00014151285
000060 11 7a a8 bd a8 27 3f bd 2d 19 5b bc 9b 4a 04 3e
       -0.08226407 -0.04666868 -0.013372702 0.12919085
000070 d0 ab e5 38 5d 95 4b bd b7 87 84 3d b4 6a d5 bd
       0.000109515735 -0.04970299 0.06471198 -0.10420743
000080 27 d1 f0 bc 05 d9 5b bd 98 47 c7 3c 77 3a d6 bd
       -0.029396607 -0.053673763 0.02432613 -0.1046037
000090 16 d2 bb bc ac 40 6b bd 1b 17 28 3c f2 33 d3 3b
       -0.022927325 -0.057434723 0.010259415 0.0064454013
0000a0 4c a1 46 be d0 d5 62 bc 26 03 35 3d 7e 51 5a bd
       -0.19397467 -0.013844922 0.044192456 -0.053300373
0000b0 87 79 05 bd 52 33 8f bd d5 0e aa bc 56 2e 0b bd
       -0.0325866 -0.069922104 -0.020759026 -0.033979736
0000c0 49 52 09 be b3 62 93 bd 8e f6 46 bc bf f2 bc bd
       -0.13410296 -0.0719656 -0.012143744 -0.09225988
0000d0 7a 74 48 bd 38 90 3f be fd 4b be 3d 54 45 fb bd
       -0.048939206 -0.18707359 0.09291837 -0.12269083
0000e0 31 36 be 3c 5a 90 f6 bc 9a 26 9c bd ba 01 ed 3b
       0.0232192 -0.030098129 -0.0762455 0.007232872
0000f0 f6 be 8d be 0f b5 5a bd 87 a2 b2 bd 2f 8c ee bc
       -0.27684754 -0.053395327 -0.08722406 -0.02911958
000100 8e c9 bb 39 e0 aa b9 bd d0 34 98 bd 1f ec 91 bb
       0.0003581759 -0.09065795 -0.07431948 -0.0044531967
000110 9d aa 0c be 62 06 dd b9 9a 16 40 3e c2 8f 6d bd
       -0.13736959 -0.0004215716 0.18758622 -0.057998426
000120 1d b8 c9 3b ae 64 3f bd f9 24 8a bd 2a dc bf bc
       0.006155981 -0.046726875 -0.06745333 -0.023420412
000130 34 e0 6f bd bb 07 b9 bd 2f 3a 10 bd f9 ba 9b 3c
       -0.058563426 -0.090346776 -0.03521174 0.019010054
000140 63 e8 c2 bd 56 58 f3 3d 87 46 f0 bd 5e cb 3a be
       -0.095169805 0.11882083 -0.11732202 -0.18241641
000150 63 06 86 3c ce 35 e2 bd ef 03 59 be 81 71 16 be
       0.016360467 -0.11045419 -0.21192907 -0.14691736
000160 ef c9 36 be b5 5f 39 3d 72 9a 71 bc 26 25 b8 3d
       -0.17850469 0.04525729 -0.014746295 0.089914605
000170 fe ae 17 bd 80 c8 4f 3d 14 8c 07 be 5c 00 3f 3d
       -0.03703212 0.05072832 -0.1323703 0.046631202
000180 5e b2 8f bc ed 21 6a be 50 c0 3d be cd 9f f7 bd
       -0.017541107 -0.22864504 -0.18530393 -0.120910265
000190 67 45 a0 bd 12 67 09 3e 4b 63 80 bc ff 59 28 3d
       -0.078257374 0.13418224 -0.015672347 0.041101452
0001a0 dc 69 0a 3c 1c df 04 be 05 47 a0 3d 33 59 47 bd
       0.00844809 -0.12975734 0.07826046 -0.04866905
0001b0 f9 b0 d2 3c 09 b0 de 3b bc 0e 69 bd db de e1 3c
       0.025719153 0.0067958874 -0.056898817 0.027572086
0001c0 e6 c2 1d bc 23 9a de bd fc 57 cd bc 41 54 12 bc
       -0.009628987 -0.10869243 -0.025066368 -0.0089312205
0001d0 30 4d 9d bb 95 1c b4 3d d0 fc 29 bd ae 32 b4 3d
       -0.004800461 0.08794514 -0.041500866 0.08798729
0001e0 a1 2f fa bd a3 34 aa 3d 3a 9d 1a 3c 0f 17 66 3d
       -0.12216116 0.08310821 0.0094369 0.056174334
0001f0 6b 3e ef 3d 2b a4 06 be 45 22 f7 bd a2 f6 85 bd
       0.11681827 -0.13148563 -0.12067083 -0.06541182
000200 0e 4f 38 3e df 04 4f be 56 1f ac 3d a9 4d c2 bd
       0.17998907 -0.20216702 0.08404414 -0.09487469
000210 c4 60 48 bd a7 dc fe 3b cc 9c 90 3d 88 7f 15 bd
       -0.048920408 0.0077777687 0.07061157 -0.036498576
000220 31 63 d6 bd 6e 56 68 bd f0 95 1f 3d bb 7d 32 be
       -0.10468138 -0.05672305 0.03896135 -0.17430775
000230 9a b6 09 3d 25 61 63 bd 21 28 1e be 38 a4 57 bc
       0.033621408 -0.055512566 -0.15444995 -0.013161711
000240 b6 52 fa 3c 00 c3 80 3d 67 3b 8c 3d e9 a1 00 3e
       0.030557018 0.06287193 0.068472676 0.12561764
000250 66 cd 14 bb 3c 36 7d 3d 93 e7 a1 3d cb 34 36 be
       -0.0022705435 0.0618193 0.079054974 -0.17793576
000260 83 ff 53 bd 75 d7 8b 3c 88 df e5 bc 2d 71 7b bd
       -0.051757347 0.017070511 -0.02806069 -0.06138723
000270 cd e1 7f bb da 69 ee bd da 41 80 3d 47 71 2c 3d
       -0.00390445 -0.11641283 0.0626256 0.042100217
000280 dc 3a a5 3b 5f f1 3b be 45 a7 ea 3d 83 9b 2b 3e
       0.005042417 -0.18353795 0.114576854 0.16758542
000290 86 2a f3 bc bb cb cd bd ff 6d ad 3d 9e 0d ff bd
       -0.029683363 -0.10048624 0.08468246 -0.12453769
0002a0 f9 fd ef bd 48 2e 6b bd fe e5 70 bc 74 f5 14 3e
       -0.11718363 -0.057417184 -0.014703272 0.14546758
0002b0 65 6f ab bd ea 47 ac bd 64 25 e4 bb 1c 62 44 bd
       -0.08370856 -0.08412154 -0.006962465 -0.047945127
0002c0 ea 45 a0 3d 40 db 10 be 41 e3 f6 bd 12 cb 43 3d
       0.07825835 -0.14146137 -0.12055064 0.047801085
0002d0 43 f8 70 be 57 22 74 3e ca 60 b5 bd 06 af cd 3d
       -0.23532204 0.23841225 -0.08856352 0.10043149
0002e0 7c d0 c2 3c 0d d7 e0 3c 20 a9 62 3d f6 b0 ca 3d
       0.023781054 0.027446294 0.05533707 0.09897034
0002f0 80 6b c5 b7 39 17 d6 3d 23 ad 23 3e 9b 82 ab 3c
       -2.3534289e-05 0.10453648 0.15984015 0.020936301
000300 9f 3a 67 be b2 49 13 be a7 b8 37 be 6d 94 d2 bd
       -0.22580956 -0.14383581 -0.17941533 -0.10282216
000310 8b fe 1b 3e f8 e8 0d be 6b f7 0c be fc 52 2a bd
       0.15233819 -0.13858402 -0.13766257 -0.041583046
000320 62 fd eb 3d b0 01 4a bd 0f d1 ce bc b2 9e cf bd
       0.11522938 -0.049318016 -0.025246171 -0.101376906
000330 c9 2d b8 3d a2 4e 43 bd e5 3f 31 bc d6 86 fe 3b
       0.08993108 -0.047682412 -0.010818456 0.0077675385
000340 8a 6e e0 bb c6 64 33 be 1d 53 5e bd 0b da d7 3c
       -0.006849115 -0.17518911 -0.05427848 0.026349088
000350 8c 03 8b 3d c4 b0 88 ba 65 ca 51 bd 57 b3 8e 3c
       0.06787786 -0.0010428657 -0.05121841 0.0174195
000360 4b 38 6a bc b9 b5 d7 3d 21 9b 06 be 44 79 79 bd
       -0.014295648 0.10532708 -0.13145114 -0.060906664
000370 37 97 3d bd eb 32 b2 bd 33 c7 57 3d 76 87 de bb
       -0.046286788 -0.08701118 0.052680206 -0.0067910505
000380 15 dc 1b 3e fb 33 d1 bd 5c 13 fd b8 68 15 7e bd
       0.15220673 -0.102149926 -0.00012067586 -0.062032133
000390 6d c1 59 bc 2d 04 17 3e 7f c6 1c be 58 09 31 be
       -0.013290745 0.14747687 -0.15310095 -0.1728872
0003a0 3f 67 be bd c3 40 f0 3c 77 d1 6c be 48 28 28 3d
       -0.092970364 0.029327756 -0.2312678 0.04105404
0003b0 72 96 eb 3d d3 d1 c7 3c b3 68 b4 bd 5b 4e d5 bd
       0.115033045 0.024392044 -0.08809032 -0.10415336
0003c0 a4 f3 28 bd bd a0 af bd 13 8b 7f bd 0b 62 4b bd
       -0.04124798 -0.0857558 -0.06238849 -0.049654048
0003d0 70 30 95 3d 45 32 40 3d 83 df e1 3d ee 9c 1c bd
       0.07284629 0.04692294 0.110289596 -0.038235597
0003e0 53 d5 6d bc de bd a0 3d 2f cb 7f 3e 6b c2 ad 3d
       -0.0145161925 0.07848714 0.24979852 0.08484348
0003f0 5c 85 44 bd be 80 a1 bd 03 8c 3e 3e ea 77 91 bd
       -0.047978744 -0.07885884 0.18608098 -0.0710295

model.2.bias f4 [200]
000000 ee ea de bc cf 25 79 bb 32 33 3c bb 6a ee 4f bb
       -0.027211633 -0.003801692 -0.0028717038 -0.00317278
000010 1f b1 de bd 1d b4 48 bd d9 ef f1 bd 12 ec 00 3e
       -0.10873627 -0.048999894 -0.118133254 0.12590054
000020 b9 07 b2 bd 00 00 00 00 35 17 fd bd ab d6 23 bc
       -0.08692879 0.0 -0.12357942 -0.009999911
000030 af 60 b2 bc 3e b5 ff bd e2 5c 42 3a ac f0 e4 bd
       -0.021774618 -0.12485741 0.00074143533 -0.11178717
000040 1e 60 50 bd 43 98 dd bc d3 02 4f 3d f8 3d 6c bc
       -0.050872914 -0.027050143 0.050539803 -0.014419071
000050 da b3 59 bc 26 41 94 3b 74 e0 9d 3c c5 59 cb bc
       -0.013287509 0.004524368 0.019272067 -0.024823079
000060 00 00 00 00 84 8d a2 bd 02 07 1d bd 00 a5 56 3b
       0.0 -0.07937148 -0.03833676 0.0032752156
000070 07 d7 23 bc 73 af 3c bc d8 f6 68 bd ec f6 93 3d
       -0.009999997 -0.01151644 -0.056876034 0.07224831
000080 9d b9 93 bb 3d eb e8 bd 00 00 00 00 9c b1 30 be
       -0.004508211 -0.11372993 0.0 -0.17255253
000090 a3 9b 75 bc ff af 5f bd 4b c8 b3 3d 52 50 e9 bd
       -0.01499072 -0.054611202 0.08778437 -0.11392273
0000a0 93 17 16 bd bb 73 17 3e 72 eb a9 bc a5 c6 cf bb
       -0.036643576 0.14790241 -0.020742152 -0.006340819
0000b0 a3 57 3f 3d 98 f8 0f be fc a8 75 bc b4 67 ac bd
       0.046714436 -0.14059675 -0.014993902 -0.08418217
0000c0 83 8b 94 bd 00 00 00 00 0c 9c d7 bb fa 40 c0 bd
       -0.07253172 0.0 -0.0065798815 -0.09387393
0000d0 03 da 44 bd df a0 34 3e f5 1e 55 bc c4 05 ae 3d
       -0.048059475 0.17639492 -0.013007869 0.084971935
0000e0 c4 41 00 3e c6 d6 23 bc fe b9 d7 3a 71 a7 54 3d
       0.12525088 -0.009999936 0.0016458628 0.051917497
0000f0 bd 2b ff bb ae a7 3d bc 7d 46 b4 bc 5f f9 bd bd
       -0.0077871964 -0.0115756225 -0.022006268 -0.092760794
000100 5f d4 40 3d 1b f5 2e bb 67 1e 50 3d 1a db 5d bb
       0.047077533 -0.0026696387 0.050810244 -0.0033852519
000110 00 00 00 00 39 37 f6 bd e7 46 99 3d 1a 66 73 bc
       0.0 -0.12022252 0.07484227 -0.014855886
000120 af 4b 25 bc 63 7b b1 bd c2 0e 02 be f0 e1 94 3d
       -0.010088845 -0.08666112 -0.12700942 0.07269657
000130 36 b3 f5 bb 9f ce 85 bc 42 a3 ce 3d 7a b4 68 38
       -0.0074981702 -0.016333876 0.10089733 5.5481192e-05
000140 f4 d6 23 bc 06 23 28 bc 19 3b 2a 3e 5a 03 a5 bc
       -0.009999979 -0.0102622565 0.16624106 -0.0201432
000150 3b 35 33 3b 30 36 cb bd 46 a4 db bd 39 b0 aa 3c
       0.002734496 -0.09922445 -0.10724692 0.020835983
000160 64 e7 da bd c1 c9 83 bd ac 2f 41 bd bd 1a 18 3d
       -0.106886655 -0.06434966 -0.047164604 0.037134875
000170 a8 1e f9 3c 65 eb 54 bd e5 2a 61 bc da 0b 13 bd
       0.030410126 -0.051982302 -0.013743137 -0.035899974
000180 3e 79 b4 bc 83 f4 a6 bd e0 c0 75 bc eb 3e ab bd
       -0.022030469 -0.08152106 -0.014999598 -0.0836161
000190 c8 4b 21 3e 22 e0 bb bd 58 b2 8d bd d3 18 15 bd
       0.15751565 -0.09173609 -0.06918782 -0.036400627
0001a0 84 62 34 be e3 e3 68 3e 5d 3f 0b be 20 cc 23 bb
       -0.17615706 0.22743182 -0.1359839 -0.0024993494
0001b0 66 dc e4 3c 3e a6 1d 3d 82 97 da 3c b4 2d ae 3d
       0.027937125 0.03848862 0.026683573 0.08504811
0001c0 37 86 35 3d 7e 35 9c bc 4b d0 7c 3d 58 87 45 bd
       0.04431745 -0.019068476 0.06172208 -0.048224777
0001d0 39 e5 f9 bb 51 3c 2e 3d 53 9b 8d 3d d2 dd 7e bb
       -0.0076262024 0.04253799 0.06914391 -0.003888954
0001e0 c9 0f b7 bc df d2 0c 3d 38 df eb 3b 25 00 7d bd
       -0.022346394 0.03438079 0.0071982406 -0.061767716
0001f0 2b 97 0b 3e 9e b9 75 bc d5 3d 98 3c a8 8e 05 3e
       0.13631885 -0.014997868 0.018584171 0.130427
000200 2e 07 99 bb 4e 2a df 3c d1 c6 0c bc 8e cc e4 bd
       -0.0046700453 0.027241852 -0.008592323 -0.11171828
000210 6e f0 af bc 50 f5 b8 bc 92 80 9f bd 59 4b c1 3d
       -0.02147695 -0.022577912 -0.07788195 0.094381995
000220 e9 d6 23 bc 80 7e 04 bc f5 b0 09 bd 02 d7 23 bc
       -0.009999969 -0.008086801 -0.033616025 -0.009999992
000230 1b e1 47 3e ed 38 e7 bd 2b 4e 9b 3d 26 9d 3d bc
       0.19519465 -0.112901546 0.07583269 -0.011573112
000240 75 60 86 bc 03 80 c5 3d 94 d8 e9 3c 85 d2 6a 3c
       -0.016403416 0.09643557 0.028545655 0.014332418
000250 6b 64 4a be 7d 19 0b bd 09 d0 67 3b d9 7e b3 bc
       -0.19764869 -0.033959854 0.0035371801 -0.021911072
000260 1c d6 23 bc f2 fd ee 3c 67 52 e9 bd dd d9 12 3e
       -0.009999778 0.029173825 -0.1139267 0.14340921
000270 f8 ee a0 bc a0 d7 11 bd da 45 1b bd d8 49 a8 bc
       -0.0196452 -0.035606027 -0.037908413 -0.020543024
000280 6d 71 bc 3d 82 f8 8d 3e 66 5c 1f bc 87 3f 22 3d
       0.09201322 0.2772866 -0.009726619 0.039611366
000290 fe c1 75 bc d7 28 10 ba a4 39 c5 bc 8f 08 81 bb
       -0.014999865 -0.00054992497 -0.024075337 -0.003937788
0002a0 a9 d8 bf 3d 68 29 16 3d 5e c0 75 bc 5c 6d 5b 3c
       0.093674965 0.03666058 -0.014999477 0.0133927725
0002b0 c6 fb 3e bd 8d f4 1b bd 9e 09 20 3e 8c 17 f6 bc
       -0.04662683 -0.03807502 0.15628669 -0.030040525
0002c0 c1 04 a3 3d e6 4f cd bc 0e 09 04 3e 6f 26 98 3d
       0.07959891 -0.025062513 0.12894079 0.074292056
0002d0 64 a9 a9 bd 2e 16 17 3e f2 57 58 bc 49 31 52 3e
       -0.08284262 0.14754555 -0.013204562 0.20526613
0002e0 03 d0 a3 bb ba 36 21 3e 81 54 19 bc f7 a9 90 bd
       -0.004999162 0.15743533 -0.009358526 -0.07063668
0002f0 d7 b8 20 3d 5a 63 45 3e c6 9b b8 3d d6 9a 94 3d
       0.039238777 0.19276181 0.090140864 0.07256095
000300 da f9 67 bd 1c 4d fd bc e2 c8 17 bd b9 92 97 bd
       -0.05663476 -0.030920558 -0.03705681 -0.07401032
000310 68 95 e0 bc bf 5c 36 bc 8f 4f 13 be 77 35 a7 3c
       -0.027414992 -0.011130511 -0.14385818 0.020411236

model.5.weight f4 [200, 200]
000000 d8 30 0e 3d 7f c2 25 3e 8f 64 e2 3d 60 59 87 bd
       0.03471455 0.16187476 0.11054336 -0.06608844
000010 7a 36 e9 3c ea 40 fc 3d df 80 11 3b 33 58 f2 3c
       0.02846836 0.12317069 0.0022202057 0.029583072
000020 0f 59 64 3d ff 30 52 bd 44 52 b6 bc 8c 18 37 bc
       0.055748995 -0.051316258 -0.022256024 -0.011175286
000030 df ed 22 3c 0c 89 f8 3c d9 34 d5 3d 56 2a 13 bb
       0.009944408 0.030338787 0.104104705 -0.0022455654
000040 40 c0 39 3d 08 fa 48 bd 11 4e 4b 3b e0 15 60 3e
       0.04534936 -0.049066573 0.0031021873 0.21883345
000050 64 25 2b 3c 0d c3 b6 3d 25 1e e4 bd 71 01 80 bc
       0.010445926 0.08923922 -0.11138562 -0.015625687
000060 4a ff 77 be 19 86 c8 bd 58 c5 71 bd 5a ef 17 bc
       -0.24218479 -0.09791202 -0.059026092 -0.009273374
000070 06 80 59 be 29 a1 51 3e 71 71 6e bd af 20 d4 bb
       -0.21240243 0.20471634 -0.058213655 -0.0064736228
000080 35 01 35 bd f9 24 e8 bd db 08 3e 3d c5 e8 31 3e
       -0.044190604 -0.11335177 0.046395164 0.17373951
000090 bd 9b 1a 3e 7a ff dc 3d b4 13 7d 3e 3b 62 26 3e
       0.15098472 0.10790916 0.24714547 0.1624841
0000a0 e0 4a 89 bc b1 b6 dc bc fc 64 db bd 43 05 4f bd
       -0.016759336 -0.026942583 -0.107126206 -0.050542127
0000b0 44 24 6f bd d8 88 34 3d 42 e9 1a 3e 4f c6 00 3b
       -0.058384195 0.044075817 0.15128043 0.001964945
0000c0 1b 16 e5 3c 35 0e 1e 3e b2 24 54 3b a6 d1 03 bc
       0.027964642 0.15435107 0.0032370505 -0.00804559
0000d0 1b 60 34 be ac 16 89 3a 1a ed eb 3d 43 14 c7 3b
       -0.17614786 0.0010459027 0.11519833 0.0060754134
0000e0 0a 3e c9 bb 34 27 94 bd 8d 07 98 bd 6e 05 82 3e
       -0.006141429 -0.0723404 -0.07423315 0.25394768
0000f0 72 bd cc bd 12 f8 cc 3d fb d5 38 bd dc db 2c be
       -0.09997071 0.10008253 -0.045125943 -0.16880745
000100 3a cd 1d 3e 15 2a cf 3d 96 35 96 3d ba 75 8c 3d
       0.15410319 0.101154484 0.073344395 0.06858392
000110 bb a9 11 3d 32 a2 ec 3d a8 47 64 bd 93 ef 42 bb
       0.03556226 0.11554374 -0.0557324 -0.0029744848
000120 dd d2 48 be 3f db 49 3e 91 12 c6 3b 02 cf 01 be
       -0.19611688 0.19712542 0.0060446938 -0.12676623
000130 56 06 9d bd 29 e3 ff 3d 91 d0 f2 bc 16 10 19 3e
       -0.07667224 0.12494499 -0.029640468 0.14947543
000140 90 3c b4 3c 2f 78 89 be 8c 35 00 3d 3e 3e 9d bd
       0.022001535 -0.26849505 0.031301066 -0.076778874
000150 3f 06 b2 bd e4 c8 ba bd 55 24 12 be 49 6f 15 be
       -0.086925976 -0.09120348 -0.14271672 -0.14593233
000160 c3 93 17 3e f0 39 41 bd 87 6d 68 3c f6 42 c6 bd
       0.1480246 -0.047174394 0.01418627 -0.096807405
000170 f1 9d 58 3e 7d 69 af 3c 13 f0 dd bc 66 ca 1d 3e
       0.21154 0.021412605 -0.027092015 0.1540924
000180 39 fd ef 3c 81 81 8d 3d 24 40 1c 3d c4 3c eb 3d
       0.02929555 0.069094665 0.038147107 0.114861995
000190 df 43 81 3e d1 26 92 bd 25 f8 9c 3d ba 9e 8c 3c
       0.25247094 -0.0713631 0.07664517 0.01716553
0001a0 5e 46 d1 bd 9d d8 d3 3c 8c 31 82 3e 48 eb 59 3d
       -0.102184996 0.025860125 0.25428426 0.053202897
0001b0 30 2b 3d 3e 55 6f 48 3d 1a a8 14 bd b7 da 30 bd
       0.18473506 0.0489343 -0.036293127 -0.043177333
0001c0 9a f2 20 bd cb a2 98 3d fa 1d 9c bd 08 67 19 3e
       -0.039293863 0.07452925 -0.07622905 0.1498071
0001d0 e5 75 65 bc 71 03 27 be c2 50 f9 bd bd a9 9a bc
       -0.014005159 -0.16309907 -0.121736065 -0.018879766
0001e0 a5 30 d9 3d d6 dd 1b be d2 b7 33 bd 60 85 b4 ba
       0.10604981 -0.15221342 -0.043876477 -0.0013772659
0001f0 a7 bb 86 3e 04 f1 10 3d 89 5c 03 bc 91 57 f0 3d
       0.26315042 0.0353861 -0.008017668 0.11735452
000200 0b d0 dd 3d 4c 8b 61 3d d1 f7 ca 3d 7f ea 1e bc
       0.10830697 0.055064484 0.099105485 -0.009699463
000210 e6 3f 08 bd 82 5d 8d 3d cc 79 82 3d 65 9b fb bd
       -0.033264063 0.06902601 0.06370887 -0.122854985
000220 24 8e 58 3d 65 16 03 3d 84 4d 26 be ef d0 79 3d
       0.05286993 0.03200378 -0.16240507 0.06099027
000230 4a 4d 13 3d ef 9c ea bd da a5 cf 3d e9 6f 4b be
       0.03596238 -0.11455714 0.101390556 -0.19866909
000240 97 58 76 3d 3a e5 5b bd f0 4c 97 3d 69 f6 06 3e
       0.06014308 -0.053685404 0.073877215 0.13179936
000250 42 41 ca bc ae b5 ab 3c 98 7b 9b 3d e4 40 d3 bd
       -0.02468932 0.020960655 0.07591933 -0.10315111
000260 e3 bf f0 bc 91 95 b3 bd ff d9 2d 3e cd 89 87 bc
       -0.029388374 -0.08768762 0.1697769 -0.0165452
000270 3c 69 20 be 07 87 e5 3d 76 43 0d bd b9 c0 40 be
       -0.15665144 0.11207395 -0.034488164 -0.18823518
000280 62 29 60 be 07 5b 93 bd a7 a0 3d bd 5f 77 c8 3c
       -0.21890786 -0.071950965 -0.04629579 0.024470983
000290 fe 4a c0 bd 0a 95 bd bd 75 a9 85 3d 4c 75 c2 3d
       -0.093893036 -0.092569426 0.06526462 0.09495029
0002a0 c9 e1 8b 3d 3e 00 81 bd 35 18 c6 bd 6d 83 b0 3c
       0.068301745 -0.06298874 -0.09672586 0.021547044
0002b0 5d f3 3f bc d4 02 4d bd 77 6b 8c 3e 9f 7b ae 3d
       -0.011715737 -0.050051525 0.2742574 0.085196726
0002c0 46 cf d7 3d 99 ba 4e bd 6e 45 cf 3c 07 53 4b 3c
       0.10537581 -0.050470922 0.025301661 0.012409932
0002d0 4f 39 83 bd 1c 69 48 3d fd df 2a 3e 10 63 a5 bb
       -0.06407415 0.048928365 0.16687007 -0.0050472096
0002e0 c0 2e 8c bd 15 db e8 3d a0 bb 23 bd 26 bf e8 3c
       -0.06844854 0.113699116 -0.039973855 0.02841146
0002f0 5b e7 6c 3e 69 64 8d 3e b1 ec 9b bd c1 a4 b7 3c
       0.2313513 0.2761567 -0.07613505 0.022417428
000300 1d 97 87 3c 48 29 c3 3c 19 a1 35 3e e2 1a 8d be
       0.016551549 0.023823395 0.17737235 -0.27559572
000310 39 95 87 bd ae ad 58 3d 35 af 7d bd 3e ee 6a 3d
       -0.06620259 0.05290001 -0.06193467 0.05735611
000320 6d 26 04 be b3 cb 10 bc f8 b0 86 bc 28 1a 58 be
       -0.12905283 -0.008837628 -0.016441807 -0.21103728
000330 d8 3f 6f 3d 72 32 72 bd 39 d8 9c 3d b8 57 7b bc
       0.058410496 -0.05913014 0.07658429 -0.015340738
000340 ed 72 ae 3c 68 90 f3 bd bf ce ac bc 82 8a 2b bc
       0.021295035 -0.11892778 -0.021094678 -0.010470035
000350 52 62 f6 bd 41 37 32 3e 19 ca a5 bc d8 2d 15 3e
       -0.12030472 0.1740389 -0.02023797 0.14568269
000360 b6 e3 c7 bb 1c 2d 25 3e e0 a2 58 3d 03 6b cd bd
       -0.0061001433 0.16130489 0.052889705 -0.100301765
000370 87 e0 d2 bc f0 39 52 3d fa 8a be bd 73 23 93 be
       -0.025741829 0.051324785 -0.093038514 -0.28737983
000380 20 c4 38 bd ea 6d a7 bd 10 5c d5 3d fd b8 6e 3e
       -0.045108914 -0.08175261 0.1041795 0.23312755
000390 15 a5 ac 3e 47 56 81 bd cb d9 49 be ee 4e 86 3d
       0.33719698 -0.06315284 -0.19711988 0.065580234
0003a0 c4 f6 c2 bd e6 7f 60 be a9 ea 9d bd 77 34 7c 3e
       -0.09519723 -0.2192379 -0.077107735 0.24629389
0003b0 52 85 67 3d 81 f8 cf 3c df 7c 54 bd 67 52 4e 3d
       0.05652363 0.02538705 -0.0518769 0.050371554
0003c0 2d 8c 92 bc 3d 98 b3 3c cb e8 af bc 98 c9 67 3d
       -0.017889107 0.021923179 -0.021473309 0.05658874
0003d0 31 8b 55 bd f7 8a 98 3d fd e0 7d be 2a 4a 53 be
       -0.052134696 0.074483804 -0.24792857 -0.2063376
0003e0 91 0c 34 3e 74 47 01 bd ce 3a b3 3d 62 76 ea bc
       0.17582919 -0.031562284 0.087514505 -0.028620902
0003f0 ec d0 fe bd e0 b9 0d bc 41 3a 24 3e 80 86 0b be
       -0.124421924 -0.008650273 0.16037847 -0.13625526

model.5.bias f4 [200]
000000 d3 fd 83 3d aa 78 87 3d 24 2e ae 3c 7e 00 a2 bd
       0.064448975 0.06614812 0.021262236 -0.0791025
000010 e7 72 97 bc 1e 52 8b bc 40 bd 16 bd dc 6f 8f 3d
       -0.018487407 -0.01700693 -0.036801577 0.07003757
000020 e3 c4 b3 bc 7e e7 d7 3c 79 51 89 bd 5e b1 80 3d
       -0.021944469 0.026355501 -0.06704993 0.0628383
000030 65 31 93 3d eb 77 50 3d a7 0a e3 3d cd 05 4e 3d
       0.07187156 0.050895613 0.11086016 0.0502985
000040 fd f7 5c bd 83 36 92 bd a3 82 46 bd 36 df 76 bd
       -0.053947438 -0.071393035 -0.04846443 -0.060271464
000050 8a 7b bb bc b9 8d 98 3d b0 51 29 bd ba 06 25 bc
       -0.022886056 0.074489065 -0.04133767 -0.0100724045
000060 87 46 bf 3d fd fe 1d bd ff e1 49 3d 5c 5a f1 bc
       0.09339624 -0.038573254 0.049287792 -0.029462032
000070 75 09 74 3d b4 68 97 3d 69 37 36 3d 5e 75 75 3d
       0.05957933 0.073930174 0.044486437 0.059926383
000080 af 3a 92 bc b0 4b 83 3d e1 40 a9 bc 82 ec 08 bd
       -0.017850248 0.064109206 -0.02066082 -0.033428676
000090 6a 70 ab bc ec 17 df bc 32 b5 87 3d 6e eb 1f bd
       -0.020927627 -0.027233087 0.06626357 -0.039042883
0000a0 db f6 7a 3d 41 ec d1 3d b0 a2 7a bc ff eb 16 bd
       0.061270576 0.1025014 -0.015297577 -0.036846157
0000b0 85 40 be 3d 1f 81 e0 3b 0b 87 da 3d 1e 8d 8f 3d
       0.0928965 0.00685133 0.10670289 0.07009338
0000c0 11 3e 9c bd c7 b0 83 3d cb 48 3c 3d ee 5a 51 3d
       -0.07629026 0.06430202 0.04596786 0.051112108
0000d0 1c e1 ba 3c e3 f5 44 3c cf 42 90 3d 86 84 92 3d
       0.022812419 0.012021515 0.07043993 0.07154183
0000e0 76 af 61 3d d1 5e 84 bc 90 60 49 3d 27 d9 39 bd
       0.055098973 -0.016158493 0.049164355 -0.04537311
0000f0 e9 7b 9b 3c 8c 3a 09 3e a4 19 02 bd cb a4 83 3d
       0.018979983 0.1340124 -0.031762734 0.06427916
000100 94 1a 35 3d 70 91 11 3d b3 7b aa 3d 52 0e 52 3c
       0.0442148 0.03553909 0.08324375 0.012820797
000110 18 6c 6b 3d cd 21 c3 3d 34 4d 12 bc ba e1 c1 3c
       0.057476133 0.09527931 -0.0089295395 0.023667205
000120 89 77 73 3d fe 30 99 bd 20 d4 96 bb 01 71 44 bd
       0.05944017 -0.07480048 -0.004602924 -0.04795933
000130 cb 7c 96 bd 79 e6 28 bc 74 e9 6c bc 2d 73 5c bc
       -0.07348021 -0.010308855 -0.014459956 -0.013455194
000140 ba 41 9f 3b b7 db 37 bd ec 58 27 3e 7f e0 59 bd
       0.00486013 -0.04488727 0.16342515 -0.05319261
000150 c3 24 b3 3c a2 ef e3 bc 48 9f 54 bd 0f 53 36 bd
       0.021868115 -0.027824227 -0.051909715 -0.044512805
000160 99 75 2f 3e 83 9b 93 bd 19 20 29 3e 99 05 2e bd
       0.17134704 -0.07207396 0.1651615 -0.042485807
000170 0c a9 9c bc 96 6f 61 3d da 98 85 bd 65 2c 3b 3e
       -0.019123577 0.055038057 -0.06523295 0.18278654
000180 d4 70 34 bd d2 60 21 3e 04 9b 82 3d ff dd 3e bd
       -0.044052914 0.1575959 0.06377223 -0.04659843
000190 c9 c8 51 bd 64 02 94 bd 40 0f 37 3d 21 eb 54 bd
       -0.051216874 -0.072270185 0.044692278 -0.05198205
0001a0 d6 b8 42 bd dc 35 59 3e 69 a3 8e bb cf 70 33 bd
       -0.047539555 0.21211952 -0.004352976 -0.043808755
0001b0 87 0a 2f bd a8 80 a0 bd 68 27 02 3d 3c a5 34 bd
       -0.04273465 -0.07837039 0.031775862 -0.044102892
0001c0 17 c1 7b 3d 57 af 72 3d 84 2e 13 bd d0 76 61 bd
       0.06146344 0.05924925 -0.035933033 -0.05504495
0001d0 0f 3c 34 bd 43 e1 53 bd 83 7e 10 bc 0a 39 6e bd
       -0.04400259 -0.0517285 -0.008819225 -0.058159865
0001e0 d4 a4 a3 3d 3c 7c d8 bc 9a 3f 6f 3d 54 53 1e 3c
       0.07990423 -0.026426427 0.058410265 0.009663422
0001f0 f1 36 a3 bd 76 5e e1 bc a9 0b 84 3d db 9e 02 bd
       -0.079694636 -0.027510863 0.064475365 -0.031889778
000200 83 3a 57 3d cb 93 b0 bd 64 7d 28 bd 3b b0 dd 3d
       0.052546035 -0.08621939 -0.041135207 0.10824629
000210 55 e9 fe bc 78 9c fe bc 97 87 c6 3d 6e f8 95 3d
       -0.03111712 -0.03108047 0.096938305 0.07322775
000220 12 e4 9d bc b9 7c 57 3d 95 fa 88 3d d5 d3 75 bc
       -0.019273791 0.05260918 0.0668842 -0.015004118
000230 cd bc 8e 3d 78 24 9c 3d e1 e5 0d 3d d6 0b 85 3d
       0.06969605 0.07624143 0.034643058 0.06496398
000240 61 cd ee bc 2f f1 a1 bc 55 a0 25 bd b8 3e 39 bc
       -0.029150667 -0.019768326 -0.040436108 -0.011306457
000250 47 9b 4d bd 47 9c 70 3d 6a 55 17 bd 04 9e 81 3d
       -0.050196912 0.058742788 -0.03694669 0.06328967
000260 43 a2 03 bd ab bf 2a 3e 55 e7 50 3d 92 4f 2b bd
       -0.032137167 0.16674678 0.051001865 -0.04182393
000270 55 e5 79 bd d8 de e1 3c 99 5e 06 bd fd 29 f6 3d
       -0.061009724 0.02757208 -0.03280506 0.120197274
000280 bf 92 37 3d ef f0 05 3e 70 2f c5 3d c2 00 de 3d
       0.044817682 0.1308019 0.096281886 0.10839988
000290 1e 79 98 3d 29 05 02 3e 06 30 af 3c 55 d9 f9 3d
       0.07444976 0.12697281 0.021385204 0.12199656
0002a0 66 e5 63 3d a9 7b 79 3d 60 06 76 3d af 27 95 3d
       0.055638693 0.060908947 0.060064673 0.0728296
0002b0 b3 37 72 bd 18 4a 3e bd 56 ed 84 bd 9d c0 9f bc
       -0.05913515 -0.04645738 -0.06490581 -0.019501025
0002c0 ba a3 14 3e 3f 32 d1 bc a3 f1 81 3d 09 a9 1e 3e
       0.14515582 -0.025536655 0.06344917 0.1549417
0002d0 ae bc 16 bd 1f 25 3f bd 59 b5 57 3d b4 a9 b6 3d
       -0.036801033 -0.04666626 0.05266318 0.08919087
0002e0 bb 65 99 bc dd aa 54 bd 65 51 83 3d 62 9f 2e bc
       -0.018725267 -0.05192076 0.06412009 -0.010658117
0002f0 bc 51 12 3e 7d 7c 54 3d 57 7d 42 3e 42 eb 23 ba
       0.14288992 0.051876534 0.18993126 -0.00062530127
000300 1d 28 f8 bc a1 89 d0 bc 1e d1 28 3d 1f e2 74 3d
       -0.030292565 -0.025456252 0.041215055 0.05978596
000310 8a 60 4b 3d 16 90 de bc 22 1e 06 3e 9f 9b dd bc
       0.049652614 -0.027168315 0.13097432 -0.027051745

model.8.weight f4 [1, 200]
000000 7d e3 a8 bd f5 9c 3f bd c2 58 32 bd 50 63 5c be
       -0.08246515 -0.046780545 -0.043541677 -0.2152226
000010 6d 5d 8e 3c 0e dd 9c 3d 66 e6 e5 ba 85 d8 e1 bd
       0.017378533 0.0765935 -0.0017539978 -0.11027626
000020 3e d9 78 bb 07 3b 2c bc b5 28 6b 3b 2e 2a f7 bc
       -0.0037971283 -0.01051212 0.0035882418 -0.03017148
000030 91 73 8e bd 44 a3 85 bd b0 2a 9b bd 01 5f f5 bd
       -0.06955636 -0.06525281 -0.07576501 -0.11981011
000040 37 2a 3e 3e d2 1a 65 3b 7b aa 28 3e c1 fd af 3d
       0.18570791 0.0034958613 0.16471283 0.085933216
000050 12 80 e3 3a 9e 55 23 be f0 42 69 3c 42 e8 60 3b
       0.0017356894 -0.15950629 0.014237151 0.0034318124
000060 d7 8a 61 bd 8f 3b 61 3d fb 20 0b bd 23 86 aa 3d
       -0.05506405 0.05498844 -0.033967 0.08326366
000070 98 eb fe bd be 0c a0 bd 82 5a 4b bd ae 91 26 be
       -0.1244728 -0.078149304 -0.04964686 -0.1626651
000080 66 1a de 3d 48 90 3d be cb 51 b0 3d 7a 65 b6 3d
       0.10844879 -0.1851207 0.08609351 0.08906074
000090 6e 07 df bd 34 a5 14 3a ef 22 d3 bd 12 66 a5 3d
       -0.10890089 0.0005670369 -0.103093974 0.08076109
0000a0 06 f6 8c bd 88 42 00 be a1 06 51 3e af 83 ae 3d
       -0.06882863 -0.1252538 0.20412685 0.085212104
0000b0 40 af 59 bd 18 94 33 ba a2 9b 10 be 75 e0 9d bd
       -0.053145647 -0.0006850376 -0.14121869 -0.077088274
0000c0 dd 2c 68 3d af c8 eb bd d8 79 ed bc 33 53 52 be
       0.05668341 -0.11512887 -0.028988764 -0.2053955
0000d0 71 9d 8c bd c6 63 11 bd 75 63 48 be 32 32 91 bd
       -0.06865967 -0.035495542 -0.1956919 -0.07089652
0000e0 a8 6d 67 bd 74 89 7f bd 9e 93 f2 bd fd cd 3b 3c
       -0.05650106 -0.062386945 -0.11844562 0.011462686
0000f0 4f fd 0f be d1 df 4b bd 1d 6b d1 3d c1 d6 5f bd
       -0.14061473 -0.049773995 0.10225508 -0.054648165
000100 11 98 e2 bc 8f 88 26 be 48 38 96 bd 2e 5a 16 be
       -0.027660402 -0.1626303 -0.073349535 -0.14682838
000110 79 61 50 bd 0d 73 05 be 70 8c 9b 3d be 96 87 be
       -0.050874207 -0.1303217 0.07595146 -0.26482195
000120 8f d1 5c bd 5c 3f c4 bd f7 12 af bb 91 90 f7 3d
       -0.05391079 -0.09582397 -0.005342837 0.12088121
000130 60 dd 95 be 31 9c 12 bb 1a ef 87 3b a6 c2 0a 3e
       -0.29270458 -0.002237093 0.004148376 0.13550815
000140 28 fc e3 bd f4 dc 85 3c ca 33 09 be d8 b3 17 be
       -0.11132079 0.01634071 -0.13398662 -0.14814699
000150 00 ae e0 b7 6c 70 b8 3d 53 ad 97 3c 9e 89 32 3d
       -2.6783906e-05 0.09005818 0.018515265 0.043588273
000160 1e 48 2a be 2b f8 b0 3c bb 6a 7a be f2 a1 5e 3c
       -0.16629073 0.02160271 -0.24454777 0.013588415
000170 ad 15 c2 3d ab 25 ac bc 90 00 b4 39 d2 a7 09 be
       0.094767906 -0.021014055 0.00034332694 -0.13442925
000180 0f b3 5c 3d a2 31 89 bd f5 58 6c bd af b8 55 3e
       0.0538817 -0.0669892 -0.057702024 0.20871232
000190 bf d2 a2 3d 62 3c 89 3c e8 a8 3c be b0 d1 53 3d
       0.07950353 0.016752426 -0.18423808 0.051713645
0001a0 8f 42 8b 3d dd 5b 91 be 70 66 54 bd 8f 65 04 3e
       0.067998044 -0.283904 -0.051855505 0.12929367
0001b0 10 e1 9f 3d 9c 8b 33 ba a7 23 bd bd 58 53 b3 3d
       0.07806599 -0.00068491115 -0.09235316 0.08756131
0001c0 59 b1 e7 bc 9b 2a d5 bc 62 64 76 bb c2 2f 17 bb
       -0.028282808 -0.026021292 -0.0037596454 -0.0023069237
0001d0 8f fb 78 3b e3 ec bc 3c 35 4b 58 3d 7f bb cb 3d
       0.0037991737 0.023062175 0.052806098 0.099478714
0001e0 d3 fc 22 be b4 85 04 3e 37 d6 12 be de 72 3c bb
       -0.15916757 0.12941629 -0.14339529 -0.002875499
0001f0 80 bb fb bd ef 6c 05 3e cc 97 3b be 4f 84 25 3e
       -0.12291622 0.13029836 -0.18319625 0.16163753
000200 41 0b 6c bd 3d 4e 74 be b8 33 84 3d 11 c4 f1 bd
       -0.05762792 -0.2385797 0.06455177 -0.11804975
000210 24 0a b7 3d da fb f3 3d 2e e4 1c be 31 84 88 bd
       0.08937481 0.11913271 -0.15321419 -0.066658385
000220 6d b9 cc 3d 96 60 ff bd 32 ce ab bd a2 09 bc 3c
       0.09996305 -0.12469594 -0.08388938 0.022953812
000230 15 a9 7c be 22 72 1d be 9d 90 13 bb 37 1a da bd
       -0.24673875 -0.1537557 -0.0022516616 -0.10649531
000240 9e 1e d2 3c 4b 80 64 3d 4b 40 d7 3d 8d 58 76 3d
       0.025649365 0.055786412 0.1051031 0.060143042
000250 b6 4d 0d 3e 6f 06 09 be 8e c5 9d 3c ae ef ac bd
       0.13799176 -0.1338136 0.01925924 -0.08444153
000260 49 48 ed 3d 75 99 13 be 7d f2 93 bd 6f d8 41 3e
       0.11586053 -0.14414008 -0.07223985 0.18930219
000270 5a 69 04 3e 28 d1 1d bd f8 f5 7d bd 28 a1 29 bd
       0.12930813 -0.038529545 -0.062002152 -0.041413456
000280 16 90 46 be 0a 09 4f bd 43 90 2f be 92 9a 1d be
       -0.19390902 -0.05054573 -0.17144875 -0.15390995
000290 f8 5e a3 bd 42 9b 21 be 37 01 89 be 26 af df be
       -0.07977098 -0.15781882 -0.2675874 -0.43688315
0002a0 b2 8a 64 bd 4d 77 26 be 95 81 00 be d8 6e ff bd
       -0.055796333 -0.16256447 -0.12549432 -0.12472314
0002b0 e6 8d fb bd 57 5b 0c 3d 9f f1 e8 3c f9 c3 a2 3d
       -0.12282924 0.034266796 0.028435526 0.07947535
0002c0 d7 63 18 be 46 6a a3 3d d4 1d 82 bd 36 f2 b3 bd
       -0.14881836 0.079792544 -0.063533455 -0.087864324
0002d0 e0 61 4a 3d aa 86 20 3e aa fc a7 bd 4f 4a b0 bd
       0.049409747 0.1567637 -0.08202489 -0.08607923
0002e0 55 9e 16 bb e8 fc c8 3d 16 fb 14 be 22 81 15 3a
       -0.0022982557 0.09813863 -0.14548907 0.0005703141
0002f0 e0 d2 39 bd 40 4a 99 bc 32 46 8f bd 9d 92 a0 bc
       -0.04536712 -0.018712163 -0.069958106 -0.01960116
000300 6e 7e c2 3c 30 b7 d3 b9 3c e1 46 bc 6d b1 4b bd
       0.023741927 -0.00040381541 -0.012138661 -0.049729753
000310 9b 98 41 be 34 6c 30 3e 5f 23 3e be a2 b4 c1 bd
       -0.1890587 0.17228776 -0.1856818 -0.09458281
