Challenge_1/Weights/model_dynamics_Qube-v0_mse_0.00020488.params (torch_old, 334228 bytes, 8 tensors)

model.0.weight f4 [200, 7]
00000000: 0b72 18bf 7181 5ebe 2fa1 1bbf eee7 40bf
00000010: 2e0e 08bd 7053 fabc 83b1 a6be 5b2d 4c3e
00000020: f4d2 193f c1d6 a1be de40 19be 9adc a5be
00000030: 7f9a 35be d164 c0be 20c5 743e ad86 593e
00000040: 4337 133f 841b 6a3c d9b6 313f dcc4 ba3e
00000050: 248e e1be d3f7 393f 4b2f e8be b700 08be
00000060: 8686 573e b4be eabe 0840 473f 7347 3dbf
00000070: 9b37 79be 0566 093d 5ceb 60bf 1f1c 123f
00000080: 6963 803e 4310 e33d be80 a7be 80f4 643f
00000090: 43c6 b1bd c8e3 463f 06b7 c6bc 424d 51bd
000000a0: 18b4 53bf 0d6c d7be b509 793f eb75 12bf
000000b0: daff 9f3f 56f7 0d3c a1c6 1c3e 264c c83e
000000c0: 3410 803e c49e 66bf bee0 96bf b915 97be
000000d0: 07ec 5a3e 35a3 063f 5ae9 363d 4a05 023e
000000e0: 243b 23be 0b27 4cbf 58b5 30be aa11 4b3f
000000f0: b323 07bf af61 623d 9c02 47bf 74df 27be
00000100: 184e 953e 2093 2abf b5ce 1bbf 6243 c8be
00000110: 433c bfbd 159e 513f efdc 2c3f 93f9 a23e
00000120: 0f1f c23f 90f7 313d 693c 95be 1b80 69be
00000130: 53f5 6b3e ab06 ac3e 8fa3 e73e cb68 b1be
00000140: 261b a3be 4c5c 033d 3966 50be 159b c03e
00000150: e700 65be 622e 1d3f 932a 82be 74c4 7a3e
00000160: afed 3c3e 6bc3 ce3e 181e 143f f523 9f3e
00000170: 4f12 33be 05b6 89be 9062 33be 95ea 083f
00000180: 4fcf ce3c 0f77 ad3d 86a1 cf3e b7f2 2cbf
00000190: 47d1 153e 0de3 28bf e19b 57bf 0a01 813f
000001a0: f8a7 0c3d aa47 aebe ee42 81bf 624b b23e
000001b0: 3237 e9be e770 02be 24ba a6be 5264 5abe
000001c0: 8baf fa3e b97e 0bbf 143b aebe b981 adbf
000001d0: 320f 903e 0c29 b03e eedf ecbe 3bc2 5cbf
000001e0: 1355 723e c16f cb3b 7277 db3e 6d14 66bd
000001f0: d53e 19bf f3b5 f93e 6779 f83e 9668 01be
00000200: e70b e9be 4ee4 bfbd f3fa 9b3f b10e ddbe
00000210: 9293 a43e 31ec ccbe 3a54 1ebf e94f d93d
00000220: b94b d73d d1d5 45bf 5897 bcbf e99a 8bbe
00000230: c46c 66bf ae6f a9bd 1016 50be db9d f1be
00000240: 8ba3 c43e fd9d ffbe b331 3e3e b2dc 71bf
00000250: cc12 c93e 9c66 cabe 27a1 0c3f 1690 623f
00000260: ddd3 733f 7f87 373e 4650 b5be f38a 3bbf
00000270: a163 34bf 5148 66bf 4e8a 5abf 6e4c 223f
00000280: 046f d13d af92 ac3d a21a 353e c40a 103e
00000290: 418c 1a3e 8cc9 c63e c9f9 4d3e 9e4e fe3e
000002a0: 2009 993f b8df 1b3f d15d 393e 3a6e 303f
000002b0: 4cb5 983f 2748 9cbe 50af 9abc 3999 ad3d
000002c0: 39be 063e f8b9 1a3e af8d 293d 8d79 86be
000002d0: 098b 693f 7bc9 d3be 87a2 853e 7524 f8be
000002e0: bf86 75bf 66e2 413f 0ca2 ee3e 23ff 26bf
000002f0: 4f26 933e 9d87 7f3e aac1 1d3f 4eac adbe
00000300: 6f4f dabe e8ca ba3d 6499 213f 4a6b 8f3d
00000310: 5283 26bc 8231 88bf ddc6 a53e 4761 d93d
00000320: eb02 853e e428 5a3e 0478 b1bd a20c 9a3e
00000330: dffc a8be b275 97be 675e 543f 6c0a 89bf
00000340: dcb3 5abe 951b 1a3e 73a9 3cbe 4b27 c9ba
00000350: 2641 613f a9a6 6b3f 8bed abbe 4e4b 15bf
00000360: a1e1 b53b 8a00 7ebf 382c 793d f0a6 013f
00000370: 3652 e43e bde3 e83e 6747 0f3f 7973 2d3f
00000380: 2ef3 14bf 657f 41bf 547a 17bf 0826 c0bd
00000390: e973 0dbf 11c9 3dbf 78e8 093f 5024 25bf
000003a0: dae7 b73d 05b2 cc3e 1756 db3d 5a30 2c3f
000003b0: 2892 f0bd 11bc 84bf 7c97 1b3f 7949 a1bd
000003c0: 3780 02bf 4a80 e9be 8f10 113b 6ae7 3dbf
000003d0: d622 b33e 795b a53d 9b71 3cbe 50d8 43bf
000003e0: 23b7 ae3d 4548 9abe cc28 683e 50d4 803d
000003f0: 3dec 19be 6dc5 683e 734b 1f3e 6bba ed3d
-0.59549016 -0.21729065 -0.6079282 -0.75353897 -0.033216648 -0.030557364 -0.32557306 0.19939177
0.60087514 -0.31609157 -0.14966151 -0.32394868 -0.17734717 -0.37576917 0.23903322 0.21242781
0.575062 0.014288787 0.6941963 0.36478317 -0.44053757 0.72643775 -0.45348582 -0.13281523
0.2104741 -0.4584862 0.7783208 -0.7393715 -0.24337618 0.03354456 -0.8785913 0.5707416
0.25075844 0.11087086 -0.3271541 0.8943558 -0.086803935 0.77691317 -0.024257194 -0.05109907
-0.82696676 -0.42074624 0.97280437 -0.5721118 1.2499955 0.0086649265 0.15310146 0.39120597
0.25012362 -0.9008601 -1.1787336 -0.2950876 0.213791 0.52592784 0.044656135 0.1269733
-0.15940529 -0.79747075 -0.17256677 0.7932383 -0.5278885 0.05526894 -0.77738357 -0.16393834
0.29161143 -0.66630745 -0.60862285 -0.3911391 -0.09337666 0.8188184 0.6752462 0.31831035
1.5165728 0.043448985 -0.29147652 -0.22802775 0.23042803 0.33598837 0.45241973 -0.34650263
-0.3185665 0.032070443 -0.20351495 0.37618318 -0.22363625 0.613989 -0.25423107 0.24489003
0.18450044 0.40383467 0.5785842 0.3108212 -0.17487453 -0.26896682 -0.17518067 0.53482944
0.025245337 0.08469974 0.4055292 -0.67557853 0.14630614 -0.6597145 -0.8422223 1.0078442
0.034339875 -0.3403905 -1.009855 0.34823138 -0.45549923 -0.12738381 -0.3256389 -0.21327332
0.48962054 -0.5449024 -0.34029448 -1.3555213 0.28136593 0.34406316 -0.46264595 -0.8623387
0.23665266 0.0062083905 0.42864567 -0.056171823 -0.598615 0.4877163 0.48530123 -0.12637553
-0.45516893 -0.093697175 1.2185959 -0.4317527 0.32143837 -0.4002395 -0.6184727 0.10610945
0.1051249 -0.7727938 -1.4733686 -0.27266625 -0.90009713 -0.08273254 -0.20320916 -0.47190747
0.38406023 -0.49925223 0.18573646 -0.9447738 0.39272153 -0.3953141 0.549334 0.8850111
0.9524515 0.17922781 -0.35412806 -0.73258895 -0.7046452 -0.89954096 -0.85367286 0.6339787
0.10226253 0.08426415 0.17685941 0.14066607 0.15092565 0.38825643 0.20114817 0.49669355
1.195591 0.6088824 0.18102194 0.6891819 1.1930327 -0.30523798 -0.018882424 0.084764905
0.13158502 0.15110004 0.041394886 -0.2626461 0.91227776 -0.41364655 0.2610056 -0.48465315
-0.9590873 0.7573608 0.46608007 -0.6523306 0.28740165 0.24954076 0.6162363 -0.3392052
-0.42638728 0.091207325 0.6312468 0.07002886 -0.010163145 -1.0640109 0.32378283 0.10614257
0.2597879 0.21304661 -0.08665469 0.30087763 -0.33005425 -0.29581982 0.82956547 -1.0706306
-0.21357673 0.15049584 -0.18424015 -0.0015346793 0.87990034 0.9205118 -0.33579668 -0.5831803
0.0055505787 -0.9921957 0.060833186 0.5064535 0.44593972 0.4548625 0.55968326 0.6775432
-0.5818356 -0.75585014 -0.5917103 -0.09382254 -0.5525499 -0.7413493 0.53870344 -0.64508533
0.08979769 0.39979568 0.1070978 0.6726128 -0.11746627 -1.0369893 0.6077802 -0.07875342
-0.5097689 -0.4560569 0.0022135114 -0.74181235 0.34987515 0.08074088 -0.18402712 -0.7650194
0.08531024 -0.30133262 0.22671813 0.062904954 -0.15031524 0.22731562 0.15556125 0.11607822

model.0.bias f4 [200]
00000000: 0000 0000 8eb9 a13d 866f 12be e3f3 bcbc
00000010: a79a 0abd e4dd c03b 1d4f 0ebe 0ced c23d
00000020: 7ee1 303d 52ba 3fbd 5d62 e5bd 40ed 59bd
00000030: bfb0 06be 52cb c73c cecd eb3d 0000 0000
00000040: 6561 003e e99f 0a3d 9407 3fbe 0000 0000
00000050: 0000 0000 9704 89bd 1fb9 4ebd cbe8 a6bd
00000060: 11db 92bd b4c7 27bd c15f a13b 51b4 ccbd
00000070: 1e1b 1a3d 9b6a 003d 946f cf3c 2fac 08bd
00000080: 0000 0000 5d7e f33c b41c f3bc 3404 df3d
00000090: e5df 923a ca42 dcbb 812f 893c ddab 803c
000000a0: 9ffb 023e d5b0 32bd 89c3 c63d 0000 0000
000000b0: d3ff 423c fc0a fb3d 37b0 8b3d a5cd fbbd
000000c0: 637b a9bd 0000 0000 0623 2cbd b062 613e
000000d0: 06bc 50bc 6826 59bd ad48 52bd e907 95bd
000000e0: 44f0 2bbd bf1b 65bd 2501 303c 55cc aabd
000000f0: 2bd0 78bd a7ab 85bd cc56 11be b693 bcbd
00000100: eedd 7bbd 0000 0000 cb84 79bd 0000 0000
00000110: 0000 0000 c926 00bc 6bc1 0eba 16fc c23d
00000120: 6e16 ac3b 0000 0000 dc15 68bd fef4 2fbd
00000130: 160b 0cbd cfc3 bb3c c451 a23c 854f a93d
00000140: ef6f b93c 311d 7c3a 00f9 9dbd b8f1 97bd
00000150: 7651 12be 7c75 853c 1f9e 96bd 4433 3f3d
00000160: 6551 a53c dc3e bebd a7ce 1bbd 47e6 09bd
00000170: 202c 8b3d 7cee 153c f971 8ebd 42fd edbc
00000180: fe01 1dbd 2440 9cbd 0000 0000 8074 1fbd
00000190: 7699 d93d 0bbe ecbd c153 0a3d bf05 72bc
000001a0: 5fba 9abc 2766 33be 7579 ebbc f006 7a3c
000001b0: f80d 02be 0be9 b03b 4fc6 02be 0000 0000
000001c0: 7884 d0bd d135 1bbd 5027 8a3c b262 a5bd
000001d0: fce1 74bd b40d f73b 440b 2f3e 0000 0000
000001e0: aa11 5e3d 8f9c 0ebe 3557 923d fd32 8bbd
000001f0: cfc6 2b3d 0000 0000 af8a fdbb 3eef 043d
00000200: 5fc4 2bbb 71b0 203c 375e 8dbd e858 bdbc
00000210: add3 00bd 2989 1abd 71d7 d9bd 97b5 4dbd
00000220: 1eff 793d 9e74 593c 0000 0000 3cff 763d
00000230: 9a72 18bd 1ec3 e3bb 7d04 e8bc 9836 55bd
00000240: fbaa b8bc dec3 30bd c443 ad3d 215f f5bd
00000250: 5a84 d7bc 562b 293d cf04 4bbd fea2 d3bd
00000260: dec5 b3bd cb63 1bbd 9a84 61bd ec9b d0bc
00000270: 7869 0ebe 7836 283d 7e38 1dbb ca37 4b3c
00000280: 1878 7dbd 0000 0000 e0e2 84bd 3c6d 423b
00000290: e25f 373e b23d c1bd 486d 9d3d 3284 c13d
000002a0: 0955 4dbb 38bf 153e 44c6 b03c fdef babd
000002b0: afa9 f43c 6edf a53d 97de 4cbd d109 543b
000002c0: 9ac5 ac3d 2403 ebbd 52eb d93b 379f 21bd
000002d0: f615 7a3c b14c 60bc 4e38 8dbd 65fb 40bc
000002e0: 58d9 8c39 de2f e6bc 0f6c 3f3e 62bc 333c
000002f0: 2f24 52bd eb91 1ebd 0000 0000 70b1 263e
00000300: 0000 0000 002c 673c 35b2 8b3e 9812 f43d
00000310: 3149 a8bc 9868 18be 173f 72bc de24 04be
0.0 0.0789672 -0.14300355 -0.023065513 -0.033838894 0.0058858264 -0.13897367 0.09517869
0.043183796 -0.04680855 -0.11200402 -0.053204775 -0.13153361 0.024388943 0.115138635 0.0
0.12537153 0.03384391 -0.18655235 0.0 0.0 -0.066903286 -0.050469514 -0.081498705
-0.0717069 -0.040961936 0.004924745 -0.0999533 0.037623517 0.031351667 0.02532176 -0.033367332
0.0 0.02972334 -0.029676773 0.108894736 0.0011205642 -0.006721829 0.016746284 0.01570695
0.12791298 -0.04362567 0.09705264 0.0 0.011901814 0.122579545 0.0682072 -0.12295083
-0.08275487 0.0 -0.04202559 0.22010303 -0.012740141 -0.053015143 -0.05133884 -0.07276899
-0.041977182 -0.055934664 0.01074246 -0.083397545 -0.0607454 -0.06526881 -0.14193267 -0.09207861
-0.061490946 0.0 -0.060917657 0.0 0.0 -0.007821747 -0.00054456916 0.09520738
0.0052516973 0.0 -0.05666147 -0.042958252 -0.03419026 0.022920517 0.01981438 0.0826712
0.022636382 0.0009617387 -0.077135086 -0.07419151 -0.14288887 0.016291372 -0.07354378 0.04667975
0.020180413 -0.09289333 -0.038038876 -0.033666875 0.067955256 0.009151097 -0.06955332 -0.029051427
-0.038331978 -0.07629421 0.0 -0.038929462 0.106249735 -0.11559685 0.03377128 -0.014771878
-0.018887697 -0.17519437 -0.028744439 0.015260443 -0.12700641 0.0053988746 -0.12770961 0.0
-0.101815164 -0.03789312 0.016864449 -0.08075465 -0.059785828 0.0075394753 0.17094141 0.0
0.054216065 -0.1392691 0.0714554 -0.067968346 0.041937646 0.0 -0.0077374796 0.03245472
-0.0026209576 0.009807692 -0.06902736 -0.023113683 -0.03145187 -0.037728462 -0.10636795 -0.050222006
0.061034314 0.013272433 0.0 0.060302004 -0.037218668 -0.00695075 -0.028322453 -0.052054018
-0.022542467 -0.043155544 0.08460191 -0.11981035 -0.026308227 0.041301094 -0.049565133 -0.10333823
-0.087779745 -0.037936967 -0.0550581 -0.025464974 -0.1390742 0.04106757 -0.002398997 0.012403438
-0.06188211 0.0 -0.064885855 0.002966716 0.1790767 -0.094355956 0.07686859 0.094490424
-0.0031331202 0.14623725 0.021578915 -0.091278054 0.029866068 0.080992565 -0.050016966 0.0032354484
0.08436127 -0.114752084 0.006650367 -0.03945848 0.015264025 -0.01369016 -0.06895505 -0.011778687
0.00026864815 -0.028098997 0.18693565 0.010970207 -0.05130404 -0.038713377 0.0 0.16278625
0.0 0.0141096115 0.272844 0.11917609 -0.020542713 -0.1488365 -0.01478555 -0.12904689

model.2.weight f4 [200, 200]
00000000: 7283 b63d 9ee1 183e 4ab8 873d 7430 aa3c
00000010: ed73 a43d 3d36 81bd 6d12 ba3d f398 cf3d
00000020: 952f ccbc 6128 0abc dccd 633d 9055 edbd
00000030: 74b6 b9bc 4017 28be d5c2 c13d 5bc2 64bc
00000040: 4bd6 96bd c9ac 5fbe 301a 063e 73e6 e73d
00000050: c76b 0f3e 6d9f 42bd a7e2 93be d65a cd3d
00000060: 868c d13c 2510 193e faea 0abe 0153 1cbc
00000070: 80c6 1e3d 139a a1bc 2f09 2fbc cdbe 0a3e
00000080: eba2 863d d899 0bbc 2e76 cd3d bc75 203d
00000090: 540d 943d d1f5 94bd c8a8 a73c 256e f03c
000000a0: 8e96 4e3d b508 603d ccec 7e3c 3f31 3abe
000000b0: 241a d6bc 22b3 5bbc f690 bfbc c47d bd3c
000000c0: 432c 2d3e 2776 823c a7dd 8cbd 3534 8bbd
000000d0: 4d62 dbbd b6e5 183e 8968 d23d 998d 72bc
000000e0: 3e78 bc3a ac3e ebbd 6efd a5bd d6fa 703c
000000f0: fb63 d33c 1966 93bd 58cd 003d 6341 ebbd
00000100: 7915 033e da89 31be 5fd3 c6b9 7f8e a23c
00000110: a57d 0e3d 5ff3 b03c f8c8 443d ff39 53bc
00000120: b1cb 78be bfef 343e 8cae 26bc 048f 5e3d
00000130: b239 363c e66e be3d 7b71 1c3d 9365 02be
00000140: a680 9d3d 3c31 3f3e 7fd1 043d 2581 9fbd
00000150: 7de5 87bd 4258 983c 52d5 923d a3e7 aeb9
00000160: 6eb3 ccba be46 1fbd 38d5 563d cfc8 48bd
00000170: 5239 833d 31fe 0a3d 899a 7ebd afc0 6abd
00000180: 81e9 003e 4681 813e c848 60be de66 4fbd
00000190: 8896 2cbd a5b3 06bd 8b82 c6bd e5d9 1c3e
000001a0: 7457 913d 41fc 01be e98c ecbc af80 fbbd
000001b0: f107 4cbd 8ca0 0c3e d274 2ebd e29e e53d
000001c0: e205 c33a dd9f 90bc c557 b63d a6e0 15be
000001d0: 148e aebb c91b 67bc c3d3 cfbc 4549 fdbd
000001e0: c873 9fbd b817 8e3d 8ca3 8fbd dc35 ee3d
000001f0: b456 eebd 9d42 c0bd 6fee 77be 4281 063c
00000200: c538 b4bc d3c9 3dbe da31 6b3e 091b bbbd
00000210: ef37 463d d1ae 39bd 6801 cdbd 8441 0f3d
00000220: 518d a13c 748e 653d d1fb 48bd 2993 583d
00000230: 02f9 3b3d 5a0d 8cbc 06fb fc3b b761 81bd
00000240: 4198 7fbd 16a9 9e3d e986 ddbd 2911 1c3d
00000250: ffae dd3c 1a40 e03d 0501 5f3c a651 963d
00000260: 95e6 97bd f76e 94be 9111 033e 64ad 63bc
00000270: 2e48 34bd fab5 37bd edf9 d7bd 36cb 82bd
00000280: fea2 cfbb 60ed f9bd 95f7 74bc 9a7d a7be
00000290: 67c8 8c3d ccff a43d 45f9 4d3d 0b78 51be
000002a0: 4ea5 dabc 684d 733a 1a12 4fbd 7ee8 70bc
000002b0: 9ab3 31bc 6a47 b6bc d8e5 0b3d 2075 063e
000002c0: 4ae6 4e3e c605 19bd fb25 1d3d 0b6e bcbd
000002d0: f764 55bd 4812 00bd d550 b7bd 8a11 073e
000002e0: b588 8e3c 565a 143e 1683 463e e654 803d
000002f0: 47e8 343e 885c 85bd dfd5 0dbe 170d 723d
00000300: 1ea1 153e 75f3 77bc 6906 82bc 0e71 86bd
00000310: 0ddc 9bbe 62db c33d d274 c93d d9bc cabd
00000320: f853 f1bc e0e2 3a3e 350b 14be d66e 4abc
00000330: c93c 3b3c df0a 55be e8ef f23d 385b 2bbb
00000340: 1c9b 97bd 643c 3a3d b777 813d 186f 35bd
00000350: 30e9 b6bd 552d 3d3d 6e3e 8e3c aed0 87be
00000360: 16eb aa3d 3d41 253d 40f6 053e 1c67 35bd
00000370: cf28 1ebd 7196 25be 55a2 35bd c08c 223a
00000380: 8a0a 833d 7400 01bd 7c2d 0ebe 0434 09be
00000390: 6ec0 0abe 8eea 56be 6098 5abd 2fa5 13bb
000003a0: f5d9 d23d d9fd e03d f014 913d dbc7 75bc
000003b0: 1220 06be 2d58 c43d 1bbf 78be bbc6 14be
000003c0: 431d af3d bb6e 6fbe 3273 d13d 6bfa 74bc
000003d0: 4224 adbd 4250 02be c25a 093b 505b 7cbe
000003e0: 5589 843e 68e5 83bd 7a2d 453d 027e 503d
000003f0: db06 243d cc20 09be 8492 8f3d 64ed bbbd
0.0891179 0.14929816 0.06626947 0.020775057 0.080299236 -0.06309173 0.09085546 0.101365946
-0.024925033 -0.008432479 0.055616245 -0.115885854 -0.022670008 -0.16415119 0.094609894 -0.013962354
-0.07365092 -0.21843256 0.13095927 0.113232516 0.14005958 -0.04751532 -0.2888386 0.10027091
0.025579702 0.14947565 -0.13566199 -0.009541274 0.038763523 -0.019726789 -0.010683342 0.13549347
0.06574043 -0.008520566 0.100323066 0.03917478 0.07229105 -0.07273448 0.020466223 0.029349396
0.05043655 0.054695804 0.015559386 -0.18182848 -0.026135512 -0.013409408 -0.023384552 0.023131259
0.16911416 0.01592548 -0.06878214 -0.06797067 -0.10712109 0.14931378 0.10273845 -0.014804267
0.0014379097 -0.11486563 -0.081049785 0.014708241 0.02580451 -0.07197208 0.03144583 -0.11487081
0.1280116 -0.17337742 -0.00037922987 0.019843338 0.034787793 0.021600423 0.04804322 -0.012892245
-0.24296452 0.17669581 -0.010173451 0.05433561 0.011122154 0.09298496 0.03819416 -0.1273406
0.07690553 0.18671125 0.032426354 -0.07788304 -0.06635568 0.018596772 0.07169594 -0.0003336045
-0.0015617439 -0.038885824 0.052449435 -0.04901963 0.06407417 0.033933822 -0.062159095 -0.057312664
0.12589075 0.2529394 -0.21902764 -0.05063521 -0.042135745 -0.032886166 -0.09692868 0.15317495
0.070967585 -0.12693883 -0.028875785 -0.12280404 -0.04981226 0.13733119 -0.042591877 0.11211945
0.0014879073 -0.017654354 0.089034595 -0.14636478 -0.0053269956 -0.014105746 -0.02536953 -0.12367491
-0.077857554 0.06938118 -0.07013616 0.116313666 -0.11637631 -0.093877055 -0.24212049 0.008209528
-0.021999726 -0.18534021 0.22968236 -0.09136016 0.048393186 -0.045332734 -0.10010034 0.03497459
0.019720705 0.056044057 -0.049068276 0.052874718 0.04589177 -0.01709621 0.007720354 -0.06317466
-0.06240106 0.07747094 -0.10816748 0.038102303 0.027060984 0.109497264 0.013611083 0.07339792
-0.07417027 -0.2899091 0.1279967 -0.01389632 -0.04401415 -0.04485128 -0.105457164 -0.06386416
-0.006336569 -0.12203479 -0.014951606 -0.32713014 0.06874161 0.08056602 0.05028655 -0.20455949
-0.026690152 0.0009281249 -0.050554372 -0.014703868 -0.010846043 -0.02225085 0.034154743 0.13130617
0.20205036 -0.03735902 0.0383663 -0.092006765 -0.05209824 -0.031267434 -0.08950964 0.13190284
0.017399171 0.14487585 0.19385943 0.06266193 0.17666732 -0.065117896 -0.13851117 0.059094515
0.14612243 -0.015133728 -0.015872197 -0.06564532 -0.30441323 0.09563328 0.09836735 -0.09899301
-0.029458985 0.18250608 -0.144574 -0.012355527 0.0114280665 -0.20804928 0.11862165 -0.00261469
-0.07402632 0.04546775 0.06321662 -0.0442954 -0.08931196 0.04618581 0.017363753 -0.26526397
0.0834562 0.04034542 0.13082218 -0.044287786 -0.038613137 -0.1617067 -0.044344265 0.0006200783
0.063984945 -0.031494573 -0.13884538 -0.13398749 -0.13549969 -0.20987913 -0.053367972 -0.0022528877
0.10295478 0.109859176 0.07084072 -0.015001263 -0.13098171 0.09587131 -0.24291651 -0.14528935
0.08550503 -0.23382084 0.1022705 -0.014952282 -0.08454181 -0.12725928 0.0020958637 -0.24644208
0.25886026 -0.0644024 0.048139073 0.05090142 0.0400456 -0.13391417 0.070103675 -0.09176138

model.2.bias f4 [200]
00000000: 321c 893a af20 91bc eb62 94bc 3e97 60bb
00000010: 91d6 65bb 4ed6 23bc ff9c e3bb 407f 92bc
00000020: 2b93 85bc d7d6 23bc e770 fabb 972f a93c
00000030: 0000 0000 7987 94bc 5e59 95bc 2102 04bd
00000040: 6a66 01bd 50c8 59bc 0871 97bc d655 81bc
00000050: 6652 9dbc 444a 61bd d226 af3c dfe0 18bc
00000060: 4ac5 9cbc 896a 8dbc 9b4e 88bc c81d 8dbc
00000070: 648f ffbc fa2d da3a ede6 a8bb 040f 013d
00000080: 0506 9dbc 48d1 4abc 09bf b43c e596 89bd
00000090: 6dc7 23bc 95bb 63bb e7f2 09bd b8c4 b9bc
000000a0: a15a e1bc 52e3 60bc f5cf 23bc 829a 92bc
000000b0: 8521 473d 5387 aabc 982c 00bd 0000 0000
000000c0: f809 14bc 27da 7cbc 53f9 a6bc be24 823a
000000d0: 64d6 a3bb fcd6 23bc 0000 0000 3db1 11bd
000000e0: b970 b8bc b5b6 11bd 6b09 e2bc 66f7 1d3c
000000f0: 0000 0000 4468 eabc 0846 fd3b 1338 6abc
00000100: a5f4 57bc 11c1 b8bc bfc7 89bc 0ad7 23bc
00000110: 791e dabc 6952 88bc ac40 edbc 0000 0000
00000120: 7e17 10bd 0000 0000 4e6d 99bc 0000 0000
00000130: d723 afbc 0b02 9cbc eeb8 c6bc 0365 fdbc
00000140: e724 a0bc e8c5 f83c 2ea7 15bc f2f2 e1bc
00000150: a5d4 23bc 3ff3 a0bc c78d d13d 46b7 97bc
00000160: 74be 75bc 38d7 9cbc 6958 85bd 03d7 23bc
00000170: 10ba 8fbc ab59 8ebc f5ea c1bd cf6c 0bbc
00000180: 0000 0000 905a e9bc de32 10bb 70f7 38bd
00000190: 5001 cfbc 2c71 4cbc 6ea5 12bd 8a6b 49bc
000001a0: 42cc 00bd 1d64 38bc 1c61 81bc e504 14bd
000001b0: a440 93bc 9b44 99bc ffbc 99bd d6d6 23bc
000001c0: fcd6 23bc 832d 79bd da31 5cbc 01d7 23bc
000001d0: 4261 f6bc ec9b 9bbc 5b79 73bc 0ad7 23bc
000001e0: 884c 46bd 03d7 23bc c690 d7bc cbaa a3bc
000001f0: a66f ebbc e4a9 20bd e577 9ebc 8be2 e6bc
00000200: 0801 6abd cbd4 23bc 3b15 f1bc 366a d3bc
00000210: 72c0 cdbc 0000 0000 46ec cebc 831d 87bb
00000220: c329 b83c f684 68bc d287 83bc d16a cdbc
00000230: a69c 1b3d 4ad0 dfbc f89d d1bc f924 bbbc
00000240: f95b 29bb e631 75bc 0000 0000 07d7 23bc
00000250: 40be 9ebc 1af5 59bc 194b 053e 0998 d0bc
00000260: bedf e4bc 08d7 23bc 4e53 3bbd 9766 93bc
00000270: aaab f9bc 5239 91bd 75df e1bc 5064 08bd
00000280: 39ba a3bc 6735 e8bc af30 93bc 115c d3bc
00000290: f6ce b3bc 632e 89bc 22a3 b1bc f143 d2bc
000002a0: c56c 7fbc 9ff3 cfbc 895c 42bb 681d 13bd
000002b0: d6ab d5bc ec58 90bc ba0f 09b8 b90a 6ebc
000002c0: 4c03 01bb d6fc 5eba da9f 4cbc d4ab 86bc
000002d0: e797 b6bc 2177 c7bc c667 c6bc 0c2e 29bd
000002e0: 0469 14bd be24 9a3c e303 9fbc 62a4 c5bc
000002f0: bdfd 513d 2e43 97bc 27f7 44bc 3041 7d39
00000300: 7bc2 a3bc 7b60 0fbd a1e1 19bd 2332 99bd
00000310: 3f20 f2bc 9259 89bb d472 9c3c f7d0 23bc
0.0010460673 -0.01771578 -0.018113574 -0.0034269835 -0.0035070518 -0.009999825 -0.0069462056 -0.017882943
-0.016305527 -0.009999952 -0.0076428535 0.020652575 0.0 -0.018131005 -0.01823109 -0.032228593
-0.03159181 -0.013292387 -0.018486515 -0.015788 -0.01920433 -0.055002466 0.021380816 -0.009330957
-0.019137044 -0.017262714 -0.016639045 -0.017226115 -0.031196304 0.0016645782 -0.0051544816 0.03150846
-0.01916791 -0.012378998 0.022063749 -0.06718234 -0.009996277 -0.0034749259 -0.033678915 -0.02267681
-0.027509036 -0.013726072 -0.009998311 -0.01789594 0.04861595 -0.02081648 -0.031292528 0.0
-0.00903558 -0.015432871 -0.020382559 0.0009929163 -0.0049999226 -0.009999987 0.0 -0.03556942
-0.022514688 -0.035574634 -0.027592381 0.009641504 0.0 -0.02861417 0.0077292956 -0.014295596
-0.013180886 -0.022552999 -0.01681888 -0.01 -0.026625859 -0.016640859 -0.028961502 0.0
-0.035178654 0.0 -0.018728878 0.0 -0.021379394 -0.019043943 -0.024258103 -0.030931955
-0.019548846 0.030367807 -0.009134097 -0.027581666 -0.009999429 -0.019647239 0.1023212 -0.018520009
-0.014999021 -0.019145593 -0.065110035 -0.009999993 -0.017544776 -0.017376741 -0.094686426 -0.008509829
0.0 -0.028485566 -0.0022002975 -0.04515785 -0.02526918 -0.012478154 -0.035802297 -0.012293706
-0.031444795 -0.011254338 -0.015793376 -0.03613748 -0.017975159 -0.018709471 -0.07506751 -0.009999951
-0.009999987 -0.06083442 -0.01343962 -0.009999991 -0.030075673 -0.018995248 -0.014860476 -0.01
-0.04841283 -0.009999993 -0.02631415 -0.019978901 -0.028739762 -0.03922452 -0.01934428 -0.028184196
-0.05712989 -0.009999464 -0.029429069 -0.025807481 -0.02511618 0.0 -0.025259148 -0.004123391
0.022480851 -0.014191857 -0.016055975 -0.025075348 0.03799119 -0.027321 -0.02558802 -0.022844778
-0.0025842173 -0.01496551 0.0 -0.009999997 -0.019377828 -0.013303066 0.13016929 -0.025463121
-0.02793872 -0.009999998 -0.045733742 -0.017993255 -0.030477364 -0.07091011 -0.027572373 -0.03329879
-0.019986259 -0.028345777 -0.01796755 -0.025800737 -0.021949273 -0.016745752 -0.021684233 -0.025667163
-0.0155898975 -0.025384722 -0.0029657206 -0.035916716 -0.026082914 -0.017620526 -3.2677992e-05 -0.014528924
-0.0019685803 -0.00085063034 -0.012489283 -0.016439356 -0.02228923 -0.024348797 -0.024219405 -0.04130368
-0.036232963 0.018816348 -0.019411033 -0.024126235 0.051267374 -0.018464651 -0.012021816 0.00024152244
-0.019990196 -0.03500412 -0.037568692 -0.07480266 -0.029556392 -0.004191586 0.019097723 -0.009998552

model.5.weight f4 [200, 200]
00000000: 3310 95b9 90b7 65bd bcfd 1fbe 7141 4b3c
00000010: 0af4 7d3e a7a7 26be 946b 1d3e 16fa 063e
00000020: dc3d d3bd d75f 1abe ddd0 b0bd 7254 da3c
00000030: 7f26 92bc 4687 f7bd cef9 46bd 646c 45be
00000040: 22e9 4bbc 0764 c1bd 7779 563d c443 d73d
00000050: 59d0 a43d a1e4 17bc 66b5 213d c100 a2bd
00000060: f592 94bd da05 6c3d 4479 67be 793d dd3d
00000070: 64f3 f7bd 43cf 95bd 74a8 6b3c 2b4b b0bd
00000080: 16ad 7ebd bc25 1cbd 4492 dc3d fec3 a3bd
00000090: 7e26 19bd 4edb 9c3d 224c 8ebd 14fd ba3d
000000a0: 2fb9 8bbd 7673 833e f197 a1bd c873 c4bd
000000b0: 94f4 bbbd 53d5 9abd 044a 07bb 6aee 3d3d
000000c0: 16e7 dd3d 7478 a4bd 3db0 213d 7c37 893b
000000d0: 6e89 12bd cd19 f83c 4df3 7cbe 00f7 d53d
000000e0: c679 d73c 489b 693d e041 e0bd b4d7 813d
000000f0: 2774 7c3d a326 b33d a96b a0bd d632 943d
00000100: 638c 003d a0b0 d23d aa22 81bd c438 95bd
00000110: 1d96 c73d 7dfa 603d 780b 0ebe aae3 2cbc
00000120: b2c6 9cbc 3d83 d4bc a1f6 c13d 4772 463d
00000130: 5fa0 ffbc 125a 3e3d c4a7 043e c8ac e8bc
00000140: 6ec7 87bd 2bd7 603c e840 083d a5aa 683e
00000150: 7577 303d d032 f6bc 5789 a2bc 1c23 a73d
00000160: fa50 5fbd 2ab1 793d fe36 b33d 97f9 0f3e
00000170: 9768 e3bd 9f49 03bd e791 08be 93c3 54bd
00000180: 9f95 d7bd 3642 063d 05bf 8c3d 9694 7f3d
00000190: cd0e 133d 20be f33d 87bb 86bd 0b81 bdbb
000001a0: c8a1 c7bd ab75 dabd 32ee cbbb 6a07 47bd
000001b0: f058 a8ba a7a9 acbd 1bb1 933d c8f6 a2bd
000001c0: 0dfd f1bd c7a0 03bd 4378 363e a145 3cbd
000001d0: 6e2a 08be fff2 163e da14 e63d ebfa cb3d
000001e0: eb5a 73bd b6ca 083e 4f64 61bc b802 fabd
000001f0: aaa4 313e 5f83 033d 2e40 2ebc 2591 84bc
00000200: 5936 8cbd 1079 733c 464f f53d d1bd 833d
00000210: 7bcc 77bc ff9a e43d 3c33 7c3c 5ec7 54be
00000220: 8db0 693d 41b7 3abe 4877 50be d29e 13bd
00000230: 45a8 babd abe0 64bd da05 db3c ffe5 a13d
00000240: 9bc9 c8bd 884f b93d e7ff 553d afd9 483e
00000250: 1aa4 c03c 38db 7cbc cead 563b beef 8cbd
00000260: 52e2 15be b72b 7cbc d11b a8bc 7a4c d9ba
00000270: cd85 80bd 3142 973c d8a9 edbd d59f 9d3d
00000280: a56f 773e d5ce 903c 80ca 88be ab1d 99bd
00000290: 3656 46be d079 3c3d fa67 eebd ed1f 863d
000002a0: 84fd 6a3d 3753 93be 5335 67bd 9601 583c
000002b0: 0bad 97bd 8213 0f3e 7ed6 a83d b365 53be
000002c0: bd0b 66bc 8a19 8e3d cfd8 0bbd 9dbe 0d3e
000002d0: a0fb 99bd 81ff 9dbd 0505 3abe 4e31 523e
000002e0: c941 90bd a677 a93d b1aa c93d ca03 eabd
000002f0: 3983 3ebd 9ac1 eebd f478 3abd ffc8 c23c
00000300: 1591 4f3d af2e 5ebd be2e fc3b 86d6 a43b
00000310: 86f1 643b d64c c2bd 65e2 4ebe 91ce ba3d
00000320: 2c7f c4bd f7dd b83d 7c73 d0bc 46c6 aebd
00000330: e5ae cdbd b915 aebd b3e5 4cbe 1011 37be
00000340: 9920 90bd 0d3e 16be 645d 733d ce31 64bd
00000350: dfff 8fbb 0e73 c13c 2d79 f73d 1e2a 923c
00000360: 119b af3b 5127 38bd 470d 8e3e dd92 403e
00000370: 308f 8cbe 7901 e7bd ee0b 82bb 0bf1 bbbd
00000380: 8160 b2bd 9eec d9b9 4b52 9abd 9915 863c
00000390: f880 563d 8faa 103e 2095 cbbd a79d 91bd
000003a0: 60b2 d6bb d9cf aabd c781 ca3d e890 143e
000003b0: c0a6 6f39 17fe 18be 808b 88bd d04a 6fbd
000003c0: 7247 59bd 3ffd e73c 6cc8 283c 9415 19be
000003d0: 3754 0abd 8574 a4bd a9b2 1c3e 601e 42bd
000003e0: 6576 47bd a4c4 b1bd f96d 0d3c beea a6be
000003f0: daea 293e 7ff9 c23d 8066 293e 915c 2e3e
-0.00028431564 -0.056083262 -0.15624136 0.012405739 0.24800125 -0.16274892 0.15373069 0.13181338
-0.10314533 -0.15075622 -0.086335875 0.026651595 -0.017840622 -0.12086348 -0.048578076 -0.19279629
-0.01244572 -0.09442907 0.05236193 0.10510972 0.08047552 -0.009270818 0.039479636 -0.079103
-0.07254592 0.057622768 -0.22604853 0.108027406 -0.1210697 -0.07314923 0.014383424 -0.08608087
-0.062176786 -0.038121924 0.107700855 -0.07996367 -0.037390225 0.076590165 -0.06948115 0.09130302
-0.0682243 0.25674027 -0.07890309 -0.09592396 -0.09177509 -0.075602196 -0.0020643482 0.046369947
0.10835092 -0.08030787 0.039474715 0.0041875225 -0.035775594 0.03028574 -0.24702187 0.10447502
0.026303183 0.057032853 -0.10950065 0.0633997 0.06163421 0.08747604 -0.078330345 0.07236259
0.031383883 0.10287595 -0.0630544 -0.07286218 0.09745429 0.054926384 -0.13871562 -0.010552326
-0.019137714 -0.025941486 0.09470869 0.048448827 -0.0312044 0.046472616 0.12954623 -0.028402701
-0.06629835 0.013723175 0.033265024 0.22721346 0.043082673 -0.030053526 -0.01984088 0.081609935
-0.054520585 0.060959972 0.08750723 0.14060055 -0.11103933 -0.032052632 -0.13336907 -0.051944327
-0.10526585 0.032777987 0.068723716 0.062397562 0.035902787 0.11901498 -0.06578737 -0.0057832054
-0.09747654 -0.10666975 -0.0062234635 -0.048591055 -0.0012843888 -0.08430796 0.072115146 -0.07957226
-0.11815844 -0.03213575 0.17819314 -0.04596484 -0.13297436 0.14741133 0.11234446 0.09959968
-0.059412878 0.13358578 -0.013756826 -0.1220755 0.1734797 0.032107707 -0.010635419 -0.016182492
-0.068463035 0.0148604065 0.11978011 0.06432689 -0.015124436 0.11162376 0.015393075 -0.20779178
0.057053138 -0.18233968 -0.20358002 -0.036040135 -0.09114126 -0.055878323 0.026736189 0.079051964
-0.09804078 0.090483725 0.052246 0.1961429 0.02351575 -0.015433125 0.0032757404 -0.06881665
-0.14637116 -0.015391282 -0.020521076 -0.0016578578 -0.062755205 0.01846418 -0.11604661 0.07696501
0.24163683 0.01767675 -0.26716995 -0.07476362 -0.19368824 0.046014607 -0.11640926 0.06549058
0.057370678 -0.28774425 -0.05644734 0.013183972 -0.07406052 0.13972285 0.08244036 -0.20644264
-0.014040885 0.06938465 -0.03414231 0.13842244 -0.07518697 -0.07714749 -0.18165977 0.20526621
-0.070437975 0.08274774 0.0984701 -0.11426504 -0.046511862 -0.1165802 -0.045525506 0.023777483
0.05067547 -0.05424374 0.007696002 0.005030456 0.0034933998 -0.094873115 -0.2020355 0.09121431
-0.095945686 0.090267114 -0.025445692 -0.085339114 -0.10043124 -0.08500237 -0.20009498 -0.17877603
-0.070374675 -0.14672108 0.059415236 -0.05571156 -0.004394516 0.023614433 0.12083659 0.017842349
0.0053590615 -0.04495937 0.27744505 0.18806024 -0.27452993 -0.11279578 -0.0039687073 -0.09176835
-0.08709813 -0.0004156576 -0.075352274 0.01636772 0.052369088 0.14127563 -0.09940553 -0.07110148
-0.0065520257 -0.08340425 0.09888034 0.14508402 0.00022854935 -0.14940678 -0.066672325 -0.058420956
-0.05304665 0.028319 0.010301691 -0.14949638 -0.03377172 -0.08030037 0.15302528 -0.04739225
-0.048696894 -0.08680084 0.008632177 -0.3260097 0.16593495 0.09520244 0.16543007 0.17027499

model.5.bias f4 [200]
00000000: 9eb3 2e3d 5553 62bd 08ab 27bd dfc4 bfbd
00000010: a28b 87bc 7734 0ebd 4539 0bbd 25e9 7fbd
00000020: 1bf2 41bd b4b8 20bd d59c 32bc 1195 0dbd
00000030: b194 53bd f70c aabc 5d9b 00bd 9d0b 3fbd
00000040: 55ec 40bd 5c5d a2bd d932 8fbd a13f 2abd
00000050: f517 6cbd 7fb7 7cbd 6602 9dbd 2dcb 5bbd
00000060: b085 94bd c9e9 a03c c6f6 1fbd 28a5 6ebd
00000070: 3af9 ac3a f968 cfbb 93a5 41bd 3f81 dfbc
00000080: d0fb 39bd 18d5 2cbd 6be5 95bd 83e1 4abd
00000090: 3079 d4bc 3656 76bc 3109 9fbd 974e 9fbd
000000a0: 46ee 6bbd b72a 283c 6d24 aebc d30c 94bd
000000b0: ddd9 a1bd a3f6 21bd ed14 b3bc d8b8 9fbd
000000c0: 639f 12bd e3b6 633c 9b8e a1bd da60 ff3b
000000d0: 939b 34bd d79f 35bd a72c ecbd 17b5 b5bd
000000e0: 7f5e 84bd d65d 51bd 4280 3fbd 8c3a 35bd
000000f0: 30f6 65bd 33e0 693d f097 3cbd a14c 38bd
00000100: 9516 16bd 22ee 9cbd 98ac 88bc 66fa cf3b
00000110: 7116 76bd 40b1 7cbd 2cbb 9abd 54df 9fbd
00000120: d5d7 85bd 2e3f 8fbc b809 1dbd 8a26 d4bc
00000130: fb63 afbd 8229 21bd bde2 aabc ad4d 6dbd
00000140: 6b23 9abd cae8 57bd d5db 6fbd dfb0 9ebc
00000150: f1c4 8fbc 04a5 1cbd 7860 83bd f56f 5bbd
00000160: e528 05bd bba0 e1bc a3f0 9cbd 6ffd 36bd
00000170: 0fe3 1ebd 94ed 44bc c0ca 7fbd d56f 22bd
00000180: 30e7 a7bd 2125 80bd 37fc 6fbd 4e5d 31bb
00000190: 1e5b aebc 5407 87bc ff33 7bbd eb0d 0d3d
000001a0: 3feb 38bd 7d94 45bd 2476 d3bc ac58 3abd
000001b0: 52f9 dcbd 753c 1dbd af63 2ebd 37c1 b33c
000001c0: 13d0 93bc 617f 0bbd fd09 9f3c 86d3 7bbd
000001d0: c60e 55bd 25c0 0dbd db25 3dbd 72cf 49bd
000001e0: c445 b4bc 5e7e 27bd 3b78 3dbd 075c 79bd
000001f0: 34cc 06bd 5555 80bd 7542 0fbd c728 47bd
00000200: ea0d 1abd b988 acbd e12f 3cbd ee1f a9bd
00000210: f69a 48bd 6985 0f3d ae13 ae3c 4552 fcbc
00000220: cb22 3dbd 1cc5 8cbd a47c a23d 2158 0ebd
00000230: 02e6 54bd a8f9 6cbd c574 95bd fd8a 35bd
00000240: 52a7 85bd 6d1d 0bbd ef5f 95bd 4c22 4bbd
00000250: 5d42 4ebd 408c 7cbd f2eb 66bd d270 2cbd
00000260: 4da9 d6bc 3335 9ebd 092b 00bd ba64 5cbd
00000270: 4463 4fbd c682 65bd 9dfd e8bc 5fae 88bd
00000280: dd40 18bd 8def 3fbd b8dc 7a3d 115e febc
00000290: b963 52bd f240 66bd b66d 4cbd 428c 073d
000002a0: 8240 91bd 8868 b9bd 4fa4 ccbb 9f22 6bbd
000002b0: 0cea 563c 8f79 acbd 6c09 1cbd 370a c6bc
000002c0: 3dfb 6abd da7f 59bd bf78 3bbd 595e 8b3d
000002d0: 0b38 f4bc 5d80 34bd 6403 86bd a0f3 a5bd
000002e0: 50a2 89bd 9271 6ebd 69ca 9f3d cd3c 84bd
000002f0: 9d92 3dbd 81c5 1dbd c287 f239 6fff c3bd
00000300: f69e 74bd 41a7 51bd dc8b 19bd d52c 77bd
00000310: b810 73bd 933c 39bd 8cad 83bd e929 dcbd
0.042651765 -0.055255253 -0.040934592 -0.09363722 -0.016546074 -0.034718003 -0.033990163 -0.062478203
-0.04735003 -0.039238647 -0.0109016495 -0.03456599 -0.051655475 -0.020758135 -0.031398166 -0.046641935
-0.047100384 -0.07927963 -0.0699212 -0.041564588 -0.057640035 -0.061698433 -0.07666473 -0.05366056
-0.07252061 0.019642727 -0.0390537 -0.058262974 0.0013196834 -0.0063296524 -0.047277045 -0.027283309
-0.045406163 -0.04219541 -0.07319149 -0.04953147 -0.025936693 -0.015035203 -0.07765425 -0.07778662
-0.057600282 0.01026409 -0.021257604 -0.072290085 -0.07902882 -0.03954185 -0.021860564 -0.07798928
-0.035796534 0.013898584 -0.07888528 0.007793528 -0.04409368 -0.04434189 -0.11531954 -0.08872431
-0.06463336 -0.05111488 -0.046753176 -0.044245288 -0.056142986 0.05709858 -0.046043336 -0.044994954
-0.03664263 -0.07662608 -0.016683862 0.0063469885 -0.060079996 -0.061692476 -0.075552315 -0.07806268
-0.06535307 -0.017486181 -0.038339347 -0.025897283 -0.08563992 -0.039346226 -0.02086007 -0.057935406
-0.07526287 -0.05271224 -0.058559258 -0.019371448 -0.017549964 -0.03824331 -0.06414884 -0.053573567
-0.032509703 -0.027542463 -0.07663085 -0.044675287 -0.03879076 -0.012019534 -0.062449217 -0.039657433
-0.081983924 -0.06257082 -0.05859014 -0.002706367 -0.021283682 -0.016482987 -0.061328884 0.0344371
-0.045146223 -0.048237313 -0.02581317 -0.04549472 -0.107897416 -0.038387734 -0.042575534 0.021942718
-0.018043553 -0.034057025 0.019413942 -0.06148102 -0.052016042 -0.03460707 -0.04617868 -0.0492701
-0.022005923 -0.040891998 -0.04625724 -0.06087878 -0.032909587 -0.06266276 -0.034975488 -0.048622873
-0.037610926 -0.08424515 -0.0459441 -0.08258043 -0.048975907 0.03503934 0.021249618 -0.030800948
-0.04617576 -0.06873533 0.079339296 -0.034752015 -0.051977165 -0.05785528 -0.07297663 -0.044322003
-0.065260544 -0.03396361 -0.072936885 -0.049593255 -0.050356258 -0.06165719 -0.05637736 -0.04209978
-0.026203776 -0.07724991 -0.03129104 -0.053806998 -0.050631776 -0.05603292 -0.028441245 -0.06673884
-0.037171233 -0.046859313 0.06124565 -0.031050714 -0.051364634 -0.05621428 -0.049909316 0.033092745
-0.07092382 -0.09053141 -0.006245173 -0.057406064 0.013117325 -0.08421623 -0.038094923 -0.024174793
-0.057368506 -0.053100444 -0.04576945 0.06805105 -0.02981188 -0.04406773 -0.065436155 -0.081031084
-0.06720412 -0.058213778 0.078022785 -0.06456909 -0.0462824 -0.038518433 0.00046258984 -0.095702045
-0.05972191 -0.051184896 -0.037486896 -0.06034549 -0.059342116 -0.045223784 -0.06429586 -0.10750181

model.8.weight f4 [6, 200]
00000000: f8fb de3e aa24 093e 1517 dc3c 8341 a83c
00000010: 7380 7a3f 8a39 8f3e 374c 7d3f 9e30 d83b
00000020: c292 933c 6cc0 083f 1a54 a5be e82a b5bc
00000030: 6d54 5e3d 25e6 2c3f 8b7f 4a3d b0b9 2abe
00000040: dae1 6f3e 9352 6cbd cbcd 983d bebb a53d
00000050: a953 a9be a9c5 633d a13a 443d de4d 9d3a
00000060: 55ec ddbd 7eb7 4d3f 8170 103e 19ea 40bd
00000070: 5c0c babe 8244 063e fa9b 5fbe 3393 9fbe
00000080: e4f6 05bd 1708 453d 7284 423d 3dce 2b3e
00000090: 54c6 d2be 2dca 8dbe c235 efbe 22ef 3f3e
000000a0: b951 3f3e a68f 8ebe ee08 c23e d8e3 af3d
000000b0: eb7b 84bd 3f94 7dbe 6c25 063f 7ed2 30bc
000000c0: eff7 663d 9b0a a83f a819 a63d 5cce b83f
000000d0: 3c67 323e 70f4 a3bd 26f1 8d3c 3a38 993d
000000e0: 9ec3 133e e6f7 3bbb 7cce 3b3d 2220 08bd
000000f0: e622 803e 9cfc 103f 6fc4 4bbc 5eec 913d
00000100: fcf1 6d3d 423f c8bb 9483 e23a e098 a83e
00000110: 89c6 c73c ea78 683e c6d1 fdbd df03 363e
00000120: 0c25 fabd a31d 2f3c 85ae fdbd 4bff 0fbe
00000130: 54a4 dabd dbbc ac3f 95f3 013f 85c3 743d
00000140: 53b7 babe a375 533d 840f a33d 4d8c 8a3d
00000150: 11d8 153f fbbe babd 6bb1 3f3e 864a 91bc
00000160: 864d 8cbe 996b 3e3f 4a56 d63c 077b bfbc
00000170: 4879 f0bd 9ddc 543d 0011 dabd 4ab3 563b
00000180: 6f90 a43e 7c63 453e 1a0d 1a3e fb29 90bc
00000190: 77e2 0d3e 19d6 493e babc 133d 649f b93f
000001a0: f14f 3c3e 04bd 613e e8aa 363f 129d 403f
000001b0: ca96 a53c 6294 aebd 7279 893e 9171 9dbe
000001c0: d071 b13e 0cdd 4dbd 26e8 b73e 2dda 30bd
000001d0: 155b fbbd a202 0d3f 0b9f 813d b4f6 42bc
000001e0: b38a 37bc c880 1e3e cd97 cfbe 07bc 573c
000001f0: 1f9e 14be a77b 6bbd 3145 8dbd 8a14 9ebd
00000200: cbe9 993f ca4c 243c 2dfb d13d b3c0 683d
00000210: b482 ad3c b21f ebbd 0251 b2be d482 8d3d
00000220: a460 e63d 7b54 2d3d 94ee fabe e9e5 9a3d
00000230: 3ebf 53bd bd71 de3e e631 8e3d ee41 653e
00000240: 33ed ef3f 6acd da3b 40bd c73d 83aa 223e
00000250: fbaa 5e3e d51d 2e3e 60d4 e4bc fc4e 753d
00000260: 160b 8b3e 0041 893c f4ca e6bc 5647 54be
00000270: 9ddc 013e 362c c6be 4481 e6be cc70 8fba
00000280: 9f19 7ebe 62d7 183d 580f 11be fe20 05be
00000290: 7519 cf3d 1dac fabc f4e9 103d 7503 903f
000002a0: e838 bdbd de29 04bf ba1c 663d fbc6 57be
000002b0: 8a63 013f da92 b23d 68d0 f0bd 67e9 f93e
000002c0: a87f 6ebd 1729 403e f3ee e43d 11f4 283e
000002d0: 314d d9bd 2744 94bd 3220 a13b dcf7 013d
000002e0: 1f96 af3d f0fb d03d b789 0cbf 8203 1d3d
000002f0: 034f bdbc b2b1 993d 85d5 313f 239d 4540
00000300: 1e16 b7bd 1a2e 8bbe 39a3 c2bd 69d4 5d3e
00000310: 40b9 89bd ac85 8b3d bae1 773c 155d f83e
00000320: ca43 0cbf 2951 813d 091b fa3c c8ed 573d
00000330: 36b0 333f 5333 cbbc 701d cdbd c919 bc3d
00000340: 783b 9d3c 82f5 22be e5ef 9bbd 7ef3 67bd
00000350: 0d92 9f3d 6dab b23e eef4 dfbd 90b3 493e
00000360: d70d 41be 1aad 7dbd 4195 74ba e640 f43c
00000370: 0392 fabd e096 bd3f 47b1 973b bfd5 0dbe
00000380: 86c1 26bc 1c85 78bd 4bbd 0c3e 62e9 88be
00000390: 150b f93f f82c f13e 74ba 06be da39 3a3f
000003a0: 08ca d53c b26f 853d 7649 d3bd 8477 e8be
000003b0: 406d 883f e4aa ccbd c9a4 9f3e 42bb 8abe
000003c0: 09ad 803e 05b4 f3bd eb6c 413f 9c67 45bc
000003d0: fb94 0c3c 5b2c edbd d08d 743d 9ac5 1bbd
000003e0: a915 52bd 8b9b 573d b142 913b d387 9a3d
000003f0: d0a2 25bc 5218 3c3d 8394 c03d ee00 82bc
0.43551612 0.13392892 0.026866475 0.02053905 0.9785225 0.27973586 0.9894442 0.0065975925
0.018014316 0.5341861 -0.32290727 -0.022115186 0.054279733 0.6753867 0.04943804 -0.16672397
0.23426 -0.057695936 0.07461127 0.080924496 -0.3307164 0.055608425 0.047907475 0.0012001356
-0.108360924 0.8035811 0.14105417 -0.047098253 -0.36337554 0.13112071 -0.21836844 -0.31166992
-0.032706156 0.04810342 0.04748959 0.16777892 -0.41166937 -0.2769331 -0.467207 0.18743566
0.18683518 -0.2784397 0.37897438 0.085883796 -0.06468948 -0.24763583 0.5240085 -0.010792373
0.05638879 1.3128237 0.08110362 1.4437976 0.17422193 -0.08005607 0.017326903 0.074814275
0.14430091 -0.0028681695 0.045851216 -0.03323377 0.25026625 0.5663545 -0.01243697 0.071251616
0.058092102 -0.0061110565 0.0017281645 0.32929134 0.024386661 0.22702375 -0.12393527 0.17774914
-0.122140974 0.010688218 -0.123868026 -0.1406223 -0.10675874 1.3495134 0.507623 0.059756774
-0.3646799 0.05162586 0.07961944 0.067650415 0.58532816 -0.09118458 0.18720023 -0.01773573
-0.27402896 0.7438293 0.026164193 -0.023374094 -0.117418826 0.051968206 -0.10647774 0.0032760673
0.32141444 0.19276232 0.1504406 -0.017598143 0.1385592 0.19710578 0.036068656 1.4501767
0.1838987 0.2204476 0.7135453 0.7523967 0.020213503 -0.085243955 0.26850468 -0.30750707
0.34657145 -0.050259635 0.35919303 -0.04317682 -0.12273232 0.5508214 0.06329163 -0.011899639
-0.011202502 0.15478814 -0.40545502 0.013167388 -0.14513443 -0.05749097 -0.06897963 -0.07718761
1.2024473 0.010028074 0.10252986 0.056824397 0.021180488 -0.11480655 -0.3482743 0.06909719
0.112489015 0.042316895 -0.49010146 0.07563383 -0.051696055 0.4344615 0.06943111 0.22388431
1.8744262 0.0066773193 0.097528934 0.15885358 0.21744911 0.17003568 -0.0279333 0.05988978
0.27156895 0.016754627 -0.028172947 -0.20730338 0.12681814 -0.38705605 -0.45020497 -0.001094365
-0.24814461 0.03731478 -0.1416601 -0.13000867 0.101122774 -0.030599648 0.035379365 1.1251055
-0.0923937 -0.51626384 0.05617974 -0.21071999 0.5054251 0.08719416 -0.117585 0.48810884
-0.05822721 0.18765675 0.111783884 0.16499354 -0.10610426 -0.072395615 0.004917168 0.031730518
0.08573555 0.10204303 -0.54897636 0.038333423 -0.023108965 0.07504596 0.6946643 3.0877159
-0.089397654 -0.2718361 -0.095037885 0.2166306 -0.06724787 0.06812605 0.015129501 0.48508516
-0.5479094 0.06314308 0.03053047 0.052717 0.7019075 -0.024804747 -0.100153804 0.09184606
0.019193396 -0.15913966 -0.076141156 -0.056628697 0.07791529 0.34896412 -0.109353885 0.19697404
-0.18852936 -0.06193266 -0.0009330102 0.029816102 -0.12234881 1.4811668 0.0046292874 -0.13851069
-0.0101779755 -0.060673818 0.13744085 -0.26740557 1.9456507 0.4710462 -0.13157064 0.72744524
0.026097313 0.06515445 -0.10316746 -0.45403683 1.065834 -0.09993532 0.3118041 -0.2709599
0.25132015 -0.118995704 0.7555682 -0.012048628 0.008580442 -0.11580726 0.059705555 -0.038030244
-0.051290188 0.05263857 0.004432999 0.07545438 -0.010109618 0.04592163 0.09403326 -0.015869584

model.8.bias f4 [6]
00000000: e8c1 9a3e 3bfe 283e 5330 243d 1335 453e
00000010: 0514 4f3c ccb7 1c3c
0.30226064 0.16503231 0.040085148 0.19258527 0.01263905 0.009565305
