Challenge_1/Weights/model_dynamics_Pendulum-v2_mse_0.00002354.params (torch_old, 329416 bytes, 8 tensors)

model.0.weight f4 [200, 4]
00000000: 6ac4 a1bf 670d 54bf f06b c8bd 85d9 1fbf
00000010: ec50 66bf 26dc b4be 5d09 aabe 17a5 c7be
00000020: 0181 9c3f 378a a43e 579e 8abe 3752 753e
00000030: 1d7d d33e b38a e4bd 75a4 913e aada 06bf
00000040: 8471 113e 12d3 353f 82bb be3d 51e6 a7be
00000050: bcc0 55be dfdb c5be 9327 bc3f 9715 9a3e
00000060: bf96 373e 3a08 0f3e f048 fb3e 5c33 4d3e
00000070: e1ba 91be ce22 51bf c09d 7e3f 6d84 3bbf
00000080: 5bcc c13e 1cca 99be aedd e5be d5a8 633e
00000090: 7ee1 2d3f ce0f 6cbf 9eb5 02bf bec0 403f
000000a0: 3fc0 72bf c9d4 88bf 30ab 12bf 9b1f 533f
000000b0: 9f1a 493e 712c 43bf 6fd2 93bf 0c85 4abf
000000c0: 5d3a c0bf 3fe5 943f eb27 213e 5801 06c0
000000d0: 429c c73c 7ef6 77bf 5880 2ebf e5b7 32bf
000000e0: 059b 61be 20d5 8b3f 15d7 2e3d 01f3 e0be
000000f0: c90b 523f 9805 033f 080f 81bf 0c2c 853e
00000100: 62cb 4cbf 93ec 45be db62 1a3f 213b 36bf
00000110: 7d5b a1bd 7ade fabe 76b5 923f 27af 51bf
00000120: 60d8 1dbe 078b bfbf c425 ae3c ef09 a2be
00000130: e1ad 83be 601d c73d d233 063f a6cf c13f
00000140: 97d7 323f ae47 82bf b4be d43e b998 0b3f
00000150: 29b5 7f3f 1eea 54bf cb86 21bc 5531 493f
00000160: bab2 dcbd 0cee 1e3f 53c2 0740 cc9a 2e3f
00000170: 3f3c 24bf ec94 a63e 3dc3 edbe 57c2 04bf
00000180: da31 e3be d977 09bd e64f f8be 1e8d a43e
00000190: bcac 81bf 3a40 c83f 612c a83e c64a dabf
000001a0: 5741 093f 529d 4cbf 7612 223f 2970 b0bf
000001b0: b7ab 60be 978d 963f 8501 b0be 8a60 9c3c
000001c0: 16fd d8be 206e 1bbe 7aaf a5bf e1ca 243f
000001d0: 5407 143e ec74 e6be c891 dfbe d85e 9c3f
000001e0: 79b1 fa3c 54ee debd 83e4 bcbd 9d96 d83e
000001f0: 0f9b 29bd 5d57 873f 8f80 6ebe e105 87bf
00000200: 6204 a13e e46f 13bf ede8 893e 042e 933f
00000210: cb66 173f 450c 01be 7c95 68bf 5076 5c3f
00000220: 8813 c7be e23b e13e d4e1 a8bf e42f 373e
00000230: e622 91bf cfc1 8d3f bc3d 473f a3c4 84bf
00000240: bfc9 483e 5136 00bd 0cb2 813f 38b1 98be
00000250: ba27 1fbf 2ea1 4d3e 2d4a 4dbe 1ccf c53e
00000260: 9e9b 58bf 8679 b0be a567 373f f4a1 85bf
00000270: 7332 21bd c1a5 553e a733 6ebd 63db ca3b
00000280: 7eaa 24bf 0284 18bf 3bfa 7fbe f84d 323f
00000290: 24b7 abbf bcc2 053f c0c8 3c3f 976a 8cbf
000002a0: a72b 3bbf 11ed 52be e730 683d 6e09 d53e
000002b0: 8308 dbbd 0da6 033f 4695 333f aac7 31bf
000002c0: 261a 893e 79e8 52bf 2458 083f 690c 0cbf
000002d0: 2bf9 3a3f 135a 46bf d773 ea3e 7f28 9ebe
000002e0: 0942 e5be 816f e83e 56c3 20bd 2ee6 f63e
000002f0: fed9 0dbf 3f96 04bf 8c03 1a3f 15e6 673f
00000300: 4e2f 6fbe 399e 3a3f 3c23 f4be eacd 083f
00000310: 387b e53e 7dec 483f 283c 973e 69c0 aabe
00000320: 15fd 6bbe 7dc8 1a3f 8989 0d3d 937f 6a3f
00000330: 1763 993e 34e5 c8be 834c fbbe 765c a63e
00000340: 2f39 073f 0054 be3f e318 8d3e bbcc 6b3e
00000350: da5d ff3e 91dc 9cbc 8c3c 07bf ff34 fe3e
00000360: b22b 4cbf 2d19 123f 1ddb 853f a08e ce3e
00000370: 09f6 b9be 7443 8cbf feda 023f 8aa5 183f
00000380: 36bd 753f cb47 853e 7918 06be aa4f 953e
00000390: 9445 843e 6aab 70bf b06d 5c3f 72b5 a43e
000003a0: 95f9 783f 665d 8c3f 02ae f53f e02f 9e3e
000003b0: 3fbb 113e 4a40 40be c78a 1f3f 28ac a9bf
000003c0: 895d a03f d39e 803f c32a 03bf a1f0 633e
000003d0: e9c8 023f 3dd4 80bf 9f5b 3a3d a578 bbbe
000003e0: 0cc4 4d3f 0a97 f3be d8ef b7be cff3 8dbe
000003f0: 0991 8c3c f2fc 0c3e cddf 1f3f 4768 ab3e
-1.2638066 -0.8283295 -0.097862124 -0.62441283 -0.89967227 -0.3532421 -0.3321027 -0.3899314
1.2226869 0.321367 -0.2707393 0.23957144 0.4130639 -0.11159267 0.28445783 -0.52677405
0.14203459 0.7102519 0.09313108 -0.32792905 -0.20874304 -0.3864431 1.4699577 0.30094597
0.17928599 0.13967982 0.49079084 0.20039123 -0.2846289 -0.8169373 0.9945946 -0.7324894
0.37851223 -0.3003701 -0.4489569 0.22232373 0.679222 -0.92211616 -0.51058376 0.752941
-0.94824594 -1.0689937 -0.5729246 0.824701 0.19639061 -0.7623969 -1.1548594 -0.79109263
-1.5017811 1.163246 0.15737884 -2.093832 0.024366502 -0.9686049 -0.6816459 -0.6981185
-0.22031792 1.0924416 0.042685587 -0.43935397 0.8204923 0.5118041 -1.0082712 0.26010168
-0.7999784 -0.19328527 0.6030709 -0.71183974 -0.07878778 -0.4899786 1.1461627 -0.81907886
-0.15414572 -1.4964303 0.021258242 -0.31648204 -0.25718597 0.097224 0.5242282 1.5141494
0.69860214 -1.0178125 0.41551745 0.5452991 0.99885803 -0.83169734 -0.009858797 0.785909
-0.10776277 0.6208198 2.1212356 0.6820495 -0.6415443 0.32535493 -0.46438017 -0.5185904
-0.4437397 -0.03356156 -0.48498458 0.32138914 -1.0130839 1.56446 0.32846358 -1.7054069
0.53615326 -0.7992755 0.6330942 -1.3784229 -0.21940504 1.176196 -0.3437616 0.019089002
-0.4238059 -0.15178728 -1.2944176 0.6437207 0.1445592 -0.4501108 -0.4366591 1.2216444
0.030602204 -0.10885301 -0.09223273 0.4230241 -0.04140764 1.0573536 -0.23291229 -1.0548669
0.31448656 -0.57592607 0.2693552 1.1498418 0.59141225 -0.12602337 -0.90853095 0.8611803
-0.3888209 0.43991 -1.3193917 0.17889363 -1.1338775 1.1074771 0.77828574 -1.0372509
0.1960821 -0.0313018 1.013246 -0.29822707 -0.6216999 0.20081016 -0.20047827 0.38634574
-0.84612453 -0.34467715 0.71642524 -1.0440049 -0.039354753 0.20864011 -0.05815473 0.0061907037
-0.6432265 -0.5957643 -0.24997799 0.6965022 -1.3415265 0.52250266 0.7374382 -1.0970029
-0.73113483 -0.20598246 0.056687262 0.41608757 -0.10694983 0.5142525 0.7014965 -0.6944529
0.26777762 -0.82385975 0.5325949 -0.54706436 0.7303645 -0.7748119 0.45791504 -0.3089027
-0.44776943 0.4539757 -0.039248787 0.48222488 -0.55410755 -0.5179176 0.6016166 0.9058545
-0.23357889 0.7289768 -0.47683132 0.534392 0.4482057 0.7848585 0.29538083 -0.33349922
-0.23045762 0.6046217 0.034554992 0.9160091 0.29958412 -0.39237368 -0.4908181 0.32492417
0.5282163 1.4869385 0.2755805 0.23027317 0.4987629 -0.019148143 -0.5282676 0.49649808
-0.79754174 0.57069665 1.0457493 0.4034319 -0.36320522 -1.0958085 0.51115406 0.5962759
0.9599184 0.26031336 -0.13095273 0.2916234 0.25834334 -0.9401156 0.8610487 0.32169682
0.9725583 1.0966003 1.9193728 0.308959 0.14231585 -0.18774524 0.6232113 -1.3255663
1.2528545 1.0048469 -0.51237124 0.22259761 0.51087815 -1.006477 0.045497533 -0.36615482
0.8037727 -0.4757617 -0.35925174 -0.27725074 0.017159002 0.13768366 0.6245087 0.33477995

model.0.bias f4 [200]
00000000: 0000 0000 0000 0000 264c 8abc 36e4 0bbd
00000010: c262 cfbd 8e3a 23be c85c b8bd 871b d93d
00000020: 7015 b2bc b7ce 993d 05f8 7cbb 0142 103e
00000030: ad79 ddbd 0000 0000 d8ae 21bd 0d07 23be
00000040: 5ad5 553d 914f 70bd 0000 0000 218a 08be
00000050: 076d 34ba cc48 d9bc ae82 d9bd 68a0 7d3c
00000060: 68c7 bf3d 3c3f e4bd f348 bbbc 0c92 ddbd
00000070: daba 84bd 1bde 65bd 8c6f 02be e175 abbd
00000080: db0b 03be 2227 573d 8e73 c53c 9355 813b
00000090: 0186 d9bd ef83 673d 3b65 703c fe2e b9bd
000000a0: 11a2 d13d da9a a5bc d87e 11be cd80 90bd
000000b0: eed4 9d3d 6baa 073d b2b9 0cbe aa2e 20be
000000c0: 85cb 8abd 38ea c3bd 0e13 b9bb 7ce2 373d
000000d0: f606 d8bd c903 d3bd a029 6abe 5e15 c4bd
000000e0: f145 943c 15eb d3bd c0ad 6abe bd17 87bc
000000f0: 9bc2 eebd 748c 1abc 0a02 143d 5231 1b3d
00000100: dff6 52be de61 9a3b 9bf5 e5bd 10b7 b33d
00000110: 72ad fe3d 5b46 293c 5d05 01be 2585 b1bc
00000120: a489 67bd 6a73 2dbd ca15 41bb a91b 9bbd
00000130: 999e 1b3d 0000 0000 5d33 07bd 3ae5 bebd
00000140: 9b7e 1ebd 9659 42bd 7f09 013e 8c9c 473d
00000150: 6d1e b63d c35d 14be 15d6 e2bd 02da 45be
00000160: 6aa0 8abd 0546 2abd 0000 0000 0000 0000
00000170: b83d a2bc ca11 ccbd 8a33 3d3c 0101 ab3d
00000180: 7400 323e 37ed ce3c 72f3 903d fc51 a3bc
00000190: bc62 93bd a92d 14bd 857d ea3d 1491 bdbd
000001a0: 6ced a6bd 0000 0000 8e4e 81bd 0252 babd
000001b0: 34e8 f1bc 15e3 ec3d d078 83bc 74bd ca3d
000001c0: 7a93 dd3d 0000 0000 d0fb f7bd d984 ddbd
000001d0: 7b61 9cbd 9152 2bbe 9f38 4bbc 191f 1e3d
000001e0: 0000 0000 d80f 97bd c3ee 463d 8dfe a6bd
000001f0: bd89 d03d 1b76 263d 6ffd e1bc e392 48bd
00000200: 3adb ccbd ca90 ccbc 977d d9bd 19ac 933d
00000210: c129 ccbd 0000 0000 aa2e fa3b 63e1 7d3d
00000220: d564 053b 2619 b4bd 4e6f f4bd dd81 95bd
00000230: 0000 0000 622d 02be cc4f 993b 02ce d1bd
00000240: a7e3 21bb 543e 30be fbb3 d83d 78cf 61bd
00000250: acf9 f93a fcd5 3bbd ce39 9e3d 4ba4 f23d
00000260: 0000 0000 cfcf 643d 49a7 05be 25d1 d23c
00000270: 4603 3e3c 3115 333d c147 d7bd bfa8 f1bd
00000280: 2ae5 8e3d 5499 7bbd 814c e6bd 5a5f a53c
00000290: 6e67 b7bd 0000 0000 b50a 1a3e 2b94 f2bd
000002a0: 0000 0000 4c87 26bc 06e4 b83d ca66 753d
000002b0: 863e cbbd 6f1c 96bd 432a a5bd 0000 0000
000002c0: 3e2f 13be 927e 443b 958d 57bc edea d1bd
000002d0: e183 953d 0909 3e3d 52b3 bf3d 32c7 09be
000002e0: 8cd1 24be 9999 b53d fe06 bcbd 435e eabd
000002f0: ae04 65bd a30a 5ebc 821e 15bd db90 9a3c
00000300: 7a3c 9e3d 97f5 d5bd f5d7 933c b328 ccbd
00000310: e8c7 e7bd 6461 973c 0000 0000 1a01 0cbe
0.0 0.0 -0.016882014 -0.034153186 -0.101262584 -0.15940306 -0.090020716 0.106009535
-0.021738738 0.07510131 -0.003859998 0.14087678 -0.108142234 0.0 -0.039473385 -0.15920658
0.05220542 -0.05866963 0.0 -0.13333942 -0.00068827014 -0.02652397 -0.10620628 0.015480138
0.093642056 -0.111448735 -0.022861933 -0.10818872 -0.064809516 -0.05612002 -0.12737864 -0.08372093
-0.12797491 0.052527554 0.024102952 0.003946969 -0.10621262 0.056522306 0.014672573 -0.09042166
0.1023599 -0.02021544 -0.14208543 -0.07055817 0.07706629 0.033121508 -0.13742712 -0.15642801
-0.067770995 -0.09566158 -0.0056480234 0.044893727 -0.10548203 -0.10303456 -0.22867441 -0.09574388
0.018099757 -0.10347573 -0.22917843 -0.016490811 -0.11658212 -0.009432901 0.036134757 0.037888832
-0.20601986 0.0047113737 -0.11228486 0.08775151 0.12435426 0.010331715 -0.12599702 -0.021669934
-0.05652775 -0.042346396 -0.002946245 -0.07573635 0.037993047 0.0 -0.03300797 -0.09321065
-0.03869496 -0.047448717 0.12601279 0.04873328 0.08892522 -0.14488892 -0.11075989 -0.19321445
-0.06768878 -0.041570682 0.0 0.0 -0.01980482 -0.099643305 0.011547932 0.08349801
0.17382985 0.025259597 0.070776835 -0.019936554 -0.071965665 -0.036176357 0.11449722 -0.09256187
-0.081507534 0.0 -0.06313811 -0.09097673 -0.029529668 0.1156675 -0.016048819 0.098994166
0.108191445 0.0 -0.12108576 -0.10816354 -0.076357804 -0.16730715 -0.012403636 0.038603876
0.0 -0.07376069 0.048567545 -0.081540205 0.101825215 0.040639978 -0.027586667 -0.048968207
-0.10002752 -0.024971385 -0.106196575 0.072105594 -0.099689014 0.0 0.0076349573 0.061982524
0.002035429 -0.08793859 -0.11935292 -0.0730016 0.0 -0.12712625 0.004678702 -0.10244371
-0.0024702342 -0.17211276 0.105812036 -0.0551295 0.00190716 -0.04585837 0.07725869 0.11847743
0.0 0.055862244 -0.13052095 0.025734494 0.01159746 0.04372138 -0.10511733 -0.11799764
0.06977303 -0.061425522 -0.11245061 0.020187069 -0.089552745 0.0 0.15043147 -0.11844667
0.0 -0.010164093 0.09027867 0.05991248 -0.09924035 -0.07329642 -0.080647014 0.0
-0.1437349 0.0029982668 -0.013156314 -0.10249887 0.073005445 0.046395335 0.093603745 -0.13454893
-0.16095561 0.08867187 -0.09181021 -0.1144376 -0.055912666 -0.013552341 -0.036406048 0.0188679
0.07726379 -0.10447233 0.018047312 -0.099687 -0.11317426 0.018479057 0.0 -0.13672295

model.2.weight f4 [200, 200]
00000000: bb53 b43d cd48 72bd 98d0 ecbd fa72 5fbd
00000010: af38 af3d 146a 19be cacf 56be 9042 e1bd
00000020: abd5 99bd 0eb1 b93d 30eb 0fbe c721 60bd
00000030: 37e5 36be 04b1 37be 3b74 caba 28be 5ebd
00000040: 6f0e eabc edd2 543d cf20 e73d 2626 9bbc
00000050: 8079 5bbd 55d6 ab3c 6af5 363d d7e2 a4bd
00000060: 3437 9ebd a48e 13bd cb7c 483d 8bd5 6c3d
00000070: c40b 823e b207 41be 0dcf 4fbe d257 663d
00000080: 1700 debc cf5b ea3c 569b 3fbd 011f 413c
00000090: 5731 393d e08d 3f3e 2d61 43be 43ff 7a3d
000000a0: c717 28be 9097 32bd baab fbbd 7f2c edbc
000000b0: c7ca 9c3c 0329 2abc 454b 4bbc 7fc7 30bc
000000c0: cf2d 8239 cf81 9c3d 825e a7bd 66a2 abbd
000000d0: 4676 253e ab36 c23c 9f5a 013c b9f9 bd3d
000000e0: 6b7f 7a3d a88d 09be d683 04be 0d44 143e
000000f0: 4750 6abd e863 e13c c96d 01bd 2b36 f5bd
00000100: 4692 07be e130 153e fb2f 433b bc55 a2bd
00000110: 25a7 02bc e7b6 883d b8d2 d3bd ea97 97bb
00000120: 6d04 c2bc 6f3d 4e3d e295 953d cb01 bfbd
00000130: a95d 983d e5c7 1dbe 63ac 483c 8d98 82bd
00000140: 6a8d debd b42f 0cbe b287 643d 763c c4bd
00000150: ceb2 04bd 7d2e 24bc 63f4 233d c562 f6bd
00000160: a73d fbbd 554f 3c3e 150c 56be 5510 78bd
00000170: e881 2d3d 97ea cbbb 144f 1d3d 8a70 ff3c
00000180: 47c8 83bc 736c c7bd c17a 263e 0312 d6bd
00000190: 9bac f93d 3e74 39be 3fef bf3d 7b18 063e
000001a0: b895 793d 5a68 0dbd 91a9 063d eb96 163e
000001b0: c890 55bd 8c5a a4bb 3212 dbbc a743 933d
000001c0: 2a50 873d 9dfb 9f3d edc6 ffbc 5662 cc3d
000001d0: 7f5e 9fbd 5df2 e83c 7604 aa3c 48ca e13c
000001e0: 2d3b 67bd e776 ac3c eaa3 51bd d0f9 9abc
000001f0: a72d 023e 4ed8 ae3d b806 a43d 6fa2 003d
00000200: 05c5 0bbd 5165 913c f2d3 e3bd f755 8f3d
00000210: 0acb 1a3e d35a abbd 20ac f83c e5e6 eb3c
00000220: ffbf 23be 09fd 14be d24b 7ebd 5a04 1c3d
00000230: f06a 64bd 7128 053b b30c 773b 83dd 51be
00000240: d3d4 d1bd ff3c 1a3e 5216 e2bc e4c6 063e
00000250: 50d7 353d 80ed 6ebd 59e9 9fbc d039 bebc
00000260: c5e7 60bc 4b7e fc3c 67f2 31bd 1ca2 923d
00000270: a182 0a3d 82d4 d93c a760 603d 5b6d 34be
00000280: f08c 5d3e fee2 353e 1b38 903b abb3 00bd
00000290: 66fd 1a3d d5c9 12bd aa97 793d e5ff 95be
000002a0: 433c 0b3e e834 343d bd51 d4bd f723 8abb
000002b0: eed8 0cbc 2ad8 dd3d fb87 82bc 6e07 ad3d
000002c0: c821 2e3c c399 a5bd e765 723d cf00 4f3d
000002d0: 6fa5 0dbd cfcf 6a3a c76b ebbd 2a28 52be
000002e0: ad6e cfbd 6320 83bd 13c5 393d eab4 0ebd
000002f0: 0318 dabd a290 003e 8a67 d7bc 55c9 4e3d
00000300: 166c 0e3c a252 523d 1a51 093d b62c 073d
00000310: 36c6 c4bd db0d b3bc b556 cbbd 6a5e e33d
00000320: bb2f 5bbd 8b64 9a3d 03a0 9bbc 3b25 7f3d
00000330: 9c24 083d 333b d8bd 9e3a bc3d 0dc4 2c3e
00000340: 14a1 053c 9ab8 54bc bf8d dfbd 93d0 e7bd
00000350: 7f59 153e 432e 7cbd 6d70 19bc 0888 9dbc
00000360: 43ee 63be d15c 85bc 4f38 13be 4a82 e73c
00000370: c59b 7e3e fc9b 5c3e 4b01 5bbd aff4 973d
00000380: 5351 46bd a5c5 dfbc 4de8 033e 98dd 5dbe
00000390: b9ee 523d 3032 b53c 267f bd3d 20cd 6abe
000003a0: 6513 b83d 7226 56bd 73d8 983d 5d44 443b
000003b0: a971 c4bd bb76 213e f117 1e3d 2981 7cbe
000003c0: 8cdd c7bd 79da 68bb 9e8b 1fbe 7319 093e
000003d0: c478 99bd 8ba5 7c3d 9fb1 c5bd 0653 1ebd
000003e0: ea22 b1bd 55db b63d 0c10 11bd db58 47bd
000003f0: cfbf 4d3d e2a5 af3c a9f7 533e 06c1 87bc
0.08805033 -0.05915146 -0.115632236 -0.05455301 0.085557334 -0.14981872 -0.20977703 -0.10999024
-0.07511457 0.090669736 -0.1405456 -0.054719713 -0.17860876 -0.1793862 -0.0015446016 -0.054380566
-0.028571336 0.051958967 0.112855546 -0.018939089 -0.05358267 0.020976225 0.04466764 -0.08051079
-0.07725373 -0.036024705 0.048947137 0.057820838 0.253996 -0.18850592 -0.20293827 0.056236096
-0.027099652 0.02860823 -0.046779 0.011787177 0.04521307 0.18706465 -0.19080038 0.061278593
-0.1641532 -0.043601573 -0.122886136 -0.028951881 0.01913966 -0.0103857545 -0.012408082 -0.010789751
0.00024829662 0.076419465 -0.08172323 -0.083805844 0.16158399 0.023707708 0.007895141 0.092761464
0.06115667 -0.13432944 -0.12940916 0.14479084 -0.057205465 0.02751346 -0.03159884 -0.11973222
-0.13239393 0.14569427 0.0029783237 -0.07926509 -0.007974421 0.06675511 -0.10342926 -0.004626264
-0.023683751 0.050351556 0.073039785 -0.09326514 0.07439739 -0.15408285 0.012248131 -0.06376753
-0.10866816 -0.13690072 0.05579347 -0.095818445 -0.032397084 -0.010020849 0.040027987 -0.120305575
-0.122676186 0.18389638 -0.20903046 -0.06056245 0.042360216 -0.0062230336 0.038405493 0.031181592
-0.01608671 -0.09737482 0.16257764 -0.10452654 0.12191125 -0.18110749 0.093718044 0.13095276
0.0609338 -0.034523346 0.032876555 0.14706008 -0.052140027 -0.005015677 -0.026742075 0.07190638
0.06607087 0.07811663 -0.031222785 0.099796936 -0.077816956 0.02843588 0.02075408 0.027562276
-0.05645292 0.02105279 -0.05118171 -0.018917948 0.12712727 0.085373506 0.08009094 0.03140491
-0.03412344 0.017748507 -0.1112441 0.06998818 0.15116516 -0.08366933 0.030355513 0.028796623
-0.1599121 -0.1454965 -0.062084027 0.038090087 -0.055766046 0.0020318294 0.0037696778 -0.20494656
-0.10245671 0.1506233 -0.027598534 0.13161808 0.04439479 -0.058331966 -0.019520449 -0.023220927
-0.013727133 0.03082194 -0.043444064 0.07159826 0.033815984 0.02659059 0.054779675 -0.17619841
0.21635795 0.17762372 0.0044012195 -0.031421345 0.037839316 -0.035837013 0.060935654 -0.29296795
0.13597207 0.043995768 -0.10367153 -0.004215713 -0.008596642 0.10832246 -0.015933981 0.08448683
0.010628171 -0.08085968 0.059179213 0.05053788 -0.034581598 0.00089573575 -0.11495166 -0.20523134
-0.101285316 -0.06402662 0.04535396 -0.0348405 -0.10649111 0.12555173 -0.026294488 0.050484974
0.008692762 0.051348336 0.03352461 0.033001624 -0.09608118 -0.021857193 -0.099286474 0.111019924
-0.053512316 0.07538708 -0.018997198 0.062291365 0.03323804 -0.10558166 0.09190868 0.16871662
0.00815608 -0.012983466 -0.10915708 -0.11319079 0.14584921 -0.061567556 -0.009365183 -0.019229904
-0.22258858 -0.01627961 -0.14376949 0.028260369 0.24864109 0.21543878 -0.05346803 0.074197166
-0.0484174 -0.027315924 0.12881584 -0.21666563 0.051497195 0.022118658 0.09252767 -0.22929811
0.08988074 -0.052282758 0.074631594 0.0029947974 -0.095919915 0.15767948 0.03859705 -0.24658646
-0.097590536 -0.003553061 -0.15580603 0.13388614 -0.07493737 0.06168131 -0.09653019 -0.038653396
-0.086492375 0.08928553 -0.035415694 -0.048668724 0.05023175 0.021441404 0.20699944 -0.016571533

model.2.bias f4 [200]
00000000: 0000 0000 051a 303c c401 b6bc 18ee 82bd
00000010: 3cdf 9d3d e85e 6fbc 0000 0000 0893 99bc
00000020: fad6 23bc a754 b6bb 4dab d8bc 30f3 ecb9
00000030: a33f c4bc 547a 8ebc 85d5 23bc 87de 85bc
00000040: 8e19 debc 90ac 9abc ac42 10bd 37c9 9fbc
00000050: 0000 0000 70c6 16bc 3c1b 8ebc 306c 3dbd
00000060: 9dc8 1c3e 7468 31bc 0296 11bd 5db1 bc3c
00000070: 0000 0000 8921 173d 7cbf 353d 7236 073e
00000080: a345 c3bc 0c77 cdbc 6ec4 20bb 4607 ec3b
00000090: bfbd 39bd 9e67 72bd dd40 64bc 16c3 a0bc
000000a0: 73b3 a3bb eb39 8a3b 1e2f b0bc 18d6 f1bc
000000b0: aebf a13a 6c5d 703c 0000 0000 d68e dbbd
000000c0: 4634 d8bb 0000 0000 4b49 28ba 75e9 7bbd
000000d0: 9dfc b9bc 2e26 34bb 4dbf d8bc 4f6e a6bc
000000e0: 7f01 8abc 783c 5fbc 7f9c eebc 92a9 3abc
000000f0: 9a76 35bd b390 cbbb 82b4 bcbb 99aa a3bb
00000100: 36c9 b5bc 7afe 46bd ba9e bebd 0000 0000
00000110: 7e7f c0bc 420a 3e3d 0000 0000 386d 2abc
00000120: 01ff 343d d5ad 6abb 91ea c3bd e0ff e0bb
00000130: daf4 b3bc ae15 6abd 420c b6bc 9415 a8bd
00000140: 07d7 23bc fb1e 8ebb 1d4d a0bb 4a9f f2bc
00000150: c721 aabc 63f0 023d bde9 b7bc f2d2 29bd
00000160: 43bf 383d 3e47 8abd 8fd5 b0bc 2d26 29bc
00000170: 803d 093d 0000 0000 01d7 23bc f5d6 23bc
00000180: c5d6 23bc 7646 8dbc a2f0 1bbd f86b 98bc
00000190: d2bd edbc e059 f0bc 7424 c9bc c844 3ebc
000001a0: e373 b2bd 672e 41bb a577 72bc 0000 0000
000001b0: e9b6 fabc 50fc e5bc b582 92bc 3656 27bc
000001c0: 8629 73bc 5312 67bc 9669 12bd 6dd6 23bc
000001d0: 35a5 92bc 8f38 13bd 016e ca3b 2467 ddbc
000001e0: 7cf3 acbc 2ef2 eebb c7ae bfbc 3bd5 c1bc
000001f0: dac7 14bd be4e 83bc 1024 75bc 4fe2 95bc
00000200: 946c 2abd 97e5 8bbd 5867 23bb b409 eabc
00000210: 0000 0000 fca3 2dbd d3ca 25bd 6cd6 23bc
00000220: e251 40bc 5af4 debb e2b1 eb3c a7c8 23bc
00000230: 0e01 27bc 19e8 063c 6ee6 f9bc 11ef babc
00000240: a336 c4bc a5ba 7ebc 7a82 c0bc 0000 0000
00000250: dc90 c1bc a4f5 01bd 28b4 43bd 3123 45bb
00000260: 8fe8 12bd 0000 0000 0468 213c b791 d4bc
00000270: 0ad0 993b 31f9 823c f295 98bd d34a 91bc
00000280: 53d1 23bc 27ee a43b 0000 0000 9427 183e
00000290: e883 cbbc f6d6 23bc 840a 1fbb 01d7 23bc
000002a0: d6a8 9cbc 3039 c7bb 6337 d6bc 3a58 96bc
000002b0: 3f4b fbbc 4127 94bc fc1c 61bd 16f7 abbd
000002c0: 88da fbbc a070 0bbd a0a1 09be b8e0 dabc
000002d0: 7ade adbd 6ac3 15bc 86f5 c6bc 04bc 45bc
000002e0: 1b6b 37bc 6bc0 f8bc d02e 8bbc 0000 0000
000002f0: ba5c 50bc 4392 b5bc cf27 d4bc 452f d7bc
00000300: bdbe a1bd b184 9abc 0805 28bc d16f 26bc
00000310: 2757 d2bc 4203 21bc caa6 9abc 168a c93c
0.0 0.010748391 -0.022217639 -0.06393069 0.07708594 -0.01461003 0.0 -0.018746868
-0.009999985 -0.0055642906 -0.02644887 -0.00045194617 -0.023956126 -0.017392315 -0.0099996375 -0.01634146
-0.027111795 -0.018881112 -0.035219833 -0.019505126 0.0 -0.009202585 -0.01734697 -0.046245754
0.15310903 -0.010828126 -0.03554345 0.023033792 0.0 0.036897216 0.044372067 0.13204363
-0.023836916 -0.02508118 -0.0024531144 0.0072030155 -0.04534697 -0.05918085 -0.01393148 -0.019624274
-0.0049957572 0.00421833 -0.021506842 -0.029521033 0.001234045 0.014670711 0.0 -0.10720603
-0.0065980284 0.0 -0.0006419613 -0.06150194 -0.022703463 -0.0027488577 -0.026458407 -0.020316271
-0.016846417 -0.013625257 -0.029127358 -0.011392968 -0.04430256 -0.006212318 -0.005758823 -0.004994702
-0.022190671 -0.04858253 -0.093076184 0.0 -0.023498293 0.0463965 0.0 -0.010402016
0.044188503 -0.0035809178 -0.09566224 -0.00686644 -0.02196734 -0.05714958 -0.022222642 -0.08207241
-0.009999997 -0.0043371893 -0.004892005 -0.02961697 -0.02076806 0.031967532 -0.022450322 -0.04146094
0.045104276 -0.067518696 -0.021586208 -0.010324043 0.033505917 0.0 -0.009999991 -0.00999998
-0.0099999355 -0.017245512 -0.038071282 -0.018606171 -0.029021177 -0.02933973 -0.024553515 -0.011613078
-0.0871351 -0.002947712 -0.014799033 0.0 -0.030604796 -0.028074414 -0.017884592 -0.010213425
-0.014841443 -0.01410349 -0.035745226 -0.009999854 -0.017901042 -0.03594261 0.0061776643 -0.02702672
-0.021112196 -0.0072920537 -0.02339877 -0.023661247 -0.036323406 -0.016028758 -0.014962211 -0.018296389
-0.041607454 -0.068309 -0.0024933424 -0.02856908 0.0 -0.042392716 -0.04047663 -0.009999853
-0.011738272 -0.0068040313 0.028771345 -0.00999657 -0.010193123 0.008234047 -0.030505385 -0.022819074
-0.023951834 -0.015547429 -0.023499716 0.0 -0.023628645 -0.0317284 -0.047779232 -0.003008079
-0.035866316 0.0 0.009851459 -0.025948389 0.0046939896 0.015987964 -0.07450475 -0.017735874
-0.009998637 0.005033273 0.0 0.14858848 -0.024843171 -0.009999981 -0.0024267742 -0.009999991
-0.019123476 -0.0060798153 -0.026149457 -0.018352617 -0.030675529 -0.018085124 -0.054959282 -0.08396737
-0.030743852 -0.034042954 -0.13440561 -0.026718482 -0.084897 -0.009140829 -0.024286997 -0.012068752
-0.0111949695 -0.03036519 -0.016990095 0.0 -0.01271742 -0.02216447 -0.025897888 -0.026267657
-0.078977086 -0.0188621 -0.010255106 -0.010158495 -0.025676323 -0.009827437 -0.01887836 0.024601977

model.5.weight f4 [200, 200]
00000000: af62 223d 6972 f2bd 617b f83d 540a 1f3e
00000010: c953 06bd fa5f 003e d623 cc3c ec05 e1bd
00000020: 52c8 053e bf64 f53d 649e 4bbe ceda dc3d
00000030: 4217 2cbe 4b17 23be 5954 6abd 3ace f6bc
00000040: 2a2a 2b3d 40d0 46bd e2ce f13c 6db2 953c
00000050: 12de fabd 6ed1 40bd b89a 11bd cc81 1a3d
00000060: 901b b7bd b319 06be c666 7cbd dc7d 6e3c
00000070: d4e7 a8bd 4166 68bd ecc1 90be d3b3 57be
00000080: 0abd 0abc f3e1 1dbe 12bd 703d 89cf 95bd
00000090: 53ee dc3d 352b d4bd 00b7 4bbd 414e 093e
000000a0: a08f 193d dd1b 483c 6e58 46bd 3bf0 88bc
000000b0: f9b8 d2bc 1bf1 593d 7826 39bd 9d74 aebd
000000c0: 0324 e7bd f89b e43c 83b0 a03d cc48 94bc
000000d0: 3084 d43d 06fd 6c3e 599c fcbc 506b 2bbd
000000e0: f34f 9dbd 4752 a83d 806a a7bd efa7 723c
000000f0: 1302 ee3c 77de b4bd edaf 8abd a579 05be
00000100: 2269 4b3d d883 0e3e 88e4 373d 2d67 8e3d
00000110: 00a4 aab7 fbfc 953d 43a5 a83c 4524 c53c
00000120: 0398 eb3c 0bf8 0bbd 3cde 813e adbc e9bc
00000130: 0353 af3d da77 44be 9586 07bd f6ee eabd
00000140: e38e c13d 3868 04be 2aa6 dfbd b465 4d3d
00000150: add6 153c 03d9 9dbd e9ff 92bd 2302 eb3d
00000160: 57ee 46be b8fd 10be 6fa6 2d3d 91c5 013d
00000170: 76a5 76bb 2f0d 46bd f202 71bd 5035 203e
00000180: 87ba b6bd 0fef 92bd 5cfc 07be cab7 323e
00000190: 83f0 0abe ab74 04be a3e6 fa3d 3431 4fbd
000001a0: 90fe 1cbd 52be 03be 07fe 023e 15f5 e6bc
000001b0: 1370 65be 0ab6 cc3c c283 e4bd 87e5 8c3d
000001c0: 7dbd 07be afa1 c8bb bb6f 2ebe b508 5bbd
000001d0: c019 50be fbbd 9cbd 7920 183e 2428 28bd
000001e0: 85c2 fb3d 0064 02be f7f8 8e3d 11c2 173d
000001f0: ae86 823e 3ba8 a7bd b1e4 cdbd 9f14 24be
00000200: 5a41 113e f229 f0bd 67e8 67bd 4ca7 a73d
00000210: 3148 c0bd ebe0 043e 3178 67bd f26a 00bd
00000220: bf5c b53d 6c08 e93d 8ac6 973d 6dd9 a4bd
00000230: ed78 6c3d 8d62 d9bd d6ba e13d 5bdf 2f3c
00000240: da1a c23d 61ff 683e 8dd9 4d3d 03fb 96bd
00000250: 1ec5 91bd f309 86bd ca13 07bd f70a f13d
00000260: 4cdd b3bd ad97 433d d5c9 15bd 9fb6 f4bd
00000270: cccf 943d 3179 173d 1e34 34bd 7e38 3d3d
00000280: 9d23 12be ae63 9ebd dc8b a03d 4caa 953d
00000290: 2fe0 11be 4a10 c43b 6669 1bbd b8ea 0b3d
000002a0: 051b 7e3d e00d d4bc 8998 60be 35e1 3fbe
000002b0: 332a 863b 22eb 803d cc82 4fbd 26c1 143d
000002c0: ab59 88bd 6af7 05be 6a4c a1bd 7eb3 81bb
000002d0: 5830 23bd 78ef b03d eb57 c23d bb6d 97bd
000002e0: 00d1 013e 7a21 0fbd f04d be3d 39c3 10be
000002f0: 670a 0bbd 890d 69bd 6c99 3f3d 8c2b 283d
00000300: 28a1 77be 63f4 84bd 51ee 933b 0853 9f3d
00000310: dd9a 14bd 877c 2d3e ba21 413d 6cde 09be
00000320: 8726 2e3d 44c3 eabd 3a85 53be b193 bd3b
00000330: 0a1d 6e3c 1c6d 103e 8367 03be f4dc 94bc
00000340: ee45 10bd 17a3 53bc f434 82bd e309 aa3d
00000350: 9732 4d3c 77d8 9cbd 7d51 0b3d 710f a2bd
00000360: e0be 9dbd ce79 fe3c f455 d1bb bf6d aa3c
00000370: a1a9 873d a647 b8bc def3 e23c c116 0dbc
00000380: 040e a0bd 97ba 01bd 7fe1 033e b002 933d
00000390: 19e4 803c 00be a3bd aeed 4abd 1b6b d9bd
000003a0: b72c 613d 8744 9a3d b710 343d e29c 443d
000003b0: 267d 5dbe c8e2 55bd d820 cc3d c89d 333c
000003c0: 0da6 a2bb 8a92 313c a8fc 59bc 6b98 9a39
000003d0: a274 7a3d a9d5 053e fa7a 043e 3032 8f3c
000003e0: 1d78 3ebc 49ff ba3d f361 1c3d 4271 eabb
000003f0: e395 10be 6f09 e1bd 19c3 333d 6085 19be
0.039644893 -0.11838228 0.12132908 0.15531284 -0.032794748 0.12536612 0.024919432 -0.10987458
0.13064697 0.119821064 -0.1988464 0.10783921 -0.16805747 -0.15926854 -0.057209346 -0.030127633
0.041788258 -0.048538446 0.029517595 0.018273557 -0.12249388 -0.047074728 -0.035547942 0.03772144
-0.08940804 -0.13095741 -0.06162145 0.014556374 -0.08247343 -0.056738142 -0.2827295 -0.21064691
-0.008467922 -0.15418224 0.05877406 -0.07314975 0.10787644 -0.103598036 -0.04973507 0.13408758
0.037490487 0.012213674 -0.048424177 -0.016716113 -0.025722967 0.05320845 -0.045202702 -0.08518336
-0.112861656 0.027906403 0.07846167 -0.018101119 0.10376775 0.23143396 -0.030836271 -0.041850388
-0.07681265 0.08218818 -0.0817461 0.014810546 0.029053723 -0.08831494 -0.067718364 -0.13034685
0.04966081 0.13917482 0.04489568 0.06953273 -2.0341948e-05 0.07323643 0.020586615 0.024065146
0.028759008 -0.0341721 0.25364864 -0.02853235 0.08560755 -0.19186345 -0.03308733 -0.114713594
0.094510816 -0.12930381 -0.10920365 0.05014582 0.009145421 -0.07707407 -0.07177717 0.11475017
-0.19426857 -0.14159286 0.04239505 0.031682555 -0.0037635243 -0.048352417 -0.0588407 0.15645337
-0.08922296 -0.07174503 -0.13279861 0.17452922 -0.1356831 -0.1293513 0.12251022 -0.050584033
-0.038328707 -0.1286557 0.12792216 -0.028193036 -0.22406034 0.024989147 -0.11157943 0.06879716
-0.13255878 -0.00612279 -0.1703481 -0.0534751 -0.20322323 -0.076534234 0.14856137 -0.041053906
0.12292961 -0.1273346 0.0698108 0.03705031 0.25493377 -0.08186384 -0.10053385 -0.16023491
0.14185086 -0.117267504 -0.05661812 0.08186206 -0.093887694 0.12976424 -0.056511108 -0.03135199
0.088555805 0.113785595 0.07410915 -0.08049283 0.05773251 -0.106145 0.11021964 0.010734404
0.09477778 0.2275367 0.0502563 -0.073720954 -0.07117675 -0.065448664 -0.032977857 0.117696695
-0.087824434 0.04775207 -0.036569435 -0.11948895 0.072661966 0.03698081 -0.043995015 0.046196453
-0.14271398 -0.07733856 0.07839176 0.07307872 -0.14245676 0.005983387 -0.037942313 0.034159392
0.062037487 -0.025885522 -0.21933188 -0.18738253 0.004094386 0.06294848 -0.050661847 0.036317013
-0.06657728 -0.13082662 -0.07875903 -0.0039581647 -0.039841026 0.08639425 0.09489425 -0.07393976
0.12677383 -0.034944035 0.09292209 -0.14136972 -0.033945467 -0.056897674 0.046777174 0.041057155
-0.2418257 -0.064919256 0.0045144935 0.07779509 -0.0362805 0.16942035 0.047151305 -0.13463753
0.04251721 -0.11463025 -0.2065629 0.0057854285 0.014533291 0.14104122 -0.12832455 -0.018171765
-0.03522294 -0.012917302 -0.06357756 0.08302667 0.012524269 -0.07658475 0.03401326 -0.079131015
-0.07702422 0.03106394 -0.0063884202 0.020804284 0.06624151 -0.022495102 0.027704176 -0.008611382
-0.07815173 -0.031672087 0.12878989 0.07178247 0.015733765 -0.07995224 -0.049543075 -0.10616132
0.054974284 0.07532602 0.043961253 0.048001178 -0.21629772 -0.05221823 0.09967202 0.010962911
-0.0049636425 0.01083816 -0.013304867 0.0002948673 0.061146386 0.13069786 0.12937537 0.017479986
-0.011625317 0.09130723 0.03817935 -0.0071546147 -0.14119677 -0.109881274 0.04388723 -0.14992285

model.5.bias f4 [200]
00000000: ba7e 34bd 8cad c6bc 6523 85bd b3e4 31bd
00000010: 244c 16bd 636c ad3c 6969 073b 230a 8fbc
00000020: c847 3a3d 0f91 2bbd 66f3 83bc 1c54 c3bc
00000030: de4a e3bc 7c7f 94bc dc04 f93b ac9a adbd
00000040: b8a0 ddbc ba3a 93bd 2ad2 da3d 0e41 2ebc
00000050: d4f3 bfbd d46f c3bc 30fa a2bc 4074 09bd
00000060: b704 1fbd 300e 02bd e331 cfbd 14ef 6ebb
00000070: 3754 5ebd 2ecb 24bd 64f1 46be 6942 2fbd
00000080: 98d9 74bd 1110 3fbd 6afc 77bd bfa5 8dbd
00000090: 6692 38bd 8d1d 49bd df1a 00bd 4291 49bd
000000a0: be1d 4cbd df5d b4bc caa6 5fbd a6f0 693d
000000b0: d73e 66bd 0312 57bd 1f44 08bd 1532 7ebd
000000c0: 07da 44bd b5c5 11bd 5bc4 3fbd 22c1 cebc
000000d0: ce09 d9bd 6761 06bd 5148 88bd a1ed 29bd
000000e0: 5aad 89bc 6eb2 bbbc a2d2 49bd 8004 d2bd
000000f0: 65f2 54bd 52fd ea3d a6cf 88bd 07d6 56bd
00000100: 7274 85bd 98d4 71bd 9b60 9fbd 8609 2cbd
00000110: 1e11 1bbd f270 f4bc 7410 2b3c 734b c53d
00000120: 255a 6abd 93eb dcbc 2749 c33d 293f 6ebd
00000130: 2d8a 6a3c 8c27 ae3d e444 bcbc 2499 54bd
00000140: 9bad ffbc e025 2cbc 753e bebd c040 6fbd
00000150: b104 b9bd 9029 3bbc d16e 80bd 89e6 e43c
00000160: afce 083b 53c6 2fbd 13ac aabb 53df e5bc
00000170: 9b89 e1bc 2080 c0bd d7f7 d2bc 19e7 1ebd
00000180: 2beb aabd 98a9 f3bc 800c bebd e886 a0bc
00000190: 1452 90bc 7c34 debc 6a6a 6f3b 46eb 64bd
000001a0: bebe 9cbc 919d 0ebd 9dd7 3fbd d3fc 0c3e
000001b0: 18fc 59bd 85d2 b8bc cc5a c0bd 1b5d 68bd
000001c0: 064b 2cbd 2e20 94bd 3e52 60bd d946 04bd
000001d0: 86b4 483d fad3 00bd 623f 21bd 7a3c 1ebd
000001e0: 4f67 6dbd 5ffe e3bc f4f6 a4bc 87c2 55bd
000001f0: 43e1 51bd 851e 47bc 572e 1abd a6e5 d23b
00000200: 9b21 9cbd bca5 84bd bb4d 013b 5ccf 67bd
00000210: 4880 26bd 5b1a 80bd 0a0d 30bc d44b 43bd
00000220: 509a 6a3c b976 51bd 6234 38bd 52bd 73bd
00000230: fb94 fabd 1d79 47bd b45c 063d 1c02 2bbd
00000240: 0959 e7bc 205c 8bbd b678 74bd 9591 62bd
00000250: 9347 aebc 4a11 e3bc a85b 34bd 42dc b1bc
00000260: 49b6 40bd 48a9 27bd 92ba 37bd 0ee9 e5bc
00000270: 43e2 59bd d552 abbd 7806 8dbd 5563 f73a
00000280: eab7 70bc 007f 2abd ba53 acbd 9852 0d3d
00000290: 8317 c4bd d853 5cb8 2ae5 c8bd e59d 023d
000002a0: 7ebf 4cbd 5736 18bd c63c 53bd d496 41bd
000002b0: 1236 95bb 75b2 87bd 4a1c abbc aa7f bd3d
000002c0: 73d3 8abd 52ed 28bd 04f3 9cbc 74da e6bb
000002d0: 9e4a 7cbd ccc0 a0bc bc7f 3bbd 5902 b0bd
000002e0: a03e 82bd ade3 9ebd 44f7 a83d dede 7fbc
000002f0: ab7f 00bc 3317 44bd 073d dbbc 132a 0dbe
00000300: 8a54 4cbd 7a4d c9bb ecc0 bbbc e16a 9cbd
00000310: cb47 1ebd fa78 1abd ab8c ebbc ad8c 80bd
-0.04406617 -0.024252675 -0.065008916 -0.043430995 -0.036693707 0.021169847 0.0020662195 -0.017460888
0.045478612 -0.041886386 -0.016107272 -0.023843817 -0.02774566 -0.018127196 0.0075994562 -0.08476767
-0.027054176 -0.071889356 0.10684617 -0.010635627 -0.093726784 -0.023857035 -0.01989469 -0.03355813
-0.038822856 -0.03175181 -0.10116937 -0.003645842 -0.054279532 -0.04023283 -0.1942802 -0.042787943
-0.059777826 -0.04664618 -0.060543455 -0.06916379 -0.04506149 -0.049100447 -0.031275626 -0.049210794
-0.04983305 -0.022017417 -0.05460242 0.057114266 -0.056212272 -0.05250741 -0.03326809 -0.06205948
-0.04805949 -0.03558894 -0.04681812 -0.025238577 -0.10597573 -0.032807734 -0.06654418 -0.041486386
-0.016806293 -0.02291223 -0.04927314 -0.102547646 -0.051988978 0.11474098 -0.06680231 -0.052450206
-0.06516351 -0.059040636 -0.07782098 -0.04200127 -0.03785812 -0.029839013 0.010440934 0.096335314
-0.057214875 -0.0269678 0.09535437 -0.058165703 0.01431517 0.08503637 -0.022982068 -0.05190386
-0.031210711 -0.010507077 -0.092892565 -0.05841136 -0.09034098 -0.0114234835 -0.062711366 0.027941959
0.0020875146 -0.042913746 -0.005208501 -0.02806059 -0.027531436 -0.09399438 -0.025752945 -0.03879461
-0.08345636 -0.029743955 -0.09279728 -0.019595578 -0.017617263 -0.027124636 0.0036531934 -0.055888437
-0.019133922 -0.034818236 -0.046836484 0.1376832 -0.05321893 -0.022561321 -0.09392318 -0.056729417
-0.042063735 -0.072327 -0.054765932 -0.032294128 0.049000286 -0.031452157 -0.039367087 -0.038631894
-0.05795985 -0.027831255 -0.020137288 -0.05218747 -0.051240217 -0.0121532725 -0.03764185 0.0064360676
-0.07623597 -0.06476924 0.001973017 -0.056594238 -0.040649682 -0.06255027 -0.010745296 -0.047679737
0.0143190175 -0.051138613 -0.04497183 -0.05950672 -0.12235447 -0.048699487 0.032803252 -0.04175006
-0.028240697 -0.06804681 -0.05968543 -0.05531462 -0.021274364 -0.027718205 -0.044032723 -0.021711472
-0.04704884 -0.040932924 -0.04485566 -0.02806523 -0.053194296 -0.08365408 -0.068859994 0.0018874208
-0.014692286 -0.041625023 -0.08414407 0.034502596 -0.09574797 -5.2530173e-05 -0.098093346 0.03188886
-0.04998731 -0.037161198 -0.05157163 -0.04726298 -0.004553565 -0.06625835 -0.020887513 0.092528656
-0.06778612 -0.04124195 -0.019158848 -0.0070450846 -0.061594598 -0.019623183 -0.045776114 -0.08594198
-0.06359601 -0.077582695 0.08250287 -0.0156171005 -0.007842938 -0.047873687 -0.026762499 -0.13785581
-0.04988531 -0.006143269 -0.02291914 -0.07637573 -0.038642686 -0.03771303 -0.0287536 -0.06276832

model.8.weight f4 [3, 200]
00000000: 9f67 84bd 2ce6 ba3d eb90 523d 1558 6bbd
00000010: a54d 293d 16e7 52be 07b8 0ebd 7aab d5bd
00000020: 6274 3a3e 8ea6 a1bd 4703 8d3d 237c ebbc
00000030: 0f47 b53d e17a 0c3d 2646 de3d f86b 49bd
00000040: 8146 0ebe adc1 63be d750 0abe 5fde c6bd
00000050: 956b 7bbc 56d8 dbbd 2f96 43bd 2c19 5c3d
00000060: 6e7d 7eba 0b89 ed3c 3d13 8a3e b313 01bc
00000070: 09d7 d03d 85b1 183d 591e 4e3e 9fb1 0ebe
00000080: 71b7 ddbc e6db edbd 2bc0 babc 6400 ed3c
00000090: 67a0 0f3e bdec 9f3b e5ab b4bb 927d 383e
000000a0: 4ca8 4b3a 2563 1fbe fccf 0d3e 90e2 46bc
000000b0: e0b6 0640 defb 473e 9d8c 123e b78c 48bd
000000c0: 8fd3 0ebe 0139 2d3d 3d85 0d3d 602b c13d
000000d0: 713e d1bd 75bd f9bd 26e9 00be 7b3a 843b
000000e0: 6861 113e b978 94bd 2b4a 843d 1c82 0b3e
000000f0: f0c4 67bd 63c5 313e 0155 3c3d 74a0 79bd
00000100: f7e1 9abc 0e79 533e 352b bf3e b7b8 85bc
00000110: dd9f d23d 8811 ff3d 5a3d 073f 07e8 6a3e
00000120: f4bb cbbd 1c10 723d 0d0e 123e cf7c 2c3e
00000130: 8dfc a63e e93d 2f3e d422 cd3e cc54 07be
00000140: 81b3 683f 6cd5 95be d1dd abbd 14fe 17bd
00000150: f2cc d5bb 1f61 a1bd decb de3c e228 06be
00000160: 6345 b93e 36d6 88bd 551c 813d 6151 d73c
00000170: f5b3 563d 9ef7 773d 2d55 e5bd 9342 a43d
00000180: ef15 193e 2c6b febc 56f3 193e 53ae a3bd
00000190: 6009 083d b863 37bd 1340 8d3b fae9 27be
000001a0: 42a0 b1bd bab2 8b3d 74e7 0cbe b15e 84bc
000001b0: 2534 6c3d db18 63bc 6cdd 6d3d fa02 acbd
000001c0: 02c4 693d 1f88 07bd b4fe 673d 93e5 43bc
000001d0: 00b4 6f3e 8bb9 573c 6bb7 683c 511e 003c
000001e0: ed12 ce3d 6500 763b e863 f63d f900 063e
000001f0: 2e68 6cbd 732f 903e 80a2 c0bd 173d 083e
00000200: cda6 cb3d 8530 673d 8bb9 023e f486 81bc
00000210: a941 4bbd 6c54 133c 76da 843f 234f e83d
00000220: e833 753d 462d 8dbd 92d9 bc3d 21d5 9c3d
00000230: 6339 f3bd 704d 223e cc69 803e c5c1 b2bd
00000240: da60 0dbe 692a 4dbd 8b98 063e f6a9 7d3b
00000250: f600 e63e fccd 6fbd e7e3 81bd b413 303d
00000260: acc1 d4bd 8cb3 eebd 8490 e1bd c6e6 c33d
00000270: ed45 493d abb8 c13c 25d9 803d 5464 eb3d
00000280: 5d99 24be 7d5f 943e 3cb5 1fbd d695 583e
00000290: 1c2d c53c 9c09 2e3e 2ebd 95bd f26e a8be
000002a0: e8b1 73bd f449 57bd 26ae 753b 25d3 3cbd
000002b0: 5e75 9cbd f1a8 4a3e fc65 b93d 8dcd 82bd
000002c0: d9e2 fb3d 1c82 fcbc 5a7f 2d3d 36ff b3bd
000002d0: 77a3 943c a54a b7bd 39c2 c0bc cd9c e13c
000002e0: 7d70 e3bd 79d1 4a3b a91b 453f 4273 5c3c
000002f0: 7484 023e d50c 3f3e 1424 12be b0cc 4c3e
00000300: 983d fd3d aa83 fdbd d1e1 e6bc 7671 05be
00000310: 06ae 74be c0ba c53d 83d5 97bd b705 513d
00000320: d1c4 e8bc 0d6b b43d 3222 283e f002 773c
00000330: bdd3 e13c e2b7 1bba 7ef0 4cbc e244 6d3b
00000340: 5c3a ea3b 209a 2dbd 54f4 9abb f9eb 6abd
00000350: 900d 2c3e da5d ad3d c19f c4ba c57a f33b
00000360: f80e da3c bd14 a93c 41c7 f9bb ce89 a33b
00000370: 47d7 8dbb 5564 0f3e e3ac f33c 7c86 2dbb
00000380: 38fa 1fbd 8696 533c 44c8 a6bc ad99 293d
00000390: b23b ac3d f733 f7ba 74be 613c 0361 823d
000003a0: 4898 e1bb a84a 33bc 53e8 dfbd bacf 45be
000003b0: 6a57 01bd 9c52 053a 6070 c8bd 7a06 45bd
000003c0: 5a95 53bd 135f e23b 8307 35bd b72a 90bc
000003d0: 11c8 b2ba 893d cf3b b069 813d dc22 963d
000003e0: be49 5dbc 474c 783c 2e14 f73b ba22 74bd
000003f0: e2a6 a1b9 ded7 733c 7bbb 153c 2d15 8fbd
-0.06465077 0.09125933 0.051407736 -0.05745705 0.041333813 -0.20595965 -0.03484347 -0.10433097
0.18208459 -0.07893096 0.06885391 -0.028745716 0.08851444 0.034296874 0.108532235 -0.049175233
-0.13894083 -0.2224185 -0.135074 -0.09710383 -0.015345474 -0.10734622 -0.047750648 0.053734943
-0.00097080215 0.028996011 0.26967803 -0.007878232 0.10197265 0.03727867 0.20128764 -0.13934945
-0.02706501 -0.11614208 -0.022796711 0.02893085 0.14026032 0.0048805163 -0.0055136555 0.18016651
0.00077689136 -0.15565164 0.13848871 -0.012138978 2.1049118 0.19529673 0.14311452 -0.04896232
-0.1394789 0.04229069 0.034550894 0.09432101 -0.10216988 -0.12194339 -0.12588939 0.0040352917
0.14197314 -0.072495885 0.06459459 0.13623852 -0.0565843 0.17360453 0.045979504 -0.060944036
-0.018906577 0.20651647 0.37337652 -0.01632343 0.10284398 0.12454516 0.5282799 0.22940074
-0.099479586 0.059097394 0.14263172 0.16844486 0.32614556 0.1711346 0.40065634 -0.13215941
0.908989 -0.2926439 -0.083919175 -0.037107542 -0.0065246755 -0.078798525 0.02719682 -0.13101533
0.3618575 -0.066814825 0.06304232 0.026283922 0.052417714 0.06053888 -0.111978866 0.080205105
0.14949773 -0.031056963 0.15034232 -0.07992234 0.033212066 -0.044772834 0.0043106168 -0.16397849
-0.08673145 0.06821199 -0.13760167 -0.016158434 0.057666916 -0.0138609065 0.058072492 -0.08399005
0.057071693 -0.0330888 0.05663939 -0.01195659 0.23408508 0.0131667955 0.0142038865 0.007819728
0.100622036 0.0037536856 0.12030774 0.13086309 -0.05771654 0.281612 -0.094059944 0.13304554
0.09943924 0.056442756 0.12766092 -0.015811421 -0.049623165 0.008992296 1.0379169 0.11343219
0.059863955 -0.06893401 0.09221186 0.076578386 -0.1187618 0.15849853 0.25080717 -0.08728365
-0.13806477 -0.050089274 0.13144128 0.003870604 0.44922608 -0.05854605 -0.06342297 0.04298754
-0.103885025 -0.116553396 -0.11013892 0.09565501 0.049138952 0.023647627 0.06291417 0.114937454
-0.16074128 0.28979102 -0.038991198 0.21150908 0.024069361 0.16995853 -0.07311474 -0.32897145
-0.059495836 -0.05256076 0.0037487834 -0.0460998 -0.076395735 0.19791009 0.09052655 -0.06386862
0.12299127 -0.03082376 0.04235778 -0.08788912 0.018144352 -0.08949784 -0.023530113 0.027540589
-0.1110544 0.003094761 0.7699533 0.013455214 0.1274584 0.18657239 -0.14271575 0.19999957
0.12365264 -0.123786286 -0.02818385 -0.13031563 -0.2389451 0.0965476 -0.07413771 0.05103084
-0.028414162 0.08809481 0.16419294 0.015076384 0.027566785 -0.00059401814 -0.01250851 0.0036204387
0.0071480703 -0.042383313 -0.004728833 -0.057353947 0.16802049 0.084651664 -0.0015001224 0.0074304068
0.026618466 0.020639772 -0.00762263 0.004990793 -0.0043286416 0.14003117 0.029745525 -0.0026477864
-0.039056987 0.012914306 -0.020359166 0.041406322 0.084098235 -0.0018860091 0.013778318 0.0636616
-0.0068846084 -0.010943092 -0.10932984 -0.19317523 -0.031577505 0.0005085857 -0.09787059 -0.04810188
-0.051656105 0.0069083064 -0.044196617 -0.017598493 -0.0013639947 0.0063244742 0.063189864 0.07330868
-0.013506351 0.015154905 0.0075402474 -0.05960343 -0.0003083265 0.01488301 0.009138937 -0.06986461

model.8.bias f4 [3]
00000000: 7b92 c13d 60c1 c63c ef34 7a3d
0.09451767 0.02426213 0.061085638
