Challenge_1/Weights/model_reward_Pendulum-v0_mse_0.00247446.params (torch_old, 327807 bytes, 7 tensors)

model.0.weight f4 [200, 4]
0	0xbe4c2c1e	-0.19938704
1	0x3e5b89ec	0.21439332
2	0x3da1fbb2	0.07909335
3	0x3f5576b0	0.8338423
4	0xbf30d75a	-0.690786
5	0x3e891181	0.26771167
6	0x3efa278c	0.48858297
7	0x3eded63e	0.4352283
8	0xbe46712d	-0.1937911
9	0xbe914ab3	-0.28377303
10	0xbe7a4100	-0.24438858
11	0x3f647fd6	0.8925756
12	0xbefd4dd7	-0.4947345
13	0x3f1824d5	0.594312
14	0x4009efc1	2.1552584
15	0xbf4e84a3	-0.8067114
16	0xbe2c7c8e	-0.16844389
17	0xbbf925f7	-0.0076034027
18	0x3e2e2960	0.17007971
19	0x3f80349d	1.0016056
20	0xbe8d91c4	-0.27650273
21	0x3dbbf0fe	0.09176825
22	0x3e9b041c	0.30276573
23	0xbe82ba74	-0.25532877
24	0x3f00ca73	0.50308913
25	0xbf3f7fab	-0.7480418
26	0xbf042cf4	-0.51631093
27	0xbce0bef0	-0.027434796
28	0xbf2062c9	-0.62650734
29	0xbf02fbb1	-0.511653
30	0x3e8e90a7	0.27844736
31	0x3fdc5799	1.7214233
32	0xbdd388e4	-0.10328844
33	0x3e664275	0.22486289
34	0xbf0f30e6	-0.5593399
35	0xbdc45def	-0.09588229
36	0x3f693789	0.91100365
37	0xbef2ca35	-0.47419897
38	0x3ecda4c1	0.4016476
39	0xbdbc9cfc	-0.0920963
40	0xbf185204	-0.59500146
41	0xbf3257b7	-0.6966509
42	0xbde38d20	-0.11110902
43	0xbf5fde9e	-0.8744906
44	0xbe5a1576	-0.21297249
45	0x3f653c5b	0.8954522
46	0x3e8e8200	0.27833557
47	0x3edc6d71	0.43052247
48	0x3f3fafb0	0.7487745
49	0xbea7f004	-0.32800305
50	0xbdc1f766	-0.09471016
51	0x3eb5832f	0.35451648
52	0xbec9fae5	-0.3944923
53	0xc023ad67	-2.5574586
54	0xbf93aff8	-1.1538076
55	0x3f504f8a	0.81371367
56	0xbf287265	-0.6579955
57	0x3dbce31e	0.09223007
58	0x3ed42b63	0.4143935
59	0x3e98f104	0.2987138
60	0xbea1f833	-0.31634673
61	0x3e497e5d	0.1967711
62	0xbf66583a	-0.89978373
63	0x40045c11	2.0681193
64	0x3f13fda5	0.57808906
65	0xbe8403fc	-0.2578429
66	0xbddf876c	-0.109145015
67	0xbef33569	-0.47501686
68	0x3f2e8838	0.68176603
69	0xbbd81f7d	-0.0065955506
70	0xbeb3211d	-0.349862
71	0x3f9989e4	1.1995206
72	0xbe9e5332	-0.30922848
73	0xbe897208	-0.2684481
74	0xbe8336ff	-0.25627896
75	0xbf91aed6	-1.1381481
76	0xbe87f0a1	-0.26550773
77	0x3f08d413	0.534486
78	0x3f827223	1.0191082
79	0x3f8a52e4	1.0806546
80	0x3f26b702	0.65123
81	0x3ebfd277	0.3746526
82	0xbf0ae0a8	-0.5424905
83	0x3ef8acd8	0.4856937
84	0x3e943eb1	0.2895408
85	0x3ec53908	0.38520074
86	0x3f044d72	0.5168067
87	0xbf32f2fa	-0.69902
88	0x3ee46964	0.44611657
89	0x3dc1ee9e	0.09469341
90	0xbf011d58	-0.504354
91	0x3f0a5dbd	0.54049283
92	0xbed58ca5	-0.41708866
93	0xbf943cea	-1.158109
94	0xbe8ee797	-0.27911064
95	0x3d9f4399	0.07776565
96	0x3ef6a240	0.48170662
97	0xbe89be1c	-0.26902854
98	0xbf1762e6	-0.5913528
99	0xbda5d9d6	-0.080981895
100	0xbf0295a8	-0.5100961
101	0x3e9b4d7e	0.3033256
102	0xbe66f73f	-0.22555254
103	0x3e8c6c6b	0.27426466
104	0x3ed0139d	0.40639964
105	0xbf12dff0	-0.5737295
106	0x3e709aba	0.23496523
107	0x3ba02611	0.0048873504
108	0xbf01a60c	-0.5064399
109	0xbf94566e	-1.1588876
110	0xbeb8b386	-0.36074466
111	0x3dae87b2	0.085219756
112	0x3ebf03e4	0.37307656
113	0xbe8c04a9	-0.27347305
114	0x3f297aab	0.662028
115	0xbe1f0bfc	-0.15531915
116	0x3f2d325e	0.6765498
117	0xbf902d9d	-1.126392
118	0x3d10fb2c	0.035395786
119	0x3f925346	1.1431663
120	0x3f0daf94	0.55346036
121	0x3e4c5219	0.19953193
122	0x3aed26d4	0.0018093237
123	0xbcdee5d6	-0.027209204
124	0x3d819e33	0.06329002
125	0x3f375cdb	0.7162606
126	0xbee85eba	-0.4538477
127	0xbf1d7bef	-0.6151723
128	0x3f9fafb9	1.2475501
129	0xbeb5e167	-0.3552353
130	0xbfc6cafa	-1.5530694
131	0x3f7f76a9	0.99790436
132	0x3f8a9662	1.0827143
133	0xbf114187	-0.5674061
134	0x3f8d1674	1.1022477
135	0xbf52777f	-0.82213587
136	0x3ce6ba83	0.028165108
137	0x3f59d427	0.85089344
138	0x3f0a2805	0.53967315
139	0xbed9e5e0	-0.42558193
140	0x3f72d81f	0.94861025
141	0x3d4a3639	0.049368117
142	0xbc5e2587	-0.013558752
143	0xbeea8689	-0.45805767
144	0x3d8e69eb	0.06953796
145	0x3d91fdc3	0.07128479
146	0xbf512d0d	-0.8170937
147	0xbd599064	-0.053116217
148	0xbeaaa730	-0.3333068
149	0xbeaf8645	-0.34282127
150	0xbefd4665	-0.4946777
151	0x3f0313ad	0.512019
152	0xbe32bab2	-0.17454031
153	0x3e8ff1cf	0.28114173
154	0x3f0e5a5f	0.55606645
155	0x3ef9058a	0.48637038
156	0x3ec45880	0.3834877
157	0xbf99022f	-1.1953791
158	0xbec73d1a	-0.38913804
159	0xbf1d31c3	-0.61404055
160	0xbf9a4474	-1.205214
161	0xbfa46e09	-1.284608
162	0xbda4f3f3	-0.08054342
163	0xbfbaa352	-1.4581091
164	0xbf681c8f	-0.90668577
165	0xbefc063b	-0.49223503
166	0x3e621676	0.2207888
167	0xbf0e4d26	-0.5558647
168	0xbeb2b311	-0.34902242
169	0xbda329d9	-0.07966966
170	0xbf103a01	-0.56338507
171	0xbded3b76	-0.11583607
172	0xbf11993e	-0.56874454
173	0xbf63a8d5	-0.8892949
174	0x3ef0d50e	0.47037548
175	0x3f344516	0.70417917
176	0x3f8cc069	1.0996219
177	0xbf475485	-0.7786334
178	0x3ed124f5	0.40848508
179	0xbd135b05	-0.035975475
180	0x3e8dec65	0.27719417
181	0xbd914977	-0.070940904
182	0xbf7d8480	-0.99030304
183	0x3f6383c3	0.8887293
184	0x3f19644c	0.59918666
185	0x3fa1107d	1.2583157
186	0xbf976991	-1.1829091
187	0x3f813781	1.0095063
188	0x3ea561b3	0.323011
189	0x3ecc9fb4	0.39965594
190	0x3de47f86	0.11157136
191	0xbe784aa4	-0.24247223
192	0xbf067523	-0.52522486
193	0x3e396339	0.18104257
194	0xbe369193	-0.1782897
195	0xbd94e57d	-0.07270334
196	0x3e6903e1	0.22755386
197	0xbf3ccc87	-0.73749584
198	0xbe1c5534	-0.15266877
199	0xbf71eebe	-0.94504917
200	0x3f032120	0.5122242
201	0x3ee8c36d	0.45461598
202	0x3d953c3f	0.07286882
203	0x3f139be4	0.57659745
204	0x3a7f1c6a	0.0009731712
205	0x3ed68dc0	0.41905022
206	0xbe512bf8	-0.20426929
207	0xbe8b3304	-0.2718736
208	0xbd1d47cc	-0.03839855
209	0xbf13ffcf	-0.5781221
210	0x3eaa2935	0.33234563
211	0xbe1c14eb	-0.15242355
212	0xbfc21b13	-1.5164512
213	0xbebfb0ee	-0.37439674
214	0x3f268a42	0.65054715
215	0x3f4af54e	0.79280555
216	0xbe9a3503	-0.3011857
217	0xbed1652e	-0.40897506
218	0x3dff3722	0.124616876
219	0x3e77f4bd	0.24214454
220	0xbfb743ab	-1.4317526
221	0xbf57fa5d	-0.843664
222	0xbefa84bd	-0.48929396
223	0x3f68ef14	0.90989804
224	0xbeb6ab02	-0.35677344
225	0x3f902d12	1.1263754
226	0xbf02e24a	-0.5112654
227	0x3eeecc5b	0.46640286
228	0x3e5d430c	0.21607608
229	0xbfa53204	-1.2905889
230	0xbf38407e	-0.7197341
231	0x3e97e042	0.29663283
232	0xbf037812	-0.5135509
233	0x3e706cdb	0.23479025
234	0x3eb22162	0.34791094
235	0xbe96cd61	-0.29453567
236	0x3f36fa41	0.7147561
237	0xbe8ea631	-0.2786117
238	0x3ea00575	0.31254163
239	0x3f800a32	1.0003111
240	0xbd5410f8	-0.051773995
241	0xbea95b92	-0.33077675
242	0xbfa5ba86	-1.2947547
243	0xbdea7b5c	-0.1144931
244	0x3db88064	0.090088636
245	0xbde4d5a1	-0.11173559
246	0xbe2d1675	-0.16903098
247	0x3f854eae	1.0414636
248	0xbefdf97f	-0.49604413
249	0xbf4af854	-0.7928517
250	0x3f88077b	1.0627283
251	0xbf043745	-0.51646835
252	0xbecb4a70	-0.3970523
253	0xbf465736	-0.77476823
254	0xbede07d1	-0.43365338
255	0x3ef73672	0.48283726

model.0.bias f4 [200]
0	0xbebc03b7	-0.36721584
1	0xbe776914	-0.24161178
2	0xbde283ec	-0.11060318
3	0xbe33ddd3	-0.17565088
4	0xbe6a8880	-0.22903633
5	0x3e399ab1	0.18125416
6	0x3ea711b9	0.3263071
7	0xbe80330f	-0.25038955
8	0x3e969e92	0.29417855
9	0xbd0c408b	-0.03424124
10	0x00000000	0.0
11	0xbea4755d	-0.3212079
12	0xbdd7eacf	-0.10542833
13	0xbcaba7fb	-0.020954123
14	0xbd8bed26	-0.06832342
15	0xbe120252	-0.14258698
16	0x3ee01a36	0.43769997
17	0xbd4b0edb	-0.049574714
18	0x00000000	0.0
19	0xbe493751	-0.19650008
20	0xbdfde88a	-0.12397869
21	0xbe61520a	-0.22003952
22	0xbd1d9813	-0.038475107
23	0x00000000	0.0
24	0x3eaa48a7	0.33258554
25	0x3d233665	0.039846797
26	0x3d5cc21c	0.053896055
27	0x00000000	0.0
28	0xbdff2f1a	-0.12460156
29	0xbdc78f8e	-0.09744178
30	0xbdb6ac31	-0.08919562
31	0x3df7bccc	0.12096557
32	0xbdb3b467	-0.087746434
33	0xbda0e26f	-0.07855689
34	0xbe97e0ae	-0.29663604
35	0x3c8f2429	0.017473297
36	0x3d8b462b	0.06800493
37	0x3ea552a7	0.3228962
38	0x3d3bd5b1	0.04585809
39	0x3dab4a36	0.08363764
40	0x00000000	0.0
41	0xbce0edc6	-0.02745713
42	0x00000000	0.0
43	0x3d70f3b4	0.058826163
44	0x3d11e918	0.035622686
45	0xbda5bb4d	-0.080923654
46	0xbddfd811	-0.10929883
47	0xbde2e26d	-0.110783435
48	0x3e7e7ba4	0.24851853
49	0x3d4b87b3	0.04968996
50	0xbd3b22a1	-0.04568732
51	0x3de13725	0.10996846
52	0x3e675acc	0.2259323
53	0xbc0f578b	-0.008748899
54	0xbc6ae1a5	-0.014336024
55	0x3e337879	0.17526425
56	0xbea756ee	-0.3268351
57	0x3e70f506	0.23530969
58	0x3dc1faf4	0.09471694
59	0xbe0e7927	-0.13913403
60	0x00000000	0.0
61	0x3d82fa8f	0.063954465
62	0x3d97d024	0.074127465
63	0x3e823606	0.25431842
64	0x3cd628db	0.026142528
65	0xbcfc4fd3	-0.030799782
66	0xbe714786	-0.2356244
67	0x3ddb71f4	0.10715094
68	0xbe6cccc3	-0.23124985
69	0x3e5c86bd	0.21535774
70	0xbc92e93f	-0.017933486
71	0x3d595115	0.05305584
72	0x3d9f7140	0.077852726
73	0xbd181f85	-0.037139434
74	0x3e9812f7	0.2970197
75	0xbe54f875	-0.20797904
76	0xbbf11779	-0.0073575345
77	0x00000000	0.0
78	0x3df62f66	0.12020759
79	0xbdb8865d	-0.09010003
80	0x3c25f5da	0.010129416
81	0x00000000	0.0
82	0x3d14dc94	0.036343172
83	0x3dd6728a	0.10471065
84	0xbe64ab48	-0.22330964
85	0xbc23d6c5	-0.0099999355
86	0xbd484033	-0.04888935
87	0xbe2376fa	-0.15963355
88	0xbe2f2fbc	-0.17108053
89	0x3ab2b3c5	0.0013633898
90	0xbea61947	-0.3244116
91	0x3d59e80f	0.053199824
92	0xbcc42b94	-0.02394656
93	0xbea7357b	-0.3265799
94	0xbe1e3cd2	-0.15452889
95	0x3dad9424	0.08475521
96	0xbe0e7fb2	-0.139159
97	0x3db2efa4	0.08737114
98	0xbe73137c	-0.23737901
99	0xbd87ca13	-0.066303395
100	0x3d8dc25f	0.06921839
101	0x3e0d67df	0.13809155
102	0x3d768e15	0.060194094
103	0x3da03d72	0.0782422
104	0xbe111516	-0.141682
105	0x3d51303f	0.0510714
106	0x3da84f04	0.08218196
107	0xbe9c9d47	-0.30588743
108	0x00000000	0.0
109	0x3c452341	0.012032331
110	0x00000000	0.0
111	0x00000000	0.0
112	0x3e2fe4cd	0.17177124
113	0x00000000	0.0
114	0x3d9efddd	0.07763264
115	0x3ba2139a	0.0049461843
116	0xbe0d0410	-0.13771081
117	0xbdcb9ae8	-0.099416554
118	0x3e29a39d	0.1656632
119	0xbdca7e5e	-0.09887384
120	0xbe864b71	-0.26229432
121	0xbe7a2cde	-0.24431178
122	0x00000000	0.0
123	0x3d6f5640	0.058431864
124	0xbd11e693	-0.035620283
125	0xbc1c1335	-0.009526064
126	0x3e2e47d4	0.17019588
127	0x3d2a24cf	0.04153901
128	0x00000000	0.0
129	0xbe2602e3	-0.16212039
130	0x3d3b2fa5	0.045699734
131	0xbda238e6	-0.07921009
132	0xbdcd0c43	-0.10012104
133	0xbdcb659e	-0.09931491
134	0x3d73bb84	0.059505
135	0xbceee586	-0.02916218
136	0x3e0c103c	0.13678068
137	0x3df4bdaf	0.11950242
138	0x3e630d00	0.22172928
139	0x00000000	0.0
140	0xbe151d3c	-0.14561933
141	0x3cd50958	0.026005432
142	0xbe0f7b45	-0.14011867
143	0x00000000	0.0
144	0x3e1d3de4	0.1535564
145	0x00000000	0.0
146	0xbc269cd0	-0.010169223
147	0xbe48795a	-0.19577542
148	0xbe39c202	-0.18140414
149	0xbd3f1668	-0.046652228
150	0xbd3fd8af	-0.046837505
151	0x3e0d9238	0.1382531
152	0xbe3cc47f	-0.18434332
153	0xbd2e1f63	-0.0425104
154	0xbe0cce26	-0.13750514
155	0x3d891444	0.066933185
156	0xbd03bf63	-0.032164942
157	0x3eb3cd6c	0.35117662
158	0xbe20637b	-0.15662949
159	0xbe886576	-0.2663991
160	0x3d068748	0.032843858
161	0x00000000	0.0
162	0x3e921f07	0.28539297
163	0x3d9bf224	0.07614544
164	0x3d8ed0cc	0.069734186
165	0x3d5b4021	0.053527955
166	0x3cf5fdbe	0.03002822
167	0xbe063b19	-0.13108481
168	0xbd5d5bd4	-0.054042652
169	0xbdec7d66	-0.11547355
170	0x3e311ff1	0.17297341
171	0xbd052c9d	-0.03251325
172	0x00000000	0.0
173	0xbe13c089	-0.14428915
174	0xbdedfcf9	-0.11620516
175	0xbdaa0605	-0.083019294
176	0xbe864cba	-0.26230413
177	0x3dbf4c9b	0.09340783
178	0x3c3073bc	0.010769781
179	0xbe24abd1	-0.16081168
180	0x3e1eec31	0.15519787
181	0x3e8f2742	0.2795964
182	0xbd4b23cc	-0.049594685
183	0xbe38b429	-0.18037476
184	0x3e33b173	0.1754816
185	0xbda267a5	-0.07929925
186	0xbe1f7287	-0.15571032
187	0xbe481147	-0.19537841
188	0x3df62fb7	0.1202082
189	0x3e6d0bb5	0.23148997
190	0xbe7a65dd	-0.2445292
191	0xbd7fb07c	-0.062424168
192	0xbda18f14	-0.07888618
193	0xbe50aa28	-0.2037741
194	0x3e8ab841	0.270937
195	0xbcaf1931	-0.021374317
196	0xbe8783e0	-0.264678
197	0xbcbafd4f	-0.022825865
198	0x3e934db2	0.28770214
199	0xbd0729ff	-0.032999035

model.2.weight f4 [200, 200]
0	0xbcbbf086	-0.022941839
1	0x3defb37c	0.11704156
2	0xbd7f9baa	-0.062404312
3	0xbdac3392	-0.08408274
4	0xbe53ee41	-0.20696355
5	0xbe285e6b	-0.16442268
6	0xbd884726	-0.066541955
7	0xbe22d43f	-0.15901278
8	0xbc34d9da	-0.011038268
9	0xbca8e964	-0.020619102
10	0x3e0ae193	0.13562612
11	0x3d8b066f	0.067883365
12	0xbe588fc4	-0.21148592
13	0x3e414024	0.18872124
14	0x3d3cf09f	0.04612791
15	0xbc32af5c	-0.010906067
16	0xbe210df1	-0.15727974
17	0xbdc309e4	-0.09523371
18	0xbe0b9992	-0.13632801
19	0x3d310654	0.043218926
20	0xbdeab5ae	-0.11460434
21	0x3e0203aa	0.1269671
22	0xbe127c45	-0.14305218
23	0x3db0b1a3	0.086276315
24	0x3d7de268	0.061983496
25	0x3e377c5e	0.17918536
26	0xbe864e00	-0.26231384
27	0xbe145a82	-0.14487651
28	0x3cdecec4	0.027198203
29	0x3cf34358	0.029695198
30	0x3dcec1f3	0.10095587
31	0xbe41b3de	-0.1891627
32	0xbbfde5f8	-0.0077483617
33	0xbde5f9e9	-0.11229307
34	0xbd6b8cd6	-0.05750736
35	0x3d63a993	0.05558164
36	0x3d6bef7d	0.05760144
37	0xbca317a4	-0.019908734
38	0x3e2e4f76	0.170225
39	0x3d286b77	0.04111811
40	0xbb4646f5	-0.0030254696
41	0xbda2cd43	-0.07949307
42	0x3d2f64fe	0.042820923
43	0x3d82f483	0.06394293
44	0x3c7b026e	0.0153204035
45	0xbdde5353	-0.108557366
46	0x3df6ed9e	0.12057041
47	0x3e06167f	0.13094519
48	0x3e89ce37	0.26915142
49	0x3dada2ad	0.084782936
50	0xbd10d644	-0.03536059
51	0xbd825f1c	-0.06365797
52	0xbe9fe27d	-0.31227484
53	0xbd6e7212	-0.058214255
54	0x3e0a8022	0.13525441
55	0x3c96f8df	0.018429218
56	0x3cbd5503	0.023111826
57	0xbe1c7825	-0.15280207
58	0x3e0abef7	0.1354941
59	0x3e3c4493	0.18385534
60	0xbdcd2f52	-0.10018791
61	0xbdf5af18	-0.11996287
62	0x3d2cce08	0.042188674
63	0x3de4a88d	0.11164961
64	0xbb2ee962	-0.00266894
65	0xbdecbdf4	-0.11559668
66	0x3c8e7657	0.017390413
67	0x3ec0971c	0.37615287
68	0xbd190f8b	-0.03736834
69	0x3d2da09d	0.0423895
70	0xbd907382	-0.07053281
71	0xbe849c0a	-0.25900298
72	0x3cd0f334	0.025506593
73	0xbaffea66	-0.0019524812
74	0x3d236bc0	0.03989768
75	0xbcecd62b	-0.028910717
76	0x3d9057bb	0.07047983
77	0x3e6bbe0d	0.23021717
78	0xbe1b4e81	-0.15166666
79	0xbd61644f	-0.055027302
80	0xbd286f1e	-0.041121595
81	0x3ea6757d	0.3251151
82	0xbe4dae7a	-0.20086089
83	0x3a18a882	0.00058234495
84	0xbe1e2099	-0.15442123
85	0xbdfc7fc0	-0.12329054
86	0xbe1e0527	-0.15431653
87	0xbda28316	-0.07935159
88	0xbcef24c0	-0.029192328
89	0xbd652fd7	-0.055953827
90	0x3d74c4a8	0.05975786
91	0xbdda9f0d	-0.10674868
92	0x3dd2eb1b	0.10298749
93	0x3d459cb1	0.048245136
94	0x3d977521	0.073953874
95	0x3d89f1f6	0.067356035
96	0x3e1ec01e	0.15502974
97	0xbe98b3cb	-0.2982467
98	0x3dd85ef4	0.10564986
99	0xbd4adbf0	-0.049526155
100	0xbdb4754c	-0.08811435
101	0x3d8532a3	0.06503799
102	0xbd18c33f	-0.037295576
103	0x3d938b57	0.07204311
104	0x3c1bb193	0.009502786
105	0x3d783a16	0.06060227
106	0x3a76cd8a	0.0009414783
107	0xbe09fa2b	-0.13474338
108	0xbde132f3	-0.10996046
109	0xbe35e48c	-0.17762965
110	0x3c8d4bc3	0.01724804
111	0x3e241609	0.1602403
112	0xbe2d9fae	-0.16955444
113	0x3c0f1f13	0.008735436
114	0xbe0fa264	-0.14026791
115	0xbdb373f4	-0.08762351
116	0xbe124273	-0.14283161
117	0xbd06570e	-0.032797866
118	0xbd9d015b	-0.07666274
119	0xbcfbc78c	-0.0307348
120	0x3d74e916	0.0597926
121	0xbcbb3590	-0.022852689
122	0xbde08d38	-0.10964435
123	0xbd816f44	-0.0632005
124	0x3d8dde5f	0.069271795
125	0xbd593fe3	-0.053039443
126	0xbcf2fedd	-0.029662544
127	0xbe50af03	-0.20379262
128	0xbc3315cf	-0.010930493
129	0x3d30c25c	0.043154106
130	0x3e53e288	0.20691884
131	0xbe1eed55	-0.15520222
132	0xbda6ccb1	-0.081445105
133	0x3de71065	0.11282424
134	0x3d749706	0.05971434
135	0xbea253ce	-0.31704563
136	0xbe3c34b4	-0.1837948
137	0xbe544fc2	-0.2073355
138	0xbd603924	-0.054741994
139	0xbd964205	-0.07336811
140	0x3e3e2338	0.18568122
141	0x3be48af2	0.0069745714
142	0xbe61cfc7	-0.22051917
143	0xbe7816c8	-0.2422744
144	0xbcf6fb86	-0.030149233
145	0x3b2e443c	0.0026590964
146	0x3d88fa7e	0.066884026
147	0xbdcb4c5b	-0.09926673
148	0x3dfab13b	0.12240835
149	0x3f10ccbb	0.56562394
150	0x3db4d1cd	0.08829079
151	0x3d8bfd39	0.06835408
152	0xbe4f1742	-0.20223716
153	0x3bef17da	0.0072965445
154	0x3e016c80	0.12639046
155	0x3c877a13	0.016537702
156	0xbe83b90b	-0.25727114
157	0x3cb08345	0.02154697
158	0x3e8da5e4	0.27665627
159	0x3db7fd25	0.0898383
160	0x3c011169	0.007877686
161	0x3d9f7a76	0.077870294
162	0xbe33f74f	-0.1757481
163	0xbd1f942c	-0.038959667
164	0xbe0dd873	-0.138521
165	0xbe1a1527	-0.15047131
166	0x3dcd25d4	0.10016981
167	0xbe36dd95	-0.17857964
168	0xbd5a70c2	-0.05333019
169	0xbe43b6d9	-0.1911272
170	0x3df09b91	0.11748422
171	0x3ab006e2	0.0013429786
172	0x3cd8659f	0.026415644
173	0xbd9630aa	-0.07333501
174	0xbe68a13f	-0.2271776
175	0x3dfa688f	0.12226974
176	0xbdd46b08	-0.10371977
177	0x3ceef424	0.02916915
178	0xbc667180	-0.014065146
179	0x3dbb202c	0.09136996
180	0xbc1edaef	-0.0096957525
181	0x3d53b195	0.051683027
182	0xbdf34e40	-0.118801594
183	0x3ea2a77a	0.317684
184	0xbe417127	-0.1889082
185	0x3e422ae7	0.18961678
186	0x3c626ceb	0.013819913
187	0x3d9ec3f9	0.077522226
188	0x3ddf459b	0.10901948
189	0xbdb9ea2a	-0.090778664
190	0xbd5f0f09	-0.054457698
191	0xbdbaf3e6	-0.09128551
192	0x3e9e588a	0.30926925
193	0x3e54c6d8	0.20778978
194	0xbe014251	-0.12622954
195	0xbddf32ca	-0.10898359
196	0xbd5ea02a	-0.054351963
197	0xbd9b8732	-0.07594146
198	0x3e5adb44	0.21372706
199	0x3e1a3b60	0.15061712
200	0x3daaa3af	0.083320014
201	0x3e1d517e	0.15363118
202	0xbca7c746	-0.020480763
203	0xbd828b01	-0.06374169
204	0x3ca9f52d	0.020746792
205	0x3e47dfd7	0.19518982
206	0x3db6f401	0.08933259
207	0x3de3394a	0.110949114
208	0x3dc66cd9	0.0968873
209	0xbe25d81f	-0.16195725
210	0xbe1eb4c9	-0.15498652
211	0x3df37dc7	0.118892245
212	0xbdf18eb3	-0.11794796
213	0xbe585dff	-0.21129607
214	0x3c8902a8	0.0167249
215	0xbd3518f9	-0.04421327
216	0x3dbe5b86	0.092948005
217	0xbe24a23f	-0.16077517
218	0xbdf49f60	-0.11944461
219	0xbd20df03	-0.03927518
220	0xbc200f9f	-0.009769349
221	0xb995ec6f	-0.0002859565
222	0x3e6158c2	0.22006515
223	0xbe140f37	-0.14458929
224	0x3e0908ba	0.13382235
225	0x3dfac722	0.12245013
226	0xbd558f74	-0.05213876
227	0x3dc81dd3	0.097713135
228	0xbd67354c	-0.056447312
229	0xbe76c538	-0.2409867
230	0xbdbd35b5	-0.092387594
231	0x3e238b34	0.1597107
232	0x3dc57263	0.09640958
233	0x3ceed716	0.029155295
234	0xbdf97832	-0.121811286
235	0x3d7cd0aa	0.061722435
236	0x3d317c13	0.043331217
237	0x3dee0633	0.11622276
238	0x3b0f05ed	0.00218236
239	0x3e1196ef	0.14217733
240	0xbd594d48	-0.053052217
241	0xbd2fdeb1	-0.042936984
242	0x3dffc540	0.12488794
243	0xbc96d145	-0.018410334
244	0xbe931353	-0.2872568
245	0xbd8fb3c0	-0.070167065
246	0x3dd86b10	0.105672956
247	0xbc1e126c	-0.009647947
248	0x3e37290b	0.1788675
249	0xbd14e9ac	-0.03635566
250	0xbc3c6c5f	-0.011500447
251	0x3e7fda86	0.24985704
252	0x3e419739	0.18905343
253	0xbdd0f2ce	-0.10202561
254	0xbedcd5a5	-0.43131748
255	0xbd355fb6	-0.04428073

model.2.bias f4 [200]
0	0xbdc22d31	-0.09481276
1	0x3db7e319	0.08978862
2	0xbb8d939c	-0.004320575
3	0xbcb62a74	-0.02223704
4	0xbe4c8eee	-0.19976398
5	0x00000000	0.0
6	0xbdc5db25	-0.09660939
7	0xbdf3dc75	-0.11907283
8	0x3d610414	0.05493553
9	0xbdf72a9c	-0.12068674
10	0xbd0dcdc9	-0.03462008
11	0xbd861435	-0.06546823
12	0xbd0c474e	-0.03424769
13	0x00000000	0.0
14	0x3d7b8656	0.06140741
15	0xbd92dd6e	-0.071711406
16	0xbc2398a2	-0.009985121
17	0xbccc8205	-0.024964342
18	0xbde44021	-0.11145044
19	0xbdd84ee6	-0.10561924
20	0xbd70535c	-0.058673248
21	0xbc75a15c	-0.014992084
22	0x3e6dcee1	0.2322345
23	0xbddb48e4	-0.10707262
24	0x3cc9e70c	0.024646305
25	0xbcbb6b03	-0.022878176
26	0x3df7b354	0.12094751
27	0xbe396ab7	-0.18107115
28	0xbdfb55ab	-0.12272199
29	0xbc23d6dc	-0.009999957
30	0x3e40beba	0.18822756
31	0x3d85a4b3	0.065255545
32	0xbd092105	-0.033478756
33	0xbcbb740b	-0.022882482
34	0x3dca3e9d	0.09875224
35	0xbdd6d5d7	-0.104900055
36	0xbc4cca10	-0.012499347
37	0xbc348959	-0.011019074
38	0x3e141ce7	0.1446415
39	0x3cbc839a	0.023011971
40	0x3e7eb94a	0.2487537
41	0xbddb3a23	-0.10704448
42	0xbe2a7415	-0.16645844
43	0x3c69f6dc	0.014280047
44	0xbcb4cd37	-0.02207051
45	0x3e059daa	0.13048425
46	0xba054d03	-0.0005085023
47	0xbbd8554d	-0.0066019655
48	0xbd82cc77	-0.06386655
49	0xbe021a4a	-0.12705341
50	0x00000000	0.0
51	0x3dd89d37	0.10576861
52	0x3df6d839	0.1205296
53	0xbca3a1c8	-0.019974604
54	0xbe5466f9	-0.20742406
55	0x3e2cd159	0.16876735
56	0x3c2fb2a9	0.010723748
57	0x3d088aa1	0.03333533
58	0xbe2cec1a	-0.1688694
59	0x3d12cf83	0.03584243
60	0xbd0f089b	-0.034920316
61	0xbc23d706	-0.009999996
62	0x3e402436	0.18763813
63	0xbcb073f7	-0.021539671
64	0x3d0962b6	0.033541404
65	0x00000000	0.0
66	0x3dacee53	0.08443894
67	0xbc4009f7	-0.011721126
68	0xbc7f8aae	-0.015597029
69	0xbdca5659	-0.09879751
70	0xbc9da358	-0.019242927
71	0xbc49d711	-0.012319342
72	0x3d3a656f	0.04550689
73	0xbcdf996a	-0.027294833
74	0x3b8c0f41	0.0042742793
75	0x3cd2cd37	0.02573262
76	0xbdc20b00	-0.09474754
77	0xbce84bc6	-0.028356444
78	0xbda3b939	-0.07994313
79	0xbc0577a1	-0.008146198
80	0x3cb194d7	0.021677418
81	0xb9ebbd65	-0.00044963803
82	0xbd1badb9	-0.03800747
83	0xbd80293a	-0.06257863
84	0xbd981830	-0.074264884
85	0xbcb20dd4	-0.02173511
86	0xbdf7cf63	-0.12100103
87	0xbe026ca3	-0.12736754
88	0x3e7df589	0.24800695
89	0xbcb15bf9	-0.021650301
90	0xbdfdd4d5	-0.1239411
91	0xbe425324	-0.18977028
92	0xbd2188d5	-0.039437134
93	0xbd4719fb	-0.04860876
94	0xbe1fa7f9	-0.1559142
95	0x3da6d146	0.081453845
96	0xbcddf027	-0.027092053
97	0x3d707e44	0.058714166
98	0x3da1de27	0.079037
99	0x3e0f1aee	0.13975117
100	0x3d99b555	0.075052895
101	0x3d579ba4	0.052638665
102	0xbc49de6e	-0.012321098
103	0x00000000	0.0
104	0xbc8980d1	-0.016785057
105	0xbdf3a2e1	-0.11896301
106	0xbde4bd22	-0.11168887
107	0xbd6665b7	-0.056249347
108	0xbd965ece	-0.07342301
109	0x3e08c557	0.13356529
110	0xbd3430d3	-0.043991875
111	0xbca02e4a	-0.019553322
112	0xbced6374	-0.028978087
113	0xbda0ab64	-0.0784519
114	0xbcbbf28a	-0.0229428
115	0x00000000	0.0
116	0x3c136a1a	0.008997465
117	0x3ca0192a	0.01954325
118	0xbcb2f6e6	-0.021846246
119	0xbde49f3a	-0.111631826
120	0x3e20e89d	0.15713735
121	0xbcd085f2	-0.025454495
122	0x3d346a98	0.04404697
123	0xbc75b29a	-0.014996195
124	0x3d2e8b32	0.042613216
125	0xbe12b318	-0.14326131
126	0xbc23d707	-0.009999997
127	0xbd210c44	-0.039318338
128	0xbc51c19e	-0.01280251
129	0x3e2ffc4a	0.17186084
130	0x3d9d5a03	0.07683184
131	0x3cd54687	0.026034607
132	0xbcf38f79	-0.029731499
133	0xbbc0d86e	-0.0058851754
134	0xbc23d6fd	-0.009999988
135	0xbc5382f1	-0.012909637
136	0xbb957ea9	-0.004562218
137	0xbc74549a	-0.014912749
138	0xbd5c627e	-0.053804867
139	0xbe194902	-0.14969257
140	0x3bc9cb8c	0.006158298
141	0xbc445690	-0.011983529
142	0x3d6faa89	0.058512244
143	0xbba35c24	-0.0049853493
144	0xbe591c0e	-0.21202108
145	0x3e0d4430	0.13795543
146	0x3c15f010	0.009151474
147	0xbdb05d52	-0.086115494
148	0xbc86e033	-0.016464328
149	0xbd689063	-0.056778323
150	0xbc68b292	-0.014202731
151	0x3d917991	0.07103265
152	0xbd55319b	-0.05204926
153	0xbd8fe6f8	-0.07026476
154	0xbd686910	-0.05674082
155	0xbba5bdcc	-0.005058026
156	0x3d37a40b	0.044834178
157	0xbe0095b6	-0.1255711
158	0x00000000	0.0
159	0xbc573b83	-0.013136747
160	0xbc82fe4e	-0.015990403
161	0xbcc56749	-0.024097102
162	0x3e01db7c	0.12681383
163	0xbc75bf8e	-0.0149992835
164	0xbc92be44	-0.017912991
165	0xbd2c483e	-0.042061083
166	0xbe311591	-0.17293383
167	0x00000000	0.0
168	0x00000000	0.0
169	0xbdea2e81	-0.11434651
170	0x3e04224c	0.12903708
171	0x00000000	0.0
172	0xbc23d6a2	-0.009999903
173	0xbbf5b7e5	-0.0074987286
174	0xbd4b6d10	-0.049664557
175	0xbdfc48cb	-0.12318572
176	0xbdc6330e	-0.09677707
177	0xbd1b94e5	-0.037983794
178	0x3e4e92c1	0.2017317
179	0xbc4c4358	-0.012467228
180	0xbc347375	-0.011013855
181	0x3d4371e5	0.04771604
182	0xbc95b347	-0.018273963
183	0xbc8b3c51	-0.016996535
184	0xbe1c92a0	-0.15290308
185	0xbd9fa68f	-0.077954404
186	0xbdd1b911	-0.10240377
187	0xbc556f60	-0.013027042
188	0xbce30a19	-0.027714776
189	0xbc67ecd1	-0.0141555825
190	0xbd1823fb	-0.03714369
191	0xbde4bdd1	-0.11169017
192	0xbcdad058	-0.026710674
193	0x3df3bf57	0.119017296
194	0x3d319c6d	0.04336207
195	0xbc23d689	-0.00999988
196	0x00000000	0.0
197	0xbc23d6c6	-0.009999936
198	0xbdaac8f9	-0.08339114
199	0x3da25de1	0.07928062

model.5.weight f4 [200, 200]
0	0xbe288b06	-0.16459283
1	0x3d67db3e	0.05660557
2	0xbc9af569	-0.018915849
3	0x3ca0c44a	0.019624848
4	0x3d39d8d0	0.045372784
5	0x3e2bf589	0.16792883
6	0x3e53f51f	0.20698975
7	0xbe0d7ae0	-0.13816404
8	0x3e6f9fc1	0.23400785
9	0xbe3eafa1	-0.18621685
10	0xbdfa9b5d	-0.122366644
11	0xbe953513	-0.29142055
12	0xbcb5bc4f	-0.02218452
13	0xbd8302e4	-0.06397036
14	0xbceda8ef	-0.029011218
15	0x3deee984	0.11665633
16	0x3b8bf304	0.004270913
17	0x3e4d97e6	0.20077476
18	0xbda28a5d	-0.07936547
19	0x3d9d23b7	0.07672828
20	0xbc8d3a9c	-0.017239861
21	0xbd170c42	-0.036876924
22	0xbe2914b3	-0.16511802
23	0x3e0a6ce0	0.13518095
24	0x3cde2c78	0.027120814
25	0x3e4d93fb	0.20075981
26	0x3e538333	0.20655517
27	0x3e17120d	0.1475298
28	0x3d36d282	0.04463435
29	0xbd0d83ec	-0.03454964
30	0x3db3b897	0.08775442
31	0x3ea30ba7	0.31844828
32	0xbdd9ef7f	-0.106413834
33	0x3dbbc5cb	0.091685854
34	0xbd997aa1	-0.07494093
35	0xbcd3ea0f	-0.025868444
36	0x3dcca4e3	0.09992387
37	0xbd964b22	-0.07338549
38	0x3d9873e3	0.07443979
39	0x3dc085c2	0.09400512
40	0x3d2b5b6e	0.04183524
41	0xbeb4688b	-0.3523601
42	0xbd8a5ce2	-0.06755997
43	0x3d91b31f	0.07114243
44	0x3c22c017	0.009933493
45	0xbe4eee4f	-0.20208095
46	0xbd6945ff	-0.05695152
47	0xbc031058	-0.007999502
48	0xbdb4ee22	-0.08834483
49	0x3d941fb8	0.07232612
50	0xbda5e010	-0.08099377
51	0x3d06447e	0.032780163
52	0x3c238764	0.00998101
53	0xbda2c609	-0.079479285
54	0xbd3b0bdb	-0.045665603
55	0x3e36ff1d	0.17870755
56	0xbe625c42	-0.22105506
57	0xbd951000	-0.072784424
58	0x3e18fcdd	0.1494021
59	0x3de8b9e3	0.1136358
60	0x3d3d4d7f	0.046216484
61	0xbdeaf6da	-0.114728644
62	0xbd45a12d	-0.048249412
63	0x3e40028c	0.18750972
64	0x3d1372ee	0.035998277
65	0x3d49df7b	0.049285393
66	0xbd6fee9d	-0.05857717
67	0x3d77f75a	0.060538627
68	0xbd67ab83	-0.05656005
69	0x3d1f58a3	0.03890289
70	0xbdbe226b	-0.092839085
71	0x3d067e03	0.032835018
72	0x3c0ee6bb	0.008722003
73	0xbe2ec216	-0.17066225
74	0xbc2332fc	-0.009960886
75	0x3e1a7ee6	0.1508747
76	0xbe5a7d34	-0.21336824
77	0xbd1ab964	-0.03777446
78	0x3c3be310	0.01146771
79	0x3db44c7b	0.0880365
80	0x3dd1f43d	0.10251663
81	0xbbfdfc20	-0.007751003
82	0xbd7cdd5a	-0.061734535
83	0xb914114a	-0.0001412082
84	0x3e27c6d3	0.16384439
85	0x3ca5225a	0.020157982
86	0x3ce8ee82	0.028434042
87	0x3e20619d	0.15662237
88	0x3c3c046f	0.011475666
89	0xbc35fb7e	-0.011107324
90	0x3e1abe1a	0.1511158
91	0x3dccc811	0.09999097
92	0xbda1e3b3	-0.07904758
93	0xbb1b66ca	-0.002371239
94	0x3d904ec3	0.070462726
95	0x3dc04f3c	0.09390113
96	0xbe305da4	-0.17223221
97	0x3d86caac	0.06581625
98	0x3d37ca91	0.044870917
99	0xbd51804c	-0.051147744
100	0xbe80a0cd	-0.2512268
101	0xbe06b8af	-0.13156389
102	0xbdbe5e7c	-0.09295365
103	0xbde1b0fa	-0.11020084
104	0xbc3bd558	-0.011464439
105	0xbe239c13	-0.15977506
106	0xbe51f93a	-0.20505229
107	0xbd144ffb	-0.036209088
108	0xbd9df403	-0.07712557
109	0xbdd8f0a1	-0.10592771
110	0x3e0d92a1	0.13825466
111	0xbd6f6197	-0.05844268
112	0x3dd83c58	0.10558385
113	0xbce63879	-0.0281031
114	0xbda91497	-0.0825588
115	0x3e02f28e	0.1278784
116	0x3d139cd5	0.03603824
117	0x3bd957cd	0.006632781
118	0x3dadf582	0.084940925
119	0xbe1e700a	-0.15472427
120	0x3d8d6cf5	0.069055475
121	0x3d0ae09d	0.033905614
122	0x3e187189	0.1488706
123	0xbd7c1912	-0.061547346
124	0x3db8a350	0.090155244
125	0x3dd2af42	0.10287334
126	0x3e4e06d0	0.20119786
127	0x3d9c765c	0.07639763
128	0xbc54efb9	-0.012996607
129	0xbde3fa07	-0.11131673
130	0x3c0605bc	0.008180078
131	0xbddd73b3	-0.108130835
132	0x3da973a8	0.08274013
133	0xbe3a945d	-0.18220659
134	0xbd1e8c28	-0.038707882
135	0x3d7d3619	0.06181917
136	0xbe0ef4c8	-0.13960564
137	0xbe02048e	-0.1269705
138	0x3c84c618	0.01620774
139	0xbdac843f	-0.084236614
140	0xbdd0828e	-0.10181151
141	0xbd67a506	-0.056553863
142	0x3d72ca81	0.059275154
143	0x3e16830b	0.14698426
144	0x3d316116	0.04330548
145	0xbd234187	-0.039857414
146	0x3d8f0cd3	0.06984868
147	0xbd431a3a	-0.047632433
148	0x3cfce1d6	0.030869406
149	0xbdc80315	-0.09766213
150	0xbc836740	-0.016040444
151	0x3d889fd2	0.06671108
152	0xbcb40415	-0.021974603
153	0x3e597163	0.2123466
154	0xbd985aa1	-0.07439161
155	0xbe7dadc9	-0.24773325
156	0x3d450d61	0.048108462
157	0xbc4a0651	-0.0123306075
158	0xbdc68b8b	-0.096945845
159	0x3dc37499	0.095437236
160	0xbe65b0f2	-0.2243078
161	0xbc77d348	-0.015126057
162	0x3d323f50	0.04351741
163	0x3dc0c3bc	0.09412333
164	0xbd9d80ec	-0.076906055
165	0x3d9fb029	0.07797272
166	0x3d0161f5	0.03158756
167	0xbd85e32e	-0.06537472
168	0xbd993640	-0.074810505
169	0xbd3e1808	-0.046409637
170	0xbd177b12	-0.036982603
171	0x3d1120f7	0.03543183
172	0x3df415cc	0.1191822
173	0xbe08fa75	-0.13376792
174	0x3dd4479d	0.10365222
175	0x3d1fbbb6	0.038997374
176	0xbd78e77e	-0.060767643
177	0xbe6f79a5	-0.23386247
178	0xbc437a19	-0.011930966
179	0xbd85689e	-0.06514095
180	0x3c6fa459	0.014626586
181	0x3e083f20	0.1330533
182	0x3d3ed46f	0.04658931
183	0xbe204d08	-0.15654385
184	0x3d2cc804	0.042182937
185	0xbd4ca593	-0.04996259
186	0x3d864f01	0.065580375
187	0x3aaa33b9	0.0012985385
188	0xbd5ef75c	-0.05443512
189	0xbc796b72	-0.015223371
190	0x3ccced0f	0.025015382
191	0x3da90392	0.08252634
192	0xbbb8a3c8	-0.0056347586
193	0x3d350fc6	0.044204496
194	0xba8a1ece	-0.0010537745
195	0x3d60bb3c	0.05486606
196	0xbd037af3	-0.032099675
197	0xbd14aa1a	-0.036295034
198	0x3d902a86	0.07039361
199	0x3e479d4e	0.194936
200	0xbdfd1f1a	-0.12359448
201	0xbb872e44	-0.0041253883
202	0xbd7930d6	-0.06083759
203	0x3e85f61a	0.26164323
204	0xbe25564d	-0.16146202
205	0xbcfa0407	-0.030519499
206	0xbde210be	-0.110383496
207	0x3d721ad7	0.059107628
208	0x3e6da0cb	0.23205869
209	0xbdf70b67	-0.12062722
210	0x3e64d606	0.22347268
211	0x3dbdffba	0.092772916
212	0x3ca56dd0	0.020193964
213	0x3e03651a	0.12831536
214	0x3c97da95	0.018536845
215	0x3a452b49	0.00075214036
216	0x3daafe40	0.083492756
217	0x3dbbf69a	0.09177895
218	0x3d1e919e	0.03871309
219	0xbe7a3689	-0.24434866
220	0x3d111b96	0.0354267
221	0xbd71261c	-0.058874235
222	0x3bab1650	0.0052211657
223	0x3d0a1d56	0.033719383
224	0x3c8aa145	0.016922602
225	0xbc882d0d	-0.016623044
226	0x3d3be556	0.04587301
227	0xbddf1125	-0.10891942
228	0x3cff0900	0.031132221
229	0xbdcbd53f	-0.09952783
230	0x3e8ed82f	0.2789931
231	0x3dae83de	0.085212454
232	0x3cd6c46a	0.026216704
233	0xbcd87ab8	-0.026425704
234	0xbd822d42	-0.063562885
235	0xbc8f8bf0	-0.017522782
236	0x3e1bf6dc	0.15230888
237	0xbdfbbc9c	-0.12291834
238	0x3e1939ea	0.14963499
239	0xbde05754	-0.109541565
240	0x3e274936	0.16336522
241	0xbe707ecb	-0.23485868
242	0x3e0a2969	0.13492359
243	0x3bcaab6f	0.0061849873
244	0xbde29bb0	-0.11064851
245	0x3cd9cf36	0.026588064
246	0x3d7afdd4	0.061277226
247	0xbdd3fa03	-0.1035042
248	0xbd2ae833	-0.04172535
249	0xbd8a8507	-0.06763654
250	0xbe240a57	-0.1601957
251	0x3dbfb26f	0.093602054
252	0x3e5e270f	0.21694587
253	0x3d976336	0.0739197
254	0xbe04c797	-0.12966762
255	0xbc7949cd	-0.015215349

model.5.bias f4 [200]
0	0x3c0791e4	0.008274529
1	0x3e56a869	0.20962681
2	0x3cf162b9	0.02946602
3	0xbc7094e5	-0.014683937
4	0x3d1cc229	0.038271103
5	0x3df08a93	0.11745181
6	0x3dab40d3	0.083619736
7	0xb9a2eea2	-0.00031076843
8	0x3d1c2969	0.03812543
9	0xbd836b43	-0.06416943
10	0xbd34dc16	-0.044155203
11	0xbd8ac0e4	-0.06775072
12	0x3cd1ee3c	0.025626294
13	0xbd1574dc	-0.0364884
14	0xbd4234f5	-0.047413785
15	0xbd0835bb	-0.033254366
16	0xbda0570a	-0.078291014
17	0xbc4cd744	-0.012502495
18	0x3d2dc8fd	0.042428005
19	0xbd1141b1	-0.03546304
20	0xbd6c28a1	-0.057655934
21	0x3d096ebf	0.03355288
22	0xbc81d53e	-0.015848752
23	0x3d176bca	0.03696803
24	0xbd19081e	-0.037361257
25	0x3c7b71ca	0.015346954
26	0x3e136e8f	0.14397644
27	0x3e4129aa	0.1886355
28	0xbd006872	-0.031349607
29	0x3de8648a	0.11347301
30	0x3c0b5bde	0.00850579
31	0x3df73037	0.12069743
32	0x3d65f419	0.056140993
33	0xbda85583	-0.08219435
34	0x3dde46a6	0.10853319
35	0xbd9183a8	-0.071051896
36	0xbd061551	-0.032735173
37	0x3e365d65	0.17809065
38	0xbccee9ae	-0.025257912
39	0x3cd50ed5	0.026008049
40	0x3dccd4b5	0.10001508
41	0xbb2f45c6	-0.002674447
42	0xbd2b39c2	-0.04180313
43	0xbd6c30f8	-0.057663888
44	0xbcd5e4d3	-0.026110088
45	0xbd56ba37	-0.052423682
46	0x3cf162a2	0.029465977
47	0xbd95f112	-0.07321371
48	0x3df5d3ed	0.12003312
49	0x3af18393	0.0018426053
50	0x3d8d658f	0.069041364
51	0x3d492710	0.04910952
52	0xbd7a678e	-0.061133914
53	0x3c18338e	0.009289635
54	0xbd022672	-0.031774946
55	0xbd8bc5fd	-0.06824873
56	0x3d2bd8ec	0.04195492
57	0x3d1e10bb	0.038590174
58	0xbd1c98dd	-0.03823172
59	0x3ded7992	0.11595453
60	0xbd583f47	-0.05279472
61	0xbce66e65	-0.028128812
62	0x3d9fde46	0.07806067
63	0xbdb4db87	-0.08830934
64	0xbc301dac	-0.010749262
65	0x3d827a01	0.06370927
66	0x3aae61b0	0.001330426
67	0xbcf2788e	-0.0295985
68	0x3c1d28f6	0.009592285
69	0xbd81e6c0	-0.0634284
70	0x3d724e01	0.05915642
71	0xbd952486	-0.07282357
72	0x3e2e9dd2	0.17052391
73	0x3db98faf	0.090606086
74	0x3d29a27d	0.041414727
75	0x3c99ffc6	0.01879872
76	0x3d74ba88	0.059748203
77	0x3c37b882	0.011213424
78	0x3d43a8bc	0.04776834
79	0x3d2fb843	0.042900335
80	0xbdb73c3d	-0.089470364
81	0xbced4f9c	-0.028968625
82	0xbd28ed60	-0.041242003
83	0x3deac535	0.114633955
84	0xbcce6489	-0.025194423
85	0x3cf2d188	0.029640928
86	0x3d374051	0.04473907
87	0x3d2ba9c8	0.041909963
88	0xbd229a08	-0.039697677
89	0x3df89997	0.1213867
90	0x3bd1e69a	0.0064056637
91	0xbd0a1178	-0.033708066
92	0xbd497415	-0.04918297
93	0xbc030ca2	-0.007998617
94	0xbd4230bc	-0.047409758
95	0xbd4e3f75	-0.050353486
96	0x3cbd5307	0.02311088
97	0xbccc8863	-0.024967378
98	0x3dbeec53	0.09322419
99	0xbd222868	-0.039589316
100	0xbcde42bf	-0.027131436
101	0xbbcfba0d	-0.0063393177
102	0xbd923af5	-0.071401514
103	0x3d456946	0.0481961
104	0x3db73efa	0.08947559
105	0x3e2afe26	0.16698512
106	0x3cba25eb	0.022723159
107	0xbd86a8ca	-0.06575163
108	0xbd9ea7e3	-0.077468656
109	0xbcfd3d67	-0.030913068
110	0xbd2c82c0	-0.04211688
111	0xbd62ff0c	-0.055419013
112	0x3c471d74	0.012153018
113	0xbd0414e5	-0.03224649
114	0xbd47c620	-0.04877293
115	0xbd4ab605	-0.049489994
116	0xbd361d6e	-0.04446166
117	0x3d0f4250	0.03497535
118	0x3dab0f8e	0.08352576
119	0x3e685548	0.22688782
120	0xbd5a75ee	-0.053335123
121	0xbd9d5f7c	-0.07684228
122	0x3e0b83c3	0.13624482
123	0x3c93bbbc	0.018033855
124	0xbc877641	-0.01653588
125	0x3d4f277d	0.05057477
126	0x3d53b5be	0.051686995
127	0xbd0d95b4	-0.034566596
128	0xbd68b963	-0.056817424
129	0xbd1a426e	-0.03766101
130	0x3dbd7347	0.09250503
131	0xbcd6e161	-0.026230516
132	0xbc5c54ef	-0.013447984
133	0xbae47f16	-0.0017432894
134	0x3d705694	0.058676317
135	0x3d090f8b	0.03346209
136	0x3da6ee49	0.08150918
137	0xbd3ca66f	-0.04605716
138	0xbb9ae78b	-0.004727309
139	0xbd112541	-0.03543592
140	0xbcfd601a	-0.030929614
141	0xbd56fe40	-0.052488565
142	0x3d31964e	0.043356232
143	0xbd7b9b7a	-0.06142757
144	0x3deb06e9	0.114759274
145	0xbd51cd71	-0.051221315
146	0xbd8d8f2f	-0.06912076
147	0xbd1430e0	-0.036179423
148	0xbd361274	-0.044451192
149	0xbdc07b84	-0.09398559
150	0x3e37c7f9	0.17947377
151	0xbccf2cdd	-0.025289947
152	0xbd3f1b35	-0.046656806
153	0x3cd06344	0.025437959
154	0xbcc67a05	-0.024228105
155	0xbd232740	-0.039832354
156	0x3e06f0fa	0.13177863
157	0x3d04ccf7	0.032422032
158	0xbcf856c9	-0.03031482
159	0xbda8f9b9	-0.08250756
160	0x3ceff551	0.02929178
161	0xbda1641e	-0.07880424
162	0x3ce443be	0.027864333
163	0xbcf43fab	-0.029815516
164	0xbd3b7cbb	-0.04577325
165	0xbd48af6e	-0.048995428
166	0xbd9df901	-0.07713509
167	0x3cd2bad2	0.025723848
168	0xbdfe1d4d	-0.124079324
169	0x3cf37e57	0.02972333
170	0x3e4140cc	0.18872374
171	0x3d2f496d	0.042794634
172	0x3ce4cf68	0.02793093
173	0xbd6a8a8d	-0.05726104
174	0x3d1a33af	0.037646946
175	0xbd86c6fa	-0.065809205
176	0x3d2d25cf	0.042272385
177	0xbd99b113	-0.07504477
178	0xbd92fb67	-0.071768574
179	0xbde1b295	-0.1102039
180	0xbd943eae	-0.07238518
181	0xbd342ead	-0.043989826
182	0x3dc883ee	0.097907886
183	0xbcdc3847	-0.026882304
184	0x3d33d42f	0.043903526
185	0xbd4c1ee5	-0.04983415
186	0x3dfc4cf1	0.12319363
187	0x3c85cbf8	0.016332611
188	0x3d0c35be	0.03423094
189	0xbb14e70d	-0.0022720725
190	0x3d05e867	0.03269234
191	0xbd3b24a2	-0.045689233
192	0xbd4e9fe5	-0.050445456
193	0x3d97db06	0.07414822
194	0x3d8dd1fb	0.06924816
195	0xbd7c0776	-0.061530553
196	0x3d49cfe6	0.049270533
197	0xbd728326	-0.059207104
198	0x3e4b1033	0.19830398
199	0xbd8c0011	-0.0683595

model.8.weight f4 [1, 200]
0	0xbe066012	-0.13122585
1	0xbdd93bcc	-0.106071085
2	0xbe0c0c59	-0.13676585
3	0x3d934382	0.071906105
4	0xbdba6c82	-0.091027275
5	0xbe2746f4	-0.1633566
6	0xbe8365c3	-0.25663576
7	0xbc998f03	-0.018744951
8	0xbd3e24d7	-0.046421852
9	0x3e41930e	0.18903753
10	0x3d031d2c	0.032010242
11	0x3c1674cb	0.009183119
12	0xbda92b95	-0.08260266
13	0xbe16faa6	-0.14744052
14	0x3de371ac	0.111056656
15	0x3d58cd34	0.052930072
16	0x3dacc1be	0.08435391
17	0x3dc64f9a	0.096831515
18	0xbdceb38a	-0.10092838
19	0x3d5d7dd5	0.05407508
20	0x3e192cba	0.14958468
21	0xbe68ea49	-0.22745623
22	0xbdef6e39	-0.11690945
23	0xbd34a8f6	-0.044106446
24	0x3d80e659	0.06293935
25	0xbdf8a48b	-0.12140759
26	0xbdbce2f6	-0.09222977
27	0xbd92a8bd	-0.071610905
28	0x3d88386e	0.06651388
29	0xbd7563fa	-0.0599098
30	0xbd9aaf05	-0.075529136
31	0xbe63e6ff	-0.22256087
32	0xbdbbd2c1	-0.091710575
33	0x38885c80	6.502215e-05
34	0xbd6fe727	-0.058570053
35	0xbb19f287	-0.0023490505
36	0x3d8e4b83	0.069479965
37	0xbdce0c9d	-0.100609995
38	0x3e472995	0.19449456
39	0xbcd58f5f	-0.026069341
40	0xbd6a3b43	-0.057185423
41	0x3e12c706	0.14333734
42	0x3e59b28f	0.21259521
43	0x3b0384cd	0.002006817
44	0x3e250f86	0.16119203
45	0x3c1902ed	0.0093390765
46	0xbdb3b78d	-0.08775244
47	0xbde85587	-0.11344438
48	0xbdb80970	-0.08986175
49	0x3d873447	0.06601768
50	0xbd30918f	-0.043107565
51	0xbd967fea	-0.073486164
52	0xbc1fb555	-0.009747823
53	0xbce19258	-0.027535602
54	0x3d232cea	0.039837755
55	0x3db804d3	0.08985295
56	0xbdffec35	-0.12496225
57	0xbe062b01	-0.13102342
58	0x3db78427	0.08960753
59	0xbe0c2a11	-0.13687922
60	0x3d906bca	0.07051809
61	0xbcfe84f3	-0.031069255
62	0xbe4444d6	-0.19166884
63	0x3df89191	0.121371396
64	0x3e327ed5	0.17431195
65	0xbe279f77	-0.16369425
66	0xbdcbcb45	-0.0995088
67	0xbdeb1767	-0.11479073
68	0xbdfd75d7	-0.12375992
69	0x3da58ecd	0.08083878
70	0xbd0d6472	-0.03451962
71	0xbe890f46	-0.26769465
72	0xbe707d8d	-0.23485394
73	0xbd92a5b3	-0.07160511
74	0xbd3b8103	-0.045777332
75	0xbe4217cd	-0.18954392
76	0xbceead13	-0.029135263
77	0xbe00b6e0	-0.12569761
78	0xbd109788	-0.03530076
79	0xbd98e5fe	-0.074657425
80	0xbdb57f0a	-0.088621214
81	0x3d9310a4	0.07180908
82	0x3d14ab57	0.036296215
83	0xbd90f689	-0.07078273
84	0x3d75fbe5	0.06005468
85	0xbd06ad86	-0.03288033
86	0xbd36951c	-0.044575796
87	0xbe1b3f20	-0.15160799
88	0x3daf5855	0.0856177
89	0xbdcbf2dc	-0.09958431
90	0xbe0e673e	-0.13906571
91	0x3d83f399	0.06442947
92	0x38c5d340	9.4330404e-05
93	0xbce7b1b2	-0.028282974
94	0x3e171222	0.14753011
95	0x3c8d7db5	0.017271856
96	0xbe1b4055	-0.1516126
97	0x3dabd399	0.083899684
98	0xbe47856b	-0.19484489
99	0xbd8bdeaa	-0.06829579
100	0x3e604c00	0.21903992
101	0xbd58b1ba	-0.05290387
102	0xbd3ae404	-0.04562761
103	0xbda8f7c2	-0.08250381
104	0xbdb6563c	-0.08903167
105	0xbda8db09	-0.08244903
106	0xbd8fac7d	-0.070153214
107	0x3db2d428	0.08731872
108	0xbe2a4880	-0.16629219
109	0x3e226772	0.15859774
110	0x3d2a467b	0.04157112
111	0x3cb8f206	0.022576343
112	0xbe1c6c54	-0.15275699
113	0xb8dfedc0	-0.00010677753
114	0x3e09e182	0.1346493
115	0xbd83645a	-0.06415625
116	0x3d5098ab	0.050926846
117	0xbe521b96	-0.20518336
118	0xbe1c479a	-0.15261689
119	0xbe1377ce	-0.1440117
120	0xbe151bd9	-0.14561404
121	0x3dc69e4c	0.096981615
122	0xbe09369f	-0.13399743
123	0xbe88506b	-0.26623854
124	0xbc80f8e1	-0.015743675
125	0xbdf16b46	-0.11788039
126	0xbd6a7300	-0.05723858
127	0x3d162380	0.03665495
128	0xbde0c189	-0.10974414
129	0xbc4a6937	-0.012354187
130	0xbea6c27f	-0.32570264
131	0xbcdf7a88	-0.027280107
132	0xbcc375d9	-0.023859905
133	0x3e04c174	0.12964422
134	0xbdd9e5aa	-0.10639508
135	0xbce76d08	-0.028250232
136	0xbdaddf7d	-0.08489893
137	0x3d4834e6	0.048878573
138	0xbdb58cae	-0.08864723
139	0x3cba93ba	0.02277552
140	0x3e51e242	0.20496467
141	0xbc77fd31	-0.015136049
142	0xbdd4deb7	-0.10394042
143	0x3d0af3be	0.033923857
144	0xbe1b795e	-0.15183017
145	0x3dd275e4	0.10276392
146	0x3e186a07	0.14884196
147	0x3d7f3d1b	0.062314134
148	0x3d0cf754	0.034415558
149	0x3c88d17e	0.016701456
150	0xbe8f4bc6	-0.27987498
151	0x3ca0bce2	0.019621316
152	0x3ce15097	0.027504249
153	0xbc196b25	-0.009363924
154	0x3db5efe3	0.088836454
155	0x3cbd6201	0.023118021
156	0xbd6cecfd	-0.057843197
157	0xbd8bddc3	-0.06829407
158	0xb9a8134b	-0.0003205783
159	0xbd58ec9d	-0.052960027
160	0xbcfa76f3	-0.030574298
161	0x3d865c13	0.065605305
162	0xbd3fac90	-0.046795428
163	0x3d44f8f1	0.04808897
164	0x3db36d68	0.08761102
165	0x3da0e7c2	0.07856704
166	0x3d8adc51	0.06780303
167	0xbd596f01	-0.053084377
168	0xbe160a71	-0.1465242
169	0xbe3a8bad	-0.18217345
170	0xbdb93528	-0.09043342
171	0xbde84f9a	-0.11343308
172	0xbe027577	-0.12740122
173	0x3d35f67e	0.044424526
174	0xbd34d11d	-0.04414474
175	0x3e25c462	0.16188195
176	0xbd00bc6d	-0.031429697
177	0x3e827d19	0.25486067
178	0x3ae8a9e6	0.0017750829
179	0xbd90a6dd	-0.07063077
180	0x3e4cac12	0.19987515
181	0x3d7d45b8	0.061834067
182	0xbdb9bd3d	-0.090692975
183	0x3b17d360	0.002316676
184	0xbdeae210	-0.11468899
185	0x3e040876	0.12893853
186	0xbe455901	-0.19272234
187	0xbdd23faa	-0.10266049
188	0xbe253282	-0.16132548
189	0x3d7ecfed	0.062210012
190	0xbe1ff0cd	-0.15619202
191	0x3db9d96c	0.09074673
192	0x3d2b2e1d	0.041792024
193	0xbe1c888a	-0.1528646
194	0xbe888c3d	-0.26669493
195	0x3baab219	0.005209219
196	0xbd80a0a4	-0.0628064
197	0x3dfc84b1	0.123299964
198	0xbe1f0ce2	-0.15532258
199	0x3e3f1543	0.18660454
