Challenge_1/Weights/model_dynamics_Pendulum-v0_mse_0.00001036.params (torch_old, 329416 bytes, 8 tensors)

model.0.weight f4 [200, 4]
000000 4d 1a 2c bf 10 23 8e bf a8 65 99 3c 93 7f ae bf
       -0.6722763 -1.110445 0.018725231 -1.3632683
000010 63 31 85 be 92 69 dd be e0 ef f9 3e df ec dc be
       -0.26014242 -0.43244606 0.48815823 -0.43149468
000020 3d 99 30 bf b3 aa 3b bd d1 3b 03 bf 73 2b 19 bf
       -0.68983823 -0.04581709 -0.5126315 -0.59831923
000030 cd 5d 0c 3f 56 d8 ac be 93 83 57 3f 19 e1 60 be
       0.5483063 -0.337588 0.8418514 -0.21960868
000040 d6 a3 37 3f 9e a4 a2 3e 46 d8 48 be 90 9b 47 3f
       0.7173437 0.31766218 -0.19613752 0.77971745
000050 1e 29 cf bd 23 56 94 be 90 a7 8c bf d2 bb 24 bf
       -0.10115264 -0.28971967 -1.0988636 -0.6434909
000060 1a 0c 40 3e 2b 94 48 bf bc 5d 42 3f 3c 49 29 3e
       0.18754616 -0.78351086 0.7592428 0.16531843
000070 1f 67 00 3f 29 23 28 bf e8 0a a9 3d 6e e4 6c bc
       0.5015735 -0.6567865 0.08254033 -0.014458759
000080 ad b3 dd be 83 28 2d 3d c4 bf 01 3e 02 38 3f be
       -0.43301144 0.042274963 0.12670809 -0.18673709
000090 0e ab 05 bf bc 58 95 3e 67 e5 c1 be 1f 88 a1 3e
       -0.52214134 0.2916926 -0.37870333 0.31549165
0000a0 83 be 92 3f 90 17 b9 bd ee 1d 6a be 6d 3a dd 3e
       1.146439 -0.09037697 -0.2286298 0.43208638
0000b0 ec fb 28 3f 79 06 4d bf 14 f2 2a bf 28 c8 16 3e
       0.660094 -0.80088 -0.6677563 0.14724791
0000c0 ef a4 d8 3e d8 d6 c5 3c 0a f5 3a 3f ae f8 14 3f
       0.42313334 0.024150297 0.7303015 0.58191955
0000d0 57 c2 25 3f b1 61 dd 3e e1 ae 82 3f 82 b1 6e bf
       0.64749664 0.43238595 1.0209619 -0.93239605
0000e0 e5 e3 c5 3e 57 9f 51 3f 40 16 0e bf 40 00 f7 3e
       0.38650432 0.8188376 -0.555027 0.48242378
0000f0 3e 90 db be 90 42 90 be dd ac 3c 3f f2 6d 99 bf
       -0.42883486 -0.28175783 0.7370127 -1.1986678
000100 e2 37 95 bf d8 f4 96 3e 80 3a c1 3e 53 ac 81 3f
       -1.1657679 0.29483676 0.37739944 1.0130714
000110 ef 7d 51 bf 40 5f 61 3f da dc b2 be fb 7d 4d 3f
       -0.81832784 0.88035965 -0.3493412 0.80270356
000120 59 aa fe 3e 00 21 a7 be 69 e0 19 bf f3 10 4e bf
       0.4973934 -0.32642365 -0.6010805 -0.8049461
000130 d8 79 c7 3f 32 52 48 3f 23 99 cc 3a eb 40 64 bf
       1.5584059 0.7825042 0.0015609603 -0.89161557
000140 1b 0b 9a 3e b9 6c 1c bf ac 78 5b 3f 94 97 d0 3e
       0.30086598 -0.611034 0.85731006 0.40740645
000150 49 da 9f 3d bf 37 4a bf ef 28 2b bf f1 71 00 3f
       0.078053065 -0.7899131 -0.66859335 0.5017386
000160 38 09 8f 3f 8d 00 b0 3e eb bf ca bd c6 2e ca 3f
       1.1174688 0.3437542 -0.09899887 1.5795524
000170 47 6a 6f 3f 67 a6 16 bf 51 48 7f be a4 d1 c2 bd
       0.9352154 -0.5884766 -0.2492993 -0.09512642
000180 6f f2 9b 3d 91 c5 97 3f 53 75 8d 3d 4e 45 b0 3d
       0.076146 1.1857167 0.069071434 0.08606969
000190 58 92 0a bf 93 0b 8a 3e 19 f0 ba 3e 5e b7 97 3d
       -0.5412955 0.26961955 0.36511305 0.074080214
0001a0 b7 7c 00 3e 76 07 9b 3f e6 f2 97 bf a6 e1 05 3f
       0.12547575 1.2111652 -1.1871002 0.5229744
0001b0 d9 be 21 bf 64 c0 70 bd 27 35 6c be 9b 95 47 3f
       -0.63181835 -0.058777228 -0.23067151 0.77962655
0001c0 fc ae a2 3e 45 d5 c6 3f cb db 39 3f db bc 4b 3d
       0.31774127 1.5533835 0.72601 0.049740653
0001d0 d1 30 5e 3f 07 34 ae 3e 75 30 f4 be cc a3 f3 3d
       0.8679324 0.3402407 -0.4769322 0.11896476
0001e0 0b d3 b3 be e4 e0 46 3e 76 12 ae bf 08 bb 42 3f
       -0.3512195 0.19421726 -1.3599384 0.7606664
0001f0 e4 a9 78 3f 1a e6 a6 3e ef a3 49 bf 41 bc 84 3f
       0.9713423 0.3259743 -0.7876577 1.036995
000200 9d 75 db 3e a6 fe b1 be fc 23 0d 3f 28 83 c5 3e
       0.4286317 -0.34764594 0.5513303 0.38576627
000210 65 ec 1e be ce 88 3a 3f f3 b9 26 bf 66 e1 61 bf
       -0.15519865 0.72865 -0.65127486 -0.88234556
000220 8c 47 25 bf b8 57 07 bf 8e f1 79 be 8d 1a 37 be
       -0.64562297 -0.52868223 -0.24408552 -0.17881222
000230 c0 29 36 3f 2a f7 e5 3f 64 6d 4f be 85 29 12 bf
       0.71157455 1.7966053 -0.20256573 -0.57094604
000240 67 94 99 bd 9d 71 15 3f b6 67 0b 3f d1 4e 1e 3f
       -0.074990086 0.58376485 0.54455125 0.61839014
000250 1b 38 e5 bd 3f df 0b bf 39 c2 b1 bd 32 e1 87 3e
       -0.11192342 -0.5463752 -0.08679623 0.26538998
000260 8d 8d 33 bd a0 a9 2c bf 5a 68 dd 3e 6d 38 20 bf
       -0.043836165 -0.6744633 0.43243676 -0.625861
000270 3e 18 d7 be 13 7a 4c bf 30 37 4f bf fd 43 b0 be
       -0.42010683 -0.7987377 -0.80943584 -0.3442687
000280 99 78 68 3f 17 0c ec be 8a 26 91 3d 4b e2 4a 3e
       0.9080902 -0.46102974 0.07087429 0.19812886
000290 bd 09 5d bf 1b ad ae 3e a6 5b 11 bf d8 06 12 3f
       -0.86342984 0.34116444 -0.5678047 0.5704169
0002a0 91 a9 b2 be eb 51 8c bf 47 20 d1 3e e6 af 6d bf
       -0.34894994 -1.0962499 0.40844938 -0.92846525
0002b0 a0 5a ad bf 5a 1d c9 be 2f df f8 be 14 fe d5 3e
       -1.3543282 -0.39280206 -0.48607776 0.4179541
0002c0 9e 16 25 3f f2 92 e2 bb bc 4a 0f 3f e2 3c 0c bf
       0.64487636 -0.00691449 0.5597341 -0.547804
0002d0 41 8a 87 3f 97 28 21 3d 19 eb f7 be 54 28 d6 bd
       1.0589067 0.03934535 -0.48421553 -0.10456911
0002e0 b9 48 04 3f 0a d8 39 3e 2a 26 2c bf 4a c9 0b bf
       0.51673466 0.18148819 -0.67245734 -0.5460402
0002f0 6e 73 ad 3e d0 7d de bf 11 44 ae 3e fa 76 7e be
       0.33877128 -1.7382145 0.34036306 -0.24850073
000300 91 f5 fc be 8c fd 67 3f df c2 02 3f 6a db 28 bf
       -0.49406102 0.90621257 0.510786 -0.659598
000310 67 43 25 3f eb 76 0f 3e 3b 5b 38 3f 5c fa 2f bd
       0.6455597 0.14010207 0.72014207 -0.04296337
000320 9b e1 28 3e 2d 7c d0 3e c4 19 e3 be c0 af a0 3f
       0.16492312 0.4071974 -0.44355595 1.2553635
000330 1d 51 d6 be 44 0b 72 bf 0b a6 6f 3f dc 14 af bf
       -0.4185876 -0.9454844 0.93612736 -1.3678241
000340 8e ac 99 be 5a d7 e8 3e 86 d5 fc 3f a4 0e 09 3e
       -0.3001446 0.454768 1.9752662 0.13384491
000350 c8 75 68 3f 72 b4 ab 3e 7a a9 1e bf 85 93 37 3f
       0.9080472 0.33536106 -0.6197735 0.7170947
000360 5c 29 14 bf cc af fd 3e 5c 85 17 3f 13 52 1f bf
       -0.5787561 0.49548185 0.59187865 -0.6223461
000370 f9 04 d1 3e 11 77 11 3f 44 de b6 be 35 62 6e bf
       0.40824106 0.56822306 -0.3571645 -0.931186
000380 52 b6 ec be e7 75 7f bf 19 b7 61 3e 97 e1 84 3f
       -0.4623285 -0.9978928 0.22042502 1.0381345
000390 7b 3f e0 3e d2 68 7c bf be 9f 89 3f be 9c e8 3d
       0.43798432 -0.98597443 1.0751874 0.11358021
0003a0 72 f7 2d 3f 00 6f e1 bd 3f 97 84 bf c0 f4 81 3d
       0.67955697 -0.110075 -1.0358657 0.063455105
0003b0 5b b2 86 be e8 c4 3d bf 75 61 50 be 91 a2 c1 3e
       -0.2630795 -0.7412858 -0.20349677 0.3781934
0003c0 99 e6 a5 be 20 bd 87 3e 7b 81 63 be 2a d7 93 bf
       -0.32402495 0.26511478 -0.22217362 -1.1550038
0003d0 3e 55 81 bf a8 90 a7 3e e0 ad 14 bd cf d4 c3 3e
       -1.0104139 0.3272755 -0.036298633 0.38248298
0003e0 fd 49 ac bf 5b a1 5f 3e e5 8d 9c 3e bc 95 01 3f
       -1.346008 0.21838896 0.30577007 0.506191
0003f0 ce fe 63 3e c4 1c 30 3f 30 3b 2c 3e 2b f6 de be
       0.22265169 0.6879389 0.16819453 -0.43547186

model.0.bias f4 [200]
000000 00 00 00 00 32 0e b5 3d 00 00 00 00 1b a0 35 bd
       0.0 0.08840598 0.0 -0.04434214
000010 11 84 4b be 00 00 00 00 d7 be 05 be 73 23 46 be
       -0.19874598 0.0 -0.13061081 -0.1934946
000020 90 f0 9c 3d 31 2e 49 3d 2f be 1e bd 95 4f 1b 3e
       0.07663071 0.049116317 -0.038755592 0.15167077
000030 19 c6 e0 bd b8 30 bc bc 37 76 7e bd 17 84 11 bd
       -0.10975284 -0.02297245 -0.062124457 -0.03552636
000040 ea 90 68 bd ad 1b c2 bd 0e 8e a1 3d 58 72 8c bd
       -0.056778826 -0.09477935 0.07888423 -0.06857747
000050 92 61 11 bd a5 e7 8c 3e 80 2a 8e bd 0c f0 14 bd
       -0.03549344 0.2752048 -0.069417 -0.03636174
000060 e0 2c d9 bd 14 86 f4 bd 8d e1 8c bd 85 c0 83 bd
       -0.10604262 -0.11939636 -0.06878958 -0.064332046
000070 cc f7 df bc 09 6f 3f bd b2 6f 9b 3c f5 92 c3 bd
       -0.027339838 -0.04673675 0.018974159 -0.09549514
000080 b4 fd 8f bd 94 1c 3e 3d 00 00 00 00 23 a2 2f bd
       -0.07030812 0.046413973 0.0 -0.042879235
000090 c9 67 21 be a8 ba 95 3e 0c d7 e3 bd 00 00 00 00
       -0.15762247 0.2924397 -0.11125001 0.0
0000a0 6a 36 d6 bd 2a 48 69 bd 18 c4 7f bd 5d 15 24 3d
       -0.104595974 -0.056953587 -0.06244287 0.040059436
0000b0 72 6c cb bd a9 99 0c bd b3 c9 d0 3d 11 a2 4b 3e
       -0.09932794 -0.03432623 0.10194721 0.19886042
0000c0 36 57 75 bd de de 04 be 94 ae b3 bd 77 39 07 be
       -0.059897624 -0.12975642 -0.087735325 -0.13205515
0000d0 c6 f2 e2 bd 21 40 7d bd 02 01 9f bc 55 e8 dc 3c
       -0.110814616 -0.061828736 -0.01940966 0.026966253
0000e0 84 17 a6 bc 25 5b ed bd 4b ed b7 3d 9d d8 e3 bc
       -0.020274885 -0.1158965 0.08980807 -0.02781325
0000f0 04 74 b8 3b 26 61 d2 bc 26 66 d7 bd 72 06 72 bd
       0.0056290645 -0.02568109 -0.1051753 -0.059088178
000100 1d 0f 88 bc 18 40 25 be d3 68 12 bd e3 7a 1f bd
       -0.01660877 -0.16137731 -0.0357445 -0.038935553
000110 dc 59 00 3d 8e 7f 14 be 0d 20 ac bd d7 43 8e 3c
       0.031335697 -0.14501783 -0.08404551 0.017366333
000120 91 a2 ea 3d 05 c9 03 bd 8b 18 c7 bd 39 a8 13 3c
       0.11456788 -0.03217413 -0.09721478 0.009012275
000130 cc a7 a6 bd f1 03 37 be d6 af d1 3c f9 45 63 bd
       -0.081374735 -0.17872597 0.02559654 -0.055486653
000140 26 73 15 bd 00 00 00 00 b5 ce 96 bd 7b b5 cb 3d
       -0.036486767 0.0 -0.07363645 0.09946724
000150 94 3b ab bd 65 ab c1 bd 5b 2b e7 bd 5b dd 90 3d
       -0.08360973 -0.09456519 -0.11287566 0.0707347
000160 08 39 67 bd c1 0a 1e be 32 fc 2d be 6e 52 dd bd
       -0.056450874 -0.1543379 -0.16990736 -0.10806738
000170 32 ce d1 bd 00 00 00 00 6a 34 36 3e 90 78 18 3e
       -0.10244407 0.0 0.17793432 0.14889741
000180 08 2a 91 bd ef 0c aa bc 63 a1 41 3d 67 e9 83 bd
       -0.07088095 -0.02075812 0.04727305 -0.06441002
000190 16 a3 56 3d 26 ed 87 bd 3b c5 59 3c 91 ca 28 3b
       0.052401625 -0.06637029 0.013291652 0.0025755505
0001a0 27 e1 6e 3a 47 d7 e9 bd c2 48 be bd be f9 08 3e
       0.000911253 -0.11418014 -0.09291221 0.13376519
0001b0 de 3f 53 3e 75 ec f8 bd d5 39 94 bc ef 7b 9c 3d
       0.20629832 -0.121544756 -0.018093983 0.07640826
0001c0 ac b0 77 3d 7d 03 31 be 68 68 5a bd ea 59 be 3c
       0.06047122 -0.17286487 -0.053322226 0.023236234
0001d0 dc 80 0a be 8e d6 6e bd d4 79 f5 bd 59 14 0e 3d
       -0.13525718 -0.058310084 -0.119861275 0.034687374
0001e0 1e a3 bc bc c3 28 9a bd f2 27 4b bd 07 e7 88 bd
       -0.023027 -0.07527306 -0.04959864 -0.0668469
0001f0 21 18 b5 bd 12 e0 12 be de c1 b3 3c e1 7c c3 bd
       -0.08842493 -0.14343289 0.021943029 -0.09545303
000200 27 27 07 bd eb 4f fd 3d 1e a3 44 bd cc bb 17 3d
       -0.032996323 0.12368759 -0.048007123 0.03704433
000210 5f 92 e1 3d b0 a4 a9 bd 00 00 00 00 a7 ef 18 bd
       0.11014246 -0.08283365 0.0 -0.037337925
000220 fa b5 5d 3d fe c2 b2 bd 80 5a ab bd b9 ff b0 3d
       0.054128624 -0.08728598 -0.08366871 0.08642525
000230 4a f6 a2 3d 95 24 ef 3d 00 00 00 00 49 41 af bd
       0.07957132 0.11676899 0.0 -0.08557374
000240 d3 50 4f bd 5e ae 55 bd 39 15 d0 3d bf 73 f0 3b
       -0.05061419 -0.052168243 0.10160298 0.0073380168
000250 ba 4b 51 bc c7 41 be bc 3d de ea bc 00 00 00 00
       -0.012774402 -0.023224724 -0.028670425 0.0
000260 d5 f4 27 be 19 81 a8 bd eb a5 0f be 04 86 d1 bd
       -0.1640199 -0.082277484 -0.14028136 -0.102306396
000270 19 00 6d 3d fc 82 e9 bd 08 fa 31 3c d7 86 85 bd
       0.05786142 -0.114019364 0.010862835 -0.06519859
000280 01 bb 85 bd 3b 84 df bd 8f cf 9e bd 1d d5 80 3d
       -0.06529809 -0.10913893 -0.077544324 0.06290648
000290 ac 6b b4 3d bc 61 5b bc cb 01 3c be 0c 21 c1 bd
       0.08809599 -0.013390001 -0.18360059 -0.09430131
0002a0 6d 19 0c be ca fb ae bc 0f e5 94 bd 99 3f 98 bc
       -0.13681574 -0.021360297 -0.07270252 -0.018585013
0002b0 ff 86 ba bd 00 00 00 00 8a 45 0b 3d 00 00 00 00
       -0.0910778 0.0 0.034001864 0.0
0002c0 60 71 c5 bd a3 26 d6 3c d1 ca 2b 3d a8 dd 01 be
       -0.09640765 0.02614147 0.041941468 -0.12682211
0002d0 18 7f 1b be 78 df 16 be 54 a7 8c 3d 34 bd bb bd
       -0.15185201 -0.14733684 0.06867853 -0.09166947
0002e0 00 00 00 00 f3 dd e7 3d 65 81 b8 bc 0f 25 2f 3d
       0.0 0.1132163 -0.022522638 0.04275995
0002f0 e0 04 bc 3d 36 c9 03 be b4 d7 39 3d 00 00 00 00
       0.09180617 -0.12869725 0.045371726 0.0
000300 fa f1 bc bc 00 00 00 00 df 43 b2 bd f5 8a 8e bc
       -0.023064602 0.0 -0.08704352 -0.017400244
000310 87 76 90 be 36 d8 b6 bd 02 fe 43 bd 3f be 09 be
       -0.2821543 -0.08927958 -0.047849663 -0.1345148

model.2.weight f4 [200, 200]
000000 db c4 cc 3d 57 57 b2 bd 8e f8 4a 3d a0 78 93 bd
       0.09998485 -0.08708065 0.049553446 -0.07200742
000010 f6 4f 26 3e 85 9b e3 bd 4c f2 c5 bd 51 35 e4 3d
       0.1624144 -0.11113647 -0.09665355 0.11142982
000020 81 3b 3d 3d cd 8b a1 3c 31 55 8c bc 83 d1 3d bc
       0.046199325 0.019719983 -0.017130466 -0.011585596
000030 14 fa a3 bc a6 8a af bd e7 67 ea 3d c9 5b 51 bd
       -0.020016707 -0.08571367 0.11445599 -0.051112924
000040 66 f0 24 bd 78 16 9b 3d 6e df 45 bd 8c 07 39 3c
       -0.040268324 0.07572645 -0.048308782 0.011293303
000050 c1 43 0b 3e 6d 6b 71 be 4b 6f fe 3d da 97 81 3d
       0.13600065 -0.23576136 0.12423571 0.063277915
000060 9e b5 6b be 1b 35 56 bd dd 06 f2 3d 98 f3 a7 3c
       -0.230185 -0.05229674 0.11817715 0.020501897
000070 71 0b 57 bd 5f ce d4 bd c6 46 76 3c 70 9c 69 3d
       -0.052501146 -0.10390925 0.015031522 0.057033956
000080 da 0f dd 3d ce 8a 09 bc 4f ab ea 3d b5 00 30 3d
       0.10794039 -0.00839491 0.11458456 0.042969424
000090 54 46 3c be 95 58 35 3e 4e e1 08 3d 43 f6 82 3d
       -0.18386203 0.17709573 0.033417992 0.06394627
0000a0 00 f4 b7 bc 49 94 46 3c f0 9c f7 bd 61 81 58 bd
       -0.022455215 0.012120315 -0.1209048 -0.05285776
0000b0 ad 33 d5 3c 73 51 87 3d 34 3c c1 3d e6 e8 47 3d
       0.026025617 0.06607332 0.09435311 0.048806094
0000c0 85 ee 92 3d 63 41 26 3e 88 76 89 bd c8 95 6f be
       0.071744 0.1623588 -0.06712061 -0.23396981
0000d0 30 65 12 3d 9c d5 2e bd 70 be 0f be 49 21 10 be
       0.03574103 -0.042684183 -0.1403749 -0.14075197
0000e0 3e 79 85 bd a5 b2 27 bc 91 e9 f4 3c 2f 52 0b 39
       -0.06517266 -0.010235463 0.02989653 0.00013286689
0000f0 24 2e f3 3b fa 4e 9f bc 31 71 84 bd 5d ef d2 bd
       0.007421272 -0.019446839 -0.06466902 -0.10299561
000100 83 c1 bc bd 2a 22 a7 bd 67 fa db 3d b9 bf d8 bc
       -0.09216597 -0.08160813 0.1074112 -0.026458608
000110 02 27 41 3d d4 20 bb bd 6a 96 2e bc ac d7 26 bd
       0.04715634 -0.09137121 -0.010655979 -0.040733024
000120 6c 0e 22 be b4 3d a4 bc 58 66 71 ba 80 77 aa b7
       -0.15825814 -0.020048954 -0.0009208671 -2.0321226e-05
000130 ea f9 09 3e 7f f8 1a be 4d 0a 99 3c 20 cb ae b9
       0.13474241 -0.15133856 0.01868167 -0.00033339206
000140 16 da ab bd 1a ce c2 bc dd e8 93 3d 39 1d 02 3e
       -0.08391206 -0.023779918 0.072221495 0.1270646
000150 16 50 d4 bc 24 ee ca bd 50 13 0d 3d a8 0c a7 3c
       -0.025917094 -0.09908703 0.034442246 0.020391777
000160 b2 68 b0 3d ba b6 62 3d 08 f9 2f 3d a4 3f 03 bd
       0.08613719 0.055350043 0.042962104 -0.032043114
000170 60 c6 e9 3d eb 76 84 bd e9 ad 83 3d 74 08 10 3d
       0.1141479 -0.06467994 0.06429655 0.03516431
000180 8c a8 c0 bd 61 90 d1 bc 50 0d da bd 5a c1 68 bd
       -0.09407148 -0.02558154 -0.106470704 -0.05682502
000190 66 b3 92 bc 78 c8 50 bd 48 77 77 be b3 de d3 bd
       -0.01790781 -0.050972432 -0.24166596 -0.10345211
0001a0 9c 99 1d 3e 80 07 04 be ca 71 f5 3c 9b 6e c8 bd
       0.15390629 -0.12893486 0.029961485 -0.09786721
0001b0 c6 7c d1 3d ee 1a 8d bd 4f 00 14 3e b2 0b 3c 3d
       0.10228877 -0.06889902 0.14453243 0.04590959
0001c0 63 30 0c be 8b fc 16 be 01 13 7c 3d 4c b5 fa 3c
       -0.13690333 -0.14744775 0.06154156 0.030604027
0001d0 05 03 95 3c 36 6b 1d bc 3a 95 0e bd 45 c3 16 bd
       0.018189916 -0.009608081 -0.034810282 -0.036807317
0001e0 71 77 75 bc 16 03 92 bd d0 05 dc bc b4 54 28 bc
       -0.01498209 -0.07129495 -0.02685824 -0.010274101
0001f0 1f c9 47 be 2b 07 0c be 91 ed 00 3c e9 ec b7 3d
       -0.19510315 -0.1367461 0.00786914 0.08980734
000200 44 22 d3 3c 9c a0 21 bd 66 51 1b 3c 1d 3c 76 bd
       0.025773175 -0.03945981 0.009479856 -0.060115922
000210 c8 f2 00 3a 27 6a e3 bc b2 54 6c 3d 40 f2 74 3c
       0.000491899 -0.027760578 0.05769796 0.014950335
000220 08 00 c3 bc ef d3 40 be ac 41 47 bc 68 85 78 3d
       -0.023803726 -0.18830846 -0.0121616535 0.0606741
000230 09 41 fc 3b a2 d2 86 3c 40 cd 93 3c 78 5c 20 be
       0.0076981825 0.01645786 0.018042207 -0.15660274
000240 e4 f6 2a be ac a5 6c bd 91 34 8b bd 97 0c 36 3e
       -0.16695744 -0.057775185 -0.067971356 0.1777824
000250 91 ec 35 be 8e 2c 73 bc c1 ea dd bb 3b 3e a1 3c
       -0.17766024 -0.014842166 -0.0067723696 0.019682994
000260 65 ee 6b 3d e0 7f 81 be ed 8c de bd 30 87 dd 3d
       0.057600398 -0.25292873 -0.10866723 0.108168006
000270 a2 93 95 bd 68 24 8e bd fa d7 d7 3d bc 1b 40 3d
       -0.07303549 -0.06940538 0.10539241 0.04690145
000280 da ee a6 3d 49 20 66 3d d1 46 b9 bd 98 80 0b be
       0.08151026 0.056183133 -0.0904671 -0.13623273
000290 b7 fd ba 3d 5c 51 40 bd 8e ae 83 3e 91 ff 3c 3d
       0.091304235 -0.04695259 0.25719112 0.046142165
0002a0 37 26 b1 3d de d5 c6 3b 41 57 b7 bd 4c 1f a5 bd
       0.08649867 0.0060679754 -0.08952189 -0.0806261
0002b0 d6 da 23 3d a4 d0 9e 3d e8 37 d4 bd 0b 23 03 3e
       0.04000362 0.07754639 -0.10362226 0.12806337
0002c0 a1 cc c4 bc a2 60 db 3d 2c 23 04 3d e3 f1 c0 3d
       -0.024023356 0.107117906 0.032260105 0.09421136
0002d0 9c 73 70 be 48 ff bc 3c 18 12 46 bd b1 4f 0f 3d
       -0.23481601 0.023070946 -0.0483571 0.03498811
0002e0 97 94 b2 3d fd c8 da bd db 2c 5d 3e 49 0d 9a 3d
       0.087197475 -0.10682867 0.21599142 0.07522065
0002f0 aa 3a d2 bd 7a 48 5f 3d 5f 0f b4 3c c0 81 e6 bd
       -0.102650955 0.05451248 0.021979986 -0.112552166
000300 d7 30 a7 bd 3c e6 0f bd fd ff f5 3d ed a7 9b bd
       -0.08163612 -0.035131678 0.120117165 -0.07600389
000310 3b 0f 96 3d 24 ea 0a be 41 f6 36 ba 5b bf 22 3d
       0.07327124 -0.1356588 -0.0006979444 0.039733272
000320 bc df 14 be ce 08 6c be b3 1e fb 3d 5d 32 77 bd
       -0.14538473 -0.23050234 0.12261715 -0.060350765
000330 25 48 5d be 78 3f 2b be 54 46 1c 3c 2f af ad bc
       -0.21609552 -0.1672343 0.009538252 -0.021201698
000340 5c ab 85 bb fa 36 0f 3d 32 65 64 bc 00 8e d7 3d
       -0.0040792655 0.03496454 -0.0139401425 0.10525131
000350 83 43 28 3e 7b b2 87 bc 5f a6 64 be b3 4e 93 bd
       0.16432004 -0.016564598 -0.2232909 -0.07192745
000360 b2 6b 07 3e 3b 30 e4 bc c8 7a d5 3d 67 f6 3d 3e
       0.13224676 -0.02785503 0.10423809 0.18551026
000370 72 0b 24 be 7f 8f c4 be a7 d1 23 be 41 97 e0 3d
       -0.16019991 -0.3839073 -0.15997945 0.109663494
000380 2d 85 38 be 6a 96 45 3e 99 d4 bf 3d 72 09 09 bd
       -0.18019553 0.1929566 0.09366722 -0.033456273
000390 aa 28 bb bd 10 fb a9 3b 33 b2 fe bd 90 ab f7 3d
       -0.091386154 0.0051873997 -0.124363326 0.1209327
0003a0 98 72 f0 bc 72 3c d6 3c d5 5e 5e 3d cb 81 08 3e
       -0.029351518 0.02615187 0.054289658 0.13330762
0003b0 19 f5 26 3d 8a 91 38 3c 74 8c 85 bc 27 d9 9d bb
       0.040761087 0.011265168 -0.016302325 -0.0048171463
0003c0 bf 40 86 bd 7b 83 1c 3e b7 38 26 be d8 38 d0 bd
       -0.06555318 0.15284531 -0.16232572 -0.10167092
0003d0 96 94 1a 3e 1c 19 12 bd 7a e3 be bd 37 22 6b be
       0.15095744 -0.035668477 -0.093207315 -0.2296227
0003e0 41 d9 6a bc 95 58 af bd e8 fc 7e 3d af f5 ba bd
       -0.014334024 -0.085618176 0.06225291 -0.09128892
0003f0 ed 27 7a 3d 5b 34 99 3d 4c a7 8e bd 58 ad 2e bd
       0.061073232 0.07480689 -0.06965503 -0.042645782

model.2.bias f4 [200]
000000 f0 66 e7 bc 02 b0 f9 bc 1b c6 a9 3c 90 78 0d bd
       -0.028247327 -0.030479435 0.020724347 -0.034538805
000010 af 01 c3 bc 78 68 d6 bb 17 da 50 bd 43 8d d8 3c
       -0.023804514 -0.0065432154 -0.050989237 0.026434546
000020 71 34 b9 bc 25 1b bd 3d 15 1b 48 bc bf f3 fb bc
       -0.022608014 0.09233693 -0.012213488 -0.030755876
000030 81 84 68 bd ca c5 db bc 70 81 22 bc 9e ac 28 bb
       -0.05676699 -0.026827712 -0.009918556 -0.0025737653
000040 81 a9 c6 bc aa 5c e4 bc 25 40 89 3b 3d 1e 6e bc
       -0.024250748 -0.027876217 0.004188555 -0.014533577
000050 fe df de bc e3 ad 94 bd e0 c7 49 bd c5 2e 81 3d
       -0.027206417 -0.07259729 -0.04926288 0.06307749
000060 03 4d a0 bc 47 46 69 bc 4e c2 c4 bc 33 a5 05 bd
       -0.019567972 -0.014237947 -0.024018433 -0.03262825
000070 35 82 c4 bc ad d6 23 bc 80 63 98 3c c7 c7 23 bc
       -0.023987869 -0.009999913 0.018602133 -0.009996361
000080 64 5e 6b bd f0 1b 63 bc cd d0 0a 3d 7f 8f 57 bc
       -0.057463065 -0.013861641 0.033890534 -0.013156771
000090 77 df c5 bc bd e1 c7 bc 37 d1 1c bd 9f a8 4a bc
       -0.024154408 -0.024399633 -0.03828546 -0.012369304
0000a0 cc 02 75 bc b8 52 09 bd 98 67 71 bc d1 ff 60 3c
       -0.01495428 -0.033526152 -0.014734171 0.013732866
0000b0 22 55 5b bd 68 28 bf bc ee e0 a1 bc 5a 6d 81 bb
       -0.053547986 -0.023334697 -0.019760575 -0.0039498033
0000c0 6e 86 37 bd a1 0d 94 bc 00 00 00 00 91 8e ba bb
       -0.044805937 -0.018072905 0.0 -0.005693265
0000d0 fd 88 e2 bc dc 20 90 bc c2 79 a2 bb fa 13 50 3d
       -0.027653212 -0.017593794 -0.0049583623 0.0508003
0000e0 eb 87 10 bd c3 97 b7 bb 46 25 3c bd 08 d7 23 bc
       -0.03528587 -0.005602808 -0.045933984 -0.009999998
0000f0 d5 34 f8 bc e6 e3 ac bc 6a 3d 9a 3c 4a 10 80 bd
       -0.03029863 -0.021104764 0.018828113 -0.06253107
000100 c5 b2 4b bc 06 d7 23 bc 07 71 5e bc 13 4b a1 bb
       -0.012432759 -0.009999996 -0.0135767525 -0.0049222796
000110 f8 91 ae bb 00 00 00 00 00 00 00 00 26 dc 98 bb
       -0.0053274594 0.0 0.0 -0.0046649156
000120 d2 df 88 bc f0 09 54 bc 8a 1b ab 3b 5e a5 4e 3c
       -0.016708288 -0.012941822 0.005221789 0.012612669
000130 d4 4c 86 3d 55 51 f4 3c 2a df 3e bd d7 60 e5 bc
       0.065576226 0.029823938 -0.046599545 -0.028000278
000140 fe c6 a4 bc a1 f1 8e bc 22 9b 1b bd 1a e0 b8 bc
       -0.020114418 -0.017449202 -0.037989743 -0.022567797
000150 55 ae 35 be b8 f1 07 3e c3 d7 d0 bc 00 00 00 00
       -0.17742284 0.13275802 -0.025493508 0.0
000160 76 30 f1 3d f6 cb d4 bc 0b 96 0b bd ce 6b 42 bd
       0.11776821 -0.025976162 -0.03407864 -0.04746609
000170 0d 6c fc bc b4 17 ec bc fe d6 23 bc c9 c4 23 bc
       -0.030813241 -0.028819896 -0.009999989 -0.009995648
000180 16 52 80 bb d8 d6 23 bc ef fb 85 bc f6 dc 37 bd
       -0.0039160354 -0.009999953 -0.016355483 -0.04488846
000190 54 6a 84 bc 68 df 73 bc 13 2b ca 3d 15 03 02 3c
       -0.016163982 -0.014884807 0.09871497 0.007935305
0001a0 64 24 5d bd 00 00 00 00 82 b5 cb bc 92 cb c3 3b
       -0.053989783 0.0 -0.024866823 0.005975195
0001b0 51 6b c5 bc cb 55 9a 3d 7a 20 db bc 8c 11 01 bd
       -0.024099024 0.07535895 -0.026748884 -0.031510875
0001c0 1a 53 82 bc 07 32 e5 bc 1a 8c c5 bc 00 00 00 00
       -0.015908767 -0.027977956 -0.024114657 0.0
0001d0 71 da 84 3b 25 ed 25 3d b4 5b c4 bc 9a b5 57 bd
       0.0040543606 0.04050936 -0.023969509 -0.052663423
0001e0 2a ee d3 bd 18 51 93 bd e0 80 89 bc e6 1c ec bc
       -0.103481606 -0.07193202 -0.016785085 -0.028822374
0001f0 cc fe 78 bd 50 4d a0 bb 00 00 00 00 e6 d6 23 bc
       -0.06078987 -0.004892029 0.0 -0.009999966
000200 df 74 be bc 1a b7 36 bc de 0f c9 bc 00 00 00 00
       -0.023249088 -0.011152053 -0.024543699 0.0
000210 80 26 be bc 00 fb aa bd 4f 79 b1 bc 6a 89 c3 bc
       -0.023211718 -0.08348656 -0.02166429 -0.023869235
000220 10 c0 8d 3c 44 75 ff bc b8 b0 db bd 97 f6 ba bc
       0.017303497 -0.031183846 -0.10727066 -0.022822661
000230 75 90 bf bc a6 92 56 bd 87 c2 f8 bc e5 51 34 bb
       -0.023384312 -0.05238595 -0.030366195 -0.0027514633
000240 9b dc 0f bd 36 03 4b bc a0 6e 05 bc 58 4b d4 bc
       -0.035122495 -0.012390902 -0.008144051 -0.025914833
000250 00 00 00 00 00 00 00 00 d2 f4 46 bc 2e 7f 53 3d
       0.0 0.0 -0.012143331 0.05163496
000260 88 1a 7a bc 8a 32 08 bd 94 86 11 bd 3b df 93 bc
       -0.015265115 -0.033251323 -0.035528734 -0.01805078
000270 92 23 a8 bc b1 b4 af bb a2 e4 73 bc b8 48 98 bc
       -0.020524774 -0.0053621163 -0.014886053 -0.018589363
000280 10 5b 02 3d fb 69 ec bb 6c ca dc 3c 8c 90 3b bd
       0.031825125 -0.0072147823 0.026951991 -0.045792148
000290 f4 f9 bd bc 00 00 00 00 69 72 b7 bc 45 60 45 3c
       -0.023190476 0.0 -0.022393422 0.012046878
0002a0 e3 d6 23 bc 68 d0 40 bc 93 cd 8f bc ed f4 29 bd
       -0.009999963 -0.011768438 -0.01755408 -0.041493345
0002b0 d2 62 65 bc 00 00 00 00 29 8d 32 3d a8 70 bf bc
       -0.014000611 0.0 0.043591652 -0.023369148
0002c0 f0 20 42 bd 36 45 f8 bc 39 d1 a7 bc 3a a2 13 bc
       -0.047394693 -0.03030644 -0.020485507 -0.009010846
0002d0 ae 32 96 bc d3 d3 be bc 0a d7 23 bc ca ac 71 bd
       -0.018334713 -0.023294365 -0.01 -0.059002675
0002e0 11 35 5a bd b0 a4 db 3d 89 28 ee bc 49 14 06 bc
       -0.053273264 0.10724771 -0.029072063 -0.008183547
0002f0 fc 49 c7 bc 16 28 ef 3c 8a d1 a0 bc 6d c9 e8 bc
       -0.02432727 0.02919392 -0.019631166 -0.02841636
000300 42 f0 24 ba 3f 3e 78 bc ac a4 5c bc 18 7b d4 bc
       -0.0006291905 -0.015151559 -0.013466995 -0.025937602
000310 79 9f f4 bb 6b ed e7 bd 83 20 3f bc 68 0b bb bd
       -0.0074652997 -0.11324581 -0.011665466 -0.09133035

model.5.weight f4 [200, 200]
000000 61 22 bc bc 11 d1 e4 bc 56 1c 09 bd e2 f5 1b 3e
       -0.022965612 -0.027931722 -0.03347429 0.15230516
000010 1e 2c c7 bc 89 5c 12 3d f6 9a 3e bd 02 f3 41 3d
       -0.024313029 0.03573278 -0.0465345 0.04735089
000020 29 6a 00 bd 64 39 c3 3d 8e 6b 4a bc e0 f6 c2 bb
       -0.031351242 0.09532431 -0.012354745 -0.00594984
000030 f3 1b ee bd 92 25 3b 3c 5b f9 c5 3d c5 08 92 bc
       -0.11626425 0.011422532 0.096667014 -0.017826447
000040 5d 1b 5e 3d 15 f2 f1 3c d3 0c 30 be a4 3f 90 3d
       0.054225314 0.029534379 -0.17192392 0.070433885
000050 37 9a 55 be 88 69 6e bd e8 26 c1 bd 7a 4c 57 3d
       -0.2085961 -0.05820611 -0.09431249 0.052563168
000060 be ab 93 bd 45 2b 89 3d 73 ef 81 3e cd 9f 8b bd
       -0.072104916 0.06697706 0.25377998 -0.06817589
000070 f8 55 75 bd 63 b3 34 3d 4e 97 d2 bd d4 68 08 be
       -0.05989644 0.04411639 -0.10282765 -0.13321239
000080 fb 01 d7 bd af f8 23 3d 38 41 0b be c1 2d 4b be
       -0.104984246 0.040032085 -0.13599098 -0.19841672
000090 3e 8a f8 bd 3d 40 8b bb 58 e4 b3 3b 18 6d a6 bd
       -0.121357426 -0.004249601 0.005489867 -0.08126277
0000a0 dc e2 1c be 75 0a 9f 3d 8d 24 c3 3d 10 67 9c bd
       -0.15320915 0.077656664 0.09528456 -0.07636845
0000b0 8f cd 59 bd c5 0b 40 be c6 c2 02 3e 96 b8 0f bd
       -0.05317455 -0.1875449 0.12769613 -0.035088144
0000c0 4a 74 96 3c 61 13 5d bd 02 6c f6 3d 0b b6 80 bd
       0.018365998 -0.05397356 0.120323196 -0.06284722
0000d0 16 65 c4 bd ab 70 e4 3d e3 05 1f bd 2a 15 11 3e
       -0.09589593 0.11154302 -0.038823973 0.1416823
0000e0 68 51 70 3e 77 f7 71 bd f3 07 92 3d 46 a4 17 3d
       0.23468554 -0.05907389 0.071304224 0.037021898
0000f0 82 71 46 bc 7e 01 02 3e 3d c2 a2 3d d7 f6 a0 3d
       -0.012112023 0.12695882 0.07947204 0.07859581
000100 61 1e f1 3c d7 17 cd 3d 57 94 8d bd a5 e9 93 bd
       0.029433431 0.10014313 -0.06913059 -0.072222985
000110 69 27 c5 3d 9e 14 08 3e cd 19 9b bd 61 c7 86 bd
       0.096266575 0.13289115 -0.075732805 -0.06580997
000120 5d 8b eb 3d e0 9e 16 be 64 58 a6 bd 44 30 32 3e
       0.11501191 -0.14709044 -0.08122328 0.17401224
000130 87 c7 35 be 2e 97 04 3d dc 30 13 be 93 f1 3b 3d
       -0.17751895 0.03237074 -0.14374107 0.04588468
000140 06 23 a8 bd 49 a4 36 bd b9 3e 15 3d 23 68 90 3d
       -0.08209805 -0.04459027 0.03643677 0.070511125
000150 92 ae a7 bd 03 a3 41 3e 92 6a 61 3c d0 d9 27 3d
       -0.081875935 0.1890984 0.0137583185 0.040979207
000160 9d 5d ff bd 79 2a 98 3d f6 3b c8 3d cb c3 c5 bd
       -0.12469027 0.07429976 0.09777062 -0.09656485
000170 40 a8 ef bc 74 db e9 3d 1c c2 89 3b 29 c6 9e 3d
       -0.029255033 0.114188105 0.004204048 0.0775264
000180 bd 4a aa 3d c2 bf 28 3e ca ff 48 be 5e cc 07 3d
       0.083150364 0.164794 -0.19628826 0.033153884
000190 d7 13 53 3e 18 9c 2f 3e 49 21 0a 3e e8 8a 26 3d
       0.20613037 0.17149389 0.1348926 0.040659815
0001a0 13 92 58 3d 70 71 de bd e4 fb c8 3d a8 c1 ae bd
       0.052873682 -0.1086148 0.09813669 -0.08533031
0001b0 2c 5c ca bd 59 62 13 be 80 28 71 bd 8d dd 25 3d
       -0.09880862 -0.14392985 -0.058876514 0.04049449
0001c0 10 08 4e 3e 4b ed f9 bd 0b 9a 11 be b5 c5 2b 3d
       0.20120263 -0.12203463 -0.14218919 0.041936595
0001d0 c7 ed 03 be b7 bf 7c 3d be d1 15 3d 99 ee a3 bd
       -0.12883674 0.06170627 0.03657698 -0.08004493
0001e0 1e 13 96 bc 74 7a 30 be 98 1d c3 3d da 22 1d 3e
       -0.018319663 -0.17234212 0.09527129 0.15345326
0001f0 0a af 8a bd f0 17 ae bd 9f 7d e3 bc cd a8 25 3e
       -0.06771667 -0.085006595 -0.027769862 0.16177674
000200 cf ba 12 3d 2c dd 5d 3d 97 4e df bd 6d 4c 4d be
       0.035822686 0.054166004 -0.10903662 -0.20048685
000210 4c 31 3f 3b ce 40 a8 bc 71 7b 18 3d eb 3c 9f bd
       0.002917367 -0.020538714 0.037227098 -0.07775291
000220 dc 02 ff 3c 0c 59 bd 3d eb 0d a6 bd 36 b9 d4 3d
       0.031129293 0.092455 -0.081081234 0.10386889
000230 c2 c0 75 bd e5 cb 99 3d 71 f7 54 bd dc 00 89 bd
       -0.05999828 0.07509593 -0.05199379 -0.06689617
000240 12 b9 0e 3d 85 69 d7 3c f6 7f f4 bd 37 a6 88 3d
       0.034844466 0.026295433 -0.11938469 0.06672328
000250 15 c9 11 bd e8 be 1d bc 18 c4 d8 bd de 10 21 bb
       -0.035592157 -0.009628035 -0.10584277 -0.0024576704
000260 6a 52 ba bd 1e ba b1 3c ee 10 8b bd 83 9d 09 be
       -0.090977505 0.021695193 -0.067903385 -0.13438992
000270 cc ed a5 bd 56 ce 23 3e 37 a4 93 3d 0a b2 76 bd
       -0.08101997 0.1599668 0.07209056 -0.060228385
000280 bc 09 2c be 22 13 d8 bc d2 cc db bd e8 f2 c3 3d
       -0.16800588 -0.02637631 -0.10732426 0.09567815
000290 96 39 72 be 33 ca 18 3e cc 56 c7 3d cc 53 36 3e
       -0.2365478 0.14920883 0.09733352 0.17805403
0002a0 71 fe a7 bd a6 de bb bc 76 fa e5 3d 60 b5 dd bc
       -0.08202828 -0.022933315 0.11229412 -0.027064025
0002b0 42 af 21 3e 18 b1 06 be 69 9f 92 3c db 6e 12 be
       0.15789512 -0.13153493 0.017898278 -0.143001
0002c0 ea db 8b 3d ab 60 88 3e 61 72 4c bd e0 f5 32 3e
       0.06829055 0.26636252 -0.049913768 0.17476606
0002d0 e6 a5 01 3e 54 98 b0 3b d8 a8 8f 3d 41 d2 d1 3d
       0.12660941 0.0053892527 0.07014626 0.10245181
0002e0 07 65 54 bc 45 57 83 be 05 e8 69 3e 18 1e 3c 3e
       -0.01296354 -0.2565252 0.22842415 0.18370855
0002f0 bb 29 10 3e fb 5c 9c bd e9 fd e8 bc 16 36 0c 3e
       0.14078419 -0.07634922 -0.028441386 0.13692507
000300 30 42 4b 3d f8 92 00 be 83 cb 0a 3d d0 56 00 bd
       0.04962367 -0.12556064 0.03388549 -0.03133279
000310 ca 57 6c be 90 43 d1 3b da 84 9c 3c 66 ad 87 bd
       -0.23080364 0.006386228 0.019106317 -0.0662487
000320 00 7b 63 bd 85 f9 02 3d c3 bc 42 3b e0 e2 1b be
       -0.055537224 0.03197624 0.0029714562 -0.15223265
000330 84 00 9c bd df 65 4e bc e3 78 5c 3e 26 15 a4 bd
       -0.07617286 -0.01259753 0.2153049 -0.08011846
000340 73 20 05 bd 03 48 06 be 7c 32 56 3d b5 ec 0b 3e
       -0.03250165 -0.13113408 0.05229424 0.13664515
000350 0e 0e a5 3c 3b 41 49 3b 61 8e 91 bd 24 08 1c bc
       0.020148303 0.0030709046 -0.07107235 -0.009523425
000360 d1 3b 0a bd 09 bc 77 bd bb fd be bd cd ed 0d bd
       -0.03374845 -0.06048206 -0.09325739 -0.034650613
000370 69 d8 e7 3c 28 17 a2 bd b9 97 ae bd 11 98 6a bc
       0.028301435 -0.07914573 -0.085250326 -0.014318482
000380 ef 46 81 3d 92 80 85 3c 4a 2d 7d bc c5 29 8d 3e
       0.06312358 0.016296659 -0.015452692 0.2757093
000390 43 3e 19 be 50 07 28 3d 2c b2 23 3e 57 31 4e 3d
       -0.14965157 0.0410226 0.15985936 0.050340023
0003a0 45 bb 29 3e 99 ee d0 bd 44 d3 83 3d c9 89 5c 3d
       0.16575344 -0.10201759 0.0643678 0.05384234
0003b0 cc a0 00 bc dc 60 f4 3d d8 eb 1e 3e 82 60 70 3b
       -0.007850837 0.11932537 0.15519655 0.0036678617
0003c0 49 7c 63 be f4 52 78 bd ed eb 6e 3d 71 01 03 be
       -0.2221538 -0.060625985 0.058330465 -0.12793519
0003d0 6f 99 00 bd f0 07 6f bd 4c dd 7e bc 4b 5b 87 3c
       -0.031396326 -0.05835718 -0.015555691 0.016523024
0003e0 53 6a 05 bd d6 2c 17 be 0f b0 e7 bc bc c8 9e 3c
       -0.0325721 -0.14763197 -0.028282193 0.019382827
0003f0 53 41 4f 3b 37 a2 b4 3d 18 9c 02 bd 6c 16 98 bb
       0.003162463 0.088200025 -0.031887144 -0.004641345

model.5.bias f4 [200]
000000 61 9b 46 bd 97 18 46 bd 36 5b 83 3c 2d b5 76 bd
       -0.048488025 -0.048363294 0.016034704 -0.060231376
000010 4c 43 fb bc a1 3c 48 bc bd 38 3f bd 34 e5 8e 3c
       -0.030671738 -0.012221486 -0.04668497 0.017443277
000020 9e e7 8c bc 5d e2 86 bd e1 9a 7c bd af e1 64 bd
       -0.017200287 -0.06586144 -0.06167114 -0.05587929
000030 fd 61 29 bd bc 2b d3 bc e0 76 d3 bc 2b cf 65 bd
       -0.041353215 -0.02577769 -0.02581352 -0.056105774
000040 98 fd 1e bd 1c 71 1e bd 67 89 7a bd 22 81 9f bc
       -0.038816065 -0.03868209 -0.061166193 -0.019470755
000050 86 d8 90 bd a8 62 a6 bc 1a f5 50 bd 85 fc 11 be
       -0.070725486 -0.020310715 -0.051014997 -0.14256485
000060 7a e1 ff bc 29 6d 8a bd cc 4a 5d bc 03 cb d2 bd
       -0.031235445 -0.06759102 -0.0135066025 -0.10292628
000070 a8 fb 1e bd e4 ad 1e bd 25 aa fa bc 6f 0f a4 bd
       -0.038814217 -0.038740054 -0.03059871 -0.08010756
000080 68 8e 38 bd bd 82 e0 bc 92 a5 99 bd 53 6c f6 bc
       -0.045057684 -0.02740609 -0.07502283 -0.03008095
000090 05 24 59 bc 44 a4 87 bd 71 51 2c bd 10 d5 b8 bc
       -0.013253217 -0.06623128 -0.042069856 -0.022562534
0000a0 08 73 5e bd f0 fe b4 3c d2 09 22 bd 44 7a 28 bd
       -0.05430892 0.02209422 -0.039560147 -0.041132227
0000b0 7e 9f c7 bc a2 38 31 bd 7c ac 3b bd 2b f9 0f bc
       -0.024368044 -0.0432669 -0.04581879 -0.008787434
0000c0 5f 0c 1f bc 55 7d 8f bd 43 e0 03 bd 41 5d 7a bd
       -0.009707539 -0.07006327 -0.032196295 -0.06112409
0000d0 56 80 11 bd 06 f5 1f bd ec 3b e8 bc a0 16 25 bd
       -0.03552278 -0.039052032 -0.028348885 -0.04030478
0000e0 8e a3 1c bd 7e 15 4e bd 46 8b d4 bc f7 c8 70 bd
       -0.038241915 -0.050313465 -0.025945317 -0.058785405
0000f0 d4 b3 89 bd 83 51 ce bb dd 4e 11 bd e2 cf 3c 3d
       -0.067237526 -0.006296338 -0.0354756 0.04609669
000100 c7 7f a0 bc e3 f9 12 bc 34 c1 2e bc c1 6b ce bd
       -0.019592179 -0.00897071 -0.01066618 -0.10079146
000110 79 7a 60 bd 3c 4d 5a 3d cc cb 0d bd 0d 45 2b bd
       -0.0548043 0.053296313 -0.034618184 -0.0418139
000120 12 c6 3d bc 09 56 e1 3a c9 59 21 bd 62 b4 23 bd
       -0.011582868 0.0017191778 -0.039392266 -0.03996695
000130 ff db af bc 53 cf 67 bd 8c 17 8e bc 93 aa 17 bd
       -0.021467207 -0.056594204 -0.017345212 -0.037027907
000140 ad 3e ef bc 4b 82 b5 bc 9b 48 7f bc da b2 fa 3c
       -0.02920469 -0.022156855 -0.015581275 0.030602861
000150 d6 a1 b3 bc 41 54 4c bc 45 98 1a bd 34 2f 09 bc
       -0.021927755 -0.01247126 -0.03774287 -0.0083730705
000160 c5 5d 30 bd c9 1f 89 bc e6 4b 4e bd b7 30 ee bc
       -0.043058176 -0.01673879 -0.05036535 -0.029075963
000170 1c 52 67 bc 28 49 18 bd df a3 b0 bc e1 47 a0 bc
       -0.0141186975 -0.037179142 -0.021562515 -0.019565525
000180 b3 d5 3b bd f5 9f 42 bd 6f 0d a4 bc b2 7a 90 bc
       -0.045858096 -0.04751583 -0.020025937 -0.01763663
000190 a9 44 99 bd 03 55 11 bd c2 12 f1 3c 62 7b e3 bc
       -0.07483799 -0.035481464 0.02942789 -0.027768794
0001a0 18 03 52 bd 7c bb 4b bd 10 89 1c bd bf d6 9a bd
       -0.05127248 -0.049739346 -0.03821665 -0.07560491
0001b0 8f 3c d1 3b b6 3d 81 3c 67 14 32 bd 98 bc 2a bd
       0.006385393 0.015776496 -0.04347649 -0.041683763
0001c0 2e 65 b7 bc e8 db 53 bd ec 01 46 bd 7c 41 c1 bc
       -0.022387113 -0.05172339 -0.048341677 -0.023590796
0001d0 31 f8 39 bc 6f 6f cc bc ac 82 55 bd ab fe d0 bb
       -0.011350677 -0.02495548 -0.05212657 -0.006378015
0001e0 51 61 23 bd 3d cd 63 bc b3 cc f4 bc 4d 25 25 bd
       -0.03988773 -0.013903913 -0.029882764 -0.040318776
0001f0 19 4b c3 bc 28 9a 70 bd cc 6b b0 bd 54 fb b1 3d
       -0.02383952 -0.058740765 -0.086143106 0.08690515
000200 bd f7 f6 bc 7e 12 2d bc 9c 92 6f bb 37 b8 4b 3d
       -0.030147428 -0.010563491 -0.0036555892 0.049736228
000210 71 7a a7 bd 38 c0 71 bd d9 ea 1c bd 4a 59 1a bd
       -0.08177651 -0.059021205 -0.038309906 -0.03768281
000220 23 ca b5 bc 8a c7 15 bd 34 fd 18 bd 25 9a 7b bd
       -0.022191113 -0.03656725 -0.03735085 -0.0614263
000230 69 80 29 bd 9b fe dd bc 9c c7 14 bd 24 b7 b8 bc
       -0.041382227 -0.027098944 -0.036323175 -0.022548266
000240 98 a8 42 bd 21 36 2a bd dc 9d 11 3d 30 05 aa bd
       -0.047524065 -0.041555528 0.035550937 -0.08301771
000250 89 7a 16 bd cb 0b 4b bc 71 c3 b2 bd eb b5 20 bd
       -0.036737952 -0.012392948 -0.08728684 -0.03923599
000260 29 60 a7 bd 00 6f df bb 73 a4 5d 3d a3 48 46 bd
       -0.08172638 -0.006818652 0.05411191 -0.048409116
000270 92 eb 80 bd d0 4f f9 bc 49 42 66 bd dc 16 a2 bc
       -0.062949315 -0.030433565 -0.05621556 -0.01978629
000280 43 cc 2b bd 02 aa 3b bc e5 0f 71 bd 04 ce 35 bd
       -0.041942846 -0.011454107 -0.05885305 -0.044385925
000290 09 a3 4c bd 57 08 0f bd 3c 46 80 bd 61 b5 07 bc
       -0.04996017 -0.034920063 -0.06263396 -0.00828299
0002a0 5d 5f 8c bc 00 92 9e bd de 0d 96 3d 5a 26 b2 bd
       -0.017135317 -0.07742691 0.07326864 -0.08698721
0002b0 d6 5f e7 bd 05 5e 6a bd e9 47 d3 3d c4 15 d6 bc
       -0.11297576 -0.05721857 0.1031645 -0.026133426
0002c0 0d 1b 8d bd e2 10 88 bc a1 5e e4 3c 34 34 97 bd
       -0.06889925 -0.016609613 0.027877154 -0.07383004
0002d0 3c 36 86 bc f9 f4 81 3c 9f ca 81 bd d4 6c 48 bd
       -0.016383283 0.015863882 -0.06337475 -0.04893191
0002e0 44 b3 b8 bc 22 53 dd bc 53 23 55 bd 7c a8 20 3c
       -0.022546418 -0.02701718 -0.05203564 0.009805795
0002f0 5c 2c 59 bd 9e 8f 96 3d 0f f2 e6 3c 64 4c 0d bd
       -0.05302082 0.073516116 0.028191594 -0.03449668
000300 72 d0 2e 3d ca 3e 6d bd 51 1e bb bd d4 b4 42 bd
       0.042679258 -0.05792121 -0.09136642 -0.047535732
000310 37 f8 cd bc c6 66 30 bd d5 a8 ff 3b 6a 2d 22 bd
       -0.025142772 -0.043066762 0.007802109 -0.03959409

model.8.weight f4 [3, 200]
000000 37 f2 0d be d9 01 4c be da 31 d5 3d 96 7d c0 3b
       -0.13861929 -0.1992258 0.10409899 0.005874346
000010 df 8e c6 3d e5 90 ee bd 94 fa 51 bc 7a 0e 92 3d
       0.09695219 -0.1164873 -0.01281609 0.071316674
000020 26 cf 6a 3b a0 7a 56 bd db 68 95 3b 95 1d 29 3e
       0.0035829036 -0.052363038 0.004559619 0.16515191
000030 c9 05 f7 3d 10 32 5e 3d 9f 27 31 3d 4f 0c 0b 3e
       0.1206165 0.054246962 0.043250676 0.13578914
000040 44 0d 67 bd df a8 3e bd 59 b5 f7 bd d1 21 cd 3c
       -0.056409135 -0.046547767 -0.12095136 0.025040539
000050 ab ba b5 3e fd 6c 07 bd 51 48 f6 bb b6 72 0c 3e
       0.3549398 -0.033062924 -0.007515945 0.13715634
000060 f0 9d 16 be 50 3a 2c 3c 11 63 18 3a 73 05 79 3e
       -0.14708686 0.01051195 0.0005813102 0.24318485
000070 e7 dd cb bb 94 0b 59 3d 26 ba 84 3e 36 6d 80 bc
       -0.006221521 0.052989557 0.2592327 -0.015677076
000080 3d 5b 4c 3e be 2e 90 bd b4 e8 42 3e 43 45 4c 3d
       0.1995668 -0.07040165 0.19034082 0.04987074
000090 7e 40 b0 3e 93 a1 00 3e 65 1c 76 3c cd 68 39 3e
       0.34424204 0.12561636 0.015021418 0.18106385
0000a0 89 7e 06 be 57 d0 82 3d 4c 54 bf bd eb f8 04 3e
       -0.13134207 0.06387394 -0.0934225 0.1298558
0000b0 71 05 62 3d 38 cb e3 3d 45 9d 38 be 5a cf 30 3e
       0.05518097 0.11122745 -0.18028744 0.17266598
0000c0 6b 8a 11 3e 4c 81 f0 3d ec 10 8d 3d 82 ba ab 3b
       0.14212959 0.117434114 0.06887993 0.0052407393
0000d0 73 52 ea 3c 01 9f a1 3d cd a8 fe 3c 76 52 56 3e
       0.028603768 0.07891656 0.03108635 0.20929894
0000e0 b8 60 0c 3d 55 58 43 bd 1f e6 de 3d 9f 5e 19 3e
       0.034271926 -0.047691662 0.10883736 0.14977501
0000f0 a6 75 3b bd 73 c8 90 3d da b0 de bb 79 46 b2 bd
       -0.045766495 0.07069483 -0.0067959847 -0.08704848
000100 06 b1 76 bd cf 3f 4f 3d 16 33 23 bc 05 cb 87 bc
       -0.060227416 0.050597962 -0.00996091 -0.0165763
000110 c6 48 35 3c 5a 52 ae bd 6e 9d 34 be 7f b6 70 ba
       0.011064714 -0.08511801 -0.1763818 -0.00091824675
000120 93 12 c4 bd e9 65 06 3e 78 0c f6 bc c1 65 0b 3e
       -0.09573855 0.13124813 -0.030035242 0.13613035
000130 53 d0 46 3d 0d e0 52 bd af 13 0d be 14 a5 3d be
       0.048538517 -0.051483203 -0.1377704 -0.18520004
000140 c4 f9 cb 3d 34 90 0a 3f 04 d2 46 bd 64 af 1d bd
       0.099597484 0.54126287 -0.04854013 -0.038497344
000150 d4 c3 31 3c e3 3d 51 be ec b5 09 be fd ef f8 bd
       0.010849912 -0.20433764 -0.13448304 -0.12155149
000160 5f e9 da 3d 05 3a ab 3d 7f 37 c2 bc 93 95 50 bd
       0.10689043 0.08360676 -0.023708103 -0.050923895
000170 a9 13 cd 3d 19 2a bb 3d 70 2f 56 3c d3 e3 1b 3d
       0.100135155 0.09138889 0.013072833 0.038059067
000180 87 c4 e3 bc 86 19 fc bd b5 a0 50 bd b0 ae 99 bb
       -0.027803672 -0.12309556 -0.050934512 -0.004690014
000190 ab 4b 3e bc df 99 c7 3d 9c 38 5c 3d 5b 66 81 3d
       -0.01161472 0.097461455 0.053764924 0.06318351
0001a0 fe eb ab 3e 00 62 b3 3c 57 0c a8 bd 3e 14 26 3d
       0.33578485 0.021897316 -0.08205479 0.04054665
0001b0 ab d3 84 bd 2b 74 a5 bc 12 d7 11 3e 1d 65 31 3d
       -0.06485685 -0.020196995 0.14242199 0.04330932
0001c0 72 c7 1e 3e 31 b8 da bc 3d e6 a5 3f 60 a4 cd 3d
       0.1550577 -0.026699157 1.2960888 0.10041118
0001d0 fa d8 7d 3d f3 9e 9e 3d d9 11 96 bd 3f fa a4 bd
       0.061974503 0.07745161 -0.07327623 -0.08055543
0001e0 98 f4 80 3c 87 71 0d 3e ed 69 25 3d 84 e6 16 3d
       0.015741631 0.13812838 0.04038422 0.03684093
0001f0 13 75 d0 3c 2a 10 56 be ed d2 44 3f cb 20 b9 3d
       0.02544645 -0.20904604 0.7688435 0.09039458
000200 86 56 dc bd aa 02 5b bd ed 37 08 3e 84 19 2e bd
       -0.107586905 -0.053469338 0.13302584 -0.042504802
000210 78 13 98 3d b4 06 17 bd 4b 05 b5 3d 28 c4 43 3d
       0.07425588 -0.036871627 0.088389 0.04779449
000220 1d e7 45 3e 9f a7 3a 3c 00 5e 77 3a 16 6b 25 bd
       0.19326444 0.011392503 0.00094363093 -0.04038533
000230 36 57 85 3a ae 9e ff 3d 08 b7 09 be b0 d7 ab 3e
       0.0010173086 0.124814376 -0.13448727 0.33562994
000240 f6 59 5f 3d 4c 49 da 3c d8 24 e2 3d 57 bd d6 3e
       0.054529153 0.026646279 0.11042184 0.4194133
000250 4a 17 39 3c f6 c5 f8 3d b2 04 f3 3f 6b 53 c8 3d
       0.011297056 0.12147133 1.8985808 0.09781536
000260 79 d6 91 3d dd 0b d1 bc cf be 54 bd 50 da 55 3e
       0.071209855 -0.025518352 -0.05193978 0.20884061
000270 2a a5 de bd 9b 0d ae bd de 32 93 bd a8 25 f6 3c
       -0.10871346 -0.08498689 -0.071874365 0.030047253
000280 57 1b a6 3d 20 29 07 be 5b 39 29 3e c9 97 b6 bd
       0.081106834 -0.13199282 0.16525786 -0.089156695
000290 40 fe a5 3d b7 d7 05 3d ff f1 f9 3d 05 c1 14 3d
       0.08105135 0.032676425 0.1220436 0.03631689
0002a0 ef c7 0e bc 84 a4 70 3c bf 78 b2 bd 63 e3 09 bc
       -0.00871466 0.014687661 -0.08714437 -0.00841603
0002b0 61 67 29 3e a1 55 8a 3d 88 b4 87 bd de 27 a4 bc
       0.16543342 0.06754614 -0.066262305 -0.020038541
0002c0 d0 ef 52 be f6 24 dd bd f2 af b8 3e 7b 43 94 bd
       -0.20599294 -0.10798065 0.36071736 -0.072394334
0002d0 e4 be 66 bd e1 77 83 bd f1 75 02 bd cc 4f 3b 3d
       -0.05633439 -0.064193495 -0.03185076 0.045730397
0002e0 5e 6f b8 bc 64 b4 0c bd 45 10 b5 3d 3f 4a 35 bd
       -0.022514042 -0.03435172 0.08840994 -0.04426026
0002f0 06 0a 4b 3e d0 16 86 bd 28 91 50 bd ff fa 9c 3c
       0.19828042 -0.0654732 -0.05091968 0.019162653
000300 cd 69 3c 3e 32 59 3f 3e 5c 0e 6f bd b9 cd 39 be
       0.18399735 0.18686369 -0.058363304 -0.18144883
000310 b9 d1 7d 3e 48 42 5a 3c e3 cc 15 3f 6b a4 8d 3d
       0.24787034 0.013321467 0.5851576 0.06916126
000320 ee 4d 85 be 6e d2 f8 3e eb be 0f be 24 a2 4a 3e
       -0.26036018 0.48598045 -0.14037673 0.19788414
000330 0d 45 27 3e 0a 25 c8 bd 6e 49 a4 3d ed 13 c8 3d
       0.16334935 -0.0977269 0.08021818 0.097694255
000340 28 c0 72 bd 36 47 ea 3d 30 77 04 3d 3d 36 8e bd
       -0.059265286 0.11439364 0.03234023 -0.06943939
000350 c0 b5 0a be 22 d0 39 3d 2e b0 f9 3d 50 b4 9e 3d
       -0.13545895 0.045364507 0.12191807 0.07749236
000360 d4 8a 00 3e 92 85 cc 3c a5 6e 12 be 14 07 a1 bc
       0.12552959 0.024966035 -0.1430002 -0.019656695
000370 39 67 84 3e 51 5d f0 bd 15 cc 91 3c 33 32 e2 3d
       0.25860003 -0.11736549 0.01779751 0.11044731
000380 ea 38 1a 3e f7 9e ed bc 3e 9a 94 3e e9 ca 81 3d
       0.15060773 -0.029006464 0.29023927 0.0633753
000390 b7 d2 85 bd 46 f3 15 3e 7d e6 ff 3c 59 8f 0a be
       -0.06534331 0.14643583 0.031237835 -0.13531245
0003a0 fd 8f 8f 3e 30 90 06 3e d5 42 b5 3d d3 23 52 bd
       0.28039542 0.1314094 0.08850638 -0.051303696
0003b0 a1 08 15 be 22 64 0c 3f 90 b2 39 bc 40 7a bf 3c
       -0.14554073 0.5484029 -0.0113340765 0.023373723
0003c0 ce 7a 78 bc a9 3f 05 be 38 a5 77 3d 4c db 2a 3d
       -0.015165998 -0.13012566 0.0604603 0.041713044
0003d0 b4 0a d7 3d c8 1c 05 bd e5 8b 17 be 07 2a ea bd
       0.10500088 -0.03249815 -0.1479946 -0.11433797
0003e0 ad dc 85 3c 9a 75 c7 3d 47 56 86 bc aa 23 19 3e
       0.016340578 0.097392276 -0.016398562 0.14955011
0003f0 d8 05 6b 3e 6d 0a 8a 3e 8d e6 ff 3b f2 e9 f4 bd
       0.22951448 0.2696108 0.007809466 -0.11958684

model.8.bias f4 [3]
000000 37 15 cf 3c f1 e9 3a 3e a3 2b 8d 3c
       0.02527867 0.18253304 0.017232722
