Challenge_1/Weights/model_reward_Pendulum-v2_mse_0.00581975.params (torch_old, 327807 bytes, 7 tensors)

model.0.weight f4 [200, 4]
0	0x3eb7f6bb	0.35930428
1	0xbe471231	-0.19440533
2	0xbf3d3a4e	-0.7391709
3	0x3e96056f	0.2930102
4	0x3f003e9d	0.5009554
5	0xbf12dd46	-0.57368886
6	0x3dd5fbfc	0.10448453
7	0x3e7f22a1	0.24915554
8	0xbf40313c	-0.75075126
9	0x3fd5d120	1.6704445
10	0xbeec1a20	-0.46113682
11	0x3edcf5c1	0.43156245
12	0x3e85689f	0.26056382
13	0xbffc993a	-1.9734261
14	0x3fe7311f	1.8061866
15	0xbf11b6fc	-0.56919837
16	0xbf0c642b	-0.54840344
17	0xbfdce46d	-1.725721
18	0x3f6af667	0.9178223
19	0xbe92b211	-0.2865148
20	0xbf403252	-0.7507678
21	0x3e19f99c	0.15036625
22	0x3f833e7a	1.0253441
23	0x3f2e2186	0.680199
24	0x3e77e58f	0.24208663
25	0xbd15e3c3	-0.036594164
26	0xba981b8a	-0.0011604887
27	0x3e874896	0.26422566
28	0x3ea95796	0.33074635
29	0x3f8ec589	1.1154033
30	0x3f57d50c	0.8430946
31	0xbeb5f788	-0.35540414
32	0xbf141cb6	-0.5785631
33	0xbe2c0b84	-0.16801268
34	0xbf40b006	-0.7526859
35	0x3f3e1948	0.74257326
36	0xbd88d07b	-0.066803895
37	0x3e5acc17	0.21366917
38	0x3ebc9313	0.3683096
39	0xbd4094ca	-0.047016896
40	0x3d4583a5	0.04822125
41	0xbecdb410	-0.4017644
42	0xbf519b84	-0.81877923
43	0x3f932694	1.1496148
44	0xbe33441a	-0.17506447
45	0xbd1ad0a1	-0.03779662
46	0xbf8a4b5f	-1.0804251
47	0x3f005250	0.501256
48	0xbe3b6018	-0.18298376
49	0xbf0e3639	-0.5555149
50	0xbffbaa46	-1.9661338
51	0x3ffa6028	1.9560595
52	0x3db5f221	0.08884073
53	0xbf872214	-1.0557275
54	0x3eeddcde	0.4645757
55	0xbf5c8f3e	-0.8615607
56	0xbf134d3c	-0.57539725
57	0x3f1a6ff7	0.60327095
58	0xbfaa977d	-1.332748
59	0xbf00dfac	-0.50341296
60	0xbdb828ee	-0.08992182
61	0xbf321ed6	-0.695783
62	0xbe07b5fe	-0.13253018
63	0x3ef2078e	0.4727139
64	0xbf769af8	-0.96330214
65	0xbf541e2d	-0.82858545
66	0xbe0eca18	-0.1394428
67	0xbf31e41b	-0.69488686
68	0x3fb0e1e7	1.381894
69	0x3f7648e4	0.9620497
70	0xbf0afa47	-0.5428814
71	0xbf90b5b4	-1.1305451
72	0xbed5d373	-0.41762885
73	0x3eac642e	0.3367018
74	0x3fd084cf	1.629053
75	0x3fcaef6b	1.5854315
76	0x3e8c7a24	0.27436936
77	0xbf24975f	-0.64293474
78	0xbe163192	-0.14667347
79	0xbf8d9bf5	-1.1063219
80	0x3df16611	0.11787046
81	0xbd05043d	-0.032474745
82	0x3f91db6f	1.1395091
83	0xbecc1072	-0.39856297
84	0xbf2f3ae2	-0.68449223
85	0xbf6e4977	-0.9308085
86	0x3f7a1566	0.976889
87	0xbebd22f8	-0.36940742
88	0xbf80c6ea	-1.0060704
89	0xbf8bd8b7	-1.0925511
90	0xbec7e09e	-0.39038557
91	0xbedd97eb	-0.43279967
92	0x3f2189ca	0.63100874
93	0x3ef508bb	0.47858223
94	0x3f3a5d48	0.72798586
95	0xbf8d18c8	-1.1023188
96	0xbf9185f4	-1.1369004
97	0x40213171	2.5186427
98	0xbf4425c8	-0.7662015
99	0xbf7384d4	-0.95124555
100	0xbfc95e0d	-1.5731827
101	0x3ec9c635	0.39409032
102	0xbf975016	-1.1821315
103	0x3f2c5fcc	0.67333674
104	0xbc96553b	-0.018351188
105	0x3ebdb991	0.37055638
106	0x3e1c158e	0.15242597
107	0x3f02ea57	0.51138824
108	0x3fbae0d4	1.4599862
109	0xbecf53cb	-0.40493616
110	0xbfe16f43	-1.7612079
111	0xbf07d69d	-0.5306185
112	0x3f602e5c	0.8757074
113	0x3f99a859	1.2004501
114	0xbee272cf	-0.44228217
115	0x3f8eb9ec	1.1150489
116	0xbfe54ed0	-1.7914677
117	0xbe50d962	-0.20395425
118	0x3ef848a0	0.48492908
119	0x3c82c385	0.015962372
120	0xbee22459	-0.44168356
121	0xbe86d5ec	-0.26335084
122	0x3eaf85b1	0.34281686
123	0x3eeb9973	0.4601551
124	0x3e85681e	0.26055998
125	0xbe990712	-0.29888207
126	0x3eeff06a	0.4686311
127	0xbf8094c0	-1.0045395
128	0xbef7c0fc	-0.48389423
129	0xbf65032e	-0.89457977
130	0xbf48915d	-0.78346807
131	0xbe5e2ac2	-0.21695998
132	0x3ea94b3c	0.33065212
133	0xbf27361e	-0.6531695
134	0xbe6d7241	-0.23188116
135	0xbe1a99ec	-0.15097779
136	0xbe755712	-0.23958996
137	0xbf4c14df	-0.79719347
138	0x3fd57bdb	1.6678423
139	0x3f53bb22	0.82707417
140	0x3f15369f	0.5828647
141	0x3f379ae2	0.7172071
142	0x3f114cb8	0.5675769
143	0x3cd4b4f9	0.0259652
144	0xbea3dc40	-0.32003975
145	0xbe505ae6	-0.20347175
146	0x3ef0ef50	0.4705758
147	0xbea92417	-0.33035347
148	0x3e66b81e	0.22531173
149	0xbe47f774	-0.1952799
150	0xbf7d93a8	-0.9905343
151	0x3efb278d	0.49053612
152	0x3f39693d	0.72426206
153	0x3f57e16b	0.84328336
154	0x3f377653	0.71664923
155	0x3f3b7f00	0.7324066
156	0x3f14be4c	0.5810287
157	0xbf008d51	-0.5021563
158	0xbe029769	-0.12753071
159	0xbf075ba5	-0.52874213
160	0x3f960123	1.1719097
161	0xbe97a92e	-0.2962126
162	0xbecda4ce	-0.40164798
163	0xbf35de16	-0.71042
164	0x3f126eb3	0.57200164
165	0xbf83b3a4	-1.0289197
166	0xbf0782f1	-0.52934176
167	0x3e65f11c	0.22455257
168	0xbd46cb8c	-0.04853396
169	0x3f16a8e7	0.58851475
170	0xbf1fdc67	-0.6244568
171	0x3e0cfaaf	0.13767503
172	0xbf9c3f3d	-1.2206799
173	0xbe303e09	-0.17211165
174	0xbeb514af	-0.35367343
175	0xbe88219a	-0.26588136
176	0x3ed38922	0.41315562
177	0x3ea46109	0.32105282
178	0xbe190aec	-0.14945573
179	0xbf810263	-1.0078853
180	0x3e10c399	0.14137115
181	0x3fb31b53	1.3992714
182	0x3e160239	0.14649285
183	0xbe9da388	-0.30788827
184	0x3f5209d6	0.8204626
185	0xbe9da158	-0.30787158
186	0xbf316517	-0.69294876
187	0x3ea200b3	0.31641158
188	0xbe932f50	-0.28747034
189	0x3f5f7232	0.87283623
190	0xbec38c75	-0.38193098
191	0x3dfefbf0	0.12450397
192	0x3d6db203	0.058031093
193	0x3f0dd4d4	0.55402875
194	0x3e7962a3	0.24354033
195	0xbd574499	-0.052555654
196	0xbee07548	-0.43839478
197	0xbf3a050b	-0.72663945
198	0x3e8f35a8	0.27970624
199	0x3e84daa3	0.25948057
200	0x3e941f20	0.28929996
201	0x3f878eee	1.0590494
202	0xbee977b4	-0.4559914
203	0x3f115600	0.5677185
204	0xbc2522a3	-0.010079059
205	0x3e18bba6	0.14915332
206	0x3fbcf489	1.4762126
207	0x3f6f2b1b	0.9342515
208	0x3fb72f02	1.4311221
209	0xbf99fa81	-1.2029573
210	0x3c9bcfc4	0.019019969
211	0xbe17328d	-0.14765377
212	0xbf9a5a43	-1.2058796
213	0xbefbda50	-0.49189997
214	0x3f058575	0.52156764
215	0x3f80d0a9	1.0063678
216	0x3f83e763	1.0304989
217	0xbebcdf7f	-0.36889264
218	0x3efc9044	0.49328816
219	0xbf2cc577	-0.6748881
220	0xbf05f786	-0.52330816
221	0xbd99482f	-0.07484471
222	0x3f562052	0.83643067
223	0xbea12c86	-0.3147928
224	0xbd6350c2	-0.05549694
225	0x3f188ee0	0.5959301
226	0x3f4fa57f	0.811119
227	0x3dbce6b3	0.0922369
228	0xbf28f348	-0.6599622
229	0x3bbfebbd	0.0058569596
230	0xbd466663	-0.048437487
231	0x3ed508e4	0.41608346
232	0x3c2c435c	0.010514107
233	0xbf0cc05a	-0.54981005
234	0xbeb33df5	-0.35008207
235	0xbe999bc5	-0.30001655
236	0x3ce53d1d	0.027983243
237	0xbf10159b	-0.5628297
238	0xbf16abfa	-0.58856165
239	0x3f95711a	1.1675141
240	0x3eddebb7	0.433439
241	0xbf22f546	-0.6365551
242	0x3e481486	0.19539079
243	0x3f71b448	0.9441571
244	0x3defc549	0.11707551
245	0xbf678856	-0.9044241
246	0x3f8feb4c	1.1243682
247	0xbea45da6	-0.32102698
248	0xbe759fcc	-0.23986739
249	0xbec696d4	-0.38786948
250	0x3f871b8c	1.0555282
251	0xbea8f4c8	-0.32999253
252	0xbec589da	-0.38581735
253	0xbec7fe00	-0.39060974
254	0x3ed6c85d	0.4194974
255	0x3f3f59ff	0.747467

model.0.bias f4 [200]
0	0x39dcd13a	0.00042117556
1	0xbd55b9ee	-0.05217927
2	0xbc4182e2	-0.01181099
3	0x3daac4e0	0.08338332
4	0x3e858a71	0.26082185
5	0x3dc8ef4c	0.09811267
6	0xbe05602a	-0.13024965
7	0xbde6d377	-0.112708025
8	0x3e2cbdd5	0.1686929
9	0xbe05b2f4	-0.13056546
10	0x3df44376	0.1192693
11	0x3d7b8fa2	0.061416276
12	0xbdbb74b9	-0.091531225
13	0x3e46c085	0.19409378
14	0x3bb767ff	0.005597114
15	0xbcb3a906	-0.021931183
16	0x00000000	0.0
17	0xbde9ddbe	-0.11419247
18	0xbd1e3c9e	-0.038632028
19	0x3defec55	0.11714999
20	0xbd4bbf4a	-0.049742974
21	0x3e82a62e	0.2551741
22	0x00000000	0.0
23	0x3c5d571e	0.01350954
24	0xbd580781	-0.05274153
25	0x3ddb53e4	0.1070936
26	0xbe20a25b	-0.15686934
27	0x3da8dfda	0.08245821
28	0x3ca5ba83	0.020230537
29	0x3da043a5	0.07825402
30	0x3ea7d5b7	0.3278024
31	0x3cb71bd6	0.02235214
32	0x00000000	0.0
33	0x3e89dedc	0.2692784
34	0xbc93c1d3	-0.018036759
35	0xbdb3e6af	-0.08784234
36	0x3c2f1bf7	0.01068782
37	0x3db189a6	0.086688325
38	0xbe02b3e2	-0.12763932
39	0x3dc93c34	0.09825936
40	0x3c36db59	0.011160695
41	0x3e12365f	0.14278553
42	0x3d898a43	0.067158245
43	0x00000000	0.0
44	0x3c4d52f1	0.012531982
45	0xbe85bf13	-0.2612234
46	0x3dff596c	0.12468228
47	0xbc72abac	-0.014811438
48	0xbe8be7c9	-0.27325276
49	0x3d9a23b8	0.07526344
50	0xbe6dff29	-0.23241867
51	0x3c89cdad	0.016821707
52	0x3d052990	0.03251034
53	0x3ce64e51	0.028113516
54	0x3bfbaa12	0.007680186
55	0x3d3a7acb	0.04552726
56	0xbd9aeedb	-0.07565089
57	0xbd4aaa4d	-0.049478818
58	0x00000000	0.0
59	0x3d9dc5bb	0.0770373
60	0x3dd8a030	0.10577428
61	0xbca29f5c	-0.01985138
62	0x3e82790b	0.25482973
63	0xbd28cb0e	-0.041209273
64	0xbddd773f	-0.1081376
65	0xbda89b2b	-0.08232721
66	0xbcad6d2d	-0.021170223
67	0x3dfd48f0	0.12367427
68	0x3e34a05b	0.17639296
69	0x3e789858	0.24276865
70	0x3e8f1d9e	0.27952284
71	0xbc89fc24	-0.016843863
72	0x3e58e0b3	0.21179466
73	0xbb0c7d79	-0.0021437092
74	0x00000000	0.0
75	0x3e992a84	0.2991525
76	0xbe251f96	-0.1612533
77	0x00000000	0.0
78	0xbe2718f6	-0.16318116
79	0xbd8da494	-0.069161564
80	0xbd2d179e	-0.04225885
81	0xbdafaba5	-0.085776605
82	0x3dd4d329	0.10391838
83	0x3d54d225	0.051958222
84	0xbcbce962	-0.023060504
85	0x00000000	0.0
86	0xbd3a4d6c	-0.04548399
87	0xbd6c79c7	-0.057733323
88	0xbd7742e1	-0.060366515
89	0xbdbcec74	-0.09224787
90	0xbd49c9af	-0.049264606
91	0x00000000	0.0
92	0x3cf27640	0.029597402
93	0xbcb7ef4f	-0.022452978
94	0x3e7536ed	0.23946734
95	0x3e00fdbc	0.12596792
96	0xbdfddc00	-0.12395477
97	0x3d9ee328	0.0775817
98	0xbd3282c1	-0.043581728
99	0x3dad3fac	0.0845941
100	0xbd4edde1	-0.05050457
101	0x3da138ef	0.07872187
102	0xbe108b67	-0.14115678
103	0x00000000	0.0
104	0xbdac34de	-0.08408521
105	0x00000000	0.0
106	0x3caae33b	0.020860305
107	0xbd8c9fba	-0.06866403
108	0x3d697ac3	0.05700184
109	0x00000000	0.0
110	0x3c20a0b5	0.009803941
111	0xbc8f9433	-0.017526722
112	0xbc56592d	-0.013082785
113	0xbd97236a	-0.073798016
114	0xbda19836	-0.0789036
115	0x3d5ae692	0.053442545
116	0xb9cf1c84	-0.00039503362
117	0xbda9bb12	-0.08287634
118	0xbd81aaca	-0.063314036
119	0xbe979881	-0.2960854
120	0x3e1658ea	0.14682356
121	0x3dae7109	0.085176535
122	0x3dbb085d	0.091324545
123	0xbd237fd3	-0.039916825
124	0x3c3fb362	0.011700483
125	0xbe158534	-0.14601594
126	0xbda86e2d	-0.08224139
127	0xbca57a50	-0.020199925
128	0x3dff75d8	0.12473649
129	0x00000000	0.0
130	0x00000000	0.0
131	0x3e1420c9	0.14465632
132	0x3d0b931e	0.03407585
133	0x3e3ac00a	0.1823732
134	0xbd816332	-0.06317748
135	0xbdf2b99a	-0.11851807
136	0xbdc7a4fc	-0.09748265
137	0x3d1d95e9	0.038473044
138	0x3dc2a173	0.0950345
139	0x3e7ae43b	0.24501126
140	0xbd4ff304	-0.050768867
141	0x3e2c2f9c	0.16815037
142	0x3d1bb33f	0.03801274
143	0xbcc630bb	-0.024193158
144	0xbc23d6b3	-0.009999919
145	0x3d11f772	0.035636373
146	0xbe51215f	-0.20422886
147	0xbd168910	-0.036751807
148	0x3e242e5e	0.16033313
149	0x3cbc2bb0	0.02297005
150	0x00000000	0.0
151	0xbc05644a	-0.008141587
152	0xbe9b4e66	-0.3033325
153	0xbe108ee5	-0.1411701
154	0x3d6cf884	0.05785419
155	0xbdd8a327	-0.10577994
156	0x3defb673	0.11704721
157	0x3d4a2281	0.04934931
158	0xbc4042e8	-0.011734702
159	0xbbb27aac	-0.0054467525
160	0xbcd6df8d	-0.026229644
161	0x3df566e9	0.11982519
162	0xbd7bf4d6	-0.06151279
163	0xbcf320fb	-0.029678812
164	0x3e23b183	0.15985684
165	0xbbf4474a	-0.0074547874
166	0x3e4f8ddc	0.20268959
167	0x3e0ec816	0.13943514
168	0xbd441d6a	-0.047879614
169	0x00000000	0.0
170	0xbe6ba330	-0.2301147
171	0xbe3ca132	-0.18420866
172	0x3d989d7b	0.07451912
173	0xbd9325b9	-0.071849294
174	0x3d99116f	0.07474028
175	0x3e1de5b7	0.1541966
176	0x3e5215c5	0.20516117
177	0xbe12588c	-0.1429159
178	0xbd9a6cde	-0.07540296
179	0xbcca3b06	-0.024686348
180	0x3e054e83	0.13018231
181	0xbdf06374	-0.11737719
182	0x3d97aeeb	0.0740641
183	0xbb1082be	-0.0022050585
184	0x00000000	0.0
185	0x00000000	0.0
186	0x3e1b2b2c	0.15153188
187	0xbcb5db8b	-0.022199413
188	0x3e29faa9	0.16599526
189	0xbd6d4c05	-0.057933826
190	0xbe7ff9ce	-0.24997637
191	0x3eef0bd1	0.46688703
192	0x00000000	0.0
193	0xbe273bb4	-0.16331369
194	0xbe2b572a	-0.16732469
195	0x3d0ced8c	0.03440623
196	0x3d888dbc	0.06667659
197	0x00000000	0.0
198	0xbc929d3f	-0.017897246
199	0x3ca87174	0.020561911

model.2.weight f4 [200, 200]
0	0xbe0630d9	-0.13104571
1	0x3b29535e	0.0025837044
2	0xbe1fa25a	-0.15589276
3	0x3d360dbe	0.0444467
4	0xbe027756	-0.12740836
5	0xbcce1cd5	-0.025160233
6	0x3e1567f6	0.14590439
7	0xbca7d972	-0.020489428
8	0xbde74c16	-0.11293809
9	0x3b7bada1	0.0038403051
10	0x3d9997ff	0.07499694
11	0xbcb46547	-0.022020949
12	0x3def6f7c	0.11691186
13	0xbd4f7296	-0.050646387
14	0xbd04f97e	-0.032464497
15	0xbd0a803f	-0.03381371
16	0xbe0e7853	-0.13913088
17	0xbd355262	-0.04426802
18	0xbd829e6f	-0.06377875
19	0x3dfd296f	0.123614185
20	0x3dd7fa69	0.10545809
21	0xbe5aa32a	-0.21351305
22	0xbdb98608	-0.090587676
23	0xbdaf3244	-0.08554509
24	0xbe92e795	-0.28692308
25	0x3d800d30	0.06252515
26	0x3dc76f61	0.09738041
27	0x3cc10a15	0.023564378
28	0x3d1bae15	0.038007814
29	0xbd1ef18e	-0.038804583
30	0x3d5642ec	0.052309915
31	0x3e0845fb	0.13307945
32	0xbdb90a28	-0.0903514
33	0x3a9f50b5	0.001215479
34	0x3d377d32	0.04479713
35	0x3e1e0492	0.15431431
36	0x3dba1d77	0.09087651
37	0xbc03b452	-0.008038597
38	0xbbb8a5ff	-0.0056350227
39	0x3dc8d527	0.098062806
40	0x3c787e0a	0.015166769
41	0xbcff721d	-0.031182343
42	0xbd292a8a	-0.041300334
43	0xbca07e3b	-0.019591441
44	0x3df6b97c	0.12047097
45	0x3ab9a1e8	0.0014162632
46	0xbda9c4b9	-0.08289475
47	0x3b3ddd64	0.002897107
48	0x3d0ee027	0.034881737
49	0x3d5ec558	0.05438742
50	0xbe4b4a19	-0.19852485
51	0x3d8785dc	0.066173285
52	0x3c28dc6f	0.010306462
53	0xbd49847e	-0.04919862
54	0xbe2a933c	-0.16657728
55	0xbe2b3243	-0.16718392
56	0xbd8ab1ea	-0.06772216
57	0x3d1f9ce9	0.038968
58	0xbdb138fd	-0.08653448
59	0x3b7e5fae	0.0038814354
60	0xbd35edc2	-0.044416197
61	0x3d96fe07	0.073726706
62	0x3d6bfa79	0.057611916
63	0xbd18e74a	-0.03732995
64	0x3d8aab2a	0.06770928
65	0x3e67aa4b	0.22623555
66	0xbc8e3283	-0.01735807
67	0xbe8b9e1a	-0.2726906
68	0xbe0312a1	-0.12800075
69	0xbd2ea431	-0.042637054
70	0xbe2b2b86	-0.16715822
71	0xbdd4f5fc	-0.1039848
72	0xbea4df4a	-0.32201606
73	0x3b8f29a7	0.004368979
74	0x3da758eb	0.08171257
75	0x3dbc0070	0.09179771
76	0x3d89c7be	0.06727551
77	0x3d32fdd1	0.04369909
78	0x3da32448	0.079659045
79	0xbc99be4c	-0.018767498
80	0x3cda2965	0.026631067
81	0xbda6665d	-0.08124993
82	0x3da46ba7	0.080283456
83	0x3d94ea8b	0.07271298
84	0xbe2188d9	-0.1577486
85	0xbe231fa1	-0.15930034
86	0xbb9ef130	-0.004850529
87	0xbe380855	-0.17971928
88	0x3c99f7da	0.018794943
89	0x3db7186e	0.089402065
90	0x3d3ceedd	0.046126235
91	0xbd27e422	-0.04098905
92	0x3c38f358	0.011288486
93	0x3e0b406c	0.13598794
94	0xbe6b8437	-0.22999655
95	0x3e01e916	0.12686571
96	0x3dce4a0e	0.100727186
97	0x3d8f1abb	0.0698752
98	0x3e73252c	0.23744649
99	0xbdeb2c60	-0.11483073
100	0x3bb6f4b5	0.0055833706
101	0xbdb82f63	-0.08993413
102	0xbd943c7d	-0.072381
103	0xbc909373	-0.017648434
104	0xbc40b6db	-0.011762346
105	0x3c11cd05	0.008898978
106	0xbe02a941	-0.12759878
107	0x3e3659d6	0.17807707
108	0x3dc00b62	0.09377171
109	0xbe106182	-0.14099696
110	0xbba76c96	-0.00510938
111	0xbd893cfd	-0.06701086
112	0x3dcadb5b	0.0990512
113	0x3dba16bf	0.0908637
114	0x3e20a8e7	0.15689431
115	0x3d39f5e7	0.045400526
116	0x3cadadd2	0.021201048
117	0xbda7a5b9	-0.08185906
118	0xbd47479e	-0.048652284
119	0x3db57aa3	0.08861282
120	0xbdfb1662	-0.122601286
121	0x3cee5b3d	0.02909624
122	0x3d744d83	0.059644233
123	0xbda2dc1e	-0.0795214
124	0xbd8dcfff	-0.06924438
125	0x3e08032b	0.13282458
126	0x3c4339b3	0.011915612
127	0x3d898b3b	0.06716009
128	0x3e6b3b8c	0.22971934
129	0x3c93d4c2	0.018045787
130	0xbdfc03b2	-0.12305392
131	0xbd1a6387	-0.037692573
132	0x3cc7b5f8	0.024378762
133	0xbd79ea01	-0.06101418
134	0x3d728cff	0.059216496
135	0xbda8081c	-0.08204672
136	0xbdb56202	-0.08856584
137	0x3e19c955	0.15018208
138	0x3e5b2d69	0.21404041
139	0xbe1449bd	-0.14481254
140	0x3e347ff2	0.17626932
141	0xbe3e98e0	-0.18613005
142	0x3e20d30f	0.15705512
143	0xbd41a1a8	-0.047273308
144	0xbd8df2d5	-0.06931082
145	0x3d82dade	0.06389402
146	0x3c919f32	0.017776106
147	0x3d0ca3d0	0.03433591
148	0xbd93effb	-0.07223507
149	0xbd5ff650	-0.05467826
150	0x3a05249e	0.0005079004
151	0xbe4181bc	-0.18897146
152	0x3de51e8a	0.111874655
153	0x39a3b308	0.0003122317
154	0x3d6e3292	0.058153696
155	0x3e25852b	0.16164081
156	0xbd02b48d	-0.031910468
157	0xbe0e5c99	-0.1390251
158	0xbdcf0ec7	-0.101102404
159	0x3cbc2397	0.02296619
160	0x3d8c03a1	0.0683663
161	0x3e01adbc	0.1266393
162	0x3e81faeb	0.25386748
163	0xba596df3	-0.0008294277
164	0x3dbac47b	0.09119507
165	0xbdfce3a0	-0.123481035
166	0xbe6f39fb	-0.23361962
167	0xbe50013d	-0.20312972
168	0xbdfbaa81	-0.122883804
169	0xbbbd092f	-0.005768917
170	0xbdd23b4e	-0.10265218
171	0x3e230bbc	0.15922445
172	0xbe035bd1	-0.12827994
173	0xbc3169da	-0.01082846
174	0xbe51b650	-0.20479703
175	0xbc8c0609	-0.017092722
176	0xbdea287c	-0.11433503
177	0xbc6d0da2	-0.014468582
178	0x3dfe6852	0.12422241
179	0xbd9e079b	-0.077162944
180	0xbd963a3f	-0.07335328
181	0x3dd69c20	0.10478997
182	0xbe1413bd	-0.14460655
183	0x3e24cd46	0.1609393
184	0x3d4cfa8d	0.05004363
185	0xbd3a3507	-0.045460727
186	0xbe0386d6	-0.12844405
187	0x3c0a4147	0.008438415
188	0x3e5b3e54	0.21410495
189	0xbdd4c0c7	-0.10388332
190	0xbddd5aaa	-0.108083084
191	0x3d5aa114	0.053376272
192	0xbde81c15	-0.11333481
193	0x3c2de7c9	0.010614344
194	0xbc3b30be	-0.011425195
195	0xbdb584e7	-0.0886324
196	0xbd2d5e5d	-0.04232632
197	0x3e395acb	0.18101041
198	0xbd6a06e7	-0.05713549
199	0x3dace8f8	0.08442873
200	0x3dccd816	0.100021526
201	0xbe14adf3	-0.14519481
202	0x3e4bc847	0.19900618
203	0xbd755f4c	-0.059905335
204	0x3d29c1e5	0.041444678
205	0xbd6fc88d	-0.05854087
206	0xbde09a6d	-0.109669544
207	0x3e0d8fc3	0.13824372
208	0xbda1bd15	-0.07897393
209	0x3d703920	0.05864823
210	0x3cf4f584	0.029902227
211	0x3dc406bb	0.09571596
212	0x3dc9d2a0	0.09854627
213	0xbe0e4013	-0.1389163
214	0x3e15dd4b	0.14635198
215	0x3cfd3215	0.03090767
216	0xbc80a0fe	-0.015701767
217	0x3b33f22a	0.0027457573
218	0x3dce87ae	0.100844726
219	0x3dfc6476	0.12323849
220	0x3d7ce2b6	0.061739646
221	0x3b96a117	0.00459684
222	0x3d021553	0.031758618
223	0x3d5c8034	0.0538332
224	0x3e942aff	0.28939053
225	0xbd74295e	-0.059609763
226	0xbbb586c8	-0.005539749
227	0xbbbec4ce	-0.005821801
228	0x3cb59087	0.022163643
229	0x3d0a813f	0.033814665
230	0xbe11a523	-0.14223151
231	0xbdbc687a	-0.09199615
232	0xbe1c07d0	-0.15237355
233	0x3d0f8492	0.03503854
234	0xbd67e9db	-0.056619506
235	0x3dcf5a10	0.101246
236	0xbd3b5c7f	-0.045742508
237	0xbda06532	-0.078318015
238	0xbdaf8f47	-0.0857225
239	0x3dda315e	0.10653947
240	0x3d05eb7f	0.03269529
241	0x3e0f6a37	0.14005361
242	0x3d91ce9f	0.07119488
243	0x3baf54d6	0.0053506894
244	0xbe20eb91	-0.15714861
245	0x3d6a24ee	0.057164125
246	0x3dd3497d	0.10316751
247	0xbe51f46f	-0.205034
248	0x3da91394	0.08255687
249	0x3e2003b9	0.1562642
250	0x3e36f381	0.17866327
251	0xbe7f3795	-0.24923547
252	0x3dec8719	0.11549205
253	0x3d1b667f	0.037939545
254	0xbeb79046	-0.3585226
255	0xbc20f3a3	-0.0098237125

model.2.bias f4 [200]
0	0xbd9509b5	-0.07277242
1	0x3d828fda	0.06375094
2	0x3e0d8c43	0.13823037
3	0xbb2d8204	-0.00264752
4	0xbba3cf08	-0.0049990453
5	0xbc23d6d2	-0.009999948
6	0x00000000	0.0
7	0x3bf859d8	0.0075790696
8	0x3b6de6ed	0.0036300973
9	0xbcb02a27	-0.021504475
10	0xbc28b21b	-0.01029637
11	0x3be109e1	0.0068676327
12	0xbc7929c5	-0.015207713
13	0xbe0c0fba	-0.13677874
14	0xbcef2fa6	-0.029197525
15	0xbc3b096d	-0.0114158215
16	0xbc422755	-0.011850198
17	0xbc23d6f6	-0.009999981
18	0x3b85a860	0.0040789098
19	0xbcbc34c5	-0.022974381
20	0x00000000	0.0
21	0x3d35ab1f	0.044352647
22	0xbb635fc0	-0.0034694523
23	0x3c939959	0.018017458
24	0xbd9681ee	-0.07349001
25	0x00000000	0.0
26	0xbc7c364b	-0.015393804
27	0xbc033b31	-0.008009718
28	0xbc23d6f3	-0.009999978
29	0x3daa0b4b	0.08302935
30	0xbc1de159	-0.009636247
31	0x3d14b3a0	0.036304116
32	0xbcebdee3	-0.028792804
33	0x3e1629ef	0.14664434
34	0xbdfdd5df	-0.12394308
35	0xbc23d703	-0.009999993
36	0x3d954099	0.07287712
37	0xbdf78824	-0.12086514
38	0xbc8ffc49	-0.017576354
39	0xbca7de16	-0.020491641
40	0x3d2af891	0.041740958
41	0x3d7b946a	0.061420836
42	0xbd973d2e	-0.07384716
43	0xbc23d6f4	-0.009999979
44	0xbdcd6eab	-0.10030874
45	0xbc36a10f	-0.011146798
46	0xbd41f796	-0.047355257
47	0xbd38d2d5	-0.04512294
48	0x3dad2e4a	0.084560946
49	0xbc23d69f	-0.0099999
50	0xbba3ce78	-0.004998978
51	0x3d0f5ef1	0.035002653
52	0x3c84179c	0.01612454
53	0xbca9db3a	-0.020734418
54	0x3de3f468	0.11130601
55	0xbd4d0532	-0.050053783
56	0xbc6d36b2	-0.014478372
57	0x3d34e954	0.04416783
58	0xbc3f82b6	-0.011688879
59	0x00000000	0.0
60	0x00000000	0.0
61	0xbd5cb823	-0.053886544
62	0x3d176ac2	0.036967047
63	0xbb521851	-0.003205795
64	0xbd6f6d24	-0.058453694
65	0x00000000	0.0
66	0x3d8652f9	0.065587945
67	0x3e09e5e2	0.134666
68	0xbb98a17a	-0.0046579214
69	0xbbe93ee2	-0.007118092
70	0x3d3957ce	0.045249753
71	0x3d86a0d3	0.065736435
72	0x00000000	0.0
73	0x00000000	0.0
74	0x3d0fd417	0.035114374
75	0xbd8f5b2c	-0.069998115
76	0xbc23d6e5	-0.009999965
77	0xbc23d70a	-0.01
78	0xbc81b223	-0.015832013
79	0x3db2cf88	0.0873099
80	0xbc173c70	-0.009230718
81	0xbc68445e	-0.014176456
82	0xbbe373df	-0.006941303
83	0x3d84ae88	0.06478602
84	0x3d71b1de	0.059007518
85	0x3b25cf93	0.0025300726
86	0xbc759060	-0.014988035
87	0xbd92c274	-0.07165995
88	0x3e4998e8	0.19687235
89	0x3ccdf28a	0.025140066
90	0x3c5e2dbf	0.013560711
91	0xbc23d709	-0.009999999
92	0xbceb46cc	-0.028720282
93	0xbc460a5d	-0.012087432
94	0x3d175bef	0.03695291
95	0xbd2ddaa6	-0.042444848
96	0x3c21bdaa	0.00987188
97	0x3d9846eb	0.074354015
98	0xbd2bc060	-0.04193151
99	0xbc23d708	-0.009999998
100	0xbda1adf1	-0.07894505
101	0x3da7e176	0.081973
102	0xbd465f10	-0.048430502
103	0xbd91250a	-0.07087143
104	0xbd617214	-0.055040434
105	0x3cec0005	0.028808603
106	0x3e162c85	0.1466542
107	0xbb8889f1	-0.0041668345
108	0x3d8da18c	0.06915578
109	0xbdad35f1	-0.08457554
110	0xbd0736d5	-0.033011276
111	0xbdc805ed	-0.09766755
112	0x3cb40390	0.021974355
113	0x00000000	0.0
114	0x3bbd502f	0.005777381
115	0x3c8b9084	0.017036684
116	0xbdbc110a	-0.091829374
117	0xbd2f953f	-0.04286694
118	0xbd672e6c	-0.056440756
119	0x3bd26237	0.0064203995
120	0xbc7a6cbe	-0.015284715
121	0xbda0da1d	-0.07854102
122	0x3dc74a89	0.09731013
123	0xbc1266be	-0.008935628
124	0xbc5dce3e	-0.0135379415
125	0x00000000	0.0
126	0xbcc1091e	-0.023563918
127	0xbdd3ad74	-0.10335818
128	0xbca3011b	-0.019897988
129	0xbc23d701	-0.009999991
130	0x00000000	0.0
131	0x3d8cd648	0.068768084
132	0xbc23d6e6	-0.009999966
133	0xbd48537d	-0.048907746
134	0x3cb12a22	0.021626536
135	0x3dec6353	0.11542382
136	0xbba3d62b	-0.004999896
137	0xb8f321cd	-0.00011593439
138	0x3d34d28e	0.044146113
139	0xbc23d707	-0.009999997
140	0xbc351452	-0.011052208
141	0x3ccfdb9c	0.025373273
142	0xbb8eac58	-0.004354041
143	0xbc28ca91	-0.010302202
144	0x3c7e9244	0.015537802
145	0xbcb867ce	-0.022510435
146	0xba80bdbe	-0.0009822173
147	0xbd6b3285	-0.057421226
148	0x3d9fba42	0.07799198
149	0x3dd23894	0.10264698
150	0x3a9c80a7	0.0011940197
151	0xbd66c316	-0.056338392
152	0xbd3764a1	-0.0447737
153	0xbc8e31d3	-0.017357742
154	0x00000000	0.0
155	0xbc81aadb	-0.01582854
156	0x3d20367f	0.03911447
157	0x3dd7b67a	0.105328515
158	0xbc23d693	-0.009999889
159	0x3d4da0d7	0.050202217
160	0xbdaa0c14	-0.08303085
161	0x3d68ae5c	0.056806907
162	0xbd44818b	-0.047975104
163	0x3d431027	0.047622826
164	0x3dcc8a84	0.09987357
165	0x3cb64edd	0.022254402
166	0x3e2ed358	0.17072809
167	0x3e0e494d	0.1389515
168	0x3e27d0fb	0.16388313
169	0x3cf531be	0.029930945
170	0x3c138180	0.009003043
171	0xbd2ecca4	-0.04267563
172	0xbba270e0	-0.0049573034
173	0xbbc523d8	-0.006016236
174	0xbc9d13b2	-0.01917443
175	0xbbf6b353	-0.0075287013
176	0x3df252c4	0.118321925
177	0x00000000	0.0
178	0x3dd43315	0.103613056
179	0xbabb9f8b	-0.0014314515
180	0xbc971fdf	-0.018447815
181	0xbd3bdca6	-0.045864724
182	0xbc5545a5	-0.013017093
183	0x3b6d7602	0.0036233668
184	0x3d515bff	0.051113125
185	0x3b87a194	0.0041391347
186	0x00000000	0.0
187	0xbbf73065	-0.007543611
188	0xbcb1de7c	-0.021712534
189	0xbd9c896e	-0.076434
190	0xbd657e61	-0.056028727
191	0x3cce932e	0.025216665
192	0x3dab8051	0.08374084
193	0x3d0932db	0.033495765
194	0xbc054420	-0.008133918
195	0x3c7081ec	0.014679413
196	0xbd363c12	-0.04449088
197	0xbc23d6d2	-0.009999948
198	0xbc23d6df	-0.00999996
199	0xb88d3120	-6.732554e-05

model.5.weight f4 [200, 200]
0	0xbe14c1d4	-0.14527065
1	0x3e55413f	0.2082567
2	0x3e602967	0.21890794
3	0x3dff2e9a	0.124600604
4	0xbdb9066b	-0.09034427
5	0xbe08cd23	-0.13359503
6	0xbd990e7b	-0.07473465
7	0xbdcd55d4	-0.10026136
8	0x3e07d3f1	0.13264443
9	0x3bf55e35	0.007488037
10	0xbe29894d	-0.16556282
11	0xbe5516bb	-0.20809452
12	0xbc6056f3	-0.013692605
13	0x3d47621f	0.04867756
14	0xbde1e2ef	-0.11029612
15	0x3d65767d	0.056021202
16	0xbcb7952b	-0.022409996
17	0xbde9678e	-0.113967046
18	0xbd8e7b2e	-0.069570884
19	0xbb3559b6	-0.002767188
20	0xbda944f3	-0.08265104
21	0x3e10eea2	0.14153531
22	0x3d9d0432	0.07666816
23	0xbdd666d4	-0.10468832
24	0x3d0b57ed	0.0340194
25	0x3ce59eb7	0.028029783
26	0x3c634eb8	0.0138737485
27	0x3e2210b4	0.15826684
28	0x3e2e2695	0.17006905
29	0xbd0e3875	-0.03472181
30	0xbe2592f2	-0.16169336
31	0xbd9d61aa	-0.076846436
32	0xbe010714	-0.12600356
33	0x3e558a46	0.20853528
34	0xbe071707	-0.13192378
35	0x3e7d3032	0.24725416
36	0x3d8c9b32	0.06865539
37	0x3d0f005f	0.034912463
38	0xbe1de139	-0.15417947
39	0xbdb4984f	-0.08818113
40	0xbc890c3d	-0.016729468
41	0xbcd74da5	-0.026282141
42	0xbe205f58	-0.15661371
43	0xbe08e6c5	-0.13369282
44	0x3c6d387d	0.0144788
45	0x3ded1881	0.115769394
46	0xbe750159	-0.23926295
47	0x3dbbc9f1	0.09169377
48	0xbd55cfd4	-0.052200153
49	0x3d8aadf7	0.067714624
50	0xbd1b2bc8	-0.03788355
51	0x3c91dd53	0.01780573
52	0xbd36046a	-0.044437803
53	0x3ded4267	0.11584931
54	0x3e994684	0.29936612
55	0xbdf47336	-0.11936037
56	0xbd3f8022	-0.046753056
57	0x3dd5be86	0.1043673
58	0xbd3eb053	-0.046554875
59	0x3d6d73eb	0.057971876
60	0x3dfa6927	0.122270875
61	0xbdf31564	-0.11869314
62	0x3c6c8cae	0.0144378375
63	0x3c86ab94	0.016439237
64	0x3e2478d3	0.16061716
65	0xbe132389	-0.14369024
66	0xbcaa5f8d	-0.020797515
67	0x3d640437	0.055668082
68	0xbd91b59c	-0.07114717
69	0xbd48eec3	-0.049055826
70	0x3d787f35	0.06066819
71	0x3b902ca7	0.004399854
72	0xbe07bea7	-0.13256322
73	0xbe07c235	-0.13257678
74	0x3d512052	0.051056214
75	0xbcd1419e	-0.025543984
76	0x3e284877	0.16433893
77	0xbe00b12b	-0.12567584
78	0x3d48c91e	0.049019925
79	0xbdc0adb6	-0.09408133
80	0x3e0d8fcc	0.13824385
81	0xb99f6e74	-0.00030409137
82	0xbd739829	-0.059471283
83	0x3c5f3c18	0.013625167
84	0x3dd1f0e8	0.10251027
85	0xbe16eeef	-0.14739583
86	0xbda9d9f6	-0.08293526
87	0xbe4f4994	-0.20242912
88	0x3ea845f5	0.32865873
89	0x3d1c82d2	0.038210697
90	0x3d5a9d7b	0.05337284
91	0x3dba49fe	0.09096144
92	0x3d978d67	0.07400017
93	0x3de14a96	0.11000554
94	0x3d685a5b	0.056726795
95	0xbc5bb516	-0.0134098735
96	0x3e351e08	0.17687237
97	0x3e478ca3	0.19487242
98	0xbe13d1c5	-0.1443549
99	0xbc0a61b5	-0.008446147
100	0x3e7884e1	0.2426944
101	0xbe320fe7	-0.17388879
102	0x3db94081	0.09045506
103	0xbdb86da6	-0.09005289
104	0x3e089053	0.13336305
105	0xbe4eb1e4	-0.20185047
106	0xbd709d4f	-0.05874377
107	0xbc567ebf	-0.013091742
108	0x3e065649	0.13118853
109	0x3ca67b4b	0.020322463
110	0x3c6d1a2b	0.014471571
111	0x3e1b4da3	0.15166335
112	0x3d3c6c13	0.046001505
113	0xbe123d46	-0.14281186
114	0xbd9bb179	-0.076022096
115	0x3c38521c	0.011250045
116	0x3d998624	0.074962884
117	0xbd22df08	-0.03976348
118	0xbd4c9f58	-0.04995665
119	0xbe391fb7	-0.18078505
120	0xbd7e3c61	-0.0620693
121	0x3cc73dfa	0.024321545
122	0x3e0d03a5	0.13770922
123	0x3e041d2e	0.12901756
124	0xbcf2cd6b	-0.029638967
125	0x3d0e3238	0.03471586
126	0x3d4793ea	0.048725046
127	0xbb3f3710	-0.0029177107
128	0xbda3a45a	-0.07990332
129	0x3e8da3d1	0.27664044
130	0xbc801ecd	-0.015639687
131	0x3e3086af	0.17238878
132	0xbda59f8d	-0.080870725
133	0x3d814095	0.06311146
134	0x3d5b198c	0.05349116
135	0x3d25ad77	0.040448632
136	0xbdcdb275	-0.100438036
137	0xbb9d14fe	-0.004793762
138	0x3e70f87d	0.23532291
139	0x3df4341e	0.11924003
140	0xbe0d3801	-0.13790895
141	0xbde85cff	-0.113458626
142	0xb9b89b0b	-0.0003521073
143	0x3d76db64	0.06026782
144	0xbc2c232d	-0.010506433
145	0x3d1c4d71	0.03815979
146	0xbd707490	-0.058704913
147	0x3df1bada	0.11803217
148	0x3cd9d509	0.02659084
149	0xbd85945b	-0.06522437
150	0x3cbbea54	0.022938885
151	0xbdf6e337	-0.120550565
152	0xbcb37557	-0.021906538
153	0xbccf234f	-0.025285391
154	0x3e1b0e21	0.15142109
155	0xbd42442b	-0.04742829
156	0x3dbec447	0.09314781
157	0xbc46ef72	-0.012142049
158	0xbe090949	-0.13382448
159	0xbd01fbbe	-0.03173422
160	0xbe1b4cbe	-0.15165994
161	0xbd83f011	-0.064422734
162	0x3da93672	0.08262338
163	0xbd1f0a95	-0.03882845
164	0xbd186c8c	-0.037212893
165	0xbdfd4d0c	-0.12368211
166	0x3d366d2e	0.044537716
167	0x3d2fdeb6	0.042937003
168	0x3cb14e31	0.02164373
169	0x3df1c815	0.11805741
170	0x3e3915bb	0.18074696
171	0xbd9892b2	-0.07449855
172	0xbaac23bd	-0.001313321
173	0xbd98d5fc	-0.07462689
174	0x3c8bca98	0.017064378
175	0x3d8b1e00	0.067928314
176	0x3d835f89	0.06414706
177	0xbd8900d7	-0.06689613
178	0xbe293090	-0.16522431
179	0x3e17de72	0.1483095
180	0xbd6743f6	-0.056461297
181	0xbe0a8555	-0.13527425
182	0x3db9fb04	0.090810806
183	0x3ccf7690	0.02532509
184	0xbde206c6	-0.11036448
185	0xbdacd506	-0.084390685
186	0xbd96a464	-0.07355574
187	0xba257248	-0.000631128
188	0xbd513920	-0.05107987
189	0xbda64906	-0.08119397
190	0xbda27733	-0.07932892
191	0x3e1743c6	0.14771947
192	0xbaa24ff5	-0.0012383448
193	0x3c5db32e	0.013531489
194	0xbe76e2f7	-0.24110018
195	0xbd28fe9c	-0.04125844
196	0x3cc1736a	0.023614604
197	0x3d6fd450	0.058552086
198	0x3e27e52a	0.16396013
199	0x3de89334	0.11356202
200	0x3d94ad85	0.07259659
201	0x3e1e846f	0.15480207
202	0xbd09e508	-0.033665687
203	0x3b977168	0.0046216734
204	0x3cb5e68a	0.022204656
205	0xbe3b1d72	-0.18272951
206	0xbcd0d203	-0.025490766
207	0xbdaa2ce1	-0.08309341
208	0x3da59435	0.08084909
209	0xbd92aac4	-0.07161477
210	0xbd1f8fc4	-0.038955465
211	0x3d2c1a2b	0.042017143
212	0xbd706dc6	-0.058698438
213	0x3d313308	0.043261558
214	0x38e2f20c	0.000108216045
215	0x3c5338b5	0.012891938
216	0x3e03e1e0	0.12879133
217	0xbd3d75cf	-0.04625493
218	0xbdbd2934	-0.092363745
219	0xbd3a6b0b	-0.04551224
220	0xbdc3d45e	-0.0956199
221	0x3c5fdee6	0.013663983
222	0xbdf9d18f	-0.12198173
223	0xbcf356bc	-0.029704444
224	0x3c45fc80	0.0120841265
225	0xbe120581	-0.14259912
226	0xbd8d6032	-0.069031134
227	0x3cc80dfe	0.024420734
228	0x3dd63ef6	0.104612276
229	0xbdcd43b3	-0.10022678
230	0xbdb93c2c	-0.0904468
231	0xbd165e21	-0.036710862
232	0xbd78243d	-0.060581435
233	0xbd852619	-0.06501407
234	0x3d1747a3	0.036933552
235	0x3d6e2aaf	0.058146175
236	0x3d421512	0.047383375
237	0xbd7cf902	-0.06176091
238	0xbd41e351	-0.047335926
239	0xbc99641e	-0.018724497
240	0xbd8596b2	-0.065228835
241	0x3d06aad7	0.03287777
242	0x3cdcefed	0.026969874
243	0x3d26a652	0.04068596
244	0xbd6b12c3	-0.05739094
245	0xbb77e1a1	-0.0037823694
246	0x3d63392b	0.05547444
247	0x3dbbc9c1	0.09169341
248	0x3d41d6a2	0.04732383
249	0xbdb921dc	-0.09039661
250	0x3ddda9b3	0.10823383
251	0xbdc7b26b	-0.097508274
252	0xbeb63347	-0.35585997
253	0xbbc2e65f	-0.0059478725
254	0xbc93794d	-0.018002177
255	0xbe2d2d86	-0.16911897

model.5.bias f4 [200]
0	0xbc6347d6	-0.0138721075
1	0xbc86accc	-0.016439818
2	0xbcf4f8fd	-0.029903883
3	0xbcf304e3	-0.029665416
4	0x3c7a53aa	0.015278736
5	0x3bba5a0d	0.0056870044
6	0xbbfcefd5	-0.00771902
7	0xbc92ac0e	-0.017904308
8	0xbcc96495	-0.024584094
9	0x3c7c1a80	0.0153871775
10	0xbca9bbe8	-0.020719483
11	0xbd25b857	-0.040459003
12	0xbca61c03	-0.020277029
13	0x3c14bf45	0.009078805
14	0x3c6943a6	0.01423732
15	0x3afd0a8a	0.0019305509
16	0xbc8bf10c	-0.017082714
17	0xbc5132a4	-0.012768421
18	0xbc4a4f73	-0.012348044
19	0xbcf9823c	-0.030457608
20	0xbd264340	-0.04059148
21	0xbd05319e	-0.03251802
22	0x3daf48ac	0.08558783
23	0xbd199f37	-0.037505355
24	0xbdaaf11f	-0.083467714
25	0x3d34d6c8	0.044150144
26	0xbd3694eb	-0.044575613
27	0x3ce043c4	0.027376063
28	0xbd2c9cbe	-0.04214167
29	0x3ce4e0a7	0.027939154
30	0x3c2e8d19	0.0106537575
31	0xbcb3d36a	-0.021951396
32	0x3d9dc248	0.07703072
33	0x3c9c1110	0.019051105
34	0xbbba4bb6	-0.005685295
35	0xbd0bc1a1	-0.034120206
36	0x3c590de5	0.013247942
37	0xbbfe9cb6	-0.0077701462
38	0x3d90bfdb	0.070678435
39	0x3b9a0d48	0.0047012903
40	0xbd13ae70	-0.03605503
41	0xbd421e76	-0.04739233
42	0x3ca7c5bd	0.020480031
43	0x3c381092	0.011234419
44	0xbd58b1c9	-0.052903924
45	0x3d3dc96f	0.04633468
46	0xbc4fa8e9	-0.012674549
47	0x3d473ec7	0.048643854
48	0xbd288645	-0.041143674
49	0xbc8c0a85	-0.01709486
50	0xbcf14b69	-0.029454904
51	0x3c716a71	0.01473485
52	0x3c36eabd	0.011164364
53	0xbd1f1814	-0.038841322
54	0xbd340c81	-0.043957237
55	0xbd3dc171	-0.04632706
56	0x3c040187	0.008057005
57	0xbc88d518	-0.016703174
58	0x3c57d397	0.013173006
59	0x3cd8cc1c	0.026464514
60	0x3c34312c	0.010998052
61	0xbd8a17c4	-0.06742814
62	0xbbcb0028	-0.006195087
63	0xbc8c7d4a	-0.017149586
64	0xbc9300a2	-0.017944638
65	0xbc3c6c05	-0.011500363
66	0xbd776134	-0.060395434
67	0x3cbd55fc	0.02311229
68	0xbcb34499	-0.021883296
69	0x3c77b246	0.015118187
70	0x3c957111	0.01824239
71	0xbc808860	-0.015690029
72	0x3d77c3ce	0.06048947
73	0x3d8294ec	0.06376061
74	0x3d4b6fdc	0.049667224
75	0x3dafbeaa	0.08581288
76	0xbce66caf	-0.028127996
77	0xbb53d381	-0.003232211
78	0x3d0f260b	0.03494839
79	0xbc9ffc32	-0.019529436
80	0xbc79bab5	-0.015242268
81	0x3be7d215	0.0070746043
82	0xbce8f110	-0.02843526
83	0x3da1cfbb	0.079009496
84	0xbc74fcda	-0.014952863
85	0xbc089abe	-0.008337675
86	0x3c9941a5	0.01870806
87	0xbbb8be67	-0.005637932
88	0xbcb1c85e	-0.021701988
89	0xbcab9944	-0.020947106
90	0x3c8260f5	0.015915373
91	0x3c02900c	0.007968914
92	0xbc5fc853	-0.013658601
93	0xbcbbbb90	-0.022916585
94	0xbd9ca055	-0.076477684
95	0x3cd85663	0.02640838
96	0x3bbfb312	0.0058502043
97	0x3c50916e	0.012729986
98	0x3b93a4fd	0.004505752
99	0x3b68b110	0.0035505928
100	0xbd00e6fc	-0.031470284
101	0x3d9937d6	0.07481353
102	0xbc8e94da	-0.017404962
103	0x3c61e961	0.013788552
104	0xbcb9efea	-0.022697408
105	0xbca571dc	-0.020195894
106	0x3a24926c	0.0006277922
107	0x3b4b0512	0.0030978364
108	0xbcf08457	-0.02935998
109	0x3c177e5b	0.009246434
110	0xbd4742d8	-0.04864773
111	0x3d4b24c3	0.049595606
112	0x3c30b7b7	0.0107859885
113	0xbd20ec62	-0.039287932
114	0x3b826b93	0.003980109
115	0x3ac16af1	0.0014756602
116	0xbcbb1d18	-0.022841021
117	0xbc89a393	-0.016801631
118	0xbc806251	-0.01567188
119	0x3d56f9e1	0.052484397
120	0xbc6469fb	-0.013941283
121	0xbce714e5	-0.028208205
122	0xbcb94879	-0.022617565
123	0xbc619ec2	-0.013770761
124	0xbc51927e	-0.012791274
125	0xbb90cab9	-0.0044186977
126	0x3aae165c	0.001328181
127	0xbccf0d62	-0.025274936
128	0xbcbc1b2f	-0.02296218
129	0xbc908126	-0.017639708
130	0x3c1d977b	0.009618635
131	0x3dd0865b	0.10181876
132	0xbc897b23	-0.016782349
133	0xbc89b11a	-0.016808081
134	0x3c39cef9	0.01134085
135	0xbc777145	-0.015102689
136	0xbceebccd	-0.029142762
137	0xbd0202d0	-0.031740963
138	0x3c60707c	0.013698693
139	0xbce82608	-0.028338447
140	0x3ba0c00f	0.0049057077
141	0x3c2a3bcf	0.010390236
142	0xbd755b72	-0.059901662
143	0xbd0cd08d	-0.034378577
144	0xbafaaf39	-0.0019125707
145	0x3d2d35a4	0.042287484
146	0x3d8e1d24	0.06939152
147	0x3c0b655f	0.0085080555
148	0x3e11e02f	0.14245676
149	0xbd33651a	-0.04379759
150	0x3c5243ab	0.012833516
151	0x3df526a5	0.119702615
152	0x3dd83449	0.105568476
153	0xbc5a8acd	-0.013338757
154	0xbc04a365	-0.008095597
155	0x3c2bbbdc	0.010481801
156	0xbc42a5f2	-0.011880385
157	0xbcab22ea	-0.020890672
158	0x3c502ed5	0.012706478
159	0xbcaf053e	-0.021364804
160	0xbd0028b1	-0.031288806
161	0xbc96771b	-0.01836734
162	0x3c1dcefa	0.009631867
163	0xbc9b77f3	-0.018978095
164	0xbcb833b9	-0.0224856
165	0x3bb0218c	0.005375093
166	0xbcdc9105	-0.02692462
167	0xbceba147	-0.028763426
168	0x3cb3ed70	0.021963805
169	0xbbad4e0f	-0.0052888463
170	0xbd32d688	-0.043661624
171	0x3c123690	0.0089241415
172	0xbd1d50c7	-0.038407113
173	0x3d009626	0.031393193
174	0x3b30d2ac	0.002698104
175	0xbcfe33b6	-0.031030517
176	0xbc032a39	-0.008005672
177	0x3dd1e1cd	0.10248146
178	0xbc6a8a20	-0.014315158
179	0xbc1f89d6	-0.0097374525
180	0xbc65dec6	-0.014030164
181	0x3c90d34d	0.017678881
182	0x3e0987f4	0.13430768
183	0x3ccf797a	0.02532648
184	0x3d48f8b9	0.049065325
185	0xbc8c6490	-0.017137796
186	0xbd0c0fa3	-0.0341946
187	0x3ca2eb0e	0.019887473
188	0xbd390d86	-0.045178913
189	0x3dc910e5	0.098176755
190	0xbcb258f7	-0.021770937
191	0x3bdb2dcf	0.0066888104
192	0xbc9d628e	-0.019212034
193	0xbc7d3000	-0.015453339
194	0x3c28821f	0.01028493
195	0xbc353dc5	-0.01106209
196	0x3c6dccdd	0.014514175
197	0xbce02eec	-0.027366124
198	0x3b859b0b	0.0040773205
199	0x3c2de512	0.010613697

model.8.weight f4 [1, 200]
0	0xbe160412	-0.1464999
1	0x3d092cfd	0.03349017
2	0x3e4da6cf	0.20083164
3	0x3c891ecf	0.016738323
4	0xbe10f99b	-0.14157717
5	0xbdfceb0f	-0.12349521
6	0x3d7225a5	0.059117932
7	0x3cc1173a	0.023570646
8	0xbdb2af98	-0.08724898
9	0xbe3eae8a	-0.18621269
10	0x3dc8a6a4	0.09797409
11	0x3cf269bd	0.029591436
12	0x3d4b4f9b	0.049636465
13	0x3e1060b1	0.14099385
14	0xbe2e5c03	-0.17027287
15	0xbe0c507e	-0.1370258
16	0xbe9dd9c6	-0.3083021
17	0xbdd0491a	-0.10170193
18	0xb97613e7	-0.00023467802
19	0xbd63c786	-0.055610202
20	0x3d3a93ef	0.045551237
21	0x3dcf7463	0.10129621
22	0xbe3c7bee	-0.1840665
23	0x3d66be5b	0.05633388
24	0xbdb76d6f	-0.0895642
25	0xbd499356	-0.049212776
26	0x3d4f37b4	0.050590232
27	0xbe140dd1	-0.14458396
28	0x3d92a42b	0.07160219
29	0xbde0723a	-0.10959287
30	0xbdd74845	-0.10511831
31	0x3e278eaa	0.16363016
32	0x3e578ac6	0.21049032
33	0xbd1d3a45	-0.03838565
34	0x3d41b4db	0.047291618
35	0x3dd5c865	0.10438613
36	0xbdf807ca	-0.12110861
37	0x3d8a03ca	0.06739004
38	0xbe2326cd	-0.1593277
39	0xbdc8cc3a	-0.09804578
40	0xbda18831	-0.078873046
41	0x3c38108b	0.011234413
42	0x3e70e349	0.23524202
43	0xbdeab5b8	-0.11460441
44	0x3cc4a570	0.024004668
45	0xbddbf83a	-0.10740705
46	0x3e0b78ec	0.13620347
47	0xbd4effdb	-0.05053697
48	0x3cf999d8	0.030468866
49	0x3d7605db	0.060064178
50	0x3d99778e	0.07493506
51	0xbd0e9044	-0.03480555
52	0xbd2724ff	-0.040806767
53	0x3dcc634f	0.09979879
54	0x3dd81245	0.1055036
55	0x3d5372a7	0.051623013
56	0xbdf01d3c	-0.11724326
57	0x3dcc0cd2	0.09963383
58	0xbe35817f	-0.1772518
59	0xbe1e8423	-0.15480094
60	0xbd1a11d8	-0.037614673
61	0xbdd2bb55	-0.10289637
62	0x3e4970b5	0.196719
63	0x3ce2d551	0.027689608
64	0x3db0382f	0.08604466
65	0xbe55eb35	-0.20890506
66	0x3cc29a53	0.023755228
67	0x3d73fd26	0.059567593
68	0x3e010e56	0.12603125
69	0xbe516d03	-0.20451741
70	0xbdf2e815	-0.118606724
71	0x3d7b6c74	0.061382726
72	0xbe2b0d4c	-0.16704291
73	0xbd86ffd1	-0.06591762
74	0xbd84688b	-0.064652525
75	0x3dcc2152	0.09967293
76	0x3dee2161	0.1162746
77	0xbdc942fa	-0.09827228
78	0xbd43985f	-0.047752734
79	0x3aecf994	0.0018079751
80	0x3e2100df	0.15722989
81	0xbdb8bf76	-0.09020893
82	0x3d2dfac4	0.042475477
83	0xbdc5b7e5	-0.09654216
84	0xb9fdba28	-0.00048394618
85	0xbd1188d5	-0.035530884
86	0xbdaf6113	-0.08563437
87	0xbcb3fbdc	-0.021970682
88	0x3d70847b	0.058720093
89	0x3cab71d3	0.020928299
90	0xbd23d3a5	-0.03999676
91	0xbe346eb2	-0.17620352
92	0x3def35bd	0.11680172
93	0x3dcb685a	0.09932013
94	0xbe346406	-0.17616281
95	0xbccbc1fe	-0.024872776
96	0xbea69693	-0.32536754
97	0xbe0dac0a	-0.13835159
98	0xbde5e5d9	-0.112254806
99	0xbdc83c86	-0.09777169
100	0x3d5f6f9d	0.054549802
101	0x3e21ee21	0.15813495
102	0x3d9c6f18	0.07638377
103	0xbdc7041e	-0.09717582
104	0x3caa6a1f	0.020802556
105	0x3db2ffcd	0.087401964
106	0x3e39df91	0.1815169
107	0xbda40d08	-0.08010298
108	0x3e1e961c	0.1548695
109	0xbd9546a2	-0.07288863
110	0xbcb6ab4e	-0.022298481
111	0xbdc467e6	-0.095901296
112	0xbdd28745	-0.10279707
113	0x3e144aef	0.1448171
114	0xbe0e5fac	-0.13903683
115	0xbdeb60e2	-0.11493088
116	0xbd7463dc	-0.059665546
117	0x3e5e8afc	0.21732706
118	0x3d91cfa2	0.07119681
119	0xbe047875	-0.12936576
120	0x3d85f347	0.06540542
121	0x3b07e36a	0.0020734915
122	0x3e4eab36	0.201825
123	0x3cfefea6	0.031127285
124	0xbd092d61	-0.033490542
125	0x3e3c4065	0.1838394
126	0xbdee11aa	-0.11624463
127	0x3e290f15	0.1650966
128	0x3dfc4a36	0.12318842
129	0x3dcc4d9e	0.09975742
130	0xbde8057f	-0.11329173
131	0xbdc1bfbb	-0.09460398
132	0x3d5e3222	0.05424703
133	0x3da71157	0.08157604
134	0xbd44a1d3	-0.04800589
135	0x3e2b5a5d	0.1673369
136	0x3d813340	0.06308603
137	0x3db98425	0.09058408
138	0xbe024487	-0.12721454
139	0xba4ff044	-0.00079322257
140	0xbe2729dc	-0.16324562
141	0xbd754434	-0.059879497
142	0xbe3a746a	-0.18208471
143	0x3d450d91	0.04810864
144	0xbcdd115d	-0.026985819
145	0xbd75d0e9	-0.060013685
146	0xbe36e82a	-0.17862001
147	0xbda2c154	-0.07947031
148	0xbded9101	-0.11599923
149	0x3dd642d1	0.10461963
150	0xbd779462	-0.060444243
151	0xbdafaf05	-0.08578304
152	0xbe1eae9e	-0.15496299
153	0x3cc3ec81	0.023916485
154	0xbd93edf5	-0.07223121
155	0xbd9a2ed6	-0.075284645
156	0xbb06903a	-0.0020532743
157	0x3ca42c7a	0.02004074
158	0xbe4236c8	-0.1896621
159	0x3dedee81	0.11617757
160	0x3d4dde92	0.050261088
161	0x3cfc9bbd	0.03083598
162	0xbe80dbb2	-0.25167614
163	0x3d216765	0.039405245
164	0x3d06f2a8	0.03294626
165	0xbe029f48	-0.12756073
166	0x39507f80	0.00019883923
167	0xbc4fcc76	-0.012683025
168	0xbdec6069	-0.11541826
169	0xbc6d7873	-0.014494049
170	0x3dd8d6d9	0.10587854
171	0xbd91f763	-0.071272634
172	0x3a253416	0.0006302012
173	0xbe790cf2	-0.24321344
174	0x3de8c43c	0.11365554
175	0x3e18401b	0.14868204
176	0x3da0c468	0.078499615
177	0xbdad4e16	-0.08462159
178	0x3bb18d91	0.0054184874
179	0xbc1bb0f5	-0.009502639
180	0x39724860	0.0002310588
181	0xbe0f09ba	-0.13968554
182	0xbe5286b7	-0.20559202
183	0xbd8dbbf2	-0.06920613
184	0xbd9f74ba	-0.07785936
185	0x3e8c1c66	0.27365416
186	0x3e0634c4	0.13106066
187	0xbe123f90	-0.1428206
188	0x3ddacad3	0.10683217
189	0xbde4ce37	-0.11172145
190	0xbc9d0658	-0.019168064
191	0xbe279bc4	-0.16368014
192	0xbb2eb716	-0.002665942
193	0x3deb33c3	0.11484482
194	0xbdb11d75	-0.086481966
195	0x3b85308f	0.0040646265
196	0xbdfb9361	-0.1228397
197	0x3d8e8738	0.06959385
198	0xbcf40253	-0.029786265
199	0xbdccc9d7	-0.099994354
