Challenge_1/Weights/model_dynamics_Qube-v0_mse_0.00023314.params (torch_old, 334228 bytes, 8 tensors)

model.0.weight f4 [200, 7]
00000000: 8b89 48bf be2d 8abf a09f 0fbe 2bef 8abe
00000010: 03ff 81bf ad9b 0bbd a037 d2bd 1b53 0e3e
00000020: b7f2 313f f8ad 053f dfa3 39be 2134 e5be
00000030: f058 173f 9091 c3be c152 5d3d 9d60 ccbe
00000040: 3819 b93e 3353 d6be 1bfc aabc 03a0 d83e
00000050: 0647 31be d62a 833e b4e9 8b37 542a afbd
00000060: 9644 86ba 9470 a73d 93eb 843d 6825 24bf
00000070: 023d d0be 6795 d8be 206a c63d 6054 95be
00000080: 14be d03e 5a1e 7bbe d0d1 4fbf 35f8 bf3e
00000090: d4d5 10be b531 f43d 7c23 f5be 87b1 a63e
000000a0: 7e02 d6be 1c04 943e d379 86be bfbe a63e
000000b0: b4f9 bfbd 555f 09be b591 193f 3de1 f9be
000000c0: 807b 55be d29c 3bbf 73e4 e73d f414 3fbf
000000d0: 4ad7 9d3e 4fe0 c6be e2b5 0dbf 22ec b83d
000000e0: fe93 42be 7766 33be 1946 413f 4d53 a13e
000000f0: 2af4 67bf ad8c 553e 1050 aa3e 8777 83bd
00000100: 9570 353f 91e1 4abf 6f16 7b3e 3829 f03d
00000110: a281 9c3d 63ca 07bf 3f10 21bf cbdb 133e
00000120: bb6b 89bf a07d f13e bae8 08bf 0058 80be
00000130: 82d6 05bf 8884 94be 03c4 303f 0651 c6be
00000140: 1e56 42bf 2114 873f 986d ce3d 7421 983e
00000150: 4427 80be cb30 08bf 726a 21bf 3999 2c3e
00000160: 0609 953f aca6 30be ff1e 453e b404 26bf
00000170: bce9 bfbc 2019 a63f 663a dc3e d25d 89bf
00000180: 0c97 04bf d176 c1be ab1d 703e 5f85 30bd
00000190: df5c 05bf 9e25 003f 8656 a53f e4bc c1be
000001a0: 16b2 a33e e51f 883e f28c 95be 2373 95be
000001b0: 63b8 8dbe 6671 adbe c7f4 02bf 4537 cbbd
000001c0: b0f1 d83e 6539 13bf 9f52 12be aa90 b5be
000001d0: 014c 29bf 1a3f 053f b06d 41ba 38a7 c9bd
000001e0: db55 6cbe 217d 87bf 98b8 fdbe 7409 f63e
000001f0: ff9b 7b3f c6bc a6bd 8218 633e b703 62bd
00000200: 2124 20bf 8646 933f 4fb4 8bbe f83d 1cbf
00000210: 823f 32bf f7d3 1b3f 24c6 9c3e 575e 57bf
00000220: 30cf bebe 8436 28bf 5445 90bd beba bd3d
00000230: 0e36 803e b244 153d f2cc 9a3c 2000 2fbf
00000240: 0d09 563f 088a 85bf 8310 243d 1307 aebe
00000250: cb69 ff3e 45d9 25be 2e54 a8be d68c 83bf
00000260: cc45 72be 1743 c2be 4ecd 0bbd 0241 a73e
00000270: 8757 873e 40a2 253b 7e17 2bbe 9c82 4fbe
00000280: 90c2 403f 0369 d33e 5814 1c3f bf5b 4ebe
00000290: bf09 933d 49d9 dbbd e508 7c3f 4d7b 153f
000002a0: 1195 133e 0a95 7c3e b3e8 79be b563 9fbf
000002b0: dc21 083f 4aaa 8abe 6c7f fc3e 674c 2abe
000002c0: c84f cd3e 14f1 3e3f 0e1c 48bf 286a ed3e
000002d0: 5105 7b3e f79e 153f cca3 97bd ee0e acbd
000002e0: 1792 1e3f e6c9 87be ea6d 5ebe 3bd2 b43e
000002f0: 9f9a 923e 4b2f 9dbf 0f64 d63e ba5b cb3d
00000300: 3f0c 25bd 7737 b2bd 498e a03e fd4a a3bd
00000310: ac40 6abe e9f2 403f f8a4 4dbe fbe9 b83d
00000320: ba93 85be bd8c e3be d558 febd be97 423e
00000330: 2985 b13e 3502 743e 41c2 193f 554e 7bbf
00000340: b350 4ebf 0659 b03e f90c 6ebd 9ba9 593c
00000350: a6d1 b83f 1f7c 393f 0e15 4abf 416a 07bf
00000360: 564a b7bd 44d2 8abf 75d6 adbe 3312 04be
00000370: 9999 f6bc efba c8bb fc56 883f 461b ad3e
00000380: a3a0 f1be 5b0a 403d 97b6 c4be b52b 7f3e
00000390: ecbd 65bf db73 b23f c2c9 493e 2bbe 01bf
000003a0: cbf7 c13d d0c0 0dbe 1ad9 b23e 5b94 bcbd
000003b0: 5e7e af3e a34a d03e 302d d3bd 8063 993e
000003c0: fa14 25bc 9f2c 963d c5a7 213f 54d5 6d3e
000003d0: f6a7 bc3e 14d0 10be e489 70bf ee50 dc3d
000003e0: e8fb 46bf 871b ad3e c4cf cb3e b68f 993d
000003f0: 0803 98be b51c cabd e48f c2be aa36 013f
-0.78334874 -1.079521 -0.14025736 -0.27135596 -1.0155948 -0.03408401 -0.10264516 0.1389889
0.6951098 0.5221858 -0.18128918 -0.44766334 0.5912008 -0.38196993 0.054034 -0.3991746
0.36152053 -0.4186035 -0.020872166 0.4230958 -0.1731225 0.2561862 1.6678918e-05 -0.08552995
-0.0010243829 0.081757694 0.06490245 -0.6411958 -0.40671545 -0.42301485 0.096882105 -0.29165936
0.40770018 -0.24523297 -0.81179523 0.37494054 -0.14144069 0.11923543 -0.47878635 0.32557318
-0.41798776 0.28909385 -0.2626482 0.32567403 -0.09373799 -0.13415273 0.59987956 -0.48804656
-0.20847893 -0.73286164 0.1132287 -0.74641347 0.30828315 -0.3884301 -0.55355656 0.09029414
-0.19001767 -0.17519556 0.75497586 0.31508866 -0.9060694 0.20854445 0.33264208 -0.064192824
0.7087491 -0.7925044 0.24520276 0.11726612 0.07641913 -0.5304319 -0.62915415 0.14439313
-1.0736002 0.47166157 -0.5348011 -0.2506714 -0.5228044 -0.29007363 0.6904909 -0.3873369
-0.75912654 1.0553018 0.10079497 0.29713023 -0.25029957 -0.5319945 -0.6305305 0.16855325
1.1643379 -0.1725108 0.19250105 -0.64850926 -0.023426883 1.2976418 0.43013304 -1.0731757
-0.5179298 -0.37785962 0.23448817 -0.043095943 -0.52094835 0.500574 1.291703 -0.37839425
0.31971806 0.26586834 -0.29209095 -0.29189405 -0.27679738 -0.3387558 -0.5115475 -0.09922651
0.42371893 -0.5750945 -0.1428933 -0.35461932 -0.661316 0.5204941 -0.00073787104 -0.098463476
-0.23079626 -1.0585061 -0.49554896 0.48054087 0.98284906 -0.081414744 0.22177318 -0.055179324
-0.6255513 1.1505897 -0.27286002 -0.61032057 -0.69628155 0.6087031 0.3061992 -0.84128326
-0.37267447 -0.65708184 -0.07044473 0.09264134 0.2504124 0.036442466 0.018896554 -0.68359566
0.8360756 -1.0432749 0.04005481 -0.33989772 0.498854 -0.16196163 -0.32876724 -1.0277355
-0.23659438 -0.3794181 -0.03413134 0.32666785 0.26433966 0.002527371 -0.1670818 -0.20264667
0.7529688 0.41291055 0.6096854 -0.20152186 0.07179593 -0.10734803 0.9845107 0.5839127
0.14412333 0.24666229 -0.24405174 -1.2452303 0.53176665 -0.27083045 0.49315965 -0.16630708
0.4009993 0.74586606 -0.7816781 0.46370053 0.24513747 0.58445686 -0.07404289 -0.08401285
0.61941665 -0.26521224 -0.21721616 0.35316643 0.28633592 -1.2280058 0.41873214 0.09929605
-0.040294882 -0.08701985 0.31358555 -0.07973287 -0.22876233 0.7537065 -0.20082462 0.09029003
-0.2608927 -0.44443312 -0.12419287 0.19003198 0.34671906 0.23828967 0.6006203 -0.981664
-0.8059189 0.3444292 -0.05811784 0.013285066 1.443898 0.7245502 -0.78938377 -0.52896506
-0.08949725 -1.0845418 -0.3395268 -0.12897567 -0.030102538 -0.0061258 1.0651546 0.3380987
-0.4719287 0.046884876 -0.38420555 0.24919017 -0.8974292 1.3941606 0.19705871 -0.506808
0.09471091 -0.13843083 0.3493126 -0.09207984 0.34276098 0.40681943 -0.10311353 0.29958725
-0.010075802 0.073327295 0.6314662 0.2322591 0.36846894 -0.14141876 -0.93960404 0.107576236
-0.7772813 0.33810064 0.3980695 0.07498114 -0.29689813 -0.09868757 -0.38000405 0.50474036

model.0.bias f4 [200]
00000000: 0000 0000 d33a 39bd 0260 433d 1896 793d
00000010: 0000 0000 89f4 e2bc 3870 25bd 0000 0000
00000020: 1980 2cbc 4b1a 2cbd 0000 0000 fec7 abbd
00000030: 016e 43bc 37c5 1dbc f33a 8cbd 0000 0000
00000040: 60c7 b23d 219e babc 82be a9bd 9565 d23c
00000050: 969b 44bd 0000 0000 82bc 51bd 7fc7 91bd
00000060: 522e 253d 54db 00be 8039 75bd 392d 903d
00000070: f293 e8bc a01a a43c a8a9 d23c 0ec1 d93d
00000080: e613 5c3b 50e6 c8bd ea83 02be ad8c 1ebb
00000090: c226 ca3d c6b8 18bd 0e42 23bc 30dc f23c
000000a0: 0000 0000 3335 2ebc cf77 d83d 57b8 01be
000000b0: 9100 073e 6774 adbc 177d 1a3d 2bca 50bd
000000c0: 024c e5bc f6be fcbc 03f2 b7bc 58d3 173d
000000d0: b04a 50bc 0000 0000 a85a 04bd 16e0 5abd
000000e0: 0000 0000 15cd d3bc f7ca 55bd 10df 1ebe
000000f0: ea73 d4bd 1da9 21bd 18d2 5abd f0bc 34bd
00000100: 6c65 e7bd 0000 0000 7071 023e 3104 e23d
00000110: dd87 593d 48a1 153c 16a1 2d3d 311e fd3c
00000120: be3c 90bd b48b b33d 0000 0000 1f1e 8dbd
00000130: a9cd 873c 53c5 e5bc bff8 95bd 767b 98bd
00000140: d656 81bc 2636 9abd 77ed 50bd 38b5 a1bd
00000150: bdd2 acbd 0224 a6bd 149c b93c 9807 a0bd
00000160: 18a0 9fbd ace5 8bbd 58b0 273d 9bd5 05bc
00000170: 2212 82bd 639a edbd 0000 0000 aae5 1dbd
00000180: 9453 5abd 535a 963d 8c01 e4bd 0000 0000
00000190: d1cd a7bd fe58 f1bc 5afb eb3c edc2 40bb
000001a0: eaa7 6d3b 4273 a9bc 021a 72bd 5b45 6abd
000001b0: 37bb 253d 0000 0000 cfb2 5ebd aad2 dabc
000001c0: 06ca 16bd d043 543a d1a5 d9bd 0754 2ebb
000001d0: 605f 1dbe b19e c43d a7ef 00be 31d4 8dbd
000001e0: 8c0c 69bc 0000 0000 7b40 f03c cdbf 00bd
000001f0: 8fe1 df3c 4045 d23c 93b3 f9bd 471f a1bd
00000200: 06b6 3bbd a28b 903b 370b d6bd b897 53bd
00000210: 3f4c b7bd bca8 05bd 375d 40bd 9970 04bd
00000220: b644 a3bc d575 733c 6b40 c03d 604e de3b
00000230: 0db9 373d 17e7 c8bd a9d1 9dbc 5280 063e
00000240: 0901 acbb 44ba 08be b912 78bd 220b 7b3d
00000250: 0000 0000 d098 98bd dc81 94bc 358d 94bc
00000260: b9c6 b73c ba78 d23b e3e2 673c e686 bc3b
00000270: 562f b2bb 1ae8 97bd 1ffe 73bd 67d5 a9bd
00000280: 927e 4fbd e0a6 b1bd 0bad 49bd 38db f1bb
00000290: 80f3 d83d 2187 04be 941e dcbc 0000 0000
000002a0: 0000 0000 cff8 043d 85a2 49bb f6bb 8ebc
000002b0: b2f5 3b3c 97b0 45bd d00b 28bb 831e 1abd
000002c0: 06d6 753d 3312 283d d0a5 d7ba bdab aabc
000002d0: 9c1f 8e3d 7110 253b 0000 0000 e93d 98bd
000002e0: 3927 31bd a13a 653d fefc 353b b726 ac3d
000002f0: 708d 6dbd 966c 94bd 0000 0000 de00 c2bc
00000300: b230 49bd 4c15 1c3c 6305 02bd ed4d 043d
00000310: c8b3 bd3d 66ee 37bd 9f71 43bc f73d f2bb
0.0 -0.045222115 0.047698982 0.060934156 0.0 -0.027704494 -0.040390223 0.0
-0.010528588 -0.042017262 0.0 -0.08387755 -0.011928082 -0.009629539 -0.06847181 0.0
0.08729434 -0.02278048 -0.082882896 0.025683204 -0.04799994 0.0 -0.051205166 -0.07118129
0.040327378 -0.12583667 -0.05986929 0.070398755 -0.028390858 0.020032227 0.025715664 0.106325254
0.0033581196 -0.098095536 -0.12745634 -0.0024192736 0.09870674 -0.03728559 -0.009964479 0.02964601
0.0 -0.010632801 0.10569727 -0.12667976 0.1318381 -0.021173669 0.03771695 -0.050974052
-0.027990345 -0.030852776 -0.022454267 0.037066787 -0.012713119 0.0 -0.03231302 -0.05343636
0.0 -0.025854627 -0.052195515 -0.15514779 -0.10373671 -0.03946792 -0.053423017 -0.044125497
-0.112986416 0.0 0.12738585 0.11035956 0.053108085 0.009132691 0.04238995 0.030898185
-0.07042836 0.08766881 0.0 -0.06890511 0.016577559 -0.028048193 -0.07322835 -0.07445423
-0.015788477 -0.07529859 -0.051007714 -0.07895893 -0.08438633 -0.08112337 0.022657432 -0.078139484
-0.07794207 -0.06830916 0.04093966 -0.008168603 -0.06351115 -0.116017126 0.0 -0.038549103
-0.053302363 0.07341447 -0.111331075 0.0 -0.08193553 -0.02946138 0.028806377 -0.002941306
0.0036263415 -0.020684842 -0.059106834 -0.05719505 0.040461745 0.0 -0.054369744 -0.02671178
-0.03681376 0.0008097263 -0.1062733 -0.0026600377 -0.15368414 0.096005805 -0.1259142 -0.06925238
-0.014224183 0.0 0.029327622 -0.031432915 0.027329234 0.025667787 -0.12192454 -0.07867294
-0.045827888 0.004411177 -0.10451358 -0.051658362 -0.0895009 -0.03263162 -0.046963897 -0.032333944
-0.019930225 0.014859636 0.09387287 0.0067842454 0.044854213 -0.09809702 -0.019265013 0.13134888
-0.005249147 -0.13352305 -0.06056473 0.061289914 0.0 -0.07451022 -0.018128328 -0.018133739
0.022433626 0.006423083 0.014153215 0.005753386 -0.005437772 -0.07417317 -0.05956852 -0.082926564
-0.050657816 -0.08674407 -0.049237292 -0.0073808692 0.10593319 -0.12942173 -0.02687005 0.0
0.0 0.032463845 -0.0030767035 -0.017423611 0.011472153 -0.048264112 -0.0025641806 -0.037626754
0.06001856 0.04103298 -0.0016452614 -0.020833844 0.06939623 0.0025186802 0.0 -0.074336834
-0.043250296 0.055964116 0.0027769203 0.08405822 -0.057996213 -0.072472736 0.0 -0.023682054
-0.049118705 0.009526562 -0.03174342 0.03230088 0.09262806 -0.04490509 -0.011928945 -0.0073926407

model.2.weight f4 [200, 200]
00000000: 0344 213c dc07 b03d 84a8 4abe 3449 64be
00000010: b041 5d3c bc63 7bbe c216 a83d 4509 583d
00000020: a713 0d3e ba9c 1dbe b304 00be 5759 363c
00000030: 8d63 43be 572e 1d3e 7812 ce3d 6601 13be
00000040: 13dd 12be fb5e 843e 7852 903d d321 8dbd
00000050: 6da2 4ebe 2f4b 1ebe 216c dcbd b542 763d
00000060: d8bd 29be 1de0 c23b 7f73 223e 9bb7 eebd
00000070: 984b 6c3d 1dc1 203d d289 feba de3d b4bd
00000080: f3f4 3d3e d395 1abd f19f d53c f740 99bd
00000090: c172 56be 2fd2 463c 9a1c 03be e30d 8fbd
000000a0: 08f6 e43c bbc8 2d3d ae97 063e 6784 8dbd
000000b0: 2acd 973d 857d b7bd 7a07 8e3c eebd 933e
000000c0: 5608 d23d 342a 363d b4ea 4b3e a0a4 2a3e
000000d0: 041e 773e 6259 34bb 8aa1 c83d cb0f 09be
000000e0: af22 57bd 502f 19bc 1c58 55bd 1935 01be
000000f0: 0366 1abc 9af0 ba3c 33a9 b03d cbf5 32bc
00000100: 232e a3bb a2b9 dfbc 58e2 723c 42d0 07be
00000110: 00e7 6abd f961 e43a 2ad8 dabd 4305 fabd
00000120: 8d8f 833c 890d c33d 3828 2c3e 6b1f 0ebe
00000130: aa71 0d3c 258d c63d 4347 89bc 8e82 ca3d
00000140: 5b61 723d f237 b2bd 83b7 443e b838 063e
00000150: e742 12bc f610 c7bb 2edb 80bd bf48 7f3d
00000160: e208 48bd 9e9f b4bd 642b a6bd 1c49 23be
00000170: 7431 a5bd 3e86 71bd 476d 793b b86c 273d
00000180: a607 c1bd ca8a fbbd aa3b b8bc aa66 eebd
00000190: 55bd b5bd 3270 313d c06e 2ebe 5dab 963d
000001a0: e120 043d ad98 0fbe c776 20bc a188 383d
000001b0: 2b38 db3d 285a dd3c 90b8 8fbd c645 b23c
000001c0: 6144 823d 44f5 153d bdce 153e e3f7 5c3d
000001d0: 7a02 a33c 3c33 d13d f736 9bbd 7eff 6bbc
000001e0: 716c cd3c f911 91bd 64b6 12bd df2c e13d
000001f0: 98e8 8f3d 6173 d7bb c85a 9f3c 9cf1 db3c
00000200: 5e9c db3c ea57 d93c 6627 fd3d 698d 6a3c
00000210: b60b 723e 7e06 08bd e602 6cbc 59f5 5a3e
00000220: 2578 2c3d 7ce0 003e 3ead 0dbd c504 0d3e
00000230: a6f3 e2bd 86c8 363e 5400 25be 10b9 91be
00000240: 758d 023e 7c2b 963d b924 393e 9161 84be
00000250: 1f71 ed3d 2189 843d b80a 153d 0128 29be
00000260: 04fb 613d 361c 913d 2721 2c3d 24a7 e23c
00000270: eabc 5a3d 6ecf 4e3d db2c 983d f8a5 d23d
00000280: 4db7 bdbb 0d89 7c3d a014 a6bc e56d 803d
00000290: 40e4 09be bbcd a03d 5e73 9e3d e376 783d
000002a0: b74e 17be 1bb9 f53c 9acf 57bd 40cb ed3d
000002b0: 64a3 0bbe 4fe7 2b3e eb97 c7ba 0608 94bd
000002c0: f2d7 333d bbac 80be 47e4 e3bd ffb7 113e
000002d0: dcb8 b4bd 5903 8abd 6334 ab3d 1cff a13d
000002e0: 7516 35bd 1b15 a9bd 34d7 e1bd 0bcb 723c
000002f0: dc6b fe37 e67e 843d 6bd7 113c 6f01 acbd
00000300: 58cf 18be 3fa1 3dbe 1081 f23d 6a90 4abd
00000310: 6af8 87be 44d9 c0bd d276 d6bd fe60 1c3e
00000320: f808 e3bd f6cf 10be 0609 8c3c ebcf 2a3d
00000330: 3f23 31be 2801 41bd da97 163e cacc debc
00000340: b881 86bb a28d d83d 5b7e 7cbe 8146 dabb
00000350: 77c3 b13c 0898 6abd 5d4d cbbd 4794 2f3e
00000360: 799c f8bc 0a20 eabb 5bcf 9e3d 105d 7ebd
00000370: 50e3 ab3a a340 31be 1bb8 203e ffdf f23d
00000380: 0429 c1bd d25c 8cbd fe5b ccbd aa61 853c
00000390: 68e5 913d fae0 283c 567b 4c3d 4f47 143d
000003a0: 0285 64bc c0bd d13c f8c1 f1bb 4bad 55be
000003b0: 7e5a edba ba6e 833b 5bad 003e c1a7 8c3d
000003c0: 716c c73c 440a bfbc bb80 35bd 710f 893d
000003d0: adbf 61be 9a82 8cbd 04a9 15bd 1bfd 873e
000003e0: 30d1 2e3e 7222 dd3d ae0a fcbc c58e 6bbe
000003f0: 7456 2dbd 50f1 a13d 957f 3f3e 190d d9bd
0.009842875 0.08595249 -0.19790846 -0.2229355 0.013504431 -0.24549764 0.08207466 0.052743215
0.13777028 -0.15391818 -0.12501793 0.011129699 -0.19080944 0.15349708 0.100621164 -0.14356002
-0.14342146 0.25853714 0.0704698 -0.06891217 -0.20179148 -0.15458368 -0.107628115 0.06012221
-0.16576326 0.0059471265 0.15864371 -0.11656114 0.05768928 0.039246667 -0.0019419736 -0.08800863
0.18550472 -0.03774054 0.026077243 -0.07483094 -0.20942213 0.012135073 -0.1280388 -0.069850706
0.027949348 0.04242776 0.13143799 -0.06910019 0.07412179 -0.08959488 0.01733755 0.28855842
0.10255496 0.04447384 0.19913751 0.16664362 0.24132544 -0.0027519097 0.09796436 -0.13384931
-0.05252331 -0.009349659 -0.05208598 -0.12617911 -0.009423736 0.022819806 0.08626022 -0.010922859
-0.004979865 -0.027310196 0.014824472 -0.13263038 -0.057349205 0.0017424218 -0.10685761 -0.12208035
0.016059661 0.09524066 0.16812217 -0.13879173 0.008633057 0.0969489 -0.016757613 0.098881826
0.059174877 -0.08702077 0.19210629 0.13107574 -0.008927084 -0.00607502 -0.06291805 0.062325235
-0.048836596 -0.08819507 -0.08113745 -0.15945858 -0.08066073 -0.058965914 0.003805952 0.040875167
-0.09425287 -0.12282331 -0.022489388 -0.11640675 -0.08874003 0.04331989 -0.17034435 0.07356904
0.03225792 -0.14023085 -0.009793944 0.045052174 0.107040726 0.027020529 -0.070176244 0.021761786
0.063606985 0.036610857 0.14629646 0.05394734 0.019898642 0.1021485 -0.07578843 -0.014404176
0.025076123 -0.07083506 -0.035818473 0.109948866 0.070267856 -0.0065750335 0.019452468 0.026848607
0.02680796 0.026531179 0.1236103 0.014315941 0.2363728 -0.033209316 -0.014404988 0.21382655
0.042106766 0.12585634 -0.034589045 0.1377135 -0.110816285 0.17849931 -0.16113406 -0.28461504
0.12749274 0.07332513 0.18080415 -0.25855687 0.11593842 0.06471468 0.036387175 -0.16519167
0.055171028 0.07085459 0.042023804 0.02766759 0.05340282 0.05049079 0.074304305 0.10285562
-0.0057896734 0.06165414 -0.020273507 0.06270961 -0.13465977 0.0785174 0.07736848 0.060660254
-0.14776121 0.029995492 -0.05268822 0.116110325 -0.13636547 0.16787456 -0.001522777 -0.07228093
0.043907113 -0.25131783 -0.11127525 0.14230345 -0.08824322 -0.0673892 0.08359601 0.079099864
-0.04421087 -0.08255979 -0.11027375 0.014818917 3.0329385e-05 0.064695165 0.008901457 -0.08398711
-0.14922845 -0.18518542 0.11841023 -0.04945413 -0.26556712 -0.0941644 -0.10471882 0.15271375
-0.11085695 -0.14141831 0.017094146 0.041702192 -0.17298602 -0.047120243 0.14706364 -0.02719726
-0.004104819 0.10573889 -0.24657576 -0.0066612368 0.02169965 -0.057273895 -0.09926865 0.17146407
-0.03034805 -0.0071449326 0.07754394 -0.06210047 0.0013114009 -0.17309813 0.1569523 0.1185913
-0.09431651 -0.068536416 -0.099784836 0.016281921 0.07123834 0.010307545 0.04992231 0.036200818
-0.013947727 0.025603175 -0.007377859 -0.20866887 -0.0018108634 0.0040110024 0.1256613 0.06867934
0.024343701 -0.023320325 -0.04431222 0.06692398 -0.22045775 -0.06860848 -0.03653814 0.26560292
0.17071986 0.107975855 -0.030766811 -0.23003681 -0.042318776 0.07907355 0.18701012 -0.10598201

model.2.bias f4 [200]
00000000: af97 183c 34a3 c2bc 02ed 05bd 6a12 17bd
00000010: 03b4 d8bb 6af1 cdbc 27bc d5bc 8217 553d
00000020: 0ad7 23bc 753c 7cbc c89d b1bc 7252 893d
00000030: 19b3 fabc 28a6 48bc 5e57 ab3b ebd6 23bc
00000040: 5e33 02bd d2b1 75bc 9330 03bd 9047 aebc
00000050: 0ad7 23bc 7d10 71bc 3821 adbc 2e8f 2b3c
00000060: a5d8 a9bc fa1f 49bc b8f1 d9bb ef9b cb3c
00000070: 4a3e 03bd 09d7 23bc 877d 25bb 893a b9bd
00000080: 4e3d 493a 4709 aebc 7a51 62bc b6df 1cbc
00000090: 252a 9dbc dd5e 61bc 4483 2cbb ab81 debc
000000a0: 08d7 23bc b595 e1bc 5dde b0bc d356 3c3d
000000b0: 36bf b9bc 4e03 87bc 5d39 0bbd c1de a3bc
000000c0: 0000 0000 de8b 99bc ab0d 22bd 306e c2bc
000000d0: efc3 b1bc 0000 0000 98d8 02bd 562a dfbc
000000e0: 44f7 2dbc 5471 7cbd 20e4 6dbc ecd6 23bc
000000f0: 1764 b8bc 69d0 09bd 765d 98bc fed6 23bc
00000100: c889 b1bd 829a 57bc 1089 9abc 125a 81bc
00000110: 2fd8 03bc 9046 a9bc 848a 0dbd 3bcf 0cbd
00000120: 3fbe 8cbc f49b b3bc ca0e 6cbc e05e 70bc
00000130: 6285 cfbc d091 bcbc fb05 c4bc 04d7 23bc
00000140: afec b4bc 26ac 75bc 709d 36bc c612 e1bc
00000150: 567d b5bc f06a 9ebc 07d7 23bc 103a ea3b
00000160: 3d64 023d cea0 dabb c948 36bd 567a 83bc
00000170: 1a50 f5bc 0ad7 23bc abbd 31bc 610d 3ebc
00000180: 6c01 eebc 9dae c6bc 9036 0bbc 9275 babb
00000190: 1502 ed3c b636 aabc 644b 81bd 9f17 e9bc
000001a0: 1b14 efbc 250c 53bd 49f6 2abd ede7 debc
000001b0: d3d6 23bc f125 1dbd 0a29 94bc 3c1e debc
000001c0: c2f4 3ebc e28f 76bc f6cf 393d 5c72 d0bc
000001d0: 0000 0000 f39d ccbb 34a8 31bd 4586 8fbc
000001e0: 6443 99bc ae48 b53d 3490 a2bb e6b4 1abc
000001f0: 1ea9 01bc 6a57 d6bc 4cf5 abbc 86ea dfbc
00000200: f435 cb39 827b 32bd 757d 71bd f3c3 10bc
00000210: effc 86bc a9c4 3dbc 896a f5bc 5ce2 cbbc
00000220: 9150 93bc 36c3 cdbc 3a5f cabc 78f0 aabc
00000230: 545e 99bc c2c1 90bc a131 82bc 2886 a4bc
00000240: 0bd7 23bc 8ea7 e8bc 4bfc c6bc bbf8 afbc
00000250: f943 02bd c6f3 88bc 273a afbc 8ff3 49bc
00000260: 9cf5 e93a f6d6 23bc fad6 23bc 0ad7 23bc
00000270: ba8d a2bc 4d8b 90bc d1ef 08bd ab60 aebc
00000280: ac49 94bc ce0b d0bc d6d6 23bc 0000 0000
00000290: 229f 93bc 1a10 ecbc eecb 8bbc ea1d c2bc
000002a0: 36c4 cebc 1edc 1fbb d89f 94bc 8c6e bdbc
000002b0: 2fa8 85bc 644a b93a 0000 0000 1da7 7cbc
000002c0: 8e50 24bc d2d6 23bc 30d9 cb3d dadb f6bc
000002d0: b603 ecbc 1257 6d3d 5545 c3bb 5642 d4bc
000002e0: 85d8 2ebd 0000 0000 2b38 5c3d 06d7 23bc
000002f0: 0ad7 23bc c4d5 8bbc 0000 0000 8950 0abd
00000300: b422 2cbd 41a5 89bc 0000 0000 b6e2 8bbc
00000310: 7779 3cbd 938d b4bc 9252 2b3c 6dd2 a3bb
0.009313508 -0.023759462 -0.03269673 -0.036882795 -0.006613256 -0.02513953 -0.026090695 0.052024372
-0.01 -0.015395273 -0.021681681 0.06705178 -0.030602979 -0.012246646 0.005228921 -0.009999971
-0.03178727 -0.014996009 -0.032028746 -0.021274358 -0.01 -0.014713404 -0.021134004 0.010471148
-0.020733187 -0.01227569 -0.0066511296 0.024854628 -0.032041825 -0.009999999 -0.0025251822 -0.09044368
0.00076766766 -0.021244658 -0.013813371 -0.009574821 -0.019185135 -0.013755527 -0.0026323358 -0.02716144
-0.009999998 -0.027537206 -0.021590406 0.04598124 -0.022674184 -0.016481068 -0.033990253 -0.020003678
0.0 -0.018743452 -0.039563816 -0.023734182 -0.021699874 0.0 -0.03194484 -0.027241867
-0.010618035 -0.061631516 -0.014519721 -0.009999972 -0.022508664 -0.03364602 -0.018599253 -0.009999989
-0.08668858 -0.013159396 -0.018864185 -0.01579002 -0.008047148 -0.02066353 -0.034555927 -0.034377318
-0.01718056 -0.02192495 -0.014407823 -0.014671057 -0.025332157 -0.023018748 -0.023928633 -0.009999994
-0.022085516 -0.014994657 -0.011145934 -0.027474772 -0.022154491 -0.019338101 -0.009999997 0.007148035
0.031833876 -0.0066720014 -0.044503007 -0.016049545 -0.029945422 -0.01 -0.010848443 -0.0115998695
-0.029053412 -0.024253184 -0.008496895 -0.005690285 0.028931657 -0.020778041 -0.06313208 -0.028453646
-0.029184392 -0.051525254 -0.041738782 -0.0272102 -0.009999949 -0.038366262 -0.018085975 -0.027114026
-0.0116550345 -0.015048953 0.045364343 -0.025445156 0.0 -0.006244415 -0.0433733 -0.01752008
-0.018708892 0.08851753 -0.004961038 -0.009442544 -0.007913856 -0.02616473 -0.02099099 -0.02733351
0.00038759375 -0.043574817 -0.058957536 -0.00883578 -0.01647803 -0.011582532 -0.029958026 -0.02488821
-0.017982753 -0.025117498 -0.02470361 -0.020866618 -0.018721737 -0.017670516 -0.015892806 -0.020083502
-0.010000001 -0.028400209 -0.024290225 -0.021480909 -0.031803105 -0.016717803 -0.021390034 -0.012326135
0.0017849687 -0.009999981 -0.009999985 -0.01 -0.019842971 -0.017644549 -0.03343183 -0.02128633
-0.018101536 -0.025396254 -0.009999951 0.0 -0.018020216 -0.028816272 -0.017065015 -0.023695905
-0.025240045 -0.0024392675 -0.018142626 -0.023124002 -0.016315548 0.001413655 0.0 -0.015420702
-0.010028971 -0.009999948 0.099535346 -0.03013413 -0.028810363 0.057944365 -0.0059591928 -0.025910538
-0.042686958 0.0 0.053764503 -0.009999996 -0.01 -0.017069705 0.0 -0.03376821
-0.042025283 -0.016802432 0.0 -0.017075878 -0.046014275 -0.022040164 0.010456698 -0.00499945

model.5.weight f4 [200, 200]
00000000: 2774 5bbe d7a6 793c 435d a73c 7397 2bbd
00000010: 575c 4cbd ad36 64bd a7eb 91bd f490 01be
00000020: 8647 f0bd 3cfd 183e b0ab b2bd 51fe 77be
00000030: 1110 3bbd 6dd5 353e 7df4 d63d a4ba 453c
00000040: ccf2 25be 3456 443d 5dcb 463b e059 b33d
00000050: 3b37 9abd dc66 1bbe b0ad 073d 44f0 0e3e
00000060: 4d54 923d b3f7 b03d 050e d03b c3d8 07bd
00000070: 0e21 eb3c d25a 2e3d d041 e0bd d787 80bd
00000080: c443 b3bd eee6 d9bd c56c 033d 5cfb 4ebd
00000090: aaf8 cabd 42c9 e73d ffd3 3fbe ad2a c43b
000000a0: 6e80 e0bd ce59 e8bd 4a3a 8c3c da2b abbd
000000b0: 1043 71bd b839 e83d e223 6b3e 356c 973d
000000c0: 3bfb 2d3b 2397 cfbd f077 87bd d96f 063e
000000d0: 97fb d33c 52fc 843b 6f7d 65bd b449 76bd
000000e0: 4dca a33b 9d6c c3bd 4b08 e5bc 55e8 133e
000000f0: 8662 d4bd 4352 c5bd d557 23bc 9541 db3d
00000100: c132 4ebd 0e53 36be 6d64 7e3d 4019 bf3d
00000110: cd05 c4bc ac6a 233d 0262 c83c 2733 c63c
00000120: 251c 9cbd ef57 ed3d 1719 143e 35ed ff3c
00000130: 5bdb fabd 2762 fcbd 3fb7 093e cddb 13bd
00000140: d4f7 66bd c7e3 cebd 619b 91bd 72c2 833d
00000150: b142 803b 5b77 05bd eb1b f3bd 6550 14be
00000160: 75c2 1b3e dd03 7c3d 703c 83bc cae7 103d
00000170: 7169 5ebe 6e5d c4bd 28d0 063e c685 fabd
00000180: 30e6 4dbd 911c 563e 43b4 173e 02cb e3bd
00000190: 8aa4 34be 4a40 02bd 84c9 5d3d 7cd2 553d
000001a0: 1b10 813d 126c 1cbe 783b db3c bc7a ee3c
000001b0: 35d7 c43c c8d1 35bd 4a0f 2bbd 862b 19be
000001c0: b67e d1bd 1818 c83c ce62 3abd ca2a 203d
000001d0: 750c 223c e7d3 ffbd 03e1 9fbd 1ed9 f03c
000001e0: 6ac6 0abe 46e4 0dbc 5b56 e3bc bf65 46be
000001f0: e871 1e3e cd4d 49bd dde7 e0bc 45c3 4e3d
00000200: efe9 4f3e 8054 e3bb 7f68 a3bd 11b1 18be
00000210: 0874 633d 9328 3c3d 65f2 f23d efbc 5c3e
00000220: 7da0 e7bd 7e39 b9bd aa39 60bd e148 3db9
00000230: fe30 a53c 0c94 d23c 2f9e 1f3d dfa7 08be
00000240: 9591 0a3e e825 b63b 170e b6bd 5ee3 1bbe
00000250: 0df8 b3bd 5434 44bb e055 2cbe 3015 013c
00000260: 1143 21be 226f 6cbd 48cc b53d f443 ac3d
00000270: e454 863d ce97 9ebd f38c 93bd 0f8e 9ebd
00000280: 82e7 d1bd 8813 85bd 5a9e 593e 58c2 c03d
00000290: cd4d 30bd ab9d 613d 711d c43d 0a3c 74bd
000002a0: dc19 113c 46ae a43e 0222 97bd 95e5 493e
000002b0: 8152 ee3d 8f01 7bbd 7626 023e 9e1c 873c
000002c0: 3006 adbd 538d 91bc a370 5dbe a84b c5bc
000002d0: 4e0a e2bc 5a3d 0abe 3bbe ca3d 68ad 0b3e
000002e0: b37d 1f3d bf53 1ebd 8ccb 593d 65bd c83d
000002f0: b35e 05be 6324 4c3d 1583 f0bc ab9a 9c3d
00000300: 4949 033c b00b e33c 83cb 0d3e e34d 2b3e
00000310: 94f2 523e 57a1 91bd 3c9b d0bc 63ab 623d
00000320: ec01 05bd 13b5 d3bd b75b cc3d 0bb8 50bc
00000330: c55e aebe c94c 6dbd 415a 973d 84f1 78bd
00000340: 6229 813d 042f 503e 9381 ccbd f4f6 f33c
00000350: 658b 0f3e 4eb4 0ebd ae0b 34be 6b26 863d
00000360: bc0b 94bd dd86 1e3e 63f1 5cbd c02b 5fbe
00000370: 5288 d8bc ae61 0a3e 1866 073c ea3d f4bc
00000380: d45d a73d de21 3d3d ccc4 75bc ae81 acbd
00000390: 40df a43c cf52 8b3c 82ab d33d d5df 70be
000003a0: 440d 9ebc cf70 8d3d f86b f7bd 8b22 8d3d
000003b0: 2435 aebd c606 173c 07b7 66be 1edf 1abe
000003c0: c3e4 13bc ee40 3cbd fd24 163d 9a90 84bc
000003d0: b733 213e 4742 6e3d 39cb 173d f898 0abc
000003e0: 1547 e23c d6b0 a3bc 4f67 4c3c 676f 96bd
000003f0: b035 be3c 43f5 6abd 3e45 d43d aad0 81bd
-0.21431027 0.015237532 0.020430213 -0.04189248 -0.04989275 -0.055716205 -0.07125025 -0.12652951
-0.11732392 0.14940351 -0.08724153 -0.24218108 -0.04566962 0.17757197 0.10495851 0.012068424
-0.16205901 0.047933772 0.0030333616 0.08757377 -0.075300656 -0.15175956 0.033124626 0.13958842
0.07144985 0.08640995 0.0063493275 -0.033165704 0.028702285 0.04256708 -0.10950053 -0.062759094
-0.0875316 -0.106397495 0.032086153 -0.050532684 -0.0991071 0.11317684 -0.18733214 0.0059865327
-0.10961996 -0.11345254 0.017117638 -0.083579734 -0.058901846 0.11339134 0.22962907 0.07393686
0.002654745 -0.10136249 -0.06614673 0.13128604 0.025876803 0.0040583992 -0.056027826 -0.060128883
0.0049984814 -0.09542201 -0.027958056 0.14444096 -0.10370354 -0.09634831 -0.009969671 0.10705868
-0.05034137 -0.1780512 0.062107492 0.09330988 -0.023928547 0.039896652 0.024460796 0.024194313
-0.07622556 0.115890376 0.14462696 0.031241039 -0.1224887 -0.123234086 0.13448809 -0.03609829
-0.05638869 -0.10102039 -0.07109714 0.06433572 0.0039142002 -0.03258453 -0.11870559 -0.14483793
0.15210898 0.06152712 -0.01602003 0.0353773 -0.2171991 -0.09588133 0.13165343 -0.122325465
-0.050268352 0.20909335 0.14814858 -0.11122705 -0.17640892 -0.031799592 0.05414726 0.052202687
0.063019 -0.152756 0.026761755 0.029111259 0.0240284 -0.044389516 -0.041762628 -0.14958009
-0.10229246 0.024425551 -0.045504384 0.039103307 0.009890665 -0.12491589 -0.078065895 0.029400405
-0.13552251 -0.008660382 -0.027751138 -0.1937475 0.1547314 -0.049146462 -0.027454311 0.050479192
0.20304082 -0.0069375634 -0.079789154 -0.14911295 0.055530578 0.045937132 0.11862639 0.21556447
-0.113099076 -0.09044169 -0.054742493 -0.00018051594 0.020164963 0.02570536 0.038969215 -0.13345288
0.13532098 0.005558718 -0.08889406 -0.15223452 -0.08787546 -0.0029938417 -0.16829634 0.007878587
-0.1574824 -0.057723172 0.08876854 0.084113985 0.0655916 -0.07743798 -0.07204618 -0.07741939
-0.10249235 -0.06497866 0.21251813 0.09412068 -0.043042947 0.055082005 0.09575928 -0.05962757
0.008856263 0.3216421 -0.07379533 0.19716485 0.1163683 -0.061280783 0.12709984 0.016493138
-0.08448446 -0.017767584 -0.21624999 -0.024083927 -0.027592804 -0.13499966 0.09899565 0.13640368
0.038938235 -0.038654085 0.053172633 0.09801749 -0.13024406 0.04983939 -0.02935938 0.07646688
0.008013078 0.027715534 0.13847165 0.1672893 0.20600349 -0.07110851 -0.025464647 0.05533923
-0.032472536 -0.103372715 0.09978431 -0.012739192 -0.34056678 -0.057934556 0.073902614 -0.060777202
0.06306721 0.20330435 -0.09985652 0.029780842 0.14018019 -0.03483992 -0.1758258 0.065502964
-0.07228801 0.15481134 -0.05394114 -0.21794033 -0.02643219 0.13513824 0.008264087 -0.02981468
0.08172193 0.046174876 -0.015000533 -0.08423172 0.020125985 0.01700726 0.10335447 -0.23522885
-0.019293435 0.06906282 -0.1208114 0.06891354 -0.085062295 0.0092179235 -0.22530757 -0.15124175
-0.009026709 -0.04596036 0.03665637 -0.016182233 0.15742384 0.058168676 0.037059043 -0.008459322
0.027621785 -0.019981783 0.012475803 -0.07345467 0.02321896 -0.057362806 0.103647694 -0.06338628

model.5.bias f4 [200]
00000000: a01a c3bd ee85 b7bd e1ea e33c eafe f43b
00000010: 2e7f 91bd b528 a8bd 680d adbd ed47 edbc
00000020: afad 91bc d7d3 083c c9fa 57bd 650d a3bd
00000030: 2ead 9cbd 4bf6 cfbc 142e 54bd 7b2f e7bc
00000040: 86d8 bcbc 9a29 34bd 8c6c 00bc 1fec e9bd
00000050: f509 5dbb d2ea fb3c 363a 793c 2a56 2cbd
00000060: aeb7 d33c 8c39 1dbd 1247 8fbd edfc 8cbd
00000070: ad00 7c3b 4428 7abd 4dd6 943c 61af 05bd
00000080: 94eb 13bc 5ec6 5abc 1b6d aabd ff74 3ebd
00000090: 64ce 24bd c3cf fb3c 7f8f 89bc f3a3 a2bd
000000a0: 97a2 3cbd 101b b6bd 20ab 9cbb 47e1 80bc
000000b0: db70 86bd c41f 2fbd b436 833d 0ffb 35bd
000000c0: c865 d4bc b70f e9bc 28d8 2fbd df95 673b
000000d0: 5c27 01bd 5fee 7cbc ba97 79bd 38a5 abbc
000000e0: 7f15 b1bc 6041 40bd c89c 16bd 5553 f5bb
000000f0: 02cc aebd 4dc3 52bd ff32 36bd e7b5 b7bd
00000100: 9dc4 e33c c2c5 42bd ac3b 5abd 3d70 c1bc
00000110: 9f8f c9bc 8b29 803b 9ac7 8fbd db34 06bd
00000120: 7715 35bd 0555 03bd d46c 84bd f3b6 01bd
00000130: 7762 01bd df44 84bd 2595 b7bc 455f 26bd
00000140: 9752 60bd 7672 89bd c3b9 ba3c 8831 85bd
00000150: 45ed a1bd c749 0c3d a6d6 05bd 213f c8bd
00000160: d8a3 14bd 03a4 b7bd f14c 4cbd eb9d 6dbc
00000170: 2664 80bc 3add c1bd 3bd4 13bd ba02 50bd
00000180: af62 82bd 81b5 3abc c08e 27bb 624a a4bd
00000190: 9b11 e6bc b238 8fbd d70d 4cbd b870 ef3c
000001a0: cdc8 3cbd 3ef7 44bd 1ed9 b4bd f12c 0dbd
000001b0: 2009 dbbc 3e02 11bd decf 51bd 5a86 c5bd
000001c0: d6a0 67bd 0925 7fbd cdb3 9abc b26a fcbc
000001d0: cfd0 efbc 483a 31bd e80a 3fbd c6bd 8bbc
000001e0: 296d 85bd 3be3 8cbb a366 28bd 47b7 fdbc
000001f0: f3ba 0abd 3b5b 8d3d 886e c4bc 17e1 38bd
00000200: 30dc e43b 39ff c8bd 64f1 0fbd 4edb f3bc
00000210: 18b1 86bd 0526 5bbd d3fd 6ebd 4c94 8ebc
00000220: 0afe 9bbd 70e2 5cbd aa08 b0bd e6dc 37bc
00000230: 11a1 11bd bc41 f23b f111 94bd 86da 79bd
00000240: 4033 05bc 4abb 01bd 140e 563b 515a 96bb
00000250: 62a2 91bd 87a8 bdba 477e 0b3d 4b5c 8abd
00000260: cf20 0bbd a9cf 4dbd 1097 8abd 1a79 c4bc
00000270: cd97 4abd ec5a 8ebd 96a6 bebc 0204 39bd
00000280: 96a1 2abd 94ac 9abd 0ea9 c0bc 8bf0 1cbd
00000290: 2b84 7abd d6c6 67bd 2070 56bc ae61 5cbd
000002a0: b1a3 26bd 4d72 8fbd 0336 3ebd 214b b2bd
000002b0: 3e41 3dbd 3d3d 23bd cd28 69bd 256b dd3b
000002c0: fd36 1ebd b209 27bd 6828 56bd b380 6dbc
000002d0: 722c b0bc 3e91 8dbd 208d 98bd db57 25bc
000002e0: c0d8 99bc 87d6 68bc c5bd 123d db49 f2bc
000002f0: ec57 90bd a5fb 67bd 5385 b5bc e54f 24bd
00000300: ebd4 82bd 8220 ca3c dfe7 3abd 4856 1ebd
00000310: 690a 32bd d8b9 35bd c708 56bd 9f55 d6bc
-0.09526563 -0.08961092 0.02782196 0.007476677 -0.07104336 -0.08210889 -0.08449823 -0.028964961
-0.017783014 0.008351288 -0.0527294 -0.07961539 -0.07650219 -0.025385996 -0.051801756 -0.028220883
-0.023052465 -0.043984987 -0.00783838 -0.1142199 -0.0033727859 0.03075162 0.0152116325 -0.04207436
0.025844421 -0.03838496 -0.069959775 -0.06884179 0.0038452551 -0.061073557 0.018168593 -0.032637957
-0.009028334 -0.0133529585 -0.083215915 -0.046498295 -0.040235892 0.030738717 -0.016792057 -0.07941427
-0.046053495 -0.088918805 -0.004781142 -0.01573242 -0.06564494 -0.042754903 0.06406918 -0.04442888
-0.02592744 -0.028449876 -0.042930752 0.0035337133 -0.031531677 -0.0154376915 -0.060935713 -0.020952806
-0.021616695 -0.046937346 -0.036770612 -0.0074867406 -0.08535005 -0.051455785 -0.044482227 -0.08970242
0.027803713 -0.047551878 -0.053279564 -0.02361309 -0.024604617 0.0039112023 -0.07020493 -0.03276525
-0.044209924 -0.032063503 -0.0646607 -0.031668615 -0.031588044 -0.064584486 -0.022409985 -0.0406182
-0.054766264 -0.06711285 0.022793656 -0.06503588 -0.07906584 0.034250047 -0.032675408 -0.09777666
-0.036289066 -0.0896683 -0.049878065 -0.014502983 -0.015672754 -0.09466024 -0.03609107 -0.05078385
-0.06366479 -0.011395813 -0.0025567263 -0.08022 -0.028084567 -0.06993236 -0.049817886 0.029228553
-0.046089936 -0.04808735 -0.08830474 -0.034466688 -0.02673775 -0.03540253 -0.05122363 -0.09644766
-0.05654987 -0.06229118 -0.018884564 -0.030812595 -0.029274372 -0.043268472 -0.04664126 -0.017058264
-0.06514961 -0.004299549 -0.041113507 -0.030971183 -0.033869695 0.069021665 -0.023978487 -0.045136537
0.006984256 -0.09814305 -0.035142317 -0.029767659 -0.06576747 -0.053503055 -0.058347534 -0.017404698
-0.076168135 -0.053926885 -0.085954025 -0.0112221 -0.035553996 0.00739309 -0.072299846 -0.060999416
-0.008129895 -0.031672753 0.00326622 -0.0045884033 -0.0711105 -0.0014469781 0.034055974 -0.06755885
-0.033966836 -0.05024687 -0.06767094 -0.023983527 -0.049461175 -0.06950936 -0.023272794 -0.045169838
-0.041658007 -0.07552448 -0.023518112 -0.038315337 -0.0611612 -0.05658611 -0.013088256 -0.053804092
-0.040683452 -0.07004223 -0.04643823 -0.08705736 -0.046204798 -0.039853323 -0.056923676 0.0067571574
-0.03862666 -0.04078073 -0.05228463 -0.014496016 -0.021505568 -0.069124684 -0.074487925 -0.010091747
-0.018780112 -0.014211304 0.03582551 -0.029576233 -0.0704802 -0.05663647 -0.0221583 -0.040115256
-0.06388267 0.024673704 -0.045631286 -0.038656503 -0.04346696 -0.044366688 -0.052254464 -0.026163874

model.8.weight f4 [6, 200]
00000000: 0f8e 063d bd1c 5f3c 2f1f b33f 44d4 bc3e
00000010: e614 0dbd 0529 dbbe 8841 fc3c 1d96 403e
00000020: 829e a8be 9978 403e bc43 143d 62ee 89bd
00000030: 47fd 5c3d e44e e2bc 2c27 3abc 89b9 163e
00000040: 66c2 943f 960a 053e a93a b03f ebbc 1abc
00000050: 3831 d63c 984c 7a3f 373e b6be 4b72 5d3d
00000060: ba85 04bf 004d ecbd a156 953e 5ffb 3a3e
00000070: fd81 df3e f72f 133e a91d 953d a2c2 a4bd
00000080: f6dd a33e 35bb a83f 0a7e 953e e7b5 8d3d
00000090: a42f ecbc c7ea f8bd 569f c2be 1000 3e3e
000000a0: 2b99 e03d 64da e83f 38e7 b53e e009 163e
000000b0: e91d 6e3d 3560 bd3d d948 72be f2d5 c03e
000000c0: a9bf f93e 56aa c2bd be76 a0bc 4025 86be
000000d0: 84ad d4bd 6393 92bd 7aa0 e13d 2486 7ebe
000000e0: 4475 a0bd 5f34 90bd ef74 32bc 6c5f bc3e
000000f0: 7a91 e8be 59b9 cabe a937 bb3e 3404 bc3b
00000100: e9f4 8cbe c20b 553d 1cb3 173e 4d96 943f
00000110: 438e 4c3d 11ce 063e 4adb eb3b d0f0 943e
00000120: 80d1 eb3d 7d76 a5bc f789 a63d a8dd c4be
00000130: addf 22bd 0770 883e eced 293c 7cf0 e43d
00000140: b677 0b3e ddd6 063e 1cba 193f 5dcf f1bd
00000150: 22fb 16be 83c5 c53e 3757 483f 450e 8bbe
00000160: f988 0bbc ca5e 6d3e a451 793e ee04 993e
00000170: ba3c d63e 615b b63d af66 2e40 0fd2 d33d
00000180: 9b7e 8c3d ffb2 ecbe 33d7 9fbe b7a8 8c3d
00000190: 8f57 0e3f 885c ee3d 47b9 0240 83be 873f
000001a0: fdb6 a63b 97c5 14bf b706 083e 683e d93f
000001b0: 8ef4 83be 07f4 82be a093 d0bc 4d6b 0a3f
000001c0: 8890 6fbe 0037 6e3d bb3f 8abe 9f1b 02be
000001d0: 9c69 d13d 3644 e53d f8f9 473e 1ef1 f4be
000001e0: 7d69 b93d 5d21 4e3d f57f 7c3e 705d 63be
000001f0: dc8c 15be f65b af3f 32e0 0d3e 7ba4 12bc
00000200: 36d6 c73e 1f9d 0e3e e42d a33d 07e4 593e
00000210: 6001 b83e f594 0cbe 9b93 81be 3aed 3c3f
00000220: 60de d13a 8711 8c3c c458 053d d8c6 433f
00000230: 8343 f2be 31ae 77be b914 d5be 5c82 f93e
00000240: 6ab8 3d3f 4398 cebd 38d5 17bf c10b 7dbe
00000250: b55a 353d c427 803f 64c0 133e 57b0 833d
00000260: fc7a 93be dc07 8fbd 43d7 09bb ef56 233e
00000270: 90bc 13bd fcc7 00be 52ec 173f 86a2 a3be
00000280: ca68 42bc 5c17 353e 0e38 cebe af16 553d
00000290: 3c20 8740 7db8 e73d a911 e23d 49fb b5bd
000002a0: a193 8c3e 90fa 18be fed8 2f3d 8445 8d3e
000002b0: 5f4e 8fbd 7ce4 b539 b36b 483e 63f3 4cbe
000002c0: cb96 aabe 676f a33d 5023 1cbd 4feb 083e
000002d0: b64c 0f3f b6f6 8b3d 6a33 1740 2c4b 893e
000002e0: dc41 eb3c 677e 073d 8848 a9be be9b 51be
000002f0: cd4b 6b3d e574 523e ae64 9c3e 6eaa 813e
00000300: b919 a5bd 9d80 3a3f fb1a f4bd e070 053f
00000310: 68ba 223f 767a 58be ea52 8fbd 96bb 45be
00000320: 9d13 07bc 814c 553e a4c7 e8bd a69d f6bd
00000330: b15c 643d 9e0e 5e3d c703 13be 99b9 8dbe
00000340: e8f1 403f 17f0 833f a1eb d73c bdb7 5e3e
00000350: d78c 353f c7a8 2a3f 31a5 363d ec73 6a3d
00000360: f61a a83e ac1f 41bb 507d 2d3e a369 ddbd
00000370: 1d52 813f 90c7 74bd 8d0f 8abe 91dc 16be
00000380: 2daf 90bd 4d2a 7f3e 54af dc3e 8bf7 a7be
00000390: 6e95 043f 2a6a 793e ce4d a0be b8f0 8b3d
000003a0: e93b d9be 9c3b 0a3e e5f1 873e 1393 bfbd
000003b0: 756e 08be 7f57 bc3f 4929 31bf c2ce 44be
000003c0: c1e4 ac3d 92a9 a73d 1612 b23f c73f 8f3f
000003d0: ada2 a7bd 14df e73c 57ce e1bc 0f22 533d
000003e0: f78b 203e 3677 2240 2979 1cbd 1a91 ccbe
000003f0: 920b 043c 2bb8 c03f 12ae 17be 24db dd3e
0.03285032 0.013617692 1.3993891 0.36880696 -0.03444376 -0.42804733 0.030792966 0.18807264
-0.32933432 0.18796004 0.03619741 -0.06734921 0.05395248 -0.027625509 -0.011361878 0.14719214
1.1621826 0.1299232 1.3767902 -0.009444456 0.026146516 0.9777312 -0.3559434 0.054064076
-0.5176655 -0.11538124 0.29167655 0.18259953 0.4365386 0.14373766 0.07281048 -0.08044936
0.3200528 1.3182131 0.29197723 0.06919461 -0.02883131 -0.12154155 -0.3801219 0.18554711
0.109667145 1.8191648 0.35527968 0.14652205 0.058133993 0.09246866 -0.23660602 0.37663227
0.48779038 -0.09505145 -0.01958787 -0.26200294 -0.10384658 -0.07157018 0.110169366 -0.24855858
-0.07834867 -0.07041239 -0.010892137 0.3679155 -0.4542349 -0.39594534 0.36565903 0.0057378057
-0.27530602 0.052013166 0.14814419 1.1608368 0.04994036 0.13164546 0.007197772 0.29089975
0.11514568 -0.020198101 0.081317835 -0.3845036 -0.039764095 0.2664797 0.010371666 0.11178681
0.13619885 0.13167901 0.60049605 -0.118071295 -0.14744237 0.38627252 0.7825808 -0.27159324
-0.008516544 0.2318069 0.2434755 0.29886574 0.41843206 0.08904148 2.7250173 0.103428
0.068600856 -0.46230313 -0.3121887 0.06868117 0.55602354 0.11638743 2.0425584 1.0605015
0.005087732 -0.58114 0.13283812 1.697217 -0.25772518 -0.25576803 -0.025461018 0.5406998
-0.23394978 0.05815792 -0.27001747 -0.12705849 0.102252215 0.11194651 0.1952895 -0.47840208
0.090533234 0.050324786 0.24658187 -0.22203612 -0.14604515 1.3699939 0.13855055 -0.008950348
0.39030617 0.13927124 0.07967737 0.21278392 0.3593855 -0.13728698 -0.25307927 0.7379948
0.0016011707 0.017098201 0.032555357 0.76475286 -0.47317132 -0.24187542 -0.41617373 0.4873227
0.7410952 -0.10087635 -0.5930972 -0.24711515 0.044275958 1.0012136 0.1442886 0.064301185
-0.28804767 -0.06983921 -0.0021032847 0.15951131 -0.0360685 -0.12576288 0.5934497 -0.31959933
-0.011865804 0.17684692 -0.4027714 0.052023586 4.222685 0.11314485 0.11038525 -0.088858195
0.27456382 -0.14939332 0.04293155 0.275921 -0.0699737 0.00034693244 0.19572334 -0.2001472
-0.3331817 0.07980233 -0.038119614 0.13371013 0.55976427 0.06834166 2.362513 0.26815164
0.028717928 0.03307953 -0.3306315 -0.20469567 0.057445336 0.20552404 0.30545563 0.2532534
-0.08061547 0.728525 -0.119192086 0.5212536 0.63565683 -0.21140465 -0.069982365 -0.1930984
-0.008244422 0.20829965 -0.113662034 -0.12041788 0.05575246 0.05421316 -0.1435691 -0.27680662
0.7536912 1.0307645 0.026357474 0.21749778 0.7091803 0.66663784 0.044591133 0.057239458
0.3283307 -0.002946834 0.16942334 -0.10811164 1.0103184 -0.05976063 -0.2696499 -0.14732577
-0.07064662 0.2491848 0.43102515 -0.32806048 0.5179051 0.24356905 -0.3130936 0.06833023
-0.4242852 0.13499302 0.26551738 -0.09354224 -0.13323386 1.4714202 -0.6920362 -0.19219497
0.08442069 0.0818664 1.3911769 1.1191338 -0.08185325 0.028304614 -0.02756421 0.051546153
0.15678392 2.538526 -0.038201485 -0.39954454 0.008059399 1.5056204 -0.14812496 0.43331254

model.8.bias f4 [6]
00000000: 30e9 953e ce32 093e ea82 dd3d d3fb 483e
00000010: 4695 0a3c 0f61 053c
0.2927947 0.13398287 0.108159855 0.19627313 0.008458441 0.008140816
