Challenge_1/Weights/model_reward_Qube-v0_mse_0.00001899.params (torch_old, 330207 bytes, 7 tensors)

model.0.weight f4 [200, 7]
00000000: 66ff 393f 6e80 913e 3c3e 163f 584d 36be
00000010: 3676 153e 2784 823f 4371 343f b0b4 0a3d
00000020: 2a8a 98bf c522 26be c5d3 4f3e 595c 92be
00000030: 066f 053d 3a54 503f 2fe0 383f 7422 f23e
00000040: c4b9 17bf 8418 c8bf 6118 00be b185 a53d
00000050: e94b 80be 824d efbe 005e 9b3e 6818 86bf
00000060: 6f31 9dbe 25a9 d7bd fce4 82bf 0a63 373f
00000070: 2f39 91bd b3c5 02bf 82af 6dbf 8e13 cb3e
00000080: 1573 25bf 86bb 1fbf 8541 a33c f90b 423e
00000090: 0fd8 563f 34bc 05be 26d7 0fbf 84e2 013f
000000a0: 2ebf 303f a4cd 38bf 0bcb b5bd 76e7 863f
000000b0: de88 863e 28d8 9a3e 5b6a dcbc fba2 b2bc
000000c0: e4bf cf3e 5d0b aabe 2385 b43f 659f e43e
000000d0: a3f9 623e 5851 d63e 8174 89bf 18f8 943e
000000e0: 6760 cc3e f969 963d c918 fc3d fe7f 54bf
000000f0: 1cf4 b3be d88a 9c3e 947d e8bc cbaa 89bb
00000100: e7f9 953e 42ef fd3e 3be3 0ebe d4ed c53e
00000110: 898d 113f c8fe 1b3f 0aa5 eebe 9355 e43e
00000120: 6005 893e 17de 06bd f160 7cbf f704 443e
00000130: 36b7 62be c6bb 223e 1edc bdbe 44bb f83e
00000140: 5170 7bbf fb17 90bd a7d1 cc3e 7789 d13e
00000150: 8eb1 b7be 7a2c fd3e 1550 343e 6419 a03d
00000160: d78d ca3c 48bd 3a3e 952b b4be b25e 483f
00000170: 4b2e 753e 900c 96be 26f4 843f bf25 adbe
00000180: edf0 c3be 05b4 9ebd fa93 c1be f036 f33e
00000190: 1569 f53e 3002 a5be c594 a33e b862 7ebd
000001a0: 0541 aa3e 81b9 edbd e4d4 ac3f 3898 6ebf
000001b0: b9b8 143f 0a66 ac3d 2db7 0ebf 89bd b73d
000001c0: aa30 f53e 9c82 4d3e 0fd0 93bf 0365 3d3e
000001d0: f37b 36be f531 10bf 017e 02bf 4e47 423e
000001e0: 2ef0 0e3d e949 1e3f d375 62bc d04b 153f
000001f0: ffd1 7bbf 3d82 8b3e ac54 543f c66f 01bf
00000200: 7eba 853e ee2d 983e 2ac4 87bd 0d10 343e
00000210: e662 313e c7b2 12be 0bf8 a3bd 2edb 123d
00000220: 0441 debe 9ae3 6d3e d886 6fbc d74e 9a3f
00000230: 5ec0 25bc f8a2 913e 803b d7be a871 053e
00000240: 4bfa d5be 6ab7 3fbf a02b 7f3f 2dec 86be
00000250: 9b1b bf3e 818a e7be 6ced cdbe 7f70 163f
00000260: 18a3 88be d143 58be 3614 a93f 4973 29bf
00000270: fd49 b23d 22dd 6c3f b3be 1bbf ed6f 13bf
00000280: 6761 1a3f 2bf0 243e 4563 bd3e 5aa8 3b3f
00000290: 7b90 16bf 51b1 433f 7776 403f 757a adbe
000002a0: e38a 833f 3a2f 3ebf 229a 9b3e 5c2d 7a3e
000002b0: a0e6 ce3d 75ea 5ebd 2e00 c6be b73a 08bf
000002c0: 6252 db3e febd 1b3d 7302 8d3e c4b9 e63e
000002d0: bdca ca3e 2b16 02bf 7c32 e33e 6a94 80bf
000002e0: 0d66 c53e 8852 fe3c f031 05bf 4e5c 9cbe
000002f0: d2da 173f 579b 7e3e cfaa 3bbf 4881 8dbe
00000300: 77e7 853d 6cc6 4dbf f0ba 443f 91c1 94bf
00000310: ad49 363f e517 2fbf 2f45 a93d 1de0 983e
00000320: a44a 81bc 4bda dabd 96ec 1abf 6d3b 22be
00000330: bd1b 0c3f a053 0cbf 9214 debe ef3a 143f
00000340: fe0c f63e 8f5b 9a3f aa42 4cbf ca2c 1cbf
00000350: ff2f af3e fcc5 2e3f 7de4 15bf d410 8f3e
00000360: 25e0 8e3e b254 823d 8fd6 7d3e da4e 023e
00000370: 99ee 6bbf fe3d 213c 1636 e53e 4cfe 49bf
00000380: 1f11 13be fc8e 133e ab97 f03d e276 25bf
00000390: 6b40 4ebe 8c09 633f 27d9 393f 8f2f ce3e
000003a0: a367 38bf ad05 743f 8316 cdbe 0212 0abe
000003b0: 5f5c f5be 5419 313f 1206 4d3e 1a2f b5be
000003c0: 8fab e8be ef75 cf3e e50e 13bc bfbc f5be
000003d0: 9ca9 c43e 9503 58be d8c6 06bf 6db7 db3e
000003e0: 2a3c 1e3e 4ae4 debe 8cb5 343e e1df 62bf
000003f0: e8f1 5ebe af5c e23e d5ff 703f 9889 88be
0.7265533 0.28418297 0.5868871 -0.17802942 0.14595875 1.019658 0.70485324 0.033863723
-1.1917164 -0.16224201 0.20295627 -0.2858608 0.032576583 0.8137852 0.72217077 0.4729191
-0.5926783 -1.5632482 -0.125093 0.0808214 -0.25057915 -0.4673882 0.30345154 -1.0476198
-0.30701777 -0.10530309 -1.022613 0.71635497 -0.07090985 -0.51082915 -0.9284593 0.39663357
-0.64628726 -0.62395513 0.019928703 0.1894988 0.8392343 -0.13060075 -0.56187665 0.5073626
0.6904172 -0.7218878 -0.08876618 1.0539386 0.26276296 0.3024304 -0.026906183 -0.02180623
0.40576088 -0.33211794 1.410313 0.44652858 0.22165541 0.41858935 -1.0738679 0.2909553
0.399173 0.073444314 0.12309415 -0.830078 -0.35147178 0.3057468 -0.028380193 -0.0042012683
0.29292223 0.49596602 -0.13953869 0.3865801 0.5685659 0.6093564 -0.4661029 0.44596538
0.26761913 -0.032926645 -0.9858542 0.19142519 -0.22140202 0.15891942 -0.37082 0.48580372
-0.98218256 -0.07035824 0.40003702 0.4092519 -0.3587765 0.49447995 0.17608674 0.07817343
0.024725838 0.18236268 -0.351895 0.78269494 0.2394344 -0.2930646 1.0387008 -0.3381786
-0.3826975 -0.0774918 -0.3780821 0.4750285 0.47931734 -0.3222823 0.3194944 -0.062105864
0.3325273 -0.11607648 1.3502469 -0.9320102 0.58094364 0.084179 -0.55748254 0.08971698
0.4788869 0.20069355 -1.154787 0.18495564 -0.1782072 -0.5632623 -0.50973517 0.18972513
0.034897022 0.6183153 -0.013822037 0.58318806 -0.98367304 0.272478 0.829417 -0.5056118
0.26118845 0.29722542 -0.06629212 0.17584248 0.17322883 -0.1432601 -0.08006295 0.035853557
-0.43408978 0.23231354 -0.014619552 1.205531 -0.010116665 0.28444648 -0.42037582 0.13031638
-0.4179252 -0.7488924 0.9967594 -0.26352063 0.3732575 -0.45222858 -0.402202 0.58765405
-0.2668693 -0.2111962 1.3209293 -0.66191536 0.087055184 0.9252492 -0.6083786 -0.5759266
0.60304874 0.16107242 0.369898 0.7330376 -0.5881421 0.7644244 0.75180763 -0.3388249
1.027676 -0.7429081 0.30391032 0.24431366 0.10102582 -0.054422814 -0.38672012 -0.5321459
0.4283629 0.038022988 0.2754093 0.45063603 0.39607802 -0.50815076 0.44374454 -1.0045292
0.3855442 0.031045213 -0.52029324 -0.30539173 0.5931827 0.24863945 -0.7330751 -0.27637696
0.06538289 -0.8038089 0.76847744 -1.1621572 0.7120617 -0.68395835 0.08265149 0.29858485
-0.015782662 -0.10686167 -0.6051725 -0.15842982 0.54729825 -0.548151 -0.4337507 0.57902426
0.48056787 1.2059191 -0.7978922 -0.6100584 0.34216306 0.6827085 -0.5855177 0.27942526
0.27905384 0.063638106 0.24788879 0.12725392 -0.92160946 0.00984144 0.44767827 -0.7890365
-0.14362 0.14410013 0.11747678 -0.64634526 -0.20141761 0.8868644 0.72596973 0.4027066
-0.7203314 0.9532116 -0.40056238 -0.13483432 -0.47922036 0.6917927 0.20021847 -0.35387498
-0.4544339 0.40519664 -0.008975719 -0.47995564 0.38410652 -0.21095116 -0.5264716 0.4291338
0.15452638 -0.43533546 0.1764738 -0.8862286 -0.21771967 0.44211337 0.9414037 -0.26667476

model.0.bias f4 [200]
00000000: fb88 d2bd 76ee 77bd a04c b03c 76bf 963d
00000010: 0000 0000 1996 65bc faf1 9dbd fc3e b3ba
00000020: 7549 533c 9787 cbbd 5232 cb3c f06e ec3c
00000030: c119 85bd b5d9 1abd ada7 98bd b4d1 14bc
00000040: 3f23 c73d 5145 c7bc 08b6 b9bd 33d3 c7bc
00000050: 49f6 c5bb 6ac9 8f3d d8b8 80bd 9d0b c1bd
00000060: 4fc5 a23c 1d49 6bbc 1eb3 aabc d05f 8e3d
00000070: 45b8 ca3c d86b bf3c e339 553e fb86 693d
00000080: a2b8 213c 07f2 b9bb 4ede 003d ae9a 643d
00000090: 644e b13d caba 5f3d c677 25bd 38fe a4bd
000000a0: 373d ee3c 9bb9 90bc 8dae 59bc 4748 e2bd
000000b0: 9f15 743d 0000 0000 0000 0000 d39c 193d
000000c0: 8ea8 8eba 0761 23bc ff85 86bd 4589 36bd
000000d0: 3248 ba3d 5d78 4abc 3605 41bd 3afd 71bd
000000e0: 4821 3c3d 7d05 06bd 085d 6a3d 0000 0000
000000f0: 082f 0b3d 4f39 7abc 75d7 fabc adb0 7abc
00000100: a50a 06bd aa54 3f3d b162 00bd e0ee 8e3d
00000110: 824e b9bd d879 b0bc 6082 633b d6f8 47bc
00000120: 5e3d 08be 329f bebb 929b dbbc 9d1a 513d
00000130: 0d67 9fbd 6861 913d be77 ad3b 33b2 363c
00000140: c7c8 5e3d 835f b7bd 6a42 9b3d 5305 13bc
00000150: 4222 3e3e 28fc eeba 0000 0000 a076 bc3d
00000160: 526d bf3a 0d2d 56bd 0496 463d 4597 9f3d
00000170: 8c22 71bc a753 303d 6bfc fdbc a15c 4abd
00000180: 194d c63c 069d 23bd e672 20bc d682 62bc
00000190: 0000 0000 d4c2 03bc 0a1b 213c e3ad f03d
000001a0: 4f5f 95bd 5349 c53d c066 6a3d ec19 7d3c
000001b0: 8d55 0dbd e58c 3d3c 5453 923c 9723 8dbc
000001c0: c867 ccbd 18c6 fbbc 88a0 e13c 0000 0000
000001d0: 0000 0000 0000 0000 e124 cdbd f764 5e3d
000001e0: 4bfd ffbc 4f1a 9a3d 160a e5bc 1daa d13d
000001f0: 3c17 21bc 873a 00bd 1c66 c9bd dc82 413c
00000200: 8556 a8bd 971c 23bd c0a3 0c3d 7597 f83c
00000210: c834 a9b9 e7f1 873a 03f4 b5bc 3750 0fbd
00000220: 9103 e4bd 9613 6f3d 0e83 0cbd a71b 943d
00000230: 05fb 2bbd 5192 d9bc 9052 943d 7b39 38bc
00000240: fe82 2e3d 1e6e 1b3d a070 b9bc 147e e23c
00000250: 184b 71bd 6362 33bc 9f08 dbbc 0ecd 47bd
00000260: 54c2 3f3e c634 553d d4ce ea3d 27e4 683e
00000270: f679 a4bb 0790 263c 179d c0bd cbf9 8bbd
00000280: 058b d6bd fa82 65bd cf00 4fbd 0000 0000
00000290: 3fe9 a2bd 6ba8 2dbd 47b2 b7bd 8b32 663e
000002a0: 0000 0000 7423 583d 41fe 82bd b326 2c3d
000002b0: 760b 273d cee6 893c 79c5 833d 701a acbc
000002c0: eccd 3a3d 9aa4 063e 7a42 38bd db11 a8bd
000002d0: 061a 163d 3113 b63c 0000 0000 5483 b9bd
000002e0: 8175 cebd 7454 583c 4ef5 953d 51aa 8c3d
000002f0: 98ff db3b 6b76 1c3d e78d b7bd e51b 893c
00000300: 08f8 f93d 151e a53c c86e ba3d cb20 ba3c
00000310: bb05 583c c186 65bc e05e 423d 04ae 42bc
-0.10280033 -0.06053015 0.021520913 0.07360737 0.0 -0.014012837 -0.07712169 -0.0013675387
0.0128959315 -0.09937971 0.024804268 0.028861493 -0.06499053 -0.037805278 -0.074538566 -0.0090832
0.097235195 -0.024325045 -0.09067923 -0.0243927 -0.0060413224 0.070208386 -0.06285256 -0.09426043
0.019869475 -0.014360693 -0.020837363 0.069518685 0.02474607 0.023366854 0.20822863 0.057013493
0.00987068 -0.005674604 0.031462006 0.055811577 0.0865753 0.054621495 -0.040397428 -0.08056301
0.029081924 -0.017666629 -0.013286245 -0.11048942 0.059590932 0.0 0.0 0.037503075
-0.0010883973 -0.009971864 -0.065685265 -0.044564504 0.090958014 -0.012357798 -0.04712411 -0.059079386
0.045930177 -0.032720078 0.057217628 0.0 0.0339804 -0.0152724525 -0.030620316 -0.015300912
-0.032724995 0.0467116 -0.03134412 0.069791555 -0.09048177 -0.021542475 0.003471516 -0.012205323
-0.1330466 -0.0058173174 -0.02680758 0.05105077 -0.07783327 0.07098657 0.0052938154 0.011150884
0.054390695 -0.08953764 0.07581027 -0.008973437 0.18567756 -0.0018233107 0.0 0.092023134
0.0014604724 -0.052289058 0.04848291 0.07792524 -0.014717709 0.043048527 -0.031004151 -0.049404744
0.024206685 -0.03994467 -0.009793019 -0.013825139 0.0 -0.008042056 0.009833107 0.11751916
-0.07293569 0.09633126 0.057226896 0.015448075 -0.034505416 0.011569236 0.017862 -0.017228885
-0.09980732 -0.030734107 0.027542368 0.0 0.0 0.0 -0.100168 0.054295506
-0.03124871 0.07524549 -0.02795891 0.10237525 -0.0098322 -0.031305816 -0.09833929 0.011810984
-0.08219627 -0.039822187 0.03433585 0.030345658 -0.00032273517 0.0010371775 -0.02221108 -0.03498861
-0.11133493 0.058368288 -0.03430467 0.07231837 -0.041987438 -0.026559027 0.0724231 -0.011244173
0.042605393 0.037946813 -0.022636712 0.02764801 -0.058909506 -0.01094875 -0.02673751 -0.04877954
0.18726474 0.05205228 0.114652306 0.22743283 -0.0050194217 0.010166175 -0.094049625 -0.068347536
-0.104757346 -0.056033112 -0.05053788 0.0 -0.079546444 -0.042396944 -0.089695506 0.22480218
0.0 0.052768186 -0.06396151 0.042029094 0.040782414 0.016833689 0.06434149 -0.0210087
0.04560654 0.13148728 -0.044985272 -0.08206531 0.03664591 0.022225948 0.0 -0.09058252
-0.10081006 0.013203729 0.07322179 0.06868423 0.0067138188 0.03819887 -0.089626126 0.016736934
0.12205511 0.020155946 0.09103161 0.022720715 0.01318496 -0.014009179 0.04745376 -0.011882309

model.2.weight f4 [200, 200]
00000000: 08a6 803d d086 eebc 3d87 4e3e 0654 07be
00000010: 13e7 95bd 3443 fa3c f38a 403c 57f3 f13d
00000020: e705 87bb d142 f9bc f8f9 a23c 709f 88bd
00000030: 3ce2 313e f7a1 9fbd 674a 913d 7767 00be
00000040: 407f 80bd de3b 833d 0ae7 493e b7d3 253d
00000050: 12ce 873d 57fd 98bd 5cc5 c73d 519a ac3d
00000060: 4998 d63d eb64 4bbd 0560 49bd e3f0 803d
00000070: 2813 3bbd 75b7 8f3d f2c7 2e3d 534c 60bd
00000080: 892c 74be aa47 c8bd 99b7 45be 71b2 41bc
00000090: 2db9 a03d 1fb4 9a3d 93a2 09bd f08d 68be
000000a0: 237e 45be 887d 863d aef1 e7bc dba2 49bc
000000b0: 79f6 92bd bd9e 82be 538e 8cbc 8d29 10bd
000000c0: 93b6 833d 392d b93c 85aa 373d fa2d 983d
000000d0: 1cd9 16be 82ba debd ac99 99bc 6df2 143e
000000e0: 6b2e 69bd abc6 5cbe 294b ee3c f068 1ebe
000000f0: 856f 8cbd 0c2e d8bd 268d c6bd 69aa 903d
00000100: a724 17be 8dbd 10bd fa76 293e cfa6 ddbc
00000110: 378f 19be 3dbd 5abd 752a cabd 185b 3cbe
00000120: 8f1b d83c 09dc f6bb 0a72 b43b ad72 a1bd
00000130: 0484 4bbe 9fc0 0bbe 3f7b 333e 8a2e 9e3d
00000140: 726d 3a3d 26dc 64bd d7c3 d0bd ab68 10bd
00000150: af24 90bd 9c21 0b3e d0fe 083e c73e 833c
00000160: b5e5 193e 6c80 6fbc 7320 d2ba 86f5 cfbd
00000170: d889 cfbc e549 77bd 6069 55be b0ca d3bd
00000180: bef9 e93d 1e0a 4fbc b3e9 06be 49e3 87bd
00000190: 8ef6 873a c898 243d d59c edbd d499 c03d
000001a0: 8379 273d 6c17 9e3c 91a1 1d3d 8b84 3c3d
000001b0: 1a3b 6cbd 5034 43bd af0b b3bd 56b6 68bc
000001c0: ae4c 19be 58a9 0b3e fc77 e93d 8cb0 343e
000001d0: 503e fe3d c034 ca3d b744 1a3d 9ec9 2d3e
000001e0: ffc3 1f3e 9117 19be 669d 033e ca01 c73b
000001f0: 1d38 313d 3039 833d ad97 623c fec2 91bc
00000200: 45ca 553c d5d6 adbe 8657 2ebe f23d 1bbe
00000210: 9d9a 623d 0b2c 0cbd ea6c e0bd 9d19 be3d
00000220: 7a23 b93d 4bcc afbc 0d2d 26bd af84 62bd
00000230: 670f eebb 8d4b 14bd 2ceb 8fbd 72c8 4c3e
00000240: 92db babd de8d a9bd 02ed 0b3e af63 673e
00000250: a720 3e3e 6087 1dbe cac5 883d bd42 5abd
00000260: 1909 a43d afbb 3ebd 098b 9bbd 25c2 583e
00000270: fc4a c2bd 096f 02be 4217 83bd c6ae 10be
00000280: a371 25be 42ed e7bb e229 f2bd e525 ec3d
00000290: 6229 3f3c 88e7 e43d 5204 133e 32dd 4b3d
000002a0: b397 30bd e196 423e 68c6 003c a842 023d
000002b0: feb1 c63d e22c 4d3b c04a 693c 5755 a33c
000002c0: 5a47 0b3c 90dc f23c df3b 8ebd 38b6 9dbd
000002d0: 7b8c 823c 4f59 01bd 04e5 903d ed6a 763c
000002e0: 7b14 a2bc 7a66 b63d d7ab 283e 4a50 9abd
000002f0: c5a3 49bd b716 64bd 98b9 273d d27b 183e
00000300: 7e11 f63d 5c7a 093d 94d5 103e 69c0 e6bd
00000310: a1f0 f63c 7a7e 123e 68ff 23be da07 1d3d
00000320: dbe5 c3bd d942 6fbd 41a2 c73d ce7d 8e3d
00000330: 4866 bfbd 41c2 4a3e 0a30 a73d 65a9 31be
00000340: 0dd1 94bd 8a9b 723d 7cca 34bc 894f 633d
00000350: f591 2ebe d559 57bd 4124 f53c 4be7 723d
00000360: 6279 83bc ad02 7e3d 7c84 d3bc aff0 27bd
00000370: de05 2e3d 08c2 3bbd 9944 e4bc 0d07 1e3d
00000380: 4935 e5bc 18f3 babd 5062 22bd 76db a13e
00000390: d9c0 bbbc 57ba 30bc 363a 03be 266f b63b
000003a0: ff73 9cbd da6e 96be c3e2 933d 9df6 f5bd
000003b0: 4516 893d 7925 52bc f036 803d 1dcb d3bd
000003c0: 04d5 0fbe 95ab 82be ea6e 61bd 73ee b5bc
000003d0: a152 1d3d 0b00 a83d d7c3 b1bb c6e1 8cbb
000003e0: 6dd0 213d 4785 a9bd 776e 7d3d 894d 303e
000003f0: 6c7d 963c c2e6 b4bd 41db a13d f237 c43c
0.06281668 -0.029117018 0.20168777 -0.13215646 -0.073194645 0.030549623 0.011751878 0.118139915
-0.0041205767 -0.030427368 0.019894585 -0.06671035 0.17371458 -0.07794564 0.07094269 -0.12539469
-0.06274271 0.06407903 0.1971704 0.04048511 0.06631102 -0.07470196 0.0975444 0.08427871
0.10478265 -0.04965679 -0.049163837 0.062959455 -0.045672566 0.070174135 0.04267115 -0.05476029
-0.23845114 -0.09779294 -0.19308318 -0.011822329 0.078478195 0.075538866 -0.03360231 -0.22710395
-0.19286399 0.06566912 -0.028313484 -0.012306894 -0.07175917 -0.25511733 -0.01715771 -0.035195876
0.06431308 0.022604572 0.044840354 0.07430644 -0.14731258 -0.10875417 -0.018750034 0.14545603
-0.056929033 -0.21560161 0.029088574 -0.15469718 -0.06857208 -0.10555658 -0.09694891 0.07063753
-0.14760076 -0.03533702 0.16549292 -0.02705708 -0.14996038 -0.053403128 -0.09871379 -0.18394125
0.026380328 -0.0075335545 0.0055067586 -0.07883201 -0.19874579 -0.13647698 0.17527483 0.0772372
0.04551453 -0.055874012 -0.101936035 -0.03525607 -0.07038247 0.1358704 0.13378453 0.016021146
0.15029033 -0.0146180205 -0.0016031399 -0.10154252 -0.025334284 -0.060373206 -0.20840979 -0.10341394
0.11424588 -0.0126366895 -0.13175087 -0.06635148 0.0010373162 0.040184766 -0.11602179 0.094043404
0.040887367 0.019298278 0.03848416 0.04602484 -0.05767355 -0.04765731 -0.08742463 -0.0142036285
-0.14970657 0.13638818 0.11399838 0.17645472 0.12414229 0.098733425 0.037663188 0.16971442
0.1560211 -0.14950396 0.12853011 0.0060732113 0.043266404 0.06407392 0.013830108 -0.017793175
0.013048713 -0.33952966 -0.17025575 -0.15160349 0.055323232 -0.03422169 -0.10958274 0.09282229
0.0903997 -0.02145972 -0.040570308 -0.05530232 -0.0072650197 -0.036204863 -0.07027277 0.19998339
-0.09123911 -0.08279012 0.1366463 0.2259662 0.18567143 -0.15383673 0.0667835 -0.053286303
0.08009548 -0.046565708 -0.07594878 0.2116781 -0.094869584 -0.12737669 -0.064009205 -0.14129171
-0.1615663 -0.007077844 -0.11824395 0.11530665 0.011667581 0.111769736 0.14357117 0.049771495
-0.04311342 0.19002868 0.007859804 0.03180185 0.09701918 0.003130727 0.014239013 0.019938154
0.008500898 0.029646188 -0.06945013 -0.07700771 0.015936127 -0.031579312 0.07074931 0.0150401415
-0.019785156 0.089062646 0.16471802 -0.07534845 -0.04922845 -0.055685725 0.04094848 0.14890984
0.12015055 0.033563957 0.14143974 -0.11267168 0.030144038 0.1430606 -0.16015399 0.038337566
-0.09565326 -0.05841336 0.09747744 0.06957589 -0.093456805 0.19800664 0.081634596 -0.17349775
-0.07266436 0.059230365 -0.011034604 0.055495773 -0.17047866 -0.052575905 0.029924514 0.05930261
-0.01604909 0.06201427 -0.02582001 -0.041001018 0.042486064 -0.04583934 -0.027864741 0.038580943
-0.02797951 -0.09128398 -0.03964454 0.31612748 -0.022919105 -0.010786614 -0.12815174 0.005567449
-0.07639312 -0.29381448 0.07220986 -0.120099284 0.06693701 -0.012826317 0.062604785 -0.10341475
-0.14046103 -0.25521532 -0.055037417 -0.022208428 0.03840888 0.08203133 -0.0054249573 -0.004299375
0.03950541 -0.08277374 0.061872926 0.17217077 0.018370353 -0.08833076 0.079031475 0.023952458

model.2.bias f4 [200]
00000000: f51d b0bc 8647 a33c e064 093d 1608 0cbd
00000010: f555 c23b 6542 0a3d 0000 0000 f563 82bc
00000020: eed2 23bc dffd d2bb b5cd 7ebc 13ca a1bb
00000030: 0891 353c 0000 0000 1cd3 7bbb 6591 7d3d
00000040: b419 35bb 4ca7 23bc eedd 3bbc ef2b 6ebc
00000050: abee a5bb 01be 663d 1c37 d4bc 0263 68bc
00000060: d558 84bb 7bba 95bc 2f3d a6bc 9ea3 8ebd
00000070: 82df 5dbd b9eb d9bc 8cec a1bb 6c15 a9bd
00000080: 7a23 2cbc ea31 02bd ebc3 23bc 85d5 23bc
00000090: fc14 d33c 4e1b aeba 3cf4 b5bc 317e 44bd
000000a0: 00d7 23bc fcdd 1cbd a903 76bc 6469 963c
000000b0: 0269 0ebc 05a4 88bc 4448 17bd 4886 62bb
000000c0: dd89 07bd bcbe 0dbd 72d0 8fbc b1da a53d
000000d0: c4d3 31bd 403e fbbc 9429 893c b925 00bc
000000e0: 5fac 83bd b0dd c8b9 9757 04bc 0d44 a2bc
000000f0: ef47 f8bc 8fd3 98bc a5a3 c7bc 42ac 053c
00000100: b6b9 013a 863f 613c 6a12 24bc d2e4 8cbd
00000110: eb1d 1b3d da23 92bc 71c5 b4bc 034e e5bc
00000120: 88e1 243d 569a f3bb 18c6 94bd 894d d2bb
00000130: 1269 c13d e8be 92b9 c133 08bc 7807 71bc
00000140: aaf9 82bc 7c75 973b 8e43 b3bc 0000 0000
00000150: 07d7 23bc 6c9f e3bc b803 abbd a64d 14bc
00000160: 0e32 e7bc c33e bc3c 0000 0000 bd60 8abd
00000170: d1d5 23bc c0c8 27bc 4659 1cbd e747 54bc
00000180: 37ce 4d3b 8181 74bc dac7 babb 9a69 babc
00000190: 0000 0000 ca17 32bc 4b08 813b 58fd edbb
000001a0: c07e 82bc c79b 1dbd 40a7 e4bb cc9c a3bd
000001b0: e4d6 23bc 06d7 23bc d111 c4bc 3a2c 50bc
000001c0: b6db 09bc 9c40 9d3b d56f a9bb 5c64 f43c
000001d0: af50 abbc c2f4 4dbc 0000 0000 251a d1bc
000001e0: a044 c9bc 235b f2bc a89c c8bb 4975 f5ba
000001f0: 9bd6 23bc 0000 0000 6bcb 23bc 7785 30bd
00000200: a935 d13c f99d 22bc f7d6 23bc e4e9 95bc
00000210: b662 cfbd 387f 23bc bb89 9abb 0000 0000
00000220: d99d 9bbc fed6 23bc 809a 4f3b 36e7 76bd
00000230: 02d7 23bc 8a4b 86bb 2fd9 44bd 3945 86bd
00000240: 5445 14bb f5eb 053d ac9c 53bc d4d9 0a3b
00000250: cd92 f03a d7d6 23bc bbf4 d1bc dae6 f73b
00000260: 0000 0000 6c3a 4ebd 5f5b d6bc e3d6 23bc
00000270: b139 bbbc c3a4 9ebc 4523 c43b 5ab6 a3bc
00000280: 2889 96bc 1dd6 23bc 66bd 1d3c d8a0 64bd
00000290: 9bd6 23bc 0e43 86bc add6 23bc 2798 e3bc
000002a0: 421d 56bb c12d 8fbc 0ccf 3fbc 0000 0000
000002b0: a71d 623d 3362 61bb 7885 08bc e87a e93b
000002c0: 10ef 85bc ce31 893d 56d6 23bc 8656 bbbc
000002d0: 67c6 0dbc 6fb1 c9bd c8f9 983d fd2b 7cbc
000002e0: 1794 5a3d de37 16bb d714 5dbc bf60 d4bb
000002f0: c0d1 90bc 16df 3abc ffd6 23bc b584 45bc
00000300: 410d afbc 27a8 a03d a6d0 23bc 2093 473a
00000310: c812 37bd 5cfb b9bc f432 32bd d922 84bd
-0.02149866 0.019931566 0.033543468 -0.0341874 0.005930657 0.033754725 0.0 -0.015916804
-0.00999902 -0.006438955 -0.015551974 -0.004937419 0.011081941 0.0 -0.0038425392 0.061906237
-0.0027633728 -0.009988617 -0.011466486 -0.014536842 -0.005063852 0.056333546 -0.025905184 -0.014183762
-0.00403891 -0.018277397 -0.020292846 -0.06964801 -0.05416823 -0.02660166 -0.0049415287 -0.08256039
-0.010506505 -0.031785883 -0.009995441 -0.0099996375 0.025766842 -0.0013283284 -0.022211187 -0.047971908
-0.00999999 -0.03829764 -0.015015521 0.018360801 -0.008692028 -0.016679773 -0.036934152 -0.00345649
-0.03309046 -0.034605727 -0.01755545 0.08098353 -0.043414846 -0.030669332 0.016743459 -0.007821494
-0.064293616 -0.00038312143 -0.008077524 -0.01980784 -0.030307738 -0.018655566 -0.024370024 0.008158745
0.00049486326 0.013748055 -0.010014156 -0.068795815 0.03787033 -0.017839361 -0.022066804 -0.0279913
0.040254146 -0.0074341698 -0.07264346 -0.0064179343 0.09443869 -0.00027989526 -0.00831312 -0.014711253
-0.01598819 0.0046221595 -0.021882799 0.0 -0.009999997 -0.02778598 -0.08350319 -0.009051716
-0.02822211 0.022979146 0.0 -0.067567326 -0.009999708 -0.010240734 -0.038171075 -0.012956596
0.0031403431 -0.014923454 -0.0057000937 -0.022755433 0.0 -0.01086993 0.003937756 -0.007262867
-0.01592958 -0.03847864 -0.0069779456 -0.07988891 -0.009999964 -0.009999996 -0.023934277 -0.012705857
-0.0084142 0.004798962 -0.005170802 0.029833011 -0.020912496 -0.012570562 0.0 -0.025525162
-0.024568856 -0.029584473 -0.0061221905 -0.001872697 -0.009999896 0.0 -0.009997229 -0.043096032
0.025538282 -0.009925359 -0.009999982 -0.018300004 -0.101262495 -0.009979062 -0.004716126 0.0
-0.018996166 -0.009999989 0.0031677783 -0.060279094 -0.009999992 -0.0040983604 -0.048058685 -0.06556172
-0.002262433 0.03269573 -0.012915771 0.0021186965 0.0018354297 -0.009999952 -0.025629392 0.0075653614
0.0 -0.050348684 -0.026166616 -0.009999963 -0.022854658 -0.019365674 0.00598565 -0.019984413
-0.018375948 -0.009999779 0.009627676 -0.055817455 -0.009999896 -0.016389396 -0.009999913 -0.027782513
-0.0032671248 -0.017477872 -0.011707079 0.0 0.05520406 -0.0034390807 -0.008332603 0.0071252473
-0.016349345 0.066989526 -0.009999832 -0.022868406 -0.00865326 -0.09848296 0.07469517 -0.015391347
0.053363886 -0.0022921483 -0.013493738 -0.0064812596 -0.017678142 -0.011405727 -0.0099999895 -0.012055566
-0.021368625 0.078445725 -0.009998476 0.0007613171 -0.044695646 -0.022702865 -0.043505624 -0.06451959

model.5.weight f4 [200, 200]
00000000: e383 603e 90b5 8abe eb12 543d fe06 93be
00000010: 97a0 b23c beb1 b0be 06b2 ba3d 2ef6 9dbd
00000020: f1d2 163c 7084 8bbd 8a41 873c 6d26 353c
00000030: a37d 043a a837 5b3d 0b52 7c3b 279e 25be
00000040: cfed 1b3c 9b02 c53d e90e e6bc a020 203d
00000050: 98cb 02be b88a c9bd 3374 2abd ce39 aabd
00000060: 462d aebc 2af9 913d c3c5 bdbd 7e6a 05bd
00000070: 24ad 603d 396c 8c3d 057a 7cbe bffd 9d3d
00000080: 6249 85bd ebfe 483e 2b55 2fbd c393 3dbe
00000090: a7bd 203d cb98 60be a45b 963e 5018 00be
000000a0: b72d 973d 542b 55be 2133 c0bd e2c3 003d
000000b0: 3a81 e93b b4fb d5bc be2e 613c 0e93 51bd
000000c0: cb94 173d 232b 853d 9f60 2bbd 940d a93d
000000d0: dae7 e4bd 52ec 06bc a316 87bc 73bd b8bd
000000e0: 28c0 1fbe 0274 9bbd 72e2 88bd 39f1 e1bd
000000f0: 8ad6 aebd d8f9 10bb 14da 473d 98a8 703c
00000100: d109 443c f58e 8e3d 24eb 013e d13a 14be
00000110: a4fa a33d f01e c4bd 9414 b33c d0c4 f33a
00000120: aa3c 623d 056f 22bd f5c8 cf3d 1d6b 93bc
00000130: d7f6 45be c1e0 b33d 90e9 9c3d 79f4 85bd
00000140: 60b4 bb3d c11e 733d f187 a13d 6a85 ef3d
00000150: de7e 9b3c b2a9 07bd c5cb 43be 89ff 0bbd
00000160: db15 00be 3b88 67be 56ea 283c 6978 57bc
00000170: 71b7 8d3d 2e06 813d 79a8 5abd 1c2a 1ebd
00000180: 58d5 02be e331 99bd 34b1 13be cc38 92bd
00000190: 6a24 5fbe 8ca9 e9bd 6376 e83c 3f67 bb3d
000001a0: 4544 1cbd 7f3a dfbc a1aa 793e d6e7 4fbd
000001b0: fdaa d23d a5b0 cebd 9719 0f3e e1a3 fb3d
000001c0: 7e2d 1f3b 34a9 bd3d ae75 acbc c5e5 d4bd
000001d0: 3f3d c23d 6df3 683e f97e 443e 6172 203e
000001e0: 3910 003d de39 d4ba 5551 cebd cb00 a1bd
000001f0: b822 febc a59b 0abb aa64 eebb 47b7 7c3d
00000200: c6dd b93d 7f98 eebd 1c75 15be 94d1 953d
00000210: 8f7b 1dbe ab79 cb3d 4725 8c3d 156e 3dbe
00000220: fb69 7a3d e08f 8bbb 11f0 bb3d 76f9 833e
00000230: 7771 ae3d 2781 33bd c3ea 77be a2bd 0a3b
00000240: 1b9e 003d b6f7 43bd 68c5 b33c 4bba bb3d
00000250: a894 413d 4b8e d4bd 5475 89bd 622d fabd
00000260: dd9b d93c eeee 30bd d7af 9a3d 7afe 37bd
00000270: ce45 ccbc c624 343d 5a74 1c3e b671 1fbe
00000280: ddd2 e5bb 4497 debd c500 c43b 7d83 12be
00000290: c0c2 fbbd 7a40 693d 6b77 673d 12ff e4bd
000002a0: 01f3 c0bd dee0 26bd 8172 da3b 99ec 273e
000002b0: b1e9 c0bc 0c43 4abd 3f76 3ebd 40c6 1e3d
000002c0: 1823 71bd 783a 62be 8c05 afbd 3da8 74bd
000002d0: 8355 ab3d b2c7 07be 78aa 0cbe d169 24be
000002e0: c1b4 bdbd 7f04 1f3e eab3 27bc 5aef b9bd
000002f0: 5529 c33d e1f2 243c 8564 8dbd 8bf7 7c3e
00000300: 751f 073d 6ed3 3c3a fbec e1bb 8cf1 25be
00000310: 7769 b8bd 9a7f b13b 1245 343d 54ca 1a3e
00000320: 4904 c53d 8dbd 07bc 917b 3bbe 4cf1 813e
00000330: 3554 f03c c705 09bd 46bf 42bd 0b1a 933d
00000340: e557 2b3d 861d a0bb 917d 51bd 162b 19be
00000350: e2b9 9dbd b734 f73d 872e c7bd 7f50 69bd
00000360: 1645 c2bd 4ebc 07bd 73e7 5e3d 85bf 5f3e
00000370: 2f9f b2bc b9b5 1abd 5624 fb3d 2b0e c2bd
00000380: 7bac ccbd c080 633d ee82 9dbd 7385 1fbd
00000390: 987d 0bbd 7036 86bd 4bd6 3bbc 271a e33d
000003a0: b04f 5f3c d6dd 58bc e155 ac3d 5dbb e4bd
000003b0: f31c bcbd e426 77be 579b 8abc 5ae9 233c
000003c0: ae29 7b3d 807d 0ebe 9667 dfbc 5953 c7bc
000003d0: a83f c7bd 1f79 af3c eb12 00be 8c70 fbbd
000003e0: 063b 103e b36c 51be b8fb 5abe 9f6c 9cbc
000003f0: 7329 e23d 5057 9f3d 9392 c23c 2272 923d
0.21925311 -0.27091646 0.051775854 -0.28716272 0.02180509 -0.34510607 0.091159865 -0.07712971
0.009205566 -0.0681237 0.016510744 0.011056525 0.0005054122 0.053519875 0.003850105 -0.16173612
0.009517147 0.096196376 -0.028083282 0.039093614 -0.12772977 -0.098409116 -0.041614722 -0.083118066
-0.021261822 0.071276024 -0.09266236 -0.032572262 0.05485262 0.06856579 -0.24655922 0.07714414
-0.06508137 0.19628493 -0.042805832 -0.18513398 0.039243367 -0.21933286 0.2936679 -0.12509274
0.07381766 -0.2081731 -0.09384752 0.03143681 0.0071260007 -0.026120998 0.013744054 -0.051165633
0.037007134 0.06502368 -0.041840192 0.08254543 -0.11177035 -0.008235054 -0.016490286 -0.090205096
-0.15600646 -0.07590486 -0.06683816 -0.11032338 -0.08537014 -0.0022121575 0.04879196 0.014688633
0.011965231 0.06960861 0.12687355 -0.14475562 0.0800679 -0.09576213 0.021860398 0.0018598083
0.055233635 -0.039656658 0.101457514 -0.017995412 -0.19332443 0.08783103 0.07661736 -0.0654077
0.09165263 0.0593555 0.07887257 0.116953686 0.018981393 -0.03312082 -0.191207 -0.034179244
-0.12508337 -0.22610562 0.010309776 -0.013151267 0.06919754 0.06300007 -0.053383324 -0.038614377
-0.12776697 -0.07480218 -0.14423066 -0.071397394 -0.21791235 -0.114092916 0.028376764 0.09150552
-0.038151044 -0.027249573 0.24381496 -0.050758205 0.1028652 -0.10092286 0.13974606 0.12287117
0.002428859 0.092607886 -0.021052208 -0.103953876 0.09484338 0.2274911 0.19189061 0.15668632
0.03126547 -0.0016191562 -0.100741066 -0.07861479 -0.031022415 -0.00211499 -0.0072751837 0.061698224
0.09075503 -0.1165018 -0.14595455 0.073153645 -0.15379165 0.09935316 0.068430476 -0.18499024
0.061136227 -0.0042590946 0.091766484 0.2577626 0.085177355 -0.04382434 -0.24210648 0.002117016
0.03140078 -0.047843657 0.021944717 0.09166392 0.04726091 -0.10378703 -0.06711832 -0.12215687
0.02656358 -0.04319661 0.0755307 -0.044920422 -0.02493563 0.043980382 0.1527876 -0.15570721
-0.0070136623 -0.108686954 0.005981537 -0.14307971 -0.12293005 0.056946255 0.05651037 -0.11181463
-0.09421349 -0.040741794 0.006666482 0.16398849 -0.023548933 -0.049380347 -0.046499487 0.038763285
-0.05887136 -0.22092617 -0.0854598 -0.059730757 0.083659194 -0.13259771 -0.13736904 -0.16055991
-0.09262992 0.15529059 -0.010235766 -0.09078856 0.09529368 0.0100676725 -0.06903938 0.24703805
0.032988984 0.00072031363 -0.0068947054 -0.16205424 -0.09004491 0.0054168226 0.044011183 0.15116245
0.09619958 -0.0082849385 -0.18308856 0.25379407 0.029337028 -0.033452775 -0.047545694 0.07182702
0.04183187 -0.004886332 -0.05114514 -0.14957842 -0.0770147 0.120706014 -0.09725671 -0.056961533
-0.09485833 -0.033138566 0.054419946 0.21850403 -0.02180442 -0.03777096 0.1226279 -0.094753586
-0.099938355 0.055542707 -0.076909885 -0.038945626 -0.034055322 -0.06553352 -0.011464666 0.110889725
0.013629839 -0.013236484 0.084148176 -0.11168549 -0.09185209 -0.2413593 -0.016919775 0.010004366
0.061319046 -0.13915062 -0.027271073 -0.024331735 -0.09728938 0.02142006 -0.12507217 -0.12277326
0.14085016 -0.20451622 -0.21385086 -0.019094763 0.11043062 0.077803254 0.023751533 0.07150675

model.5.bias f4 [200]
00000000: e414 6abc 5941 30bc 5a4a 94bc 2d08 7ebc
00000010: 12a2 50bd edfb 54bd 848a 0cbd 2021 06bd
00000020: 8936 56bc 8a8b 8fbc 73ad 79bd 3c89 80ba
00000030: 275d 4ebc 3d44 07bd ab5c 7eba fb04 8ebc
00000040: da27 65bd 2d0b 1ebc 0a46 57bd b4f9 bdbc
00000050: 6c4a 65bb de56 b0bc 8dc4 c0bc e2bf 1cbd
00000060: 2191 c73c 1840 54bd 68f0 83bc 078b 3bbc
00000070: ecf5 40bc 3cd2 703d fa1a dcbc d4f6 8f3d
00000080: 0074 90b9 c817 4cbc 58e6 c6bc 0e80 e73b
00000090: 4a1e 48bb a823 29bd 4a13 3ebd b17c 21bc
000000a0: bc59 ef3c 869f e4bc 5ba8 8ebc d845 14bc
000000b0: b038 77bd 4a3e ba3c 9741 c7bc 1a8c a4bc
000000c0: 06cc 41bc 4353 b9bc 8e0d 27bc 9522 38bc
000000d0: 58eb 10bd 0a5e c8bb 467a 4abd e28b 0ebd
000000e0: aed8 89bc 084c 49bc 2bd6 37bc fa88 b83c
000000f0: e359 3eba 38d5 05bb 6747 083d af21 2dbc
00000100: b5e4 4ebc 46a3 32bb f5ca 4a3d e6aa bfbc
00000110: 3bd7 77bc f065 17bc 6247 7abd 2547 6bbc
00000120: 3476 afbc 7867 97bc 6bf3 e7bc e5d5 97bc
00000130: 9ee6 a8bb 2a33 4dbc e086 52bc 04dc 4a3d
00000140: 7263 f7bc 38df a9bc 1896 8bbc b245 dabb
00000150: c740 21ba 3dd3 0bbd 8055 6c3b edfd afbc
00000160: fb55 00bd 9b82 02bd a1e3 52bc 93bf c9bc
00000170: 972c 27bc e21f c9bc d930 debb da9f 8bbc
00000180: 4e5b 83bc 8e3b 36bd 73eb cdbc 2a28 f7bb
00000190: 713b 38bd 4d8b 3abd 684c c9bc c704 aebc
000001a0: 096d 02bc 70e5 89bd 9338 0ebd 8ed7 b3bc
000001b0: 0f77 31bc 37d3 ddb8 8ca4 d4bc c2c0 923d
000001c0: 4f02 3abd e65e d1bc 0a0a cdbc 37ad f5bc
000001d0: 2c97 903d 62fc 79bc 2a84 86bc d699 97bb
000001e0: dec6 89bc ba8c ba3c ef9c 953a 7cff b7bc
000001f0: e5b7 d33c b73c 953c c835 a0bc 4e72 09bd
00000200: cd77 a3bb b7f7 1fbd b411 dbbc f5ba d2bc
00000210: 48d3 41bd b95f bfbc ba0c debb d803 82bd
00000220: 2df1 2dbc 0985 70bd da5b b63c 8d70 883c
00000230: 4de8 42bd bbe0 a4bc 1bb2 05bd bbd5 81bb
00000240: a86b bc3c 3d2a e33c 3d16 aabc 15e7 1abd
00000250: 1199 743c 5abc 24bd 88f6 8ebb 2394 2ebc
00000260: 02b4 c2bc 3dd1 4bbc 9d30 53bd 350a a9bc
00000270: b5c2 21bd 2974 7e3b 2de3 afbc 08ac 953b
00000280: a00b 78bc 1840 2dbb 942c 80bc 0ad9 c5bb
00000290: ffc8 24bc a4d9 50bc f2d6 b03c 8aad a0ba
000002a0: 373d 9c3c 2832 dcbc 4340 07bd cbdf 9cbc
000002b0: 2866 c83c 56f0 bd3c 7d02 ffbc 3b32 c43c
000002c0: f878 e4bc 94b6 40bc 0467 cd3c c123 fdbc
000002d0: a890 e9bc f8af cbbb e319 0fbc d86a a8bc
000002e0: 3ae5 3ebd 18f2 2e3c 7e5c 30bc c613 3dbc
000002f0: 9bda 00bd 3814 50bd b318 dcbc a497 d8bc
00000300: 3f3d 87bb 20a7 53bc 58bd a6bc c4c0 4f3d
00000310: 4b0d a0bd 5ca5 09bd 6dff f3bc a65c 69bc
-0.014287207 -0.010757768 -0.01810186 -0.015504879 -0.050935812 -0.051998068 -0.034311786 -0.032746434
-0.013074526 -0.017522592 -0.06095643 -0.0009806524 -0.012595451 -0.03302406 -0.00097031397 -0.01733636
-0.05594621 -0.009646219 -0.05255703 -0.023190357 -0.0034986986 -0.021525797 -0.023531223 -0.03826893
0.024361195 -0.051818937 -0.016105846 -0.011446721 -0.011777382 0.058794245 -0.026868332 0.070295006
-0.00027552247 -0.012456842 -0.024279758 0.007064826 -0.0030535632 -0.04129377 -0.046405114 -0.009856389
0.029217593 -0.027908098 -0.017414263 -0.009049855 -0.060356796 0.02273478 -0.024323268 -0.020086337
-0.011828428 -0.02262271 -0.010196103 -0.011238714 -0.03538069 -0.006114726 -0.049433015 -0.03480137
-0.016826954 -0.012286194 -0.011220495 0.022526253 -0.0007261319 -0.0020421278 0.03327122 -0.010567113
-0.01262777 -0.0027257963 0.04950996 -0.02339692 -0.015126999 -0.009240612 -0.061103232 -0.014360224
-0.021418668 -0.018481955 -0.028314313 -0.01853461 -0.005154445 -0.0125244055 -0.0128495395 0.04952623
-0.030198786 -0.020736322 -0.017039344 -0.0066611404 -0.0006151315 -0.034137 0.0036061704 -0.021483386
-0.031331997 -0.031862836 -0.012871654 -0.024627483 -0.010203502 -0.024551336 -0.0067807254 -0.017043997
-0.016034748 -0.04449039 -0.025136685 -0.0075426297 -0.044978563 -0.045543004 -0.024572566 -0.021242512
-0.007960566 -0.06733215 -0.034721922 -0.02195337 -0.010831608 -0.00010577443 -0.025957368 0.07165672
-0.045412358 -0.025557946 -0.025029201 -0.029989822 0.07060084 -0.015257927 -0.016420443 -0.004626493
-0.01681846 0.022772182 0.0011414568 -0.022460692 0.025844524 0.018217428 -0.019556895 -0.033556275
-0.0049886466 -0.0390546 -0.02674184 -0.025723914 -0.047320634 -0.023361074 -0.0067764195 -0.063483894
-0.010616583 -0.058720622 0.022260595 0.01665523 -0.04758482 -0.020126691 -0.032640558 -0.0039622462
0.023000553 0.027730102 -0.020762557 -0.037818033 0.014929072 -0.04021869 -0.004362885 -0.010655436
-0.023767475 -0.012440023 -0.051560033 -0.02063475 -0.039492328 0.003882656 -0.02147063 0.004567627
-0.01513949 -0.0026435908 -0.015646257 -0.006037836 -0.010057687 -0.012747202 0.021586869 -0.001225875
0.019072158 -0.026879385 -0.03302027 -0.019149682 0.024462774 0.02318589 -0.031129116 0.023949733
-0.027889714 -0.01176228 0.025073536 -0.030900838 -0.02851136 -0.0062160455 -0.008734199 -0.02055876
-0.046605326 0.010677837 -0.010764239 -0.011540359 -0.03145848 -0.050800532 -0.026867246 -0.026439495
-0.004127174 -0.012918264 -0.020353958 0.050720945 -0.078150354 -0.033604965 -0.029784882 -0.0142432805

model.8.weight f4 [1, 200]
00000000: 1a92 79bc 0a74 363d 790d bc3d b115 24be
00000010: 4eff ddbc 1e57 4a3d f2d7 293d 825c be3c
00000020: 971c 29be 8b5c d3bc e525 363d b1b8 a4bd
00000030: d0f9 9abd d914 113e 3325 10be 6d78 db3c
00000040: ace7 fdb9 3e6e ab3d 1ef4 943d 48be bd3d
00000050: 8b79 653d 33b0 f63d 6578 36be f8aa f539
00000060: e767 25bd 73b0 203e 5038 7fbe 8e75 fdbc
00000070: b9a7 5f3d b3df 53bd 741f 0f3d 2a69 c7bd
00000080: de1d 603d eec7 1ebe c627 dc3d e6b9 893d
00000090: 621c 05bc f8ac 283d b202 c03d 84ae 64bd
000000a0: c4e9 34bd d6a7 9bbd abc4 313d 7ea5 a03c
000000b0: 82ae 233d 2ec1 0c3d 1fee 973c f6a2 cabc
000000c0: bd95 023e 3362 723d 5a70 7c3e fb0c 95bd
000000d0: 1f3f 9ebc 98b7 debc f513 c9bd 3596 223d
000000e0: 5137 443e ebd3 cd3d 09e8 9c3d dd78 adbc
000000f0: c58a 2fbe e26e 2fbe e04b 80bd 930c d4bc
00000100: 00b0 473c a778 423d 364e 26bd 6bc3 d83d
00000110: 8f34 bcbd c38c 2dbe 4c73 ab3a 3956 3c3e
00000120: 1ef8 d83d cd60 b03d c9f3 14bd c6b5 18bc
00000130: 237b ebbc 3c1b 4bbe d629 f2bd b45f 95bc
00000140: 012e 3d3c b22d ae3c 6fae c9bd 3d88 f4bd
00000150: 323c 95bd fa48 25bc e891 d2bc 0132 b7bc
00000160: 4a58 bdbd 3c5e e7ba c90c 2cbe 3fd1 19bd
00000170: bef7 08bd be51 ac3d ada0 d2bd 4d6d 39be
00000180: 0c4b 08be 36e4 233d b711 13bd 68fd f73c
00000190: 0653 9bbc 2ec9 b8bc a063 06bd 5a55 0d3d
000001a0: 1a7e 003d d537 98bc 0283 c43c d4d9 843c
000001b0: f318 47be 9367 d3bb f09f 2a3e 0f85 2cbd
000001c0: 8fa1 42bd 797c 973e 4e69 ae3d 833a a4bd
000001d0: a074 2bbd 262c 25be 1c9d 9bbc 175e 52be
000001e0: 8a81 313e ec79 763d 0a8e f8bc 03dd 1d3d
000001f0: 8a35 303d c702 bebd 1a76 f4bc e40a 0e3d
00000200: 55d9 4ebd 32a1 f93d ae2b 103e 75f7 0fbe
00000210: bf12 663d a4dc 86bd e50b 403d 4056 4238
00000220: 9f44 40bd dfdb a73c dd5f 70bc 079c 01bd
00000230: ad40 ac3c 1145 103e 0a3a f83d f772 bbbd
00000240: bae5 bdbc d9ee efbc ab65 3b3e 2fa8 b73d
00000250: b48a 1bbd 934e 063d c1bf 75bd b7e9 4bbc
00000260: 6ce2 52bb cb53 4f3c 7288 953a 056e dbbd
00000270: a3e6 05bd 69f0 25bc e2ca 403d 427e 59bd
00000280: a238 08bd e498 4dbe f726 bdbc b9c8 44be
00000290: b2d9 a6bd edc9 393e ffeb 433d 88f2 173d
000002a0: 6f9d 80bd be55 f7bc 73ef 043e 9658 abbc
000002b0: 1595 3ebd f1c3 36bd 1717 d7bc 77e4 d1bc
000002c0: 7ad3 e03d 4e1c 20bd 919c 94bc 64d5 983e
000002d0: 3290 223c 9aa7 863d 1237 d7bd ab18 4b3e
000002e0: 58ec 5c3c 1cf6 4f3d aa5f 7fbd b72d 893e
000002f0: a7ce 073e 41be c33a c4b4 89bd c8bf f73d
00000300: 8411 94bd 6cf0 6bbd fbe9 ad3c f36b 14bd
00000310: 1176 d9bc 6f91 d93d 81ee 8b3c 7664 2b3e
-0.015232587 0.044544257 0.09182257 -0.160239 -0.027099278 0.049399488 0.041465707 0.02323747
-0.16514812 -0.025800964 0.044469733 -0.080430396 -0.07567179 0.14168109 -0.1407669 0.026790822
-0.0004842853 0.083706364 0.07273124 0.09264809 0.056024116 0.12045326 -0.17819364 0.00046857423
-0.040382292 0.1569231 -0.24923825 -0.030939844 0.054603312 -0.051727008 0.034942105 -0.09736855
0.054715984 -0.15505955 0.10749774 0.067249104 -0.008124443 0.04118058 0.09375514 -0.055830494
-0.04416825 -0.076003715 0.043400448 0.019610163 0.039961345 0.034363918 0.018546162 -0.024735909
0.12752433 0.05917568 0.24652234 -0.072778665 -0.019317208 -0.027187154 -0.098182596 0.03969403
0.19161727 0.10050186 0.07661445 -0.021175796 -0.1714278 -0.17132142 -0.06264472 -0.025884902
0.012187958 0.047478344 -0.04060193 0.10584148 -0.09189712 -0.16948228 0.0013080626 0.18392266
0.105941996 0.08612213 -0.036365304 -0.009320682 -0.02874524 -0.19834608 -0.11824386 -0.018234111
0.011546613 0.021262024 -0.09847724 -0.11940048 -0.07286872 -0.0100882 -0.02570434 -0.02236271
-0.092453554 -0.0017651985 -0.16801752 -0.03755307 -0.03343939 0.084140286 -0.10284553 -0.18108101
-0.13309878 0.04001256 -0.035905566 0.0302722 -0.018960487 -0.022556867 -0.032809854 0.034505226
0.03137026 -0.01858131 0.02398825 0.01621715 -0.19443111 -0.006451556 0.16662574 -0.042119082
-0.047517356 0.29587153 0.08516179 -0.08018973 -0.04185927 -0.16130123 -0.018995814 -0.20543705
0.17334571 0.060174868 -0.030341167 0.03854085 0.04301981 -0.092778735 -0.029841471 0.034678355
-0.050500233 0.12188949 0.14079162 -0.14059241 0.05617022 -0.065850526 0.046886344 4.633353e-05
-0.046940442 0.020490585 -0.014671293 -0.03164294 0.021026934 0.14088847 0.12120445 -0.09152787
-0.023180831 -0.029288696 0.18300502 0.08967625 -0.037974074 0.032789778 -0.059997324 -0.012445859
-0.0032178415 0.012654255 0.0011408462 -0.10714344 -0.032690655 -0.010128119 0.047068484 -0.053098924
-0.033257134 -0.20077854 -0.023089869 -0.19217195 -0.08146991 0.18143435 0.047832485 0.03709653
-0.06280028 -0.030192252 0.12981968 -0.020916265 -0.046528894 -0.044620458 -0.026256127 -0.025621636
0.10977836 -0.039089493 -0.018141063 0.29850304 0.009922074 0.06574936 -0.10508551 0.19833629
0.013484083 0.050771818 -0.06234709 0.2679269 0.13262425 0.001493402 -0.067239314 0.12097126
-0.07229903 -0.05760233 0.021229735 -0.03623576 -0.026545556 0.106234424 0.017081501 0.16737542
