Challenge_1/Weights/model_reward_Qube-v0_mse_0.00000313.params (torch_old, 330207 bytes, 7 tensors)

model.0.weight f4 [200, 7]
00000000: 2791 57bd 276b 08bf 6572 82be f328 1abf
00000010: af27 73bf 9c72 43bf 345a 03be 9290 d8be
00000020: f40b 683f dba9 1cbe 277e 5bbd 2f8f de3d
00000030: 55f5 20bf 13d5 5cbe 4379 dd3c a42c e8bd
00000040: c999 d2be f693 893d dc1a ef3e 1437 063d
00000050: 7f0e 90be 61d7 803e 6543 d03e 8c32 1a3f
00000060: abbe a73e 818f 213e 7d67 febd 8f96 acbe
00000070: 63b6 d03e 5464 72bf 6861 36bf aec0 66bc
00000080: c2c7 77be 6179 93be e77b 30bc 81d2 0a3f
00000090: 9f0f 40be 437c 873f 6b48 503f cde0 b0be
000000a0: d10c c4be 64c9 403f adcb a2bd d264 f33e
000000b0: 69c7 c5bd deb3 b73d da12 83bf 4f26 dfbe
000000c0: fc32 0abf ed3e 76bf 57b0 363e e6de 64bf
000000d0: a563 843c 7433 ec3d 00aa 3abf 9347 02bf
000000e0: b460 513e 9bce 67bf 8fbf 723f fe93 5bbd
000000f0: 9609 dabe cdd8 26bf 7e44 643f 13af efbe
00000100: e78d a2be cf7f e43e da35 ff3d 8b70 603f
00000110: a31b 383d ae5a 88be b92a 85bc d12e 9a3e
00000120: 32a6 a4be c0fb 383c ad3e fc3e 6ee5 96bf
00000130: 0d20 753e de95 043f b337 f73e 47b5 a53d
00000140: 1b4a 50be b592 77bf cce1 893e bc62 0fbe
00000150: d8e2 2bbf 338c 0c3f 8e63 0f3d 5fd1 5a3e
00000160: 9a5f a23e 7d1c d7be 85d1 87be e6fe 4d3e
00000170: 295b b4be ad92 d63e 470b 0cbf 861a 473e
00000180: 9b7b a23f cdeb a3bc d5b5 4ebf 60fc d3be
00000190: a8ec 08be e3d7 63be a4e2 74be 14a2 1abf
000001a0: d5e6 0dbf ebe7 55be 715e cabe 8a2b 1dbf
000001b0: fe1d ac3e 4a50 0abf bc24 56bf b212 82bf
000001c0: 0f1e 613f 855a 94bf 1f8a ad3c ac6d 90be
000001d0: c8ec c3be 640c 283f 55ec 9d3d afe5 d2bd
000001e0: be71 9dbc abc5 ecbd b0a4 963f ffe4 9fbe
000001f0: 10d6 5d3f d55e ea3d d745 9ebe 21dc 9abe
00000200: a6cd 07bf dcdb 8fbd 7e3b 423f 9641 78bf
00000210: b444 27be a8a1 7b3d b9d5 2ebe 0f4c 883e
00000220: bfdd 84be cd62 393f aa70 e5bd c586 92be
00000230: a9f3 20be fa46 debe ed33 c5be b29a 04bf
00000240: 4c30 953e ee6f 8d3c 0740 b13e d43a a83f
00000250: dba4 a6be ba2d 65be 81ba e83e ad95 4bbf
00000260: 0737 0c3e 1684 20bf f7ea 03bf d2ce febd
00000270: 5858 223f c297 14bf da57 51bd 8d29 d93f
00000280: d4c5 2c3e 15bc 0dbf 183c a13e 4007 193f
00000290: 71b5 ab3e 3128 55bf 0791 cd3f 0d30 263d
000002a0: 1b60 28bf 9234 c1be 19fa 35bf 13cc 81be
000002b0: 4f17 003e bcbe 87be 7284 5d3e e1cd 723f
000002c0: 23e4 843f 3e0f 8fbf 4b30 543f b62f 99be
000002d0: cf80 4b3f 4125 f1bd f186 0dbf ba6f 2e3f
000002e0: 667c c8be 571f 57bd f2bb 973e 25c5 013f
000002f0: 4942 84be 4231 a93d a233 c33e 8031 f5be
00000300: 25b9 9abf 5d74 a53e cb74 bd3e ec34 35be
00000310: fb23 91bd f6a1 65be f058 8d3c d202 0a3e
00000320: 98dc 92bc 2eff 0f3f d3d6 36bf a388 25be
00000330: 6ece b83d 5d7e 893f 8880 863e c640 9b3e
00000340: 188f cdbe e606 b1be 2dde f73e fd67 803e
00000350: 6b80 4ebf c431 683f 8329 4a3e a3db 273f
00000360: 8339 92bf b21c 8cbf a161 173f e3ca 36be
00000370: 8416 48bd 0dd1 463f 9ea6 c4be 993a 613d
00000380: d09e 893d abd8 d73e dd59 a13e e58e 70be
00000390: 731c 833d 0cf7 07be 5daa 063e 02a6 4a3f
000003a0: cfad 0fbf c950 b6be 2570 473e 947a 01bd
000003b0: c36a 01be 3519 243e 8ceb fcbe 1fa0 ecbe
000003c0: 220f d2bd df87 52be 3192 9fbe 5675 903e
000003d0: d8a1 353f add1 293e d3be a0bd ea83 193f
000003e0: 067b 423e 76be 94be c007 27be a65c de3d
000003f0: 1efe 023f b6ed 4a3e 1de1 403f 6d55 11bd
-0.052628662 -0.532885 -0.254779 -0.60218734 -0.9498243 -0.76346755 -0.12827379 -0.42297798
0.9064324 -0.1529917 -0.053587105 0.10867154 -0.62874347 -0.21565656 0.027035361 -0.113366395
-0.41132954 0.067176744 0.4670018 0.03276737 -0.2813606 0.2516432 0.40676418 0.6023338
0.32762656 0.15777399 -0.124220826 -0.33708617 0.4076415 -0.9468434 -0.7124238 -0.014084024
-0.24197295 -0.28803542 -0.010771728 0.54227453 -0.18755959 1.0584797 0.813605 -0.3454651
-0.38291028 0.753073 -0.07949004 0.47537857 -0.09657175 0.08969854 -1.0240128 -0.43583915
-0.53984046 -0.9618977 0.17840706 -0.89402616 0.016160795 0.115332514 -0.7291565 -0.50890464
0.20447046 -0.9054963 0.94823545 -0.053607933 -0.42585438 -0.6517456 0.8916701 -0.4681326
-0.31748888 0.4462876 0.12461443 0.87671727 0.04494823 -0.26631683 -0.016255723 0.30113843
-0.32158047 0.011290491 0.49266568 -1.1788766 0.23938008 0.5179118 0.48284683 0.080912165
-0.20340769 -0.9670823 0.26930082 -0.14002508 -0.6714301 0.5490143 0.035007052 0.21368931
0.31713563 -0.42013922 -0.26527038 0.20116767 -0.352258 0.4190878 -0.5470471 0.19443712
1.2693971 -0.0200099 -0.80746204 -0.41403484 -0.13371527 -0.22250323 -0.23914582 -0.6040356
-0.55430347 -0.20889251 -0.39525178 -0.6139456 0.33616632 -0.5402876 -0.836498 -1.0161955
0.8793649 -1.1590124 0.021184025 -0.28208673 -0.38266587 0.65643907 0.077110924 -0.10297715
-0.019219276 -0.1156114 1.1769009 -0.31229398 0.8665476 0.11443869 -0.3091266 -0.3024607
-0.5304817 -0.07024357 0.7587203 -0.96975076 -0.16334802 0.061433464 -0.17073716 0.26620528
-0.2595043 0.72416383 -0.112031296 -0.28618446 -0.15717949 -0.43413526 -0.3851618 -0.51798546
0.2913841 0.017265286 0.3461916 1.3142953 -0.3254765 -0.22380725 0.4545479 -0.7952526
0.13692866 -0.6270155 -0.515304 -0.124417916 0.6341605 -0.58044064 -0.051109172 1.6965805
0.1687234 -0.55365115 0.3149116 0.5977669 0.33536866 -0.8326445 1.6059884 0.04057317
-0.65771645 -0.3773542 -0.71084744 -0.2535101 0.12508892 -0.26512706 0.21632555 0.94845396
1.0382122 -1.1176527 0.8288619 -0.29919213 0.7949342 -0.11774684 -0.5528403 0.6813923
-0.39157408 -0.052520122 0.29635578 0.50691444 -0.25831822 0.08261348 0.3812533 -0.47889328
-1.2087752 0.3231534 0.37003168 -0.1769597 -0.07086941 -0.22425064 0.017254323 0.13477638
-0.017927453 0.5624875 -0.71421546 -0.16165404 0.09023748 1.0741688 0.26269937 0.30322856
-0.40148234 -0.34575576 0.48411694 0.25079337 -0.806647 0.90700936 0.19742398 0.65569514
-1.1423801 -1.0946257 0.59133345 -0.17850833 -0.048849598 0.77662736 -0.3840837 0.054987524
0.06719744 0.42157492 0.31513873 -0.2349201 0.06401911 -0.13277835 0.13150926 0.7915956
-0.56124586 -0.3560851 0.19476373 -0.03161104 -0.12638383 0.1602524 -0.49398458 -0.46215913
-0.102567926 -0.20559643 -0.31166223 0.2821452 0.7095008 0.16583891 -0.07848897 0.5996691
0.18992242 -0.2905156 -0.1631155 0.10857515 0.51169 0.19817242 0.75343496 -0.03548186

model.0.bias f4 [200]
00000000: 0000 0000 eb29 cd3a 9bfe 473e fa4c 5bbd
00000010: 5a93 223e 82e1 a03b 0000 0000 0000 0000
00000020: 7607 063e 7c92 b23a f20b 3c3d 7802 bf3d
00000030: a6cd 6a3c a24c c0bc 0000 0000 0000 0000
00000040: 7f22 013d a9a8 31be 78f7 583d ea73 88bd
00000050: bc9c 2f3e 6f4d fc3c 0ad5 c4bd 51c0 9ebd
00000060: 0000 0000 6f4b 3bbd 7a1a 453b 1fe7 3d3d
00000070: db01 993c 1924 57bd 10c8 97bd 9544 8f3b
00000080: 923f b5bd 9971 45bd 0b17 f43d 4f74 f63b
00000090: c965 8bbd 40a6 02be fde0 3c3d a8d1 36be
000000a0: 1d53 b73b 3ac0 2dbe 502d 2abb 55d8 cbbd
000000b0: 0000 0000 cc79 133e 3f0f 33bd 6c7a 1dbd
000000c0: 4f05 56be a0cc 56bd 80e9 073d 838b 2bbd
000000d0: 8df9 c23d 5574 b13c c6b6 e0bd c54b 7ebd
000000e0: 411a a8bd c88e b63c 0000 0000 8ed2 bd3d
000000f0: 0000 0000 43fa 44bd 3141 bfba 75e0 1abe
00000100: f0dd aabb 7387 cd3d 85b4 0b3e 4d59 08be
00000110: d4d5 aabc 9a89 0ebc 4cad 5c3e 8568 d23d
00000120: 0000 0000 b878 373d ee9f 0f3c 5913 e4bd
00000130: 897e dfbd 2613 08be b16c 6d3c 6494 babd
00000140: 0000 0000 0e47 a23d 1025 13be 188c f1bc
00000150: 9606 b9bd bfb6 633d 0000 0000 1101 063d
00000160: 1902 223e 64c6 a3bc 933f 493c dfec 803d
00000170: f1ab 1abc c66a 603d 0000 0000 ff3f 2a3e
00000180: 8018 cf3c 8865 4dbd 74a2 98bd f7ca c1bd
00000190: 3c11 ae3d 2a57 283d 1576 6fbd 0fb4 8d3e
000001a0: be87 89bd 03f5 693d d8db 9dbc d09c 2bbe
000001b0: 55e4 dd3c 8b3e f4bd 215f 0ebd c73d 58bd
000001c0: 5c42 b23d 3d7a 3c3d c3e1 223e d5f3 a03d
000001d0: f438 363e a4a0 b03c a39a eebd 24e9 503d
000001e0: 274f a63d 4940 283d 0000 0000 883d bdba
000001f0: 0000 0000 a847 e7bc 81df ebbd 6933 303d
00000200: 467c 3c3d 7ffc 4dbd 8e28 783e b2b9 97bd
00000210: 4396 c23b bccb 423e 68d1 1abe 1b1c 04be
00000220: 75f5 973d bf12 443e 60f7 cf3c 27b7 1fbc
00000230: 16f4 96bd 7884 abbd 5716 1bbe 3797 eb3d
00000240: 0000 0000 ac01 44be 563d 5cbc fc0e 513e
00000250: 769e a63c 55c6 203d 9921 923d e1ba 70bd
00000260: 139f 173e 639f ccbd 7c48 d3bd 2e0c 333d
00000270: 781d 99bd 0c2d d53c cfb1 0cbd 7444 3abe
00000280: 0000 0000 0000 0000 dec9 323e 32cc eabd
00000290: aa48 993c 3900 ba3d 0000 0000 4c00 efbd
000002a0: 92a1 ca3d 5343 0c3d 310b b43d aa17 393b
000002b0: a831 23be b79f 79bb 6286 61bc 287b efbc
000002c0: 0eab ba3c b7a7 4bbe ad17 36bd 43c4 b9bc
000002d0: 0000 0000 e3fa 0bbe cfd7 9c3d 436b f1bd
000002e0: 2d0d 27bd 8ee2 2dbd 39a0 ac3d f8f4 f03d
000002f0: b31c 1bbc b329 8a3d fcf6 47bd 4fd0 443c
00000300: 571f 10be a198 dd3d f46b 2a3e 7c7d 87bd
00000310: ec7f 2f3d 3293 283e 0a4a 82bd 2c06 533b
0.0 0.0015652751 0.19530718 -0.053540207 0.15876523 0.004909695 0.0 0.0
0.13088784 0.0013623978 0.04590983 0.09326643 0.014331257 -0.023474041 0.0 0.0
0.03152704 -0.17349495 0.05297038 -0.06662734 0.17149633 0.030798642 -0.096109465 -0.07751525
0.0 -0.045726236 0.0030075596 0.046362992 0.018677643 -0.05252466 -0.07411206 0.0043721893
-0.08850016 -0.04820404 0.119184576 0.0075211893 -0.06806523 -0.12758732 0.046113003 -0.17853415
0.0055946247 -0.1696786 -0.002596695 -0.099533714 0.0 0.1440193 -0.04371571 -0.03844683
-0.20900463 -0.05244124 0.033181667 -0.041881096 0.09520254 0.021661917 -0.10972361 -0.06208398
-0.082081325 0.02228488 0.0 0.09268676 0.0 -0.04809023 -0.0014591572 -0.15124686
-0.0052144453 0.100356005 0.13643081 -0.13315316 -0.020853914 -0.008699799 0.21550483 0.10273842
0.0 0.04479286 0.008766158 -0.11136503 -0.109128065 -0.13288555 0.014491246 -0.091103345
0.0 0.07923709 -0.14369607 -0.029485747 -0.09034459 0.055594202 0.0 0.03271586
0.15821113 -0.019992061 0.012283224 0.062951796 -0.009440408 0.054789327 0.0 0.16625975
0.025280237 -0.050145656 -0.074528605 -0.094625406 0.08499381 0.04109875 -0.05846222 0.27676436
-0.06715344 0.057118427 -0.019269869 -0.16759038 0.027086416 -0.119259916 -0.03475869 -0.05279329
0.08704063 0.046015013 0.15906434 0.07859007 0.17795163 0.021560974 -0.11650588 0.05100359
0.08120566 0.041076932 0.0 -0.0014437893 0.0 -0.02823241 -0.11517239 0.04301778
0.046016954 -0.050289627 0.2423422 -0.074084654 0.0059383227 0.19023031 -0.15118945 -0.12901346
0.07419864 0.19147776 0.025386512 -0.009748257 -0.073707744 -0.08374876 -0.1514524 0.11503451
0.0 -0.19141263 -0.013442358 0.20415872 0.020339232 0.039251644 0.071353145 -0.05877197
0.14806776 -0.09991338 -0.1031656 0.043712787 -0.07476324 0.026022457 -0.03434926 -0.18190175
0.0 0.0 0.17459819 -0.114647284 0.018711407 0.09082074 0.0 -0.116699785
0.09894098 0.034243893 0.08791197 0.0028242865 -0.15936911 -0.0038089582 -0.0137649495 -0.02923353
0.022786643 -0.19888197 -0.044456173 -0.022676593 0.0 -0.13669924 0.0765835 -0.11788037
-0.04078405 -0.042452388 0.084289975 0.11765474 -0.009467292 0.06746235 -0.048819527 0.012012555
-0.14074455 0.10820127 0.16642743 -0.06615731 0.042846605 0.164624 -0.06361778 0.0032199724

model.2.weight f4 [200, 200]
00000000: 8bcb 53bc c74e 743e 7987 e93d 5868 91b5
00000010: 7c49 29be 1523 75bc 0f1f 743e b562 babd
00000020: e9f6 8ebd 473b 50bd 8eb6 533e bd85 673d
00000030: 22aa ac3d 8c7f 523c 22a2 113e 2053 e33d
00000040: f8d0 e3bc dc2e 96bb 4bb2 61bd be51 433e
00000050: cc07 773d 52db 88be 39c8 443a 10d9 be3c
00000060: f306 783d 3a9e f1bd 4b53 19be e9d1 9abe
00000070: 4654 853d 84bd 2abe 101e 593e 14f9 ae3d
00000080: 56cb 47be f980 c8bd 35d5 07be 2797 5fbe
00000090: 9214 72bc 91ec 94bc b45a 593d 39d7 ca3d
000000a0: f924 363e 1264 5c3d 8c66 003e f545 923d
000000b0: 37c5 e13c 4cdc 183e 9fae e13d 5dfb eabd
000000c0: 9cc3 013e cba7 f4bd 61c2 123d 9000 04be
000000d0: c041 44bd c08f 13be 4dde 89bd ccbb f33d
000000e0: b9db 423d f001 2c3e 4bc7 373e 3e14 87be
000000f0: 6019 de3b bfbe 87bd 62da 103e 0093 4abd
00000100: 5808 08bd 94c0 663c 09bf 1a3c c2b7 ed3d
00000110: 86e1 dfbd 47f6 83bc f66a ca3b c27b 81bd
00000120: bda0 3a3c 6b57 22bc 9792 0bbe 2824 41bd
00000130: 2c38 c43d 8604 813b abba 663e 9560 f3bc
00000140: 1fec b5bd 5730 0b3e 358e 35bd b3b5 ab3d
00000150: 0c1e 63be 46e9 4ebd 8d15 093e 15c9 343d
00000160: c367 a43d 5f91 4dbd 24ba c73d 449a 9e3d
00000170: d5b0 893e e347 843e 1315 90bd 5ede cebd
00000180: f49d a53d 83d7 c8bc d989 24be 037f cd3c
00000190: bf04 f63d 4a8e 633e 9469 cdbd 1720 073d
000001a0: 1237 1a3e eca2 e0bd 3653 05be 95ce 7dbe
000001b0: 8303 1b3d c4bb 843d c0a3 ef3d a198 65bd
000001c0: f566 823c 20f4 e23d 1c86 d73b 3658 0cbe
000001d0: 3845 883d d130 2cbd 729e bc3c 4042 86bb
000001e0: 8b76 03be 5b5d 5f3d 3c54 20bd 0935 0e3e
000001f0: 5abf 1f3e 9200 7e3e b3c8 f53c cca0 0dbe
00000200: b198 1e3e 6bd2 1abe 987c 803c 8399 38bb
00000210: 61ec b6bc af92 973c 2122 8abd 1ac0 ba3d
00000220: b7fe 2ebd 027b 70be a652 013e ee19 893e
00000230: 81e0 3e3c 8449 b23c cee6 f5bd 6fef ee3c
00000240: 7b49 acbc a8d5 d83c afe1 09be c672 ac3d
00000250: 3dc7 e73d ad2a e93c 0748 1e3e 9295 d83d
00000260: 35a9 d0bc daba 28bd d355 54bc 4687 963c
00000270: 360d c53b f8e4 00be 14a6 a1bd 4e0c 1dbe
00000280: f8ed ff3c fda1 973d 06b5 b63d 70e8 1f3e
00000290: 4601 1cbe 5e31 013e 1319 463e aae4 79bd
000002a0: 17d0 cabc 97c6 63bd cc90 ebbb db58 dbbc
000002b0: 626b 8fbd a701 c03d 575c 09bd f545 f2bd
000002c0: f2ae ae3d 8876 703e 9162 b43d cac5 eebd
000002d0: 2768 823d 41e2 273c 880a 4b3e 9a13 9a3c
000002e0: cd9d 7d3e 5b9a 4f3e aad2 8e3c 6f5a 133e
000002f0: f758 01be 2657 9e3e d056 42bd 0b85 3abd
00000300: d948 e0bc 2082 85bd 062e cdbd 2453 0d3e
00000310: 9c5c 42be 8de2 713d 4e8b 51be abf9 d4bc
00000320: fa61 e8bb f509 073e 9062 183e d0a8 373e
00000330: 3b85 fc3d ae54 a9bd 9b56 733e c8cb 10be
00000340: 8e65 203d 3d4a 6e3c 12ee 383d 36d7 063e
00000350: 82ee 17be 60a6 933e fef7 00bd f0db 473e
00000360: 8b7e 96be 9aec 243e cf61 f73b e726 273d
00000370: 030e c63c 547c 31bd 688e cdbd fe8f 5ebe
00000380: 4237 bcbd b470 30bc a5aa 88bd 5ed3 22be
00000390: 824b 18be cc6c ae3d 6fe7 6a3b faea 213d
000003a0: 9367 3a3c 6c7a 1ebe 32b7 3c3e 3b1f efbd
000003b0: a240 26bd d95a 3bbc bd48 ccbc 2e7d 6c3c
000003c0: 1e7d 35bc 28e3 003c b6e5 7abc 95f5 9b3c
000003d0: 6154 0cbd 182b 5c3e dbc6 69bd a14b d53d
000003e0: 55c0 58bd 5627 95ba d15e 243d aeb4 713e
000003f0: 0df9 6e3d 68b1 b7bd 57b4 023d fd8d 80bc
-0.012926946 0.23858176 0.114027925 -1.083371e-06 -0.16531938 -0.0149619775 0.23839973 -0.09100858
-0.06980688 -0.05083778 0.20675108 0.056524027 0.08430888 0.012847792 0.14222005 0.11099839
-0.027809605 -0.004583223 -0.055101674 0.19074151 0.06031017 -0.26729828 0.0007506642 0.023296863
0.060553502 -0.117977574 -0.1497318 -0.30238274 0.065102145 -0.16673857 0.21202874 0.08543602
-0.1951116 -0.097902246 -0.13264926 -0.21835004 -0.014775412 -0.01817921 0.053065017 0.09904332
0.17787541 0.053806372 0.12539119 0.071422495 0.02755986 0.14927787 0.110196345 -0.11473725
0.12672275 -0.119460665 0.035829905 -0.1289084 -0.047914267 -0.14410305 -0.06731854 0.11901054
0.047572825 0.16797614 0.17947118 -0.2638263 0.0067779273 -0.06628179 0.14145806 -0.049456596
-0.033211082 0.014084 0.00944496 0.11607315 -0.10931687 -0.016108645 0.0061773015 -0.06322433
0.011390862 -0.009908537 -0.13630138 -0.047153622 0.095810264 0.003937307 0.22532146 -0.02970914
-0.08882927 0.13592659 -0.044325072 0.08384266 -0.2217943 -0.050515436 0.13387127 0.04413708
0.080276035 -0.050187465 0.097523004 0.077442676 0.26892725 0.25836095 -0.070352696 -0.10101007
0.08086768 -0.024516826 -0.1606821 0.025084978 0.12012624 0.22222248 -0.10029903 0.032989588
0.1506007 -0.10968575 -0.13020024 -0.24785836 0.037845146 0.06481126 0.11701155 -0.05605376
0.015918234 0.110817194 0.0065772664 -0.13705525 0.066538274 -0.042038742 0.023024771 -0.004097253
-0.1283819 0.05453239 -0.039142832 0.13887419 0.15600339 0.24804905 0.030002927 -0.1383087
0.15487935 -0.1511933 0.01568441 -0.0028167672 -0.022329511 0.018502561 -0.06744791 0.09118672
-0.042723384 -0.23484424 0.12629184 0.26777595 0.011650206 0.02176357 -0.12006913 0.029166905
-0.021031132 0.026469067 -0.13464998 0.08420329 0.113172986 0.028462732 0.15457164 0.10575403
-0.02547131 -0.04119382 -0.012959915 0.01837505 0.0060135378 -0.12587345 -0.07893005 -0.15336725
0.031241402 0.07403944 0.08921246 0.15616012 -0.15234861 0.12616488 0.19345503 -0.061009087
-0.024757428 -0.055609312 -0.007188892 -0.026775768 -0.070029035 0.09375315 -0.033535328 -0.118297495
0.08529462 0.23482716 0.088078626 -0.11658819 0.06367522 0.010246814 0.19828236 0.018808175
0.24767227 0.20273726 0.017434437 0.14389966 -0.12631594 0.30925864 -0.047446072 -0.045537036
-0.027378486 -0.0651896 -0.10018544 0.13801247 -0.1898064 0.059053946 -0.20463297 -0.025997957
-0.007091758 0.13187392 0.14881349 0.1793549 0.12330099 -0.082681045 0.23763506 -0.14140236
0.03915935 0.014544067 0.045148917 0.13168034 -0.14837077 0.28837872 -0.031486504 0.19517493
-0.2939342 0.16105881 0.0075495015 0.040808585 0.024176603 -0.04333146 -0.100369275 -0.21734616
-0.09190227 -0.010769058 -0.06673173 -0.15900943 -0.14872554 0.08516845 0.0035843512 0.03953073
0.011377233 -0.15476388 0.18429258 -0.116758786 -0.040588982 -0.011435234 -0.024937028 0.014434142
-0.011077194 0.007866658 -0.015313556 0.019038001 -0.034260157 0.21500814 -0.05707441 0.10414816
-0.052917797 -0.0011379521 0.040129486 0.2360408 0.058342982 -0.089693844 0.031910267 -0.015692705

model.2.bias f4 [200]
00000000: 201b da3c ccc9 b03d a97e 333b 3500 11bd
00000010: 1fff 123e fdd6 23bc bebc 0ebd d6ef e4bc
00000020: 6dd5 423d 662b c2bc fd80 81bc 9239 f63b
00000030: 08df b83d 1d8a bfbc 064d 5abd 355d 2f3d
00000040: da93 2cbc 740a bdbc 0000 0000 1ab8 863d
00000050: 541f 0bbd 6951 b0bd ec14 c33b 0000 0000
00000060: 08fa 46bc b66d 98bc 9576 b1bd fcce 7c3d
00000070: bff3 adbc 1048 4bbc 2970 a1bd 6e24 6bbc
00000080: 0000 0000 0a54 04bb 8133 77bd 550d 9bbc
00000090: 21d6 23bc 449e debd b6f6 b7bc 50a3 20bd
000000a0: 5cd9 97bc fa90 8b3d 0000 0000 b10c dabc
000000b0: 19d8 91bb aacc 5c3a 42aa 26bd 0704 e8ba
000000c0: 0000 0000 d79e 22bc 517c bdbd 409e c2bc
000000d0: c3d6 23bc dcde 36bc 5663 86bc 0bbb 05bd
000000e0: 44ad a3bc 20e3 dabc 4987 a23c 7103 1abb
000000f0: 7e0c fdbd 93d1 b1bc 277e 90bc a28e 83bb
00000100: 6a1b f33d d848 aebd e6f3 08bd 8540 0fbd
00000110: 9dd6 23bc 0dde 84bc e445 abbc 8ed5 23bc
00000120: bf03 82bc 78a4 f7bc a331 60bc 89cd 06bd
00000130: a7cb 0abd f761 41bc 1623 76bc 1245 6fbc
00000140: d807 57bd 0000 0000 7f2d 0fbd c069 673d
00000150: e429 85bc 9b0a de3d 5054 25bd d391 b63c
00000160: b856 56bc 0171 053c 935f 15bc 8fd5 e43d
00000170: 77d9 9c3c 862e debc 9a76 e0bd 1a19 89bc
00000180: 6ef8 d73d c4c1 563e d9f0 e6bc d6ef 373d
00000190: 1b09 3cbd 4021 e9bc 60e7 72bd 78e0 d8bc
000001a0: c484 4bbd 5b7a a5bc eeb4 1e39 a221 5fbc
000001b0: 76fe 78bc f7b4 993d 4be3 fd3d 199b 203d
000001c0: 4edd 8ebc c371 0ebd 5623 8ebc 01d1 23bc
000001d0: d786 89bc 746a 473d 1f5c 453c 6425 f83c
000001e0: 9f81 f8bc 82e7 903c 0fd0 23bc d676 e5bd
000001f0: 2701 5abc c4cb 283c aad4 94bc 8e0b fcbc
00000200: 1824 2c3d fdfd 13bb 5292 1f3c 300b e7bc
00000210: f244 2b3b a18a 13bd 1177 bbbc 583f 27bc
00000220: 5234 efbd 054e 50bd 1485 a3bc 9977 383c
00000230: 9e73 8fbb 82c7 ec3c 54b5 a2bc bd03 b8bd
00000240: 9f93 66bd 7f04 09bd 2408 f7bd c728 3b3d
00000250: 8b93 6abb 00ee d9bc 534a 00bd dbd6 23bc
00000260: c1ea 1d3c 2334 94bc 839e 84bc 8f0b 923b
00000270: 722a cebd 99b3 223d 67e5 85bb 90af 23bc
00000280: 97cf 68bd 8224 27bd 0eca 23bc 1258 d9bc
00000290: 0658 4dbd 75c6 23bc d53d 1c3d 026c 93bc
000002a0: 2b0e 9f3d 0000 0000 0da7 55bc 2c60 71bc
000002b0: 13cf d13c d7e8 38bc 15cc fb3d 498a f2bd
000002c0: 7892 0a3c 9e70 5dbc f63f dc3c 48b6 d7bc
000002d0: 4c7c 00be ade1 e3bd 772c e4bc f096 7dbd
000002e0: 0b81 eabd 0000 0000 0000 0000 aba8 eabc
000002f0: 7c2b 0e3c 800f 963d a4cf df3b d088 67bc
00000300: 1d27 3abc 0000 0000 74b6 f6bd 5ef8 a13c
00000310: bc4b 1f3e d689 5a3e 2063 74bc aa5f aabc
0.026624262 0.0863224 0.0027388728 -0.035400588 0.14355133 -0.009999988 -0.034847967 -0.027946394
0.04756682 -0.023702335 -0.015808577 0.007514187 0.09026915 -0.023381287 -0.05329611 0.0428135
-0.010533297 -0.023076274 0.0 0.06578083 -0.033965424 -0.08609278 0.005953422 0.0
-0.012144573 -0.018607002 -0.08665196 0.061720833 -0.021234391 -0.012407318 -0.07882721 -0.014351947
0.0 -0.0020191693 -0.060351852 -0.018927256 -0.009999783 -0.108700305 -0.022456508 -0.039218247
-0.018536262 0.068147615 0.0 -0.02661738 -0.0044508097 0.00084228313 -0.040689714 -0.0017701396
0.0 -0.009925566 -0.09252227 -0.0237571 -0.009999934 -0.011161532 -0.016404789 -0.03264908
-0.01998008 -0.02671963 0.0198399 -0.0023500586 -0.12355898 -0.021706378 -0.01763828 -0.004014806
0.11870463 -0.085099876 -0.033435725 -0.03497364 -0.009999898 -0.016219163 -0.02090735 -0.009999646
-0.015870927 -0.030229792 -0.013683709 -0.032910857 -0.033885624 -0.011803142 -0.015023014 -0.01460387
-0.052497715 0.0 -0.034955498 0.056497335 -0.016255327 0.108418666 -0.04036361 0.022286331
-0.013082199 0.008144618 -0.009117025 0.111735456 0.019146664 -0.027121793 -0.109601215 -0.016735602
0.10545431 0.20972353 -0.028191017 0.04490646 -0.04590712 -0.028458238 -0.059302688 -0.026474223
-0.049687162 -0.020199945 0.00015135456 -0.0136188585 -0.015197387 0.075052194 0.12396868 0.039210413
-0.01743951 -0.03477646 -0.017350834 -0.009998561 -0.01678793 0.048685506 0.012045889 0.030291267
-0.030335246 0.017688517 -0.0099983355 -0.11204307 -0.013305939 0.010302488 -0.018167812 -0.030767228
0.04202661 -0.0022581809 0.009739475 -0.028203577 0.0026133624 -0.03602088 -0.022883924 -0.010207973
-0.11679901 -0.050855655 -0.019960918 0.011258983 -0.0043777963 0.028903726 -0.019861855 -0.08985088
-0.056293126 -0.033451553 -0.120620996 0.045693185 -0.003579351 -0.026602745 -0.03132088 -0.009999956
0.009638489 -0.018091267 -0.016188866 0.0044569443 -0.100666896 0.03972206 -0.004086185 -0.009990588
-0.056838598 -0.0408063 -0.009996904 -0.026531253 -0.050132774 -0.009996046 0.038144905 -0.017995838
0.07766374 0.0 -0.013040316 -0.014732402 0.025611436 -0.011285982 0.12294785 -0.11842782
0.008457772 -0.01351562 0.026885968 -0.026332036 -0.12547415 -0.111270286 -0.027853234 -0.061911523
-0.11450394 0.0 0.0 -0.02864488 0.00867736 0.07327175 0.0068301726 -0.01413174
-0.011361864 0.0 -0.12046519 0.019771751 0.15556234 0.21341643 -0.014916211 -0.02079757

model.5.weight f4 [200, 200]
00000000: d117 ae3c 58bf 30bd 8fc3 813d 3ae7 bf3c
00000010: da94 e83d cadd a2bd 6960 b0bd 6609 6c3d
00000020: f4f3 79bd ecf9 61be d598 b6bd 34ee b63d
00000030: 83d8 223c c44e 35bd d20b 8e3d 581a 5f3d
00000040: ef9a 9bbd 7b84 873d f881 f3bd 244f 41bd
00000050: 6c4f cdbb 1e97 f23d defd acbb d86f 7a3a
00000060: af6b 67bd e990 223d 3e72 ad3d 6190 69bd
00000070: ebd5 2ebc 7599 a3bc 1fa2 1d3c 8bdf 20bd
00000080: 57df 25be 42f7 0abe 9830 1abd a3ce febd
00000090: 02c6 89bd 2fde 0dbe 0a78 b4bd f106 18bd
000000a0: 8b16 c13d 2d57 453c 6885 f0bd 4c37 3abd
000000b0: 05e8 65be a57f 113d 0a1e 4bbd 3029 1d3d
000000c0: dbe7 30bd 7d07 603d ec0e debd 1420 373d
000000d0: 0b51 4bbd 8ade d03d e302 2b3e 9c38 c0bc
000000e0: 4253 b6bd 0487 d23d a642 86bd 168e dabd
000000f0: 3f96 073e 02d6 11be 3b55 aa3d 1529 c7bd
00000100: 37be 82bd 1497 e93d 429a 3a3c 1ee8 063e
00000110: 70ad fdbd 5a1c 2f3d 09a7 6bbe fed8 a93d
00000120: 41a9 f03d 30a3 7b3a e826 48bd 3907 dc3c
00000130: 216f b83c a6d9 95bd 76ec b83d fff5 90bd
00000140: 75b3 2fbe aed1 28bc b4ff 9e3c 9625 c23d
00000150: 436c e5bd 4d11 473e 9d5f 45bd 1258 e43b
00000160: 2546 f1bc fb1c e2bd 4341 3ebd 5336 02bd
00000170: ac72 3b3d bd9d eabd e5d9 0fbd 8f14 0f3d
00000180: 7e42 f3bd a51d a23d 50e6 323d 8ee5 34bd
00000190: 3eb6 12be 68b5 63bd e167 bb3d 03ae f8bc
000001a0: cb6a 863e 689a c2bd 26d1 43bd f03c fc3c
000001b0: d0f0 3abb 6c3d 0cbc 6384 14bd eed2 1e3c
000001c0: 9108 80bd eb45 833d b44a 7e3c c28b 55bd
000001d0: 8760 5a3d 3f61 0cbe 21c2 ffbd abd6 8bbc
000001e0: e45f 55be 0acf 843d 77dd 383d 7938 97bd
000001f0: 5ed8 15be 0d46 54bd f3c2 f9bc a097 053e
00000200: 5a33 c3bd fc96 a2bd 2245 a9bd d7d8 3fbe
00000210: 2e3a cabc 2704 0bbe eb3d 08be 929e d8bd
00000220: fb41 343d c341 1a3e e075 ba3c d342 c5bd
00000230: d565 133e ce84 0abe c7f9 cfbd b0b2 f2bd
00000240: 22be e53c 4ff5 c6bd 1542 54bd cbf7 5cbe
00000250: 99a5 95bd 9570 f2bd 634c b83c d55b f13c
00000260: 1b4e 2e3d 810a a7bd 5eaf 023c b7e3 a23d
00000270: c3bd 96be 4a50 13be 7092 dd3c ee76 41bc
00000280: 6aa4 f7bd a1ae 0fbe cfcd 9cbd f514 2fbe
00000290: 9cd4 b8bd 476c 7f3c c131 aebd 501d 523a
000002a0: 4e7c 8fbd 62a0 7a3d b283 a1bc 5a6f 693d
000002b0: 4ed9 4b3d 4094 3abd 1573 d43c dd27 a6bd
000002c0: d0e9 54bd 0964 30bc 8a94 11bd 0ec6 063d
000002d0: de96 41be f669 003d d0d5 f1bb 654b de3d
000002e0: f85b 123d 2899 c0bd 1865 4f3e ba5c adbd
000002f0: 29e9 213c bb56 febd 786a 14be 083d 50bd
00000300: 6e86 073e fc4a 453b 8df5 9d3d bad0 313e
00000310: c62b d23d c8ec eebc e69b b5be 6e39 283e
00000320: 065d 1fbc 09d9 4dbe cd23 ba3d 3cf8 683b
00000330: 3e1a 8bbd adab debd edbf fabc d0fe 223e
00000340: a567 963d fbef 45be 5487 03bc 260f 743c
00000350: ec3a 93be 30f4 7b3d d988 adbd 7fe1 a1bc
00000360: c370 19bd 616d 573d 538b 3ebd c35f 48bd
00000370: 3584 0ebe 5304 a4bc cc1b 823d e789 1cbe
00000380: b386 31be a3d9 c3bd 4a95 333e 464a 89bd
00000390: 210e 9cbd 5537 bc3d 3f30 fdbd 2433 11bb
000003a0: 9d59 a03d acb4 a9bb ff84 abbd 458b e5bd
000003b0: c2c3 eabc b416 b43d 186d e4bb 26eb 57be
000003c0: 9f3d fd3c fe5e 6c3d a270 11bd b4a4 7ebd
000003d0: 5384 62bd 61d8 04bc 3972 92bd 92c9 a0bd
000003e0: a77e b83d 8d4c 98bd 528f 0cbd 71b4 333d
000003f0: ce4a ba3d 86fc 983d 5682 65bd 0af4 1cbe
0.02125159 -0.04315123 0.06336128 0.023425687 0.11356516 -0.07952459 -0.08612139 0.05762615
-0.061023667 -0.22067994 -0.08915869 0.089321524 0.009939316 -0.04426457 0.06935848 0.054468483
-0.075979106 0.066170655 -0.11890024 -0.047194615 -0.0062655713 0.118452296 -0.0052792868 0.0009553409
-0.05649918 0.03968898 0.084690556 -0.057022456 -0.010671119 -0.019970635 0.009621172 -0.039275687
-0.16198479 -0.13570884 -0.037644 -0.124417566 -0.0672722 -0.13854288 -0.08811958 -0.037115995
0.09428128 0.01204471 -0.11744195 -0.04546289 -0.2245179 0.035522122 -0.049589194 0.038369358
-0.043189865 0.05469464 -0.1084269 0.044708326 -0.049637835 0.10198696 0.1670032 -0.023464493
-0.08902599 0.102796584 -0.06555681 -0.10671632 0.13240908 -0.14241794 0.08317038 -0.09724633
-0.06383937 0.11405769 0.011389317 0.13174483 -0.12386596 0.042751648 -0.23012938 0.08293341
0.117510326 0.0009599207 -0.04886523 0.026858913 0.022513928 -0.07316904 0.09029476 -0.0707817
-0.17158301 -0.010303898 0.019409038 0.09479825 -0.1120229 0.19440193 -0.048186887 0.0069685066
-0.029452393 -0.11040684 -0.046448957 -0.03179009 0.045763656 -0.114558674 -0.03511991 0.034931716
-0.11877917 0.079158105 0.043676674 -0.044164233 -0.14327332 -0.055592924 0.09150673 -0.030356413
0.26253352 -0.09502107 -0.04780688 0.030790776 -0.0028524883 -0.008559566 -0.036259066 0.009693844
-0.06251634 0.0640982 0.01552074 -0.052135237 0.053314712 -0.13708971 -0.12488199 -0.017070135
-0.2083736 0.06484802 0.04513308 -0.07383818 -0.14633319 -0.051824618 -0.030488467 0.13046122
-0.09531279 -0.07938954 -0.08265139 -0.18735062 -0.024685945 -0.13575803 -0.1330487 -0.1057712
0.044008236 0.15064149 0.022761285 -0.09631886 0.14394315 -0.13527223 -0.10155063 -0.11850488
0.028044764 -0.09714758 -0.051820833 -0.215789 -0.07306976 -0.118378796 0.022497362 0.029462734
0.042554956 -0.081563 0.007976381 0.079535894 -0.29441652 -0.14386097 0.027047366 -0.01180814
-0.12091906 -0.1403146 -0.076564424 -0.17097838 -0.09024927 0.01558978 -0.085055836 0.0008015232
-0.07006131 0.06118811 -0.019716118 0.05699096 0.049767785 -0.04555154 0.025933782 -0.08113072
-0.051980793 -0.010766038 -0.03554205 0.032903723 -0.18905208 0.031351052 -0.0073802248 0.10854224
0.03573224 -0.09404212 0.20253408 -0.08464952 0.00988225 -0.12418886 -0.1449374 -0.050839454
0.13234875 0.0030104509 0.07712851 0.17364779 0.10262255 -0.02916564 -0.35470504 0.16428158
-0.009726768 -0.20102324 0.0908886 0.003554835 -0.06792115 -0.10872588 -0.030609095 0.15917516
0.073439874 -0.19329827 -0.00802787 0.01489619 -0.2875589 0.061512172 -0.08473367 -0.019760845
-0.037461054 0.052594546 -0.04651959 -0.04891945 -0.1391762 -0.020021593 0.06352958 -0.1528698
-0.1733654 -0.09562995 0.17537418 -0.0670362 -0.076198824 0.09190241 -0.12362718 -0.0022155726
0.078295924 -0.0051790085 -0.08374976 -0.11208204 -0.028657798 0.08793393 -0.006971013 -0.21085796
0.030913172 0.05770778 -0.035507806 -0.062168792 -0.055301975 -0.008108229 -0.071506925 -0.078509465
0.09008532 -0.07436476 -0.03431637 0.043873254 0.09096299 0.0747004 -0.0560325 -0.15327469

model.5.bias f4 [200]
00000000: 33bf 50bc 3836 eeba aa80 b5bb d31d 88bc
00000010: 7b9b 65bc dda5 07bc 3e48 03bd 47d8 81bc
00000020: a13d 13bd 542b fdbc 58c0 f6bb da87 fdbc
00000030: d713 92ba 1d8f 4aba 2a6c a4bc f7c9 f0ba
00000040: 6335 02bd fb66 0abc ce07 04bc cd79 16bc
00000050: 7301 17bd 6921 fbbc e1d3 dab9 81aa 0dbd
00000060: 35e4 20bc 93a4 52bc c5d3 99ba e6a3 f1bc
00000070: 8b49 a6bc d885 20bc 0ed6 69bd b40c 2ebd
00000080: 0c45 c7bc 4c54 1cbd 75cf 6a3c a627 2ebc
00000090: 87c2 22bc 6d05 70bc 428f 26bd d3dd d2bc
000000a0: effb 0cbd edca 86bc fbba bfbc 838e aebc
000000b0: a210 b9bd 6822 a5bc 5b45 24bd dbb5 5fbc
000000c0: 3633 993c 8a08 19bd 4cb3 233d 00db 5dbb
000000d0: 3999 b63c 8143 c4bc 74b6 ebbc b331 c43c
000000e0: c183 2dbd 0048 d036 7f95 0cbc 66d2 7abc
000000f0: 36bd adbd 8878 3bbc b4e9 28bc 8186 f7bb
00000100: f637 4dbc a9fc 1cbb 09aa c8bb 8fd6 223d
00000110: 1099 20bd ceaa c7bc 3446 bcba d4ac dabc
00000120: 79e9 0ebd f05e babc ff51 9dbc 2ec5 5ebd
00000130: 3590 93bb e955 a13d df9c 153d 36c5 14bd
00000140: 7783 c2bc 261c 11bc 0f84 fbbc b410 7fba
00000150: 2825 55bc 7c82 15bd 576a a13d bc13 b8bc
00000160: 0639 83bc fac3 7f3d 24bf 27bc 7b28 86bc
00000170: 8a8a 06bc 0cd8 bdbc de59 acbc 7daf d9bc
00000180: ec65 833c 5565 adbc 32ad e4bb 14e4 d2bc
00000190: b367 25bd 5dfa 52bd 1943 26bc 1ceb 67bc
000001a0: 4180 a1bc 1658 18bd e37d 25bb aa8c b03b
000001b0: 1b87 20bc 243f dbbc 6b54 9dbb cfc4 1fbc
000001c0: c25b 2abc a88a d9bc 3a96 b3bc c167 f93d
000001d0: 8bf5 b9bc e6bb c4bc f967 d5bc 7c05 1ebc
000001e0: 63e6 cfbc a949 98bc 56c5 8fbc b025 abbc
000001f0: 02c7 f1b8 784d 2fbc c987 c0bc 7bc2 0dbd
00000200: fcd7 18bd 5369 823d 2adc 0abc 9ee1 15bd
00000210: d84b 6dbd e05b 4fbc c6fb 1bbd 263c 03bd
00000220: 832a a8bd 4199 ecbb 8f13 60ba 928b debb
00000230: 699e 13bb 9f3e 543d b5fc b23d 33c9 09bd
00000240: 146a e1bb 90df e2bc e1fa 05bd 83b0 523d
00000250: 8499 15bb c6ac 2fbd 2c26 fbba 058a 903c
00000260: b458 03bc 05db a0bc a9d9 343b 583b 993d
00000270: cb95 98bc 11d6 adbd 6481 1fbd eeb2 64bd
00000280: cc41 67b9 afe0 01bd f3d2 5bbc 407f bfbc
00000290: 7e97 b7bb 533c 95bc 6000 52bb 38dd 243b
000002a0: 0ade 06bd 18de f73b fcd8 6abc 2502 2ebd
000002b0: 6f82 27bd 386b 84bc 8eb8 24bd f411 febb
000002c0: 7d74 aebc e68f a8bc e4ce 1fbd 6fa2 c7bc
000002d0: c699 83bb 8b19 08bb 17ba 33bc e5d5 93bc
000002e0: ca7e e93c 9aa8 2fbd 71a4 433c 7d17 9cbc
000002f0: e610 c93c 44ee f4bc b4b9 8cbc b72d 98bb
00000300: ba68 4eba 01c6 2fbd 532e d5bc abed d43c
00000310: feb2 b8bc 914a 8bbc d850 24bd d338 f33a
-0.012740898 -0.0018174117 -0.0055390196 -0.016615784 -0.01401412 -0.008279291 -0.032051317 -0.0158502
-0.035947446 -0.03090445 -0.0075302534 -0.030948568 -0.0011144829 -0.0007727014 -0.020071108 -0.0018370737
-0.031789195 -0.008447404 -0.008058501 -0.009184313 -0.036866616 -0.03065558 -0.00041738062 -0.034586433
-0.009820034 -0.01285662 -0.0011736086 -0.029497098 -0.02029874 -0.009797536 -0.057088904 -0.042492583
-0.024324916 -0.03816633 0.014331688 -0.01062957 -0.009934074 -0.014649731 -0.040663965 -0.02574054
-0.03441995 -0.016454184 -0.023404589 -0.02130819 -0.090363756 -0.020158008 -0.040105205 -0.013654198
0.018701177 -0.03736166 0.039965913 -0.0033852458 0.02228986 -0.02395797 -0.028773524 0.02394948
-0.04236198 6.207265e-06 -0.0085805645 -0.015308952 -0.08483355 -0.011442311 -0.010309625 -0.007553876
-0.012525549 -0.0023954308 -0.0061237854 0.0397554 -0.03920847 -0.024373438 -0.0014364184 -0.026693739
-0.034890626 -0.022750348 -0.019204138 -0.054387264 -0.004503275 0.07877714 0.036526557 -0.036320888
-0.023744328 -0.008856809 -0.030702619 -0.0009729967 -0.013009347 -0.036501393 0.07881611 -0.022470348
-0.016018402 0.062442757 -0.010238443 -0.016376724 -0.008211741 -0.023174308 -0.021038946 -0.026572937
0.016039811 -0.021166483 -0.0069786543 -0.025743522 -0.0403821 -0.051508296 -0.010147833 -0.014155176
-0.019714477 -0.03719338 -0.0025252036 0.005387862 -0.009797837 -0.026763506 -0.004801323 -0.009751513
-0.010397853 -0.026555374 -0.02192222 0.121779926 -0.022700092 -0.024015378 -0.026050555 -0.009644862
-0.025378412 -0.018589811 -0.017550152 -0.020891994 -0.000115288436 -0.010699622 -0.023502247 -0.0346093
-0.037315354 0.06367745 -0.008475343 -0.03659212 -0.05793366 -0.012656182 -0.038081907 -0.032039784
-0.082112335 -0.0072204177 -0.00085478363 -0.0067915404 -0.002252484 0.051817533 0.08739606 -0.033639144
-0.0068791006 -0.027694494 -0.03270996 0.051437866 -0.0022827098 -0.04288938 -0.0019161156 0.017643938
-0.008016754 -0.019635687 0.0027595556 0.07482022 -0.018626114 -0.084880956 -0.038941756 -0.055834703
-0.00022054388 -0.031708416 -0.013416993 -0.023376107 -0.005602776 -0.018217241 -0.003204368 0.002515627
-0.032926597 0.0075643174 -0.01433396 -0.042482514 -0.040895876 -0.016164407 -0.040215068 -0.007753605
-0.02129578 -0.020576429 -0.039015666 -0.024369447 -0.004016134 -0.0020767178 -0.01096966 -0.018046329
0.02850284 -0.0428854 0.011941061 -0.019054169 0.02454419 -0.02989877 -0.017178394 -0.0046441215
-0.0007873882 -0.04291344 -0.026023066 0.025992235 -0.022546288 -0.01700333 -0.04011616 0.0018556364

model.8.weight f4 [1, 200]
00000000: d025 24be cada 053e 1c3d 823e 2542 3a3c
00000010: e52e c13c a156 00be 456e c13d 3539 5d3d
00000020: 0be2 b83d 7f5b b03d 6e5c c53d 563d 9c3d
00000030: 8b69 14be 1b1a 9dbd f88d 8fbd 25de 08bd
00000040: e002 7a3d 7370 6fbd 11dc 473d 6cf9 9fbd
00000050: fc7e c7bc 4c5b 11be f3a9 d63d c961 5d3c
00000060: 57f3 1cbc f838 3b3c dd8d 533e c50a c6bc
00000070: 6bce 063e 4afe 673c 4079 8db9 0e56 c0bd
00000080: ee59 ff3c dafd 1c3b c34f 38bc b6e2 a3bc
00000090: 3f41 cfbd 5072 b93c 239f a13c 1616 aabc
000000a0: a0b0 f03c cde8 173c b54c 3bbe efd3 f9bc
000000b0: 12ef fcbc 3fad 2abe 3a07 bbbb d167 a93c
000000c0: 6a88 a2bc aced 6e3c 4212 89bc 3ee1 613e
000000d0: 0a0c 65bc c968 153e 79c0 bfbd 9f8d 81bc
000000e0: ee5c 24bd 82c3 9fbd 17e1 e43b 2d38 143d
000000f0: 4b8d c7bc 8c65 98bd e32c 4e3e fab8 193e
00000100: 1878 abbd 8ae0 843e 050c 063e 7876 e0bc
00000110: 004e 213b 8b67 2abd 6f4c ea3d f42f a2bd
00000120: 3e69 82bc c789 1b3b ffb5 733d 2f9f 4fbd
00000130: 6d73 a2bc db23 7fbc 70cd 7dbc 8fb0 e1bc
00000140: caf6 9dbd e484 3f3e 427d 9e3d 74f6 133e
00000150: 5db5 ec3d c625 d6bd a841 f7bc 4a4c ccbd
00000160: aec8 783d 124f 74bc 979f 80bc 6759 a7bd
00000170: 3bd2 403e 926d 8abc 6c63 283e db7b 19bd
00000180: e29e 73bc 76c7 12bb d67c 9d3c 611c 13be
00000190: 8391 87bd 5ae2 84bc 7d0a 353e d7f3 243b
000001a0: 8ee0 50be 0f4d 8abc 2b8b f93d c8c2 dd3c
000001b0: 2662 a23d 55c3 febd b322 12bc d171 003e
000001c0: 53e5 f23c 7c9f 2b3d e029 193e 6b6c 44bd
000001d0: 616f 42bc 3234 2d3d 83b6 123d 5035 be3d
000001e0: 95b5 c5bc b13d f5bd efe5 c2bb 6358 16bc
000001f0: 7bc2 033e eeb8 65bd c997 953c ad19 26be
00000200: 4849 3cbc 9875 babc f44a 103d 8dcd bebc
00000210: 063c 27ba bc92 c6bd edca 913c aaee debd
00000220: 6212 c0bc 1708 0abc eee0 443d e77f 13bd
00000230: 80c3 5a3d 0858 efbc 078f 90bc 6d9b 8ebc
00000240: 3f91 03be 36d9 aebd 5e32 853d e245 8ebc
00000250: 5c50 70bc 2a4c 52bd c87d f13d 6068 893c
00000260: 6dae 3bbc f91a bdbd b148 93bc 7c0b 71bc
00000270: 919d 58bd 7571 acbc 89ab 543d d2d8 693a
00000280: a795 1b3e f570 19bd 6c4f 013d effb 143e
00000290: db3b 2c3d 0961 9cbe 5186 96bc c58c 10be
000002a0: d22e 833c 49b2 50bc a28a 01bd f665 f5bd
000002b0: 7810 cfbc e846 c5bd 6722 1ebe d6a5 73bc
000002c0: 2bb4 ff3c efd1 8bbe a4ea b8bd 9843 00be
000002d0: ef84 bdbd 02ad 63bd 27e4 3b3e d90c b73d
000002e0: 6665 9cbc dd5f 42bc 1c10 ed3b bdc5 23be
000002f0: c422 96bc 2420 673c b548 67bc e100 87bc
00000300: 13e8 5f3e 3e62 b93b dec2 c53c 13f2 febc
00000310: 6255 6d3c bf00 813c 7c63 d83a 2531 0abc
-0.1603005 0.13071743 0.25437248 0.011368309 0.023581931 -0.12533046 0.0944486 0.054009635
0.09027489 0.086112015 0.0963677 0.076288864 -0.14493386 -0.07670995 -0.070095 -0.03341498
0.061037898 -0.05845685 0.048793856 -0.07811245 -0.024352543 -0.14194983 0.10481634 0.013512083
-0.009579501 0.011427157 0.20659585 -0.024175057 0.1316468 0.014159748 -0.00026983954 -0.09391414
0.031170812 0.0023955018 -0.011249485 -0.020005565 -0.101198666 0.022637516 0.019729203 -0.020762485
0.029381096 0.009271813 -0.1829098 -0.030496566 -0.030875716 -0.1666765 -0.0057076486 0.020679386
-0.019840438 0.014583033 -0.016732339 0.2205858 -0.013979921 0.14590754 -0.09362883 -0.0158146
-0.040127687 -0.07800962 0.0069848406 0.036186386 -0.024359366 -0.074412435 0.2013431 0.15011969
-0.083725154 0.2595256 0.13090523 -0.02740024 0.0024613142 -0.041602653 0.1144036 -0.079193026
-0.015919324 0.0023733245 0.059499737 -0.05068892 -0.01983043 -0.015572513 -0.015490875 -0.02755001
-0.07713087 0.18703038 0.07738735 0.14449483 0.1155803 -0.104564235 -0.030182675 -0.099754885
0.060738258 -0.01491143 -0.015701098 -0.08171349 0.18830197 -0.01689795 0.16444176 -0.037471633
-0.014869424 -0.002239672 0.019224565 -0.14366294 -0.06619551 -0.016221214 0.17679782 0.0025169754
-0.20398161 -0.016882448 0.12184747 0.027070418 0.079288766 -0.124396004 -0.008919406 0.12543418
0.029650366 0.041900143 0.1495738 -0.047954958 -0.011867375 0.042286105 0.035818588 0.09287512
-0.024134437 -0.11974657 -0.0059478204 -0.0091763465 0.12867157 -0.056084566 0.018260853 -0.16220732
-0.011492081 -0.022761151 0.03522773 -0.023291374 -0.00063794886 -0.09695956 0.017796958 -0.10885365
-0.023446266 -0.00842478 0.048066072 -0.03601065 0.0534091 -0.029216781 -0.017646326 -0.017408097
-0.12848376 -0.085375234 0.065037474 -0.017367307 -0.014667597 -0.051342167 0.11791569 0.016773403
-0.011455161 -0.0923366 -0.017978998 -0.014712211 -0.052884642 -0.021050194 0.0519214 0.00089205534
0.15193807 -0.03746124 0.031569883 0.1454923 0.04204927 -0.30542782 -0.018374594 -0.141162
0.016013537 -0.012737819 -0.03162635 -0.11982338 -0.025276408 -0.09632665 -0.15442811 -0.014871081
0.03121384 -0.27308604 -0.09029129 -0.12525785 -0.09253871 -0.055584915 0.18348752 0.08937997
-0.01909132 -0.011863676 0.0072345864 -0.159934 -0.018327124 0.014106784 -0.014116456 -0.016479911
0.21865873 0.0056574633 0.024140771 -0.03112129 0.014485689 0.015747426 0.0016509141 -0.0084345685
