Challenge_1/Weights/model_reward_Qube-v0_mse_0.00000001.params (torch_old, 330207 bytes, 7 tensors)

model.0.weight f4 [200, 7]
-0.54568636 -0.0995467 0.13656738 0.5208202 0.20479053 0.17361969 0.65487003 0.61872786
-0.6674675 1.3485057 0.47914705 0.27541512 -0.15458676 0.16760217 0.35481185 -0.64900124
0.9850604 0.097344175 0.10327619 -0.66883534 -0.6819091 -0.4812125 0.08953659 0.272672
-0.044630952 0.3731238 -0.06622821 1.0374423 0.064660676 0.4854542 -0.5128867 -0.77232665
0.37202892 -0.38952455 -0.30547038 0.71172124 -0.64477825 -0.34329945 0.17939931 0.29901147
-0.25677556 0.04160918 0.8022462 0.38819268 -0.049937066 -0.13619943 -0.49822378 0.88935274
-0.77453935 0.6227227 -0.5133532 0.45272243 -0.78720814 -0.9339576 -0.20989755 -0.010332408
-0.5190851 -0.5234235 -0.092872456 0.06597054 -0.39845672 -1.0396746 -1.00398 -0.7112104
0.15778889 -0.47143593 1.092132 -0.03307524 -0.08345466 0.2987962 -0.022453452 0.10498001
-0.64759874 -0.68264484 0.12890667 0.09580425 -0.5303697 -0.40331727 -1.2354335 -0.64007854
0.22161248 -0.44936845 0.9646345 -0.51397413 0.17132619 0.14671938 -1.0591668 -0.46380293
-0.12038628 0.1543484 0.6662755 -0.49064904 0.38883355 -0.71712726 0.279875 -0.15898795
0.83692 -1.056664 0.20009571 0.13459226 0.34448612 0.6531447 -0.5716582 0.019928016
-0.9235409 -0.9161359 -0.10948352 -0.64862955 0.27139232 0.75334007 -1.3244369 -0.15109427
-0.3095745 -0.6140182 0.84575325 0.6484501 0.03890417 0.033943105 -0.5983973 -0.18139738
-0.62643856 0.96562034 -0.1769315 -0.4330582 -0.33151525 -0.8685587 0.19457063 0.1580646
-1.2398074 0.0655694 0.17855711 0.46872938 -0.43200862 0.5439659 -0.26206207 -0.5144259
-0.335394 -0.35231063 0.3171754 -0.38971648 0.35609108 -0.07033264 0.2332485 -0.9729585
-0.95761496 1.1313832 0.42080322 -0.20951049 1.4375292 -0.9350287 0.36267406 1.0701888
-0.5555272 0.5693181 -0.3130235 -0.15423107 -0.121230975 0.1026839 0.5586878 0.07340234
-0.14635728 1.0246743 0.37232018 0.46071672 0.12720256 1.395336 0.39508924 0.16866416
-0.42118105 0.19249025 -0.15590025 0.29720294 -0.5285937 -0.21061765 -0.49039227 0.06398075
0.2684884 0.44819522 0.0110406745 0.6336059 0.5029029 0.5948866 0.6101921 -0.448121
0.22631304 -0.96140736 1.0849274 1.5104828 -0.8453625 -0.3414452 0.07282024 -0.56011313
-0.017549764 0.07726377 0.06319572 0.6146699 0.49480283 -0.48791248 0.15661512 0.09617022
-0.112869486 -0.17261669 -0.5656122 -0.011228582 -0.6033296 -0.4345255 -0.15507847 0.58179075
1.5240004 -0.7296263 0.06204851 -1.1042713 0.42044455 -1.0484965 0.34184858 1.4714153
0.4444551 0.122754835 -1.0005324 0.119108334 -0.10919857 -1.0986915 -0.07714846 -0.7718378
-0.07530476 -0.6228492 0.040001344 0.37869534 1.1364204 0.541152 0.52999204 -0.0054521197
0.12645093 1.1453733 -0.8355144 0.5018099 0.50862825 1.425983 -0.5807276 -0.054291144
0.22930752 -0.072922096 0.7385176 0.8001808 -0.3050392 -0.061180506 -0.18284313 -1.1370496
-0.17119083 0.49103165 0.11002474 0.104517244 1.0360677 0.58248305 0.031038819 0.05718532
00000000: 1ab2 0bbf 24df cbbd 52d8 0b3e 7954 053f
00000010: 9cb4 513e 5cc9 313e 90a5 273f f364 1e3f
00000020: 26df 2abf d69b ac3f c352 f53e 3603 8d3e
00000030: fe4b 1ebe e79f 2b3e e6a9 b53e f224 26bf
00000040: eb2c 7c3f 625c c73d 7882 d33d cb38 2bbf
00000050: 9891 2ebf 7c61 f6be f65e b73d aa9b 8b3e
00000060: f2ce 36bd 150a bf3e a8a2 87bd e9ca 843f
00000070: d16c 843d 748d f83e 8b4c 03bf 33b7 45bf
00000080: 937a be3e c36f c7be 9d66 9cbe 5d33 363f
00000090: 3010 25bf f2c4 afbe 74b4 373e 0818 993e
000000a0: 1678 83be 636e 2a3d 0260 4d3f 31c1 c63e
000000b0: cf8a 4cbd dd77 0bbe 3017 ffbe 9fac 633f
000000c0: 3648 46bf c16a 1f3f 1e6b 03bf 3ccb e73e
000000d0: 7986 49bf d817 6fbf 62ef 56be 4349 29bc
000000e0: c3e2 04bf 15ff 05bf ea33 bebd 901b 873d
000000f0: 8502 ccbe 0f14 85bf 6b82 80bf e311 36bf
00000100: 6993 213e 0d60 f1be fbca 8b3f e779 07bd
00000110: 47ea aabd d1fb 983e 4df0 b7bc c2ff d63d
00000120: 08c9 25bf d0c1 2ebf 1c00 043e 0535 c43d
00000130: 4fc6 07bf 9a7f cebe af22 9ebf 30dc 23bf
00000140: 62ee 623e 9f13 e6be 49f2 763f cf93 03bf
00000150: 2270 2f3e 9b3d 163e c792 87bf 9477 edbe
00000160: 158d f6bd 820d 1e3e 0891 2a3f 5a36 fbbe
00000170: 3115 c73e a795 37bf c74b 8f3e bdcd 22be
00000180: 6440 563f c440 87bf e4e5 4c3e 8ed2 093e
00000190: 7c60 b03e 7e34 273f 3158 12bf 1440 a33c
000001a0: 2d6d 6cbf e287 6abf e538 e0bd 960c 26bf
000001b0: eff3 8a3e e5da 403f 2687 a9bf 75b8 1abe
000001c0: 8d80 9ebe 4c30 1dbf 4983 583f d300 263f
000001d0: fb59 1f3d ed07 0b3d 9130 19bf 3cc0 39be
000001e0: 475e 20bf e532 773f 882d 35be ceb9 ddbe
000001f0: 5ebc a9be dd59 5ebf 863d 473e b0db 213e
00000200: 02b2 9ebf 4049 863d add7 363e 4cfd ef3e
00000210: 3c30 ddbe 5941 0b3f 002d 86be 6ab1 03bf
00000220: c3b8 abbe 0f62 b4be d064 a23e eb88 c7be
00000230: 9251 b63e 8f0a 90bd b2d8 6e3e cf13 79bf
00000240: 4126 75bf 2ad1 903f 8573 d73e eb89 56be
00000250: f500 b83f 0a5e 6fbf 6ab0 b93e f2fb 883f
00000260: 0837 0ebf d5be 113f 9e44 a0be c0ee 1dbe
00000270: f247 f8bd f04b d23d 2a06 0f3f f753 963d
00000280: afde 15be 8728 833f c0a0 be3e 10e3 eb3e
00000290: 6341 023e 5f9a b23f 2349 ca3e 4cb6 2c3e
000002a0: 0ba5 d7be 2a1c 453e 51a4 1fbe fc2a 983e
000002b0: eb51 07bf 27ac 57be b214 fbbe 5708 833d
000002c0: 5077 893e d879 e53e f2e3 343c ff33 223f
000002d0: 3fbe 003f 7d4a 183f 8d35 1c3f 1e70 e5be
000002e0: 9bbe 673e cb1e 76bf e7de 8a3f 8057 c13f
000002f0: ad69 58bf e8d1 aebe c722 953d 9363 0fbf
00000300: 86c4 8fbc 783c 9e3d c26c 813d 025b 1d3f
00000310: cc56 fd3e aacf f9be b75f 203e e4f4 c43d
00000320: 1e28 e7bd 6ec2 30be f6cb 10bf 16f8 37bc
00000330: cf73 1abf 207a debe e4cc 1ebe 3df0 143f
00000340: 7212 c33f cac8 3abf 9426 7e3d c358 8dbf
00000350: 8244 d73e 2235 86bf c706 af3e 5657 bc3f
00000360: 9e8f e33e e366 fb3d 7211 80bf 12ef f33d
00000370: 80a3 dfbd eca1 8cbf 0300 9ebd 2997 45bf
00000380: 6239 9abd 0c73 1fbf 73d8 233d 5be4 c13e
00000390: 3976 913f f088 0a3f 8fad 073f b2a7 b2bb
000003a0: 5a7c 013e 989b 923f 46e4 55bf 9d76 003f
000003b0: 7635 023f 9c86 b63f 90aa 14bf 6460 5ebd
000003c0: 97cf 6a3e 2e58 95bd 7d0f 3d3f a6d8 4c3f
000003d0: 192e 9cbe 6998 7abd 3b3b 3bbe d78a 91bf
000003e0: a64c 2fbe 8068 fb3e a754 e13d 230d d63d
000003f0: de9d 843f 9c1d 153f 1f45 fe3c 273b 6a3d

model.0.bias f4 [200]
-0.013464108 -0.045894954 -0.0059019965 -0.011759279 -0.047810014 -0.029077612 -0.020573916 0.021509998
0.0 0.02271215 0.0 0.002061119 0.05921587 -0.012937475 -0.03203669 0.0
-0.06739438 -0.012502703 -0.0039467234 -0.006664536 0.012097002 -0.032978352 0.013792096 -0.011572238
0.0 -0.03540949 -0.03226766 0.010144681 -0.0071121883 0.000515884 -0.02777147 0.0
0.0032034435 -0.014312407 0.0031555577 0.0 -0.01876196 0.0 0.023690434 0.0064890576
0.00024138758 0.0 -0.0014686246 0.03302144 0.0 -0.0590652 -0.009417855 0.0112124365
0.045200795 0.0 -0.034212265 -0.015723418 0.0 0.057843607 0.0034678166 0.0
0.01857538 -0.024216902 -0.0052179433 -0.017017698 0.0 0.022508577 -0.014095926 0.04010144
-0.021033416 0.0 0.032053843 -0.019980516 0.0 -0.057283875 0.012447002 -0.014982945
-0.022269936 -0.046881065 0.14455716 0.0 0.0 0.0010469592 0.0038537548 -0.0072996286
0.013249364 -0.011546042 -0.033865184 0.009568366 0.0 0.039597344 0.0 0.008232719
0.060154524 0.0 0.0 -0.046996966 0.03382814 0.0 0.0 0.011983754
0.0 -0.02626626 0.017507149 0.025900187 0.00088086457 -0.048281964 -0.039690405 -0.01110449
0.015016064 -0.02438895 -0.0019283794 -0.021102821 0.013902057 0.013684635 0.03762945 -0.008307403
-0.01823482 0.022992572 -0.011350846 0.0 -0.053605307 0.0 -0.014241286 0.0053859046
0.044077486 0.0 -0.019861374 0.0028026858 -0.024873244 0.060360633 -0.051753223 -0.0060254433
0.06865865 -0.010126536 0.14224125 0.006832427 0.03425597 -0.042467676 0.0 -0.0072091725
0.0016740027 -0.013739821 0.015147241 0.2483362 -0.013420745 -0.026168002 -0.041582923 -0.011049784
-0.009652517 -0.009999119 -0.0064120544 0.03340469 -0.014734263 0.0 0.0018176829 -0.031558678
0.0 0.09776271 0.0 -0.016073123 -0.034575474 -0.025566543 -0.015490701 0.014728929
-0.015285651 0.063118026 -0.0036746818 -0.012215839 0.0052779466 -0.0015832714 -0.045335837 -0.010411617
-0.0030860377 -0.036289617 -0.0045145527 -0.015824571 0.0 -0.020109514 0.0 -0.017373318
-0.011030416 -0.014987855 -0.003434933 -0.02405617 -0.014881157 0.010376078 -0.002101918 0.0
-0.00063610484 -0.021439483 0.016488126 0.050984778 0.07614432 -0.022607619 -0.00954818 0.04777946
-0.044771038 -0.009531802 0.0 -0.025263594 -0.015067661 -0.008069881 0.0 -0.00954359
00000000: 9098 5cbc 59fc 3bbd 8965 c1bb fea9 40bc
00000010: 6fd4 43bd 2c34 eebc a18a a8bc bc35 b03c
00000020: 0000 0000 d50e ba3c 0000 0000 d713 073b
00000030: 578c 723d b4f7 53bc e738 03bd 0000 0000
00000040: 1106 8abd 23d8 4cbc 8453 81bb 2e62 dabb
00000050: 8132 463c 4f14 07bd 3ef8 613c 7c99 3dbc
00000060: 0000 0000 8b09 11bd 182b 04bd e035 263c
00000070: 5c0d e9bb 643c 073a fe80 e3bc 0000 0000
00000080: ddf0 513b 967e 6abc 79cd 4e3b 0000 0000
00000090: afb2 99bc 0000 0000 7112 c23c 29a2 d43b
000000a0: fc1c 7d39 0000 0000 dd7e c0ba 7d41 073d
000000b0: 0000 0000 5aee 71bd 594d 1abc 5eb4 373c
000000c0: 7824 393d 0000 0000 2922 0cbd 66ce 80bc
000000d0: 0000 0000 6bed 6c3d 4f44 633b 0000 0000
000000e0: 652b 983c 8662 c6bc 48fb aabb b368 8bbc
000000f0: 0000 0000 e863 b83c 99f2 66bc 6841 243d
00000100: 454e acbc 0000 0000 e44a 033d 2eae a3bc
00000110: 0000 0000 7fa2 6abd 83ee 4b3c 077b 75bc
00000120: 716f b6bc 5c06 40bd cb06 143e 0000 0000
00000130: 0000 0000 1f3a 893a 478f 7c3b b931 efbb
00000140: dc13 593c 9c2b 3dbc 38b6 0abd a3c4 1c3c
00000150: 0000 0000 d330 223d 0000 0000 87e2 063c
00000160: 9764 763d 0000 0000 0000 0000 e47f 40bd
00000170: 608f 0a3d 0000 0000 0000 0000 8257 443c
00000180: 0000 0000 572c d7bc 276b 8f3c a12c d43c
00000190: d2e9 663a 4fc3 45bd 6892 22bd 9bef 35bc
000001a0: f005 763c 56cb c7bc adc1 fcba d3df acbc
000001b0: 74c5 633c 8535 603c 5721 1a3d c61b 08bc
000001c0: 3061 95bc eb5a bc3c e6f8 39bc 0000 0000
000001d0: 3d91 5bbd 0000 0000 4854 69bc 3e7c b03b
000001e0: 988a 343d 0000 0000 52b4 a2bc 44ad 373b
000001f0: f9c2 cbbc b63c 773d 30fb 53bd 1571 c5bb
00000200: e89c 8c3d c5e9 25bc b1a7 113e 8de2 df3b
00000210: fd4f 0c3d 96f2 2dbd 0000 0000 ec3a ecbb
00000220: 366a db3a fc1c 61bc 222c 783c d84b 7e3e
00000230: afe2 5bbc 475e d6bc db52 2abd 270a 35bc
00000240: 9725 1ebc 58d3 23bc 361c d2bb 5bd3 083d
00000250: fa67 71bc 0000 0000 513f ee3a ac43 01bd
00000260: 0000 0000 d137 c83d 0000 0000 c8ab 83bc
00000270: 039f 0dbd ed70 d1bc b6cc 7dbc 9b51 713c
00000280: ab70 7abc 0644 813d eed2 70bb f124 48bc
00000290: a0f2 ac3b c685 cfba 12b2 39bd 7d95 2abc
000002a0: 1f3f 4abb 6ca4 14bd d0ee 93bb 88a2 81bc
000002b0: 0000 0000 b5bc a4bc 0000 0000 7d52 8ebc
000002c0: ebb8 34bc 9f8f 75bc 9d1c 61bb 7211 c5bc
000002d0: 19d0 73bc 6d00 2a3c 55c0 09bb 0000 0000
000002e0: 46c0 26ba dba1 afbc 1b12 873c 6ad5 503d
000002f0: 8ef1 9b3d 9d33 b9bc f86f 1cbc 65b4 433d
00000300: d661 37bd 462b 1cbc 0000 0000 99f5 cebc
00000310: 5ade 76bc 8937 04bc 0000 0000 b85c 1cbc

model.2.weight f4 [200, 200]
0.10492665 -0.020101534 -0.012196755 0.0814992 -0.056426752 -0.16298237 -0.039206944 -0.0048819827
-0.019418385 0.05795811 -0.09341427 -0.20048359 0.05220346 -0.05517126 -0.060612258 0.029200733
0.12564985 -0.031219818 -0.007122989 -0.15445468 0.07317087 -0.047994256 0.034816362 0.0039619617
0.06621321 -0.008098176 -0.04135282 0.039939854 -0.042701047 -0.11544877 0.009382157 -0.15268105
-0.17704427 -0.023659945 -0.14364812 0.0065903366 -0.17200635 -0.14554219 0.0008640778 0.094334796
-0.051079176 -0.037727665 -0.16738091 -0.12864396 0.030536046 -0.18112572 -0.09545254 0.19976276
-0.13063514 -0.0015467717 0.10052265 -0.049211625 -0.09660091 0.05759829 -0.023008827 0.13820498
0.019991742 0.17313638 -0.06645897 -0.0011711833 -0.1366968 0.044083133 -0.17978601 -0.100662455
0.009412945 -0.022138786 0.10891103 0.05238627 0.16983338 0.020786129 0.07888966 -0.0341565
0.08410918 0.049427785 -0.017478952 -0.16678736 -0.029178469 0.12122542 0.0686349 -0.118848704
-0.042597454 -0.10563964 -0.061229564 -0.092137165 -0.05765606 -0.054469097 0.021803137 -0.009900111
-0.1242746 -0.030484268 -0.05826744 0.0009854466 -0.20262112 -0.0076948605 0.025074175 -0.0654283
0.04821568 -0.020227542 -0.06481059 0.05695055 -0.06539037 -0.006972925 0.07556559 -0.051201895
-0.070752755 -0.111922435 -0.1280821 0.07439274 -0.09514505 0.07913272 -0.021169765 0.009257673
0.092505835 -0.16206913 -0.007557969 -0.028541142 -0.03071693 0.13992016 -0.19407225 -0.19295616
0.011066151 -0.039890114 0.05910823 0.034520674 -0.15823399 -0.15882757 -0.0649851 -0.12679628
-0.031329885 -0.06266347 0.17038575 -0.07664469 -0.07695885 0.026074009 -0.06392663 -0.015303184
-0.02119213 -0.020941239 -0.021564614 -0.10605962 0.033392824 0.04974717 -0.114536755 -0.04563046
0.2655242 -0.1202556 -0.12994158 -0.041894775 0.008920165 -0.108967386 0.045790624 -0.13410166
0.025290728 0.016370434 0.09190951 0.07727636 -0.046057973 -0.024095355 -0.1360878 -0.03384739
0.043352667 -0.028283898 0.06149643 -0.18586501 -0.045404192 -0.018034134 -0.04696723 0.07273554
-0.10851497 0.075118154 -0.13184233 -0.015902149 0.099603504 0.11648993 0.26701924 0.03838866
0.07311964 -0.10106006 -0.002652538 0.07725944 0.0016762759 -0.11070625 -0.0820684 -0.08639863
0.08587667 0.03751706 0.247661 -0.0025749833 0.021403592 0.06183287 -0.0047379555 0.09911643
0.009666814 -0.14486545 0.1562262 0.10169081 -0.08686102 -0.028119348 0.06617399 -0.16922949
-0.05199631 0.09365517 -0.1477893 -0.02199591 0.07957702 0.12834929 0.0373832 -0.012166883
-0.07746836 0.06783195 0.13391356 0.07228365 -0.12062726 -0.07768056 0.008288484 -0.094408065
0.045976408 0.0434215 0.084326155 0.07703235 0.11240839 0.0044457437 -0.15720955 -0.13095702
-0.18210925 -0.088873476 0.08286083 0.045229618 -0.072534576 0.09311507 -0.023943435 -0.084874436
0.04056941 0.079322584 -0.050238755 0.1612715 0.0200429 -0.0042103515 0.061348867 -0.089167885
-0.10763722 -0.100111894 0.07437752 -0.063229606 0.08826524 -0.038727015 -0.18329427 -0.09577716
0.020309126 0.09000344 0.077124275 0.01982781 0.04779168 -0.014773032 0.14811128 -0.18799554
00000000: c9e3 d63d f9ab a4bc e6d4 47bc 0de9 a63d
00000010: bd1f 67bd dae4 26be 7697 20bd 0af9 9fbb
00000020: 4e13 9fbc 7c65 6d3d fb4f bfbd 924b 4dbe
00000030: 4cd3 553d 42fb 61bd 8f44 78bd 6036 ef3c
00000040: 5baa 003e b4c0 ffbc f667 e9bb 5e29 1ebe
00000050: 9cda 953d a095 44bd 9a9b 0e3d 58d3 813b
00000060: cb9a 873d 36ae 04bc 9361 29bd f997 233d
00000070: 4be7 2ebd 6870 ecbd 9eb7 193c 6c58 1cbe
00000080: 184b 35be 80d2 c1bc 7e18 13be c0f3 d73b
00000090: 6f22 30be 0309 15be 4883 623a 9a32 c13d
000000a0: 6638 51bd 5388 1abd e765 2bbe 3ebb 03be
000000b0: bb26 fa3c 0579 39be 9f7c c3bd 9c8e 4c3e
000000c0: 38c5 05be 0cbd caba d2de cd3d 2192 49bd
000000d0: b3d6 c5bd 2fec 6b3d 027d bcbc 9b85 0d3e
000000e0: b9c5 a33c aa4a 313e a41b 88bd 6482 99ba
000000f0: 3ffa 0bbe 8490 343d d319 38be 1e28 cebd
00000100: c138 1a3c 665c b5bc bf0c df3d fc92 563d
00000110: cde8 2d3e ac47 aa3c e790 a13d b0e7 0bbd
00000120: 6f41 ac3d ca74 4a3d 0530 8fbc 4eca 2abe
00000130: af07 efbc 0845 f83d 7490 8c3d f366 f3bd
00000140: ab7a 2ebd 9859 d8bd dacb 7abd 69b2 bcbd
00000150: c328 6cbd fd1a 5fbd 7e9c b23c 1334 22bc
00000160: ae83 febd 25ba f9bc d7a9 6ebd 1a2a 813a
00000170: e97b 4fbe 2b25 fcbb 5b68 cd3c 46ff 85bd
00000180: ce7d 453d 3bb4 a5bc 6abb 84bd fb44 693d
00000190: 63eb 85bd 227d e4bb 22c2 9a3d 14b9 51bd
000001a0: d2e6 90bd 9737 e5bd f427 03be 395b 983d
000001b0: 68db c2bd 5610 a23d 376c adbc 7fad 173c
000001c0: b373 bd3d 73f5 25be d7a8 f7bb 1dcf e9bc
000001d0: 12a2 fbbc 3b47 0f3e e0ba 46be 4d96 45be
000001e0: cd4e 353c d163 23bd 791b 723d 8d65 0d3d
000001f0: 1708 22be b2a3 22be e816 85bd e2d6 01be
00000200: c453 00bd b555 80bd 9a79 2e3e e4f7 9cbd
00000210: 9a9c 9dbd 2999 d53c f7eb 82bd 35ba 7abc
00000220: 1e9b adbc f68c abbc 46a8 b0bc c935 d9bd
00000230: eac6 083d b0c3 4b3d 3f92 eabd 01e7 3abd
00000240: caf2 873e 9148 f6bd 680f 05be db99 2bbd
00000250: e225 123c 4b2a dfbd f38e 3b3d f251 09be
00000260: 802e cf3c 4a1b 863c 0e3b bc3d 1143 9e3d
00000270: 49a7 3cbd 9f63 c5bc 9a5a 0bbe 90a3 0abd
00000280: 9192 313d a2b3 e7bc aee3 7b3d 6653 3ebe
00000290: bff9 39bd 52bc 93bc b660 40bd 5ff6 943d
000002a0: 193d debd 8cd7 993d ad01 07be 3945 82bc
000002b0: ecfc cb3d 4692 ee3d bfb6 883e 6d3d 1d3d
000002c0: c0bf 953d 94f8 cebd 34d6 2dbb 333a 9e3d
000002d0: 7cb6 db3a f5b9 e2bd 7a13 a8bd c4f1 b0bd
000002e0: 1ce0 af3d 7dab 193d d89a 7d3e 0dc1 28bb
000002f0: 9656 af3c 7744 7d3d da40 9bbb 8efd ca3d
00000300: 8e61 1e3c 9c57 14be c3f9 1f3e 4543 d03d
00000310: 31e4 b1bd 8c5a e6bc 3b86 873d 7f4a 2dbe
00000320: 15fa 54bd 48ce bf3d 1456 17be c430 b4bc
00000330: 47f9 a23d ff6d 033e 201f 193d 9b57 47bc
00000340: bba7 9ebd 7aeb 8a3d a320 093e 7309 943d
00000350: 6d0b f7bd fc16 9fbd 6ccc 073c 0459 c1bd
00000360: c251 3c3d beda 313d 31b3 ac3d 23c3 9d3d
00000370: 5f36 e63d 9aad 913b 8afb 20be 9919 06be
00000380: d97a 3abe 4c03 b6bd f0b2 a93d b142 393d
00000390: 028d 94bd 1db3 be3d 0625 c4bc a6d2 adbd
000003a0: 1c2c 263d e173 a23d 27c7 4dbd 5b24 253e
000003b0: 0231 a43c fdf6 89bb f348 7b3d a79d b6bd
000003c0: e770 dcbd 7707 cdbd 3e53 983d 867e 81bd
000003d0: 68c4 b43d 38a0 1ebd 7eb1 3bbe d126 c4bd
000003e0: 535f a63c b953 b83d 55f3 9d3d ee6d a23c
000003f0: 35c1 433d 960a 72bc 7caa 173e e781 40be

model.2.bias f4 [200]
-0.025994483 -0.009364325 -0.019717576 0.0014266282 0.06994312 -0.009994953 0.0 -0.004269054
-0.003463549 0.04164204 -0.0098386295 -0.015824601 0.061250273 0.0 -0.0137127135 -0.017209396
0.0 0.004252122 -0.019816373 -0.019972706 -0.009999968 -0.013196314 -0.019098861 -0.00013046735
-0.016784066 -0.009999569 -0.0073986338 -0.010638824 0.0 -0.010692398 -0.014542925 -0.022615226
0.00036609525 -0.013879961 -0.02298479 -0.008411482 -0.025427926 0.0043116873 0.02635718 -0.01637318
-0.013433438 0.0 -0.0033754804 -0.010133652 -0.0099999895 -0.023589944 -0.012180962 -0.019289492
-0.022917328 -0.01263353 0.0 -0.016076563 -0.020612244 -0.010582355 0.0021532765 -0.023196494
0.0 -0.018708413 -0.011343394 -0.0032281629 0.009667525 -0.009999061 -0.020555131 -0.0033094203
0.0 -0.0002863751 -0.0051644067 -0.010006355 0.0 -0.0029019595 -0.0061450633 -0.019736286
-0.013476924 -0.011782799 -0.009999935 -0.0057587055 -0.00999886 -0.0003225734 -0.008718795 -0.0099974945
-0.0059374394 -0.016891882 -0.017814044 -0.009610839 4.3279146e-05 -0.013827358 0.0 -0.011665539
0.0 0.005047358 -0.009976008 0.0012437513 -0.006914333 -0.009999911 -0.010269108 0.0026163885
0.0 -0.022813361 -0.015531292 0.0 -0.009999893 -0.00072734925 -0.005578177 -0.020440929
0.030631809 -0.0044195964 -0.024414191 -0.013687948 0.0 -0.01009998 -0.017474532 -0.0062282654
-0.008032358 -0.007874119 -0.010075757 -0.00016050859 -0.01253977 0.03561221 0.019544298 -0.0121544935
0.009311481 -0.02235261 -0.012971645 0.051873602 -0.009989409 -0.025546303 -0.015364763 -0.012777422
0.050246462 -0.0039735204 -0.009999909 0.024374085 -0.023247888 -0.004251111 -0.009999998 -0.017226424
-0.017718652 -0.0041024974 -0.010617439 -0.00999899 -0.021074079 -0.026603468 -0.011798551 -0.017211067
0.0 0.015182028 -0.0043315603 -0.0114718955 -0.013990815 0.029461248 -0.014216037 -0.027439719
0.0 0.0 -0.016577827 0.0 -0.009999576 0.0 -0.01073666 0.0
-0.023500394 -0.022708952 -0.009999901 -0.0032682228 -0.006637265 0.0032580427 0.023055442 -0.0036868174
-0.0076302197 -0.02605618 -0.0015378417 -0.009998287 -0.014144367 0.0 -0.00092413917 -0.0011718953
-0.01996272 -0.00041143803 -0.0032138422 0.0 -0.020590318 0.027416326 -0.010336408 0.0
-0.009999816 0.05363607 0.0 -0.009999969 0.0 -0.009999957 -0.023267295 -0.009999986
-0.002833165 -0.018322771 -0.010646089 -0.009998834 -0.016123649 -0.015252637 0.0200089 -0.0072872126
00000000: 62f2 d4bc d36c 19bc c186 a1bc b3fd ba3a
00000010: 573e 8f3d dfc1 23bc 0000 0000 6ce3 8bbb
00000020: b6fc 62bb d890 2a3d 3432 21bc 98a2 81bc
00000030: 91e1 7a3d 0000 0000 4aab 60bc b8fa 8cbc
00000040: 0000 0000 6255 8b3b f255 a2bc cd9d a3bc
00000050: e8d6 23bc 5a35 58bc 3775 9cbc 10ce 08b9
00000060: bd7e 89bc 3bd5 23bc 3d70 f2bb 764e 2ebc
00000070: 0000 0000 2b2f 2fbc 7345 6ebc 9143 b9bc
00000080: 79f0 bf39 c768 63bc 994a bcbc 50d0 09bc
00000090: 3a4e d0bc 0e49 8d3b 03eb d73c 0c21 86bc
000000a0: ec17 5cbc 0000 0000 2a37 5dbb 9e07 26bc
000000b0: ffd6 23bc b33f c1bc a892 47bc ff04 9ebc
000000c0: 1fbd bbbc defc 4ebc 0000 0000 ffb2 83bc
000000d0: 02db a8bc 9d61 2dbc fc1d 0d3b 9306 bebc
000000e0: 0000 0000 6342 99bc a5d9 39bc 968f 53bb
000000f0: 8a64 1e3c 1ad3 23bc 3c63 a8bc dce2 58bb
00000100: 0000 0000 9e24 96b9 2f3a a9bb b2f1 23bc
00000110: 0000 0000 cd2e 3ebb 875c c9bb fead a1bc
00000120: 51ce 5cbc a40c 41bc c4d6 23bc 86b3 bcbb
00000130: 42d2 23bc 121f a9b9 47d9 0ebc 88cc 23bc
00000140: da8e c2bb d860 8abc c2ee 91bc c876 1dbc
00000150: a186 3538 258c 62bc 0000 0000 d120 3fbc
00000160: 0000 0000 4f64 a53b 6972 23bc 5e05 a33a
00000170: a191 e2bb abd6 23bc c33f 28bc b777 2b3b
00000180: 0000 0000 16e3 babc f676 7ebc 0000 0000
00000190: 97d6 23bc 95ab 3eba 24c9 b6bb bc73 a7bc
000001a0: 8fef fa3c 43d2 90bb 4500 c8bc 6a43 60bc
000001b0: 0000 0000 637a 25bc c026 8fbc 7a16 ccbb
000001c0: 279a 03bc 7302 01bc ca14 25bc 324e 28b9
000001d0: 9c73 4dbc 1cde 113d 5d1b a03c a423 47bc
000001e0: 2f8f 183c d21c b7bc 0687 54bc 6a79 543d
000001f0: 9eaa 23bc 7b46 d1bc 7dbc 7bbc 6458 51bc
00000200: 3ccf 4d3d 4e34 82bb a9d6 23bc 29ac c73c
00000210: 5b72 bebc e74c 8bbb 08d7 23bc 6e1e 8dbc
00000220: b526 91bc 3e6e 86bb c4f4 2dbc ced2 23bc
00000230: 8ca3 acbc 84ef d9bc b64e 41bc 39fe 8cbc
00000240: 0000 0000 0abe 783c c3ef 8dbb 9ef4 3bbc
00000250: bb39 65bc b758 f13c 61ea 68bc 43c9 e0bc
00000260: 0000 0000 0000 0000 39ce 87bc 0000 0000
00000270: 43d5 23bc 0000 0000 d1e8 2fbc 0000 0000
00000280: e683 c0bc 2008 babc a0d6 23bc ae2f 56bb
00000290: 6a7d d9bb e384 553b c4de bc3c 889e 71bb
000002a0: ec06 fabb c573 d5bc 6891 c9ba dbcf 23bc
000002b0: c6bd 67bc 0000 0000 ee41 72ba 489a 99ba
000002c0: dc88 a3bc 47b6 d7b9 539f 52bb 0000 0000
000002d0: 07ad a8bc 3498 e03c 0a5a 29bc 0000 0000
000002e0: 45d6 23bc 7fb1 5b3d 0000 0000 e9d6 23bc
000002f0: 0000 0000 dcd6 23bc 0e9b bebc fbd6 23bc
00000300: 9fac 39bb a319 96bc ef6c 2ebc 26d2 23bc
00000310: be15 84bc 32e6 79bc b4e9 a33c 92c9 eebb

model.5.weight f4 [200, 200]
0.07898448 -0.023245862 -0.09894304 0.061781336 -0.048112433 0.123308145 -0.033132635 0.014157176
0.087044835 -0.2426637 -0.02647743 -0.20239867 0.024205865 0.1301579 0.17352028 -0.15800375
0.013841594 -0.00071939826 0.036310483 0.2735056 -0.11803689 0.09902983 0.046102043 0.028139543
-0.074714735 -0.06928395 0.02418042 0.05547933 -0.057894718 0.117105715 -0.1461864 0.0015027607
-0.0014398249 0.04756559 0.041700747 -0.21027203 -0.09538789 -0.10618803 0.07605267 -0.06103741
0.09170007 -0.012285898 -0.1404881 0.09835339 0.024844013 -0.05364455 -0.010040368 -0.22491713
-0.09822064 -0.04128331 -0.04562927 0.15272646 -0.13042079 -0.07416792 -0.13047336 -0.09758217
-0.1717185 0.05843627 -0.20208253 -0.07499871 -0.043022007 -0.0318247 -0.14160463 0.06377878
0.0071719885 0.020743916 -0.10796424 -0.06703722 0.20800476 0.02339457 -0.22003205 0.06489707
-0.035673045 -0.11173467 -0.059161622 -0.054603107 0.036163513 0.07538177 0.12682506 0.01054891
-0.036389276 0.028159657 0.07268205 0.06344531 -0.27062485 -0.0142510375 -0.17660941 0.082999334
0.13338311 0.01953597 -0.09348514 -0.00020845048 -0.2377503 0.0266103 0.069604516 -0.011130628
0.056294974 -0.116044395 0.088192955 -0.049753826 -0.09094937 -0.18923448 -0.10221234 0.069936804
0.08598374 0.017301865 -0.03834238 -0.10602235 0.08736855 -0.040952515 0.091012396 0.09823536
-0.12362317 0.088164106 -0.1339144 0.033961907 0.11760129 -0.08301526 -0.0042787422 -0.07235026
0.13963991 -0.118618615 -0.012543211 -0.088310644 0.0303801 0.046512455 -0.08877844 0.04868795
-0.21851043 -0.31293377 0.16190796 0.030413803 0.13708282 0.08988361 0.02589753 -0.150379
0.12653902 0.15311728 -0.08846428 0.14334877 0.06006058 -0.06458597 0.23867665 -0.010185529
0.06838164 0.05234992 -0.112008065 0.08773073 0.025083084 -0.030654708 0.08115211 0.027255384
-0.08406496 -0.011139015 -0.14766419 -0.04219149 0.10670274 0.013911763 -0.09488696 -0.034095276
0.07602394 -0.033166826 0.03163215 0.042861003 0.011154238 0.011395443 0.06435651 0.07760013
0.2390819 -0.029928664 -0.012619481 -0.0008350198 0.1827886 -0.17593484 -0.0051772157 0.044369977
0.07977445 0.10445968 -0.23315337 0.08583649 -0.012553368 -0.11648079 -0.060697537 0.06746533
0.011928266 -0.11207617 0.11651081 0.13930793 0.15267058 -0.09638277 0.0006762812 -0.017133368
0.1328986 -0.14622867 0.041518003 -0.03484222 -0.10090527 0.07088451 0.031651534 -0.15093055
-0.07983508 0.0049000448 0.05858771 -0.05928917 -0.04543125 0.050674245 0.09352191 0.065745585
0.018898 0.12983549 -0.024463752 -0.034275655 -0.18663713 -0.035506442 0.061806887 0.13056204
0.1457185 -0.0024279093 0.06908493 0.092238605 -0.05975468 -0.12730856 -0.17051691 0.102058075
-0.23590697 -0.033086345 -0.06568022 -0.11047863 -0.08107814 0.14465867 0.016286379 0.08996997
0.13585725 -0.06974196 -0.19409591 -0.117278114 0.13946873 -0.05822082 -0.21124141 -0.07790248
0.08747677 -0.03567449 -0.22856149 -0.015663411 0.017614588 0.16182886 0.093822 -0.060254283
-0.11876521 -0.106380686 -0.016514277 -0.1621557 0.15414117 -0.0772765 -0.064209 -0.049469702
00000000: 9dc2 a13d 1b6e bebc a6a2 cabd 6d0e 7d3d
00000010: 8b11 45bd fb88 fc3d 16b6 07bd 80f3 673c
00000020: 9044 b23d d57c 78be 32e7 d8bc 9941 4fbe
00000030: 614b c63c 1d48 053e 4daf 313e bccb 21be
00000040: dac7 623c 0096 3cba 4dba 143d ed08 8c3e
00000050: 53bd f1bd 27d0 ca3d 7fd5 3c3d e684 e63c
00000060: 0a04 99bd bee4 8dbd 0416 c63c 4b3e 633d
00000070: 0323 6dbd 1fd5 ef3d e3b1 15be 48f8 c43a
00000080: 82b8 bcba 23d4 423d 67ce 2a3d 8d51 57be
00000090: ba5a c3bd 1c79 d9bd 81c1 9b3d 5d02 7abd
000000a0: 3fcd bb3d cb4a 49bc 1ddc 0fbe 816d c93d
000000b0: ac85 cb3c 63ba 5bbd 5b80 24bc ad50 66be
000000c0: e727 c9bd b018 29bd c2e5 3abd 5364 1c3e
000000d0: 078d 05be 5ae5 97bd cf9a 05be 29d9 c7bd
000000e0: f9d6 2fbe df5a 6f3d b9ee 4ebe ec98 99bd
000000f0: d837 30bd 9e5a 02bd ce00 11be 739e 823d
00000100: 0003 eb3b 25ef a93c 5b1c ddbd cf4a 89bd
00000110: 33ff 543e f8a5 bf3c 1550 61be c1e8 843d
00000120: e61d 12bd 26d5 e4bd 7553 72bd 82a7 5fbd
00000130: 3120 143d c261 9a3d 6ede 013e 56d5 2c3c
00000140: ec0c 15bd 15af e63c 54da 943d 9def 813d
00000150: 578f 8abe 2f7d 69bc 19d9 34be 8efb a93d
00000160: 9595 083e e609 a03c 2375 bfbd 8093 5ab9
00000170: d174 73be d8fd d93c d08c 8e3d 3d5d 36bc
00000180: 8f95 663d afa8 edbd 829e b43d abca 4bbd
00000190: aa43 babd afc6 41be b454 d1bd 073b 8f3d
000001a0: 3e18 b03d a4bc 8d3c e60c 1dbd 3f22 d9bd
000001b0: 48ee b23d d3bd 27bd b564 ba3d 9f2f c93d
000001c0: 252e fdbd 628f b43d db20 09be a41b 0b3d
000001d0: f2d8 f03d e803 aabd b134 8cbb 602c 94bd
000001e0: c4fd 0e3e 51ee f2bd 0a82 4dbc 36dc b4bd
000001f0: b0df f83c d883 3e3d 79d1 b5bd 046d 473d
00000200: 33c1 5fbe db38 a0be 33cb 253e 5e26 f93c
00000210: 705f 0c3e e614 b83d 0f27 d43c f4fc 19be
00000220: 7293 013e c7ca 1c3e c32c b5bd 05ca 123e
00000230: 1502 763d a645 84bd a767 743e 34e1 26bc
00000240: ac0b 8c3d df6c 563d 7c64 e5bd 2bac b33d
00000250: 0a7b cd3c 951f fbbc 1433 a63d af46 df3c
00000260: 402a acbd 6a80 36bc 4835 17be fcd0 2cbd
00000270: f786 da3d 2aee 633c 1854 c2bd 7da7 0bbd
00000280: 71b2 9b3d f0d9 07bd b790 013d 058f 2f3d
00000290: 44c0 363c f4b3 3a3c 59cd 833d d1ec 9e3d
000002a0: e3d1 743e f52c f5bc f1c1 4ebc 3be5 5aba
000002b0: ef2c 3b3e 4328 34be a2a5 a9bb 4bbd 353d
000002c0: c960 a33d f5ee d53d c2bf 6ebe 0bcb af3d
000002d0: a4ac 4dbc 7b8d eebd fb9d 78bd 432b 8a3d
000002e0: c66e 433c 3188 e5bd 389d ee3d bda6 0e3e
000002f0: ad55 1c3e 5464 c5bd 7748 313a 475b 8cbc
00000300: 9216 083e f8bc 15be c80e 2a3d b7b6 0ebd
00000310: 6ca7 cebd e62b 913d 0aa5 013d 8a8d 1abe
00000320: 9380 a3bd 8e90 a03b abf9 6f3d 33d9 72bd
00000330: 1e16 3abd cc8f 4f3d 6a88 bf3d 9fa5 863d
00000340: facf 9a3c 98f3 043e 3568 c8bc a164 0cbd
00000350: ce1d 3fbe 346f 11bd 3829 7d3d 0eb2 053e
00000360: 3b37 153e 8f1d 1fbb 667c 8d3d 98e7 bc3d
00000370: 53c1 74bd 2d5d 02be fc9b 2ebe d303 d13d
00000380: 9991 71be 8c85 07bd 5a83 86bd 9f42 e2bd
00000390: 4c0c a6bd 6721 143e 036b 853c 2d42 b83d
000003a0: 2a1e 0b3e dfd4 8ebd 14c1 46be 822f f0bd
000003b0: e4d0 0e3e f478 6ebd ab4f 58be 568b 9fbd
000003c0: 0527 b33d 6a1f 12bd 060c 6abe 8e50 80bc
000003d0: 784c 903c 77b6 253e c025 c03d 32cd 76bd
000003e0: 2d3b f3bd 1ede d9bd f348 87bc 250c 26be
000003f0: 2fd7 1d3e 2443 9ebd 0280 83bd bea0 4abd

model.5.bias f4 [200]
-0.0044169636 -0.0070906854 -0.010495566 -0.009275354 -0.0013996372 -0.0027681445 -0.0069792783 -0.0030278503
-0.004902338 -0.004856008 -0.0008819483 -0.010894172 -0.00038923556 -0.0011355074 -0.013652058 -0.00930097
-0.0006734358 -0.004850786 -0.0011423044 -0.014374412 -0.031010676 -0.018643882 -0.015204109 -0.01663303
-0.010300897 -0.009358555 -0.005702576 -0.01073817 -0.0065059657 -0.03518101 -0.0020826724 -0.010305578
-0.01507653 -0.0048054974 -0.0148703 -0.0049548894 0.00032118475 -0.0008290806 -0.010049742 -0.010388007
-0.01140322 -0.013886444 -0.001497238 -0.002981293 -0.016304167 -0.00077786535 -0.015621644 -0.0018733811
-0.02473675 -0.016940579 -0.0015994409 -0.017356817 0.0018348555 -0.005131496 -0.02207322 -0.00879053
-0.01106973 -0.0008601817 0.0033093041 -0.023135286 -0.0019905344 -0.0059898165 -0.033506505 -0.016802475
-0.005443947 -0.013266655 -0.007968471 -0.009694718 -0.011146935 -0.003927783 -0.003061533 0.03627194
-0.0043691047 -0.008923827 -0.00038853424 0.025897924 -0.012436984 0.026361251 -0.0014005105 -0.0074463855
-0.003949084 -0.005691589 -0.01277547 -0.00022003525 -0.011092383 0.0008004904 0.000114273425 -0.023463689
-0.010769565 -0.006117622 -0.0031169935 -0.0018633383 0.012365658 -2.6640833e-05 -0.0024279319 -0.0068621403
-0.00054704025 -0.047209177 -0.00053299783 -0.0012547877 -0.009223093 -0.03857257 -0.007840516 -0.006222859
-0.0047932477 -0.0104233585 -0.010240299 -0.0001468526 -0.010209862 -0.004143036 -0.004038322 -0.00699226
-0.00704947 -0.0021302018 -0.009707612 -0.017571567 -0.018090667 -0.00051685463 -0.004997024 -0.0029420548
-0.025332307 -9.088592e-05 -0.0167734 -0.001737032 -0.009503113 -0.010949789 -0.0199573 -0.023305386
-0.009737856 -0.008976367 -0.01079563 0.014860113 -0.014104654 -0.008297225 -0.008131165 -0.004273325
-0.005261407 -0.009255233 -0.004165602 -0.0044281282 -0.004639019 -0.010688638 -0.0015009387 -0.008795155
-0.013202295 -0.006350728 -0.0016539159 -0.0022451845 -0.011432237 -0.0013913817 -0.015069794 -0.0070031947
-0.01943445 -0.00019842031 -0.010507515 -0.025461525 -0.0031727254 -0.016802654 -0.012916835 -0.03668641
0.0023262515 -0.0023894135 -0.006670139 -0.018120868 -0.0066764927 -0.0141366245 -0.00080680544 -0.005562923
-0.024319414 -0.021086931 -0.0003469639 -0.01935793 -0.004298917 -0.00038911775 -0.010250013 0.001664221
-0.00279509 -0.0014130624 -0.008525633 -0.011172893 -0.010466051 -0.0011598684 -0.010486858 -0.00044018665
0.0007576825 0.0005268983 -0.012108925 -0.007952663 -0.001180605 -0.014118681 -0.018921837 -0.0043833405
-0.01643716 -0.012544218 -0.009530963 -0.0025388557 -0.002193211 -0.0028182706 -0.011424864 -0.00023106537
00000000: 2dbc 90bb fb58 e8bb 98f5 2bbc a8f7 17bc
00000010: 0874 b7ba c269 35bb 6eb2 e4bb e66e 46bb
00000020: cba3 a0bb 261f 9fbb 8c32 67ba 787d 32bc
00000030: 5012 ccb9 4ed5 94ba e2ac 5fbc 1863 18bc
00000040: 8389 30ba 58f3 9ebb 60b9 95ba a782 6bbc
00000050: 1a0a febc 0ebb 98bc a81a 79bc fe41 88bc
00000060: 18c5 28bc a054 19bc addc babb 26ef 2fbc
00000070: ff2f d5bb f619 10bd 727d 08bb bad8 28bc
00000080: 8d03 77bc 6f77 9dbb 8fa2 73bc a05c a2bb
00000090: b064 a839 a856 59ba aca7 24bc 7632 2abc
000000a0: 92d4 3abc f883 63bc f83e c4ba cc61 43bb
000000b0: 5190 85bc a9e9 4bba edf1 7fbc 3d8c f5ba
000000c0: baa4 cabc f8c6 8abc 55a4 d1ba e22f 8ebc
000000d0: 897f f03a 1c26 a8bb e6d2 b4bc 2806 10bc
000000e0: d05d 35bc d17d 61ba e9e0 583b 3686 bdbc
000000f0: a073 02bb 3946 c4bb 1e3e 09bd 58a5 89bc
00000100: 2363 b2bb 625c 59bc 318e 02bc 98d6 1ebc
00000110: a2a1 36bc a2b4 80bb 00a4 48bb e391 143d
00000120: b52a 8fbb 3e35 12bc 2fb4 cbb9 e227 d43c
00000130: 7ec4 4bbc 8df3 d73c 5691 b7ba cf00 f4bb
00000140: 5167 81bb 8280 babb 3450 51bc 43b9 66b9
00000150: d4bc 35bc 00d8 513a 14a6 ef38 ec36 c0bc
00000160: d472 30bc 5576 c8bb 7946 4cbb 423b f4ba
00000170: 5499 4a3c c17a dfb7 f01d 1fbb cedb e0bb
00000180: 4067 0fba 695e 41bd e1b8 0bba b077 a4ba
00000190: 751c 17bc 45fe 1dbd 8275 00bc 20e9 cbbb
000001a0: ad10 9dbb bcc6 2abc edc6 27bc 72fc 19b9
000001b0: 4447 27bc 4ec2 87bb e653 84bb 541f e5bb
000001c0: 3eff e6bb db9a 0bbb ad0c 1fbc 3ff2 8fbc
000001d0: e132 94bc 877d 07ba 13be a3bb 7dcf 40bb
000001e0: b385 cfbc 029a beb8 5f68 89bc 1fad e3ba
000001f0: f2b2 1bbc be66 33bc 7e7d a3bc f0ea bebc
00000200: 878b 1fbc 9d11 13bc 27e0 30bc d577 733c
00000210: 3517 67bc 16f1 07bc 9438 05bc 4007 8cbb
00000220: e167 acbb 43a3 17bc 9a7f 88bb d519 91bb
00000230: e902 98bb 661f 2fbc 25bb c4ba 8e19 10bc
00000240: 704e 58bc c519 d0bb 35c8 d8ba f223 13bb
00000250: 474e 3bbc 065f b6ba 4ce7 76bc 0e7b e5bb
00000260: ff34 9fbc 0c0f 50b9 b627 2cbc b094 d0bc
00000270: 80ed 4fbb b8a5 89bc 22a1 53bc 7d44 16bd
00000280: 0674 183b b597 1cbb 2e91 dabb 3772 94bc
00000290: 7bc6 dabb 4d9d 67bc cc7f 53ba 2e49 b6bb
000002a0: 8239 c7bc 80be acbc b5e8 b5b9 8694 9ebc
000002b0: eedd 8cbb 8002 ccb9 acef 27bc fe21 da3a
000002c0: d42d 37bb 8236 b9ba 19af 0bbc 830e 37bc
000002d0: cd79 2bbc ba06 98ba 12d1 2bbc dac8 e6b9
000002e0: 369f 463a 8c1f 0a3a 8364 46bc e34b 02bc
000002f0: 88be 9aba 0a52 67bc f801 9bbc 20a2 8fbb
00000300: 39a7 86bc 4486 4dbc c227 1cbc ee62 26bb
00000310: fabb 0fbb bcb2 38bb 5a2f 3bbc 234a 72b9

model.8.weight f4 [1, 200]
0.0905042 0.075656265 0.06761057 0.0042711133 -0.03732787 0.028641328 0.034512583 0.17075697
0.0014052857 -0.08265959 0.08734647 -0.11844372 -0.07240126 0.032750968 0.057320848 0.075120755
0.02324028 0.04783158 0.040499315 -0.0009966423 -0.0017287936 -0.1741405 -0.010345444 -0.03503415
0.076152936 0.14142773 0.11086135 -0.1299924 -0.14069541 -0.0034528982 0.21517254 -3.5466517e-05
-0.023239275 -0.12436405 -0.082466796 0.17208174 -0.031230671 0.10087305 -0.096842565 -0.09574873
-0.054511365 0.0011441505 0.18934733 -0.110130414 -0.07301815 0.02288837 0.015506596 0.15877208
-0.24459708 0.03560289 0.10603627 -0.11149214 -0.047593024 0.11508867 -0.0029379476 -0.16635445
-0.12048445 0.082136944 -0.21481127 -7.8995945e-05 0.059743017 0.024141047 0.0011285136 0.01752749
-0.073117614 0.012463223 0.00041392556 0.12126621 0.0059274663 -0.02896232 -0.08507816 -0.04077734
-0.09849796 -0.054443073 0.1673594 -0.06563527 -0.15553832 0.0042356676 0.12733059 0.06659876
0.22710726 -0.11349548 -0.08151055 0.05457319 -0.15135165 -0.09025597 -0.091170706 -0.05962943
0.030607946 0.042611744 0.114883274 0.084079355 -0.1056956 0.09378927 0.0946125 -0.023741683
-0.028592084 0.0075779175 0.18178585 0.15020965 -0.04666467 -0.00036590453 0.07070456 0.07787924
-0.017463632 0.038190268 -0.2790338 0.025629576 -0.08362977 0.09530116 0.14134024 -0.119544186
-0.032459226 -0.007411223 -0.23252968 -0.057308532 -0.003241881 0.019055687 0.21864358 -0.12077886
-0.050392665 0.009026167 0.0005192773 0.042234585 -0.13710763 -0.023982642 -0.06122457 -0.013523351
-0.11331037 0.09384654 -0.28271443 -0.13036312 -0.16387992 0.015451884 0.08159012 0.031960823
0.11501299 -0.053752877 -0.14066942 -0.09149716 0.15684219 0.006438735 0.17477328 -0.056341413
0.075150974 -0.03197456 0.059194874 0.008875695 0.0036869901 0.06235561 -0.1555679 -0.090478554
-0.003187393 0.027757231 -0.12328468 -0.11387529 0.1282781 0.12496951 -0.0030591623 -0.02012501
0.00952287 0.19025823 -0.10204597 -0.06753255 0.062081568 0.02958259 0.19492722 0.053087167
-0.0008113496 0.05839133 0.08322654 -0.050650448 -0.11464619 -0.12601916 -0.121012144 -0.10679197
0.009476919 -0.15348992 -0.07378504 0.09507045 -0.0707935 0.082056366 -0.0020281447 0.026080461
0.012568855 -0.07973125 -0.11056852 -0.04108029 0.11447665 -0.010884099 0.09615264 0.11681899
-0.03425659 -0.23117863 -0.15260059 0.17078115 -0.11441693 0.0004606992 -0.15673697 0.012215279
00000000: 445a b93d acf1 9a3d 6977 8a3d b2f4 8b3b
00000010: 1ce5 18bd 38a1 ea3c 115d 0d3d eada 2e3e
00000020: 9031 b83a 6e49 a9bd b5e2 b23d 9f92 f2bd
00000030: 1d47 94bd e125 063d 44c9 6a3d e9d8 993d
00000040: 6662 be3c 0ceb 433d 9ce2 253d c4a1 82ba
00000050: b098 e2ba e351 32be f07f 29bc f87f 0fbd
00000060: 12f6 9b3d 6ed2 103e 470b e33d ba1c 05be
00000070: 7512 10be 054a 62bb 3156 5c3e e2c1 14b8
00000080: 4b60 bebc 94b2 febd 5ae4 a8bd 3236 303e
00000090: 77d7 ffbc 8896 ce3d 6555 c6bd e917 c4bd
000000a0: 4f47 5fbd 52f7 953a 44e4 413e 0e8c e1bd
000000b0: 8a8a 95bd 6480 bb3c 610f 7e3c 2695 223e
000000c0: a877 7abe 56d4 113d 8b29 d93d fe55 e4bd
000000d0: e7f0 42bd 9cb3 eb3d 958a 40bb d258 2abe
000000e0: 8dc0 f6bd 6a37 a83d 7cf7 5bbe a0aa a5b8
000000f0: 18b5 743d 72c3 c53c a2ea 933a d095 8f3c
00000100: b0be 95bd 8c32 4c3c 2604 d939 6b5a f83d
00000110: 313b c23b 6342 edbc 753d aebd 2406 27bd
00000120: 4cb9 c9bd b3ff 5ebd 4360 2b3e c96b 86bd
00000130: 7045 1fbe 5bcb 8a3b f362 023e ee64 883d
00000140: ce8e 683e 5170 e8bd 01ef a6bd 2388 5f3d
00000150: edfb 1abe 1fd8 b8bd b5b7 babd fd3d 74bd
00000160: 84bd fa3c a789 2e3d ec47 eb3d cc31 ac3d
00000170: ef76 d8bd 9714 c03d 33c4 c13d eb7d c2bc
00000180: f239 eabc 2e50 f83b 1226 3a3e 8fd0 193e
00000190: 7423 3fbd e0d6 bfb9 8dcd 903d 277f 9f3d
000001a0: e40f 8fbc 666d 1c3d 85dd 8ebe 1ef5 d13c
000001b0: 1646 abbd 412d c33d 7fbb 103e 95d3 f4bd
000001c0: f7f3 04bd d8d9 f2bb 431c 6ebe 5abc 6abd
000001d0: bd75 54bb ac1a 9c3c 1ae4 5f3e e85a f7bd
000001e0: 8a68 4ebd 7de2 133c 1c20 083a 2cfe 2c3d
000001f0: f165 0cbe 3f77 c4bc 9dc6 7abd 0c91 5dbc
00000200: 440f e8bd 9d32 c03d f2bf 90be e97d 05be
00000210: 23d0 27be e629 7d3c b918 a73d 5ae9 023d
00000220: ee8b eb3d fa2b 5cbd a50b 10be dd62 bbbd
00000230: 3d9b 203e 06fc d23b c4f7 323e 41c6 66bd
00000240: c1e8 993d c2f7 02bd 5376 723d 5d6b 113c
00000250: 6ea1 713b 9968 7f3d 314d 1fbe d24c b9bd
00000260: 95e3 50bb 2263 e33c ae7c fcbd 7337 e9bd
00000270: 565b 033e 04f0 ff3d 3a7c 48bb 34dd a4bc
00000280: d005 1c3c 0ed3 423e 7afd d0bd 814e 8abd
00000290: 3e49 7e3d 3057 f23c 009b 473e ee71 593d
000002a0: c0b0 54ba bf2b 6f3d ad72 aa3d d876 4fbd
000002b0: 9fcb eabd 2b0b 01be 37d5 f7bd c0b5 dabd
000002c0: 1445 1b3c 762c 1dbe 9c1c 97bd 4cb4 c23d
000002d0: 2ffc 90bd 2b0d a83d 9fea 04bb b1a6 d53c
000002e0: 99ed 4d3c 234a a3bd c071 e2bd ce43 28bd
000002f0: bc72 ea3d 3853 32bc adeb c43d cb3e ef3d
00000300: a350 0cbd 17ba 6cbe 5443 1cbe 41e1 2e3e
00000310: 6c53 eabd 008a f139 a87f 20be 9822 483c
