Challenge_1/Weights/model_dynamics_Qube-v0_mse_0.00022120.params (torch_old, 334228 bytes, 8 tensors)

model.0.weight f4 [200, 7]
00000000: 6e74 21be 6889 ebbe 8706 693e e7f5 963e
00000010: e241 fc3c 726c 6f3e 691c f0be 17bb bcbf
00000020: 50ca 7bbf 1275 993e 8a21 813d 249e 7d3e
00000030: ea06 e0be 16ad dabe 25bc 54be 47bd 8a3e
00000040: 2901 813e d322 93be efe9 b23e 86e0 cb3e
00000050: 92e0 ae3d f733 d53e 3628 90bf e28a 503f
00000060: 2a61 423e 1abc c7bd 853a a43e baaa c43e
00000070: ce73 d43e 944c 2a3f 0ac2 0cba b7b8 9cbf
00000080: 59f1 833e 2007 913e 518d 2c3f 6a81 b23e
00000090: c3ed 8fbd 1d30 26bf f85a 24bf d839 113f
000000a0: 76c6 413e aeed 66be 35e2 3c3f f79b 0cbd
000000b0: c6d5 343f 51f3 043e eb20 02bf 609b 22bf
000000c0: 50db 3f3d ddf9 ba3e 9d48 1a3e 3e6c b93e
000000d0: 2fcd e03e 0479 583f 507a 993e a5c4 e2be
000000e0: 8a0a 963e a555 f7be 304f 203e 821e 20bf
000000f0: 3f0c 313e 5fa5 8bbf 2b81 d0be 45f2 343f
00000100: a8d3 04bf 2d31 3a3e a4f8 4fbd 8047 4ebd
00000110: 7fe6 fabd c247 2ebe 0740 173c 893b eb3e
00000120: 8e8f e1bd 1bde edbe a7d7 a03e c14d 22bf
00000130: 3c7a b73e 7f40 8f3e 4546 2ebf 83b3 52be
00000140: 85dc 1fbf e81f 833e 152e a8be c7d5 03bf
00000150: 59e3 d7be 3f6b b1bd 732c 59bf c396 2dbe
00000160: c407 a9bf 119c cdbe 5cb2 c8be d6de 82bf
00000170: a279 b2bd 04d8 f7be c947 ef3d 00a7 34bf
00000180: 63d0 573c 3f45 5abe 7247 983f 84eb 8dbf
00000190: b00a 813e cec6 0bbf d41b d23e e383 a23e
000001a0: 09b4 95bc c68d a83d 093a bb3e bcaf 08bd
000001b0: 58d1 4e3f b267 ae3d 4411 7f3c 6e77 6cbd
000001c0: 6c00 433f b373 1cbf 6007 24bf 0fb6 22bf
000001d0: c540 133e 7f08 bb3d 7851 dc3e c84d 5bbf
000001e0: f972 5c3e 604b 903f f329 58be 0281 673e
000001f0: 39fc 0fbd 1e01 b9be 6832 cebe d00b 42be
00000200: 27b7 d53e 40a2 2abf e9f8 bf3c bd94 d8be
00000210: a348 0ebf c85a b8bd 41a4 aabe 4475 213e
00000220: d9ac 503f a7c2 5bbf a912 bc3e f900 883b
00000230: f556 1a3e 22fc 93be d144 8c3e 4718 58bf
00000240: c949 a23e c55c f43d 9824 2fbc 3142 f53e
00000250: ce86 963f bae6 85bd a80b bbbf a772 973f
00000260: 87f4 36bd dffa 92be d5dc 363f 52eb 53bf
00000270: fd5c 603d 9e3e b43e 7a48 353e 79f9 a7bf
00000280: 3146 16be 9349 cfbe d048 15bf 93cc b03d
00000290: 3a7d 383e cc99 3bbf 0d99 8bbf a32b 193f
000002a0: f753 cfbe 8395 0abe 14bd 2d3e 8bd0 3a3d
000002b0: e4ba 103e cce5 fa3e 8253 09bf 15df 4bbe
000002c0: fabf e9bc 60dc 643f 76de 273e f88d 093f
000002d0: f73a 0ebf c73a b63e be2b cebd 3208 a53e
000002e0: 8172 fbbe e552 c23e 4fda d43d d02c 1e3d
000002f0: 9686 92bc 5980 bebe ec5e 953e 876d ff3e
00000300: 02f9 6d3f 988f 35be d7da 313f 5428 9abe
00000310: 3c54 c83e 41e0 643d 290b cbbe 04a5 6abf
00000320: 6fbf 113f b812 b93c 368d 84be 1047 f03e
00000330: 02bf f2bd 1834 cfbe 58ac 49bf c407 78bf
00000340: fc19 ac3f d440 9bbf cdaa 1abe 5fa8 2ebe
00000350: 747f bb3e 164d c3be e4dc f03e 13cc 7f3f
00000360: ff29 0abf bb77 52bf 073e f0be d25e 7bbd
00000370: 351b a63e ba7e 053e 2e76 97be 07b1 663f
00000380: c3cb 34bf 89e3 75be 2e6e f3bd 502b e4be
00000390: a710 533f 8d26 1f3f d0c5 3fbe 85d9 14be
000003a0: 540b 203e 78dc dabe 5b6c ddbe fe1f 54bf
000003b0: 683c bdbe 5bd6 bbbe d1ce 6cbe d1ad 3b3e
000003c0: 17d3 f6be b0b3 c8bf 3279 f33e a961 3f3f
000003d0: d955 363f a4b9 28be 32c0 72be 7c1d 1cbe
000003e0: ffe1 efbe 6b6c 81bf 9049 a2bd d3df 75be
000003f0: efac c7be 2797 ad3f a903 42bd 0789 98be
-0.1576707 -0.4600327 0.22756396 0.29484484 0.030793134 0.23381212 -0.46896675 -1.4744595
-0.9835558 0.2997213 0.06305225 0.24767357 -0.43755275 -0.4271018 -0.20774896 0.27097532
0.25196198 -0.28737506 0.34944102 0.39819735 0.08538927 0.4164121 -1.1262271 0.8146192
0.18982378 -0.097526744 0.32075897 0.38411504 0.41494602 0.665231 -0.000536949 -1.224387
0.2577007 0.28325748 0.6740313 0.3486436 -0.07027771 -0.64917165 -0.6420131 0.5672889
0.18923363 -0.22551605 0.73782665 -0.034328427 0.7063869 0.12983443 -0.5083148 -0.63518333
0.046840012 0.36518756 0.15066762 0.36215395 0.43906543 0.84559655 0.2997613 -0.44290653
0.29304916 -0.4830753 0.15655208 -0.6254655 0.17289828 -1.0909842 -0.40723547 0.70682174
-0.5188546 0.18182822 -0.05077423 -0.050361156 -0.12250995 -0.17019561 0.009231574 0.4594386
-0.11013709 -0.46458516 0.3141453 -0.63399893 0.35835445 0.27978894 -0.6807597 -0.20576291
-0.6244586 0.2561028 -0.32847658 -0.51498073 -0.4216564 -0.08663034 -0.8483345 -0.16952042
-1.3205495 -0.40158132 -0.39198577 -1.0224254 -0.08714606 -0.48406994 0.11683614 -0.7056732
0.013172242 -0.21315478 1.1896803 -1.1087499 0.25203466 -0.54600227 0.41036856 0.31741247
-0.018274324 0.08230166 0.36567715 -0.03337072 0.80788183 0.08515872 0.015568081 -0.057731085
0.7617252 -0.61114043 -0.64073753 -0.6355905 0.14380176 0.0913248 0.43030906 -0.8566556
0.21528234 1.1273003 -0.21109752 0.22607806 -0.035152648 -0.36133665 -0.40272832 -0.18949819
0.41741297 -0.66653824 0.02343412 -0.42300978 -0.55579585 -0.0900169 -0.3332844 0.1576739
0.81513745 -0.8584389 0.36732987 0.0041505066 0.15072234 -0.289033 0.27396253 -0.84412044
0.3169692 0.11931757 -0.010689877 0.47902063 1.1759889 -0.06538148 -1.4612932 1.1831864
-0.044666793 -0.28707024 0.7143071 -0.82780945 0.05477618 0.35204023 0.17703429 -1.3123008
-0.14675213 -0.4048582 -0.5831423 0.086327694 0.1801652 -0.7328155 -1.0906082 0.5983221
-0.40493748 -0.13533597 0.16966659 0.04560904 0.14133793 0.49003446 -0.5364305 -0.19909318
-0.028533924 0.89398766 0.16393456 0.5373225 -0.55558723 0.3559172 -0.10066937 0.32232815
-0.49110797 0.37953869 0.103932016 0.038616955 -0.017886441 -0.37207296 0.29173982 0.4988825
0.9295808 -0.17730558 0.6947455 -0.30108893 0.39126766 0.055877928 -0.39656952 -0.91658044
0.5693273 0.022591934 -0.25888985 0.46929216 -0.11852838 -0.40469432 -0.787786 -0.9688685
1.344543 -1.2129159 -0.15104218 -0.17056416 0.36620677 -0.3814475 0.47043526 0.9992077
-0.5397033 -0.82213944 -0.46922323 -0.061369725 0.32442632 0.13036624 -0.2958235 0.9011387
-0.70623416 -0.24012579 -0.118862495 -0.44564295 0.82447284 0.621682 -0.18727803 -0.14536102
0.15629321 -0.4274633 -0.4324673 -0.82861316 -0.3696015 -0.36686978 -0.23125769 0.18328024
-0.48207924 -1.5679836 0.47553402 0.7475839 0.71224743 -0.16477066 -0.23706129 -0.15245622
-0.4685211 -1.0111212 -0.07924187 -0.24011163 -0.38999125 1.3561753 -0.04736677 -0.29792044

model.0.bias f4 [200]
00000000: eac7 00bc 0000 0000 edfe d1bd d3d1 4b3d
00000010: caa8 8abd d7c2 d93d 6372 3fbc 6ce9 17bd
00000020: d11c bebb 8ba1 d0bc 6dc8 b43c de12 19bc
00000030: 0000 0000 0000 0000 8d8b 47bd e879 6bbd
00000040: aed5 8f3c 4e42 9f3c 0000 0000 8ea0 d93b
00000050: fe17 e3bc f5e3 abbb 2195 223d 0000 0000
00000060: 8aa3 573d 96e2 cebc 95e6 ca3b b5d4 b3bd
00000070: 59c5 003e f2a5 0a3d 55ae 00bc 856e dfbb
00000080: c907 cf3d 0000 0000 3a9d b93d 0000 0000
00000090: 9c9b 40bd 2e41 fc3d c1c4 8dbc c732 1dbe
000000a0: 31dc 66bd 6aa2 6cbd f5cf d53d 0000 0000
000000b0: 18f8 393c 5ee3 0e3d c6bc 17bd 0000 0000
000000c0: 9070 80ba bab3 9c3c 8e95 423e 6d6f 29bd
000000d0: fdaa d0bd d2d8 12bd 20f0 f5bc ab0d bbbc
000000e0: 95e9 cbbd 0000 0000 6cbb ecbc 5e5e 6e3d
000000f0: 1f6b 143d ce0d 0ebc 9e6f 2f3d a48b 98bc
00000100: 4e82 ffbb 0000 0000 26cc 1bbd a16a 203d
00000110: e67b 013e b29f aabb 25f3 7fbd 0000 0000
00000120: 0000 0000 0000 0000 2cdb 34bc cabb 1c3d
00000130: 0000 0000 56f0 27bd 0000 0000 9280 27bd
00000140: 2a56 41bd e007 5bbd 68a7 bf3c a5ab 20bd
00000150: c369 97bd fb9a 1dbd 7252 25bd 85f9 63bd
00000160: 0000 0000 c59c 2cbd 681e a6bd 1ed6 993b
00000170: 663c 793d a813 d7bd 546c 9b3d 3c9b c4bd
00000180: 0000 0000 421a 97bd 91e0 86bd 18a2 0b3d
00000190: 28da 44bd 4b75 89bc 0000 0000 dc9e 67bd
000001a0: 36e7 babd e38a 36bd 5a40 fabd 0000 0000
000001b0: 0000 0000 08cc 93bd 9d34 e93c cd56 323c
000001c0: 31c5 923d 0000 0000 a84c 893c 30c1 6fbd
000001d0: 01d2 abbc 50cc 623d fab2 8fbd 426b 1ebd
000001e0: 0000 0000 0000 0000 0000 0000 5092 a73d
000001f0: 080f 53bc 0000 0000 2fdd 9e3c 0000 0000
00000200: 0dc8 c33c 0a4c 44bd 0000 0000 0000 0000
00000210: 515d 15bd e7a8 d2bc edfe 6ebd 6912 86bd
00000220: 8b6e 2abc 6e0c 73bd 4b55 6e3d fd85 453d
00000230: 6ccc 97bd e6a1 dcbc 3757 6f3b dea9 92bd
00000240: b10b 8c3d 0a20 cd3c d562 0b3c a086 43bc
00000250: bdbb 99bb 0000 0000 f97e 64bd 02dc 043d
00000260: 12ea 3abc 0000 0000 cf04 1bbc e54c f8bd
00000270: 20cd 05bd c6fa be3c 0000 0000 8b68 dd3c
00000280: d98e e3bd 34ec b1bc 0bba b1bc 0000 0000
00000290: bd5a abbc 0000 0000 df47 c8bd b712 24bd
000002a0: f5bd 453d a842 86bc 981f aebd c665 2cbd
000002b0: 0d07 1e3c a6b5 e03c 0000 0000 76a6 17bd
000002c0: 4eaa d6bc a69f 1f3a d391 87bd 6443 72bc
000002d0: a835 cdbc 6c42 8f3c cae0 49bc a0d4 bfbd
000002e0: 4f5d 13be 24f3 0c3c b97a 82bd 12e0 953d
000002f0: 6389 a73d 6d1b bf3d dd64 78bd 09dd 1cbd
00000300: 144b 2ebd e40f 7d3c 5bc6 3c3c 0000 0000
00000310: 5963 2abd 2e7b 9a3d ce72 0dbd 240c 903b
-0.007860163 0.0 -0.10253701 0.04976065 -0.06770475 0.10632866 -0.011684987 -0.037087843
-0.005801775 -0.025467655 0.022068227 -0.009342877 0.0 0.0 -0.04871707 -0.057489306
0.017557945 0.019440796 0.0 0.006641454 -0.027721401 -0.0052456805 0.039693 0.0
0.052646197 -0.025254529 0.0061920383 -0.08780805 0.12575282 0.033849664 -0.007854064 -0.006818595
0.10108907 0.0 0.09063192 0.0 -0.0470234 0.123171195 -0.017305734 -0.15351401
-0.056362335 -0.057772078 0.10440055 0.0 0.011350654 0.034884803 -0.037045263 0.0
-0.0009799171 0.019128669 0.19002363 -0.04136603 -0.101888634 -0.035851307 -0.030021727 -0.022833666
-0.099566616 0.0 -0.028897963 0.058195464 0.03623497 -0.0086702835 0.042831056 -0.018621273
-0.007797516 0.0 -0.038036488 0.03916419 0.1264492 -0.0052070254 -0.06248774 0.0
0.0 0.0 -0.011038583 0.038265027 0.0 -0.041000687 0.0 -0.0408941
-0.047201313 -0.053474307 0.023395255 -0.039226193 -0.07393219 -0.03847788 -0.04036183 -0.055657882
0.0 -0.042141695 -0.08111268 0.004694714 0.060848616 -0.10501796 0.07589021 -0.09599921
0.0 -0.07378055 -0.065858014 0.03409013 -0.048059613 -0.016779562 0.0 -0.056547984
-0.09126131 -0.044566046 -0.12219305 0.0 0.0 -0.0721665 0.02846747 0.010884953
0.071665175 0.0 0.016760185 -0.058533847 -0.020974161 0.05537063 -0.07016559 -0.038676508
0.0 0.0 0.0 0.08182204 -0.012882002 0.0 0.019392578 0.0
0.023899103 -0.04792408 0.0 0.0 -0.036465947 -0.025715305 -0.058348585 -0.0654648
-0.010402332 -0.059338026 0.05818681 0.048223484 -0.07412037 -0.026932668 0.003652049 -0.07161306
0.068381675 0.025039691 0.00850745 -0.011933953 -0.0046915696 0.0 -0.055785153 0.03243638
-0.011408346 0.0 -0.009461596 -0.121240415 -0.032666326 0.023312937 0.0 0.027027389
-0.111112304 -0.021719076 -0.021695158 0.0 -0.02091729 0.0 -0.09779333 -0.04005691
0.04827686 -0.016389206 -0.0850212 -0.042089246 0.009645236 0.027430367 0.0 -0.037023984
-0.026204254 0.0006089158 -0.06619611 -0.014786575 -0.02505 0.017487727 -0.01232166 -0.09366727
-0.14391063 0.008602891 -0.06371064 0.07318129 0.08180501 0.09331403 -0.060643066 -0.038296733
-0.04255207 0.015445683 0.011521901 0.0 -0.04159865 0.07543026 -0.034533314 0.0043959785

model.2.weight f4 [200, 200]
00000000: 0cea 683c 62eb 5fbd 956c f33d 6d15 87be
00000010: a2ca efbd 38f0 ea3d 5edd 5e3d c21c d9bd
00000020: eb41 183c 901f 5c3d ce1d c63d f5a6 303d
00000030: 70d7 8d3d cee4 063e a0ee 9c3d 9ac2 f03d
00000040: 9615 24bd 223e e33d 2b79 df3c c06d 4a39
00000050: 96b9 21bd 55f5 7a3d 3ee6 303d bddf c03d
00000060: 95a8 e13c df70 f9bd bda0 dc3d d43b 4abd
00000070: 30a5 04be e2a5 20bd 17f4 fb3c 9ce4 ad3c
00000080: d7be 12bd e41e 8abc 22d7 1dbe 9797 dabc
00000090: 7b1d 003d cfe1 47bd 58d0 5d3e 8821 fe3d
000000a0: 3029 923d 2c82 f93d f59d 133e 7d35 57bc
000000b0: 9ed9 64bd 50cc 89bc 1bf4 e0bd d2a4 863d
000000c0: 23cd 883c 65e1 35ba 9e19 81bd 6874 e1bd
000000d0: 18af 663e f0f2 133d 2cc4 e43d fc90 4d3e
000000e0: 7a04 0b3d 854a e03d 50ab b0bb 1c6e 23bc
000000f0: 8368 613d 28a7 05be da79 b7bd 0842 4cbd
00000100: c840 fc3b d8af 87bc 086b 29be dbf1 d83d
00000110: 7e47 82bd 14e7 6cbd 9f71 2ebe bfdd 98bd
00000120: da1e de3d b628 20be 6405 27bc 849c 57be
00000130: d3d1 00be 97bc 66bd 8d01 393d d332 c3bd
00000140: bae6 8bbc 4c8b dbbd 6250 2a3e f5d7 aa3b
00000150: ce5f 99bb 5396 e63d 24ea cd3d 2256 79bd
00000160: 5360 96bd 4b09 e0bc b575 21bc 44dd 583e
00000170: 969f 8abd 1b37 88be 3332 8ebb 6628 fb3c
00000180: c0f5 f1bc 362d 0dbe 76af d03d 6dca 363a
00000190: dbdf d23c 192e d2bd 88c6 fabc 5a04 15be
000001a0: 6951 0e3c 4444 0e3d 41c8 86bd 641b 203c
000001b0: 068c 82bc 96f0 063e 70ee 823d c8f8 c33d
000001c0: c6b6 2fbe 08bf 75bd 2b23 223d b982 64bd
000001d0: 89f4 533d 42b6 3d3e e37c 563d a457 54bd
000001e0: 3f2a d83c a583 333c 276d aebd 621a 48be
000001f0: 1810 db3c 50bd f33b 351f e5bd 52b8 1e3e
00000200: 38b2 78be a40e 85bd cb65 383e e310 4f3e
00000210: 9335 fb3d e4d0 b3bc 2f98 8c3c 2c35 933d
00000220: 85d5 a938 82e2 c3bd 0369 183d 9704 03be
00000230: 1c36 ecbc a8af 7c3d acbf 1bbb 4542 cc3b
00000240: f7e7 643d 0147 08bc b90c 41bc 3c62 37bc
00000250: 60d4 efbd cbf8 9f3d 5351 263e d6c8 b3bd
00000260: 6ee0 c43d 0873 54be 68c4 44bd 10f1 ed3c
00000270: 35fb 05bd 5401 84bc b6dd 453e 929a 9ebd
00000280: 22c2 cabc 83ad 4c3d a801 18bd f6a2 83bc
00000290: 9ac8 a63d cfd2 0b3e fdd2 adbd 1774 fcbd
000002a0: def7 2b3d db49 61bd 88c1 62bd c5e5 eabc
000002b0: cda7 41bb e249 30bd 6e7c a7bd d613 2a3e
000002c0: 7a52 8abc 6b02 40be 86a9 cd3c 529f c4bc
000002d0: ea5c 9c3c f962 2f3c fb6e 213e e44c 4bbb
000002e0: 5e71 38bd c1e2 c93d 1624 0cbe d317 adbd
000002f0: 6916 42be e93a 593d 39d2 eabb f832 6e3e
00000300: 202c 05be 589f 99bd b387 4abd 16a0 103e
00000310: 7742 643e 4ae9 d93d 2620 89bd 9aaf f1bd
00000320: 9210 de3d f8f3 423d 31fc aabc ea7b c8bd
00000330: 5523 6bbc 55ac 563e 568e 9d3a 251c 5dbe
00000340: 819f 763d 5bdc ecbc 88e0 243e 0fa9 193d
00000350: 54de b2bd 488f cb3b 8678 af3d 3b9e 413d
00000360: 0daf 4ebc 8fde a43c eccb 943c c5f9 163e
00000370: c5b3 eebd 1be0 c03d 11d6 f6bc a81b 5dbd
00000380: da53 293c 1b9c 28bd dc8c 10bd c129 cfbd
00000390: a958 af3d ba5c 7abc 6a33 ebbd c5b0 163e
000003a0: 7ae8 cd3d 9662 4cbc 7f20 43bd 0d81 213e
000003b0: 8df9 443e a689 8abc c85c ee3d 1e4f dc3b
000003c0: ed95 80bd 67e2 063e 1048 373d fa00 733d
000003d0: 4f6c 233e 0913 d9bc 1acc d5bd e0da c6bc
000003e0: fdc6 76bb b11b b53d 931d 2fbd 50ac a63c
000003f0: a96c 963d 86b1 35bd dbeb 743e a955 21bd
0.014215957 -0.054667838 0.11885945 -0.26383534 -0.11708571 0.11471599 0.05441033 -0.10601188
0.00929306 0.053741038 0.096736535 0.043127973 0.06925857 0.1317322 0.076627016 0.11755867
-0.04005965 0.11095835 0.027279457 0.00019305106 -0.03948363 0.061269123 0.043188326 0.09417675
0.027546206 -0.121797316 0.10772846 -0.049373463 -0.12953639 -0.0392207 0.03075604 0.021227174
-0.03582653 -0.016860433 -0.15414098 -0.026683612 0.031278115 -0.048799332 0.21661508 0.12408739
0.07136762 0.121830314 0.14415725 -0.013135311 -0.0558716 -0.016821057 -0.109840594 0.06574406
0.01669938 -0.00069381885 -0.06303714 -0.11008531 0.2252773 0.036120355 0.11170229 0.20074838
0.033939816 0.109517135 -0.005391516 -0.009974983 0.05503131 -0.13052046 -0.08958788 -0.04986766
0.007698152 -0.016563341 -0.16544735 0.10593005 -0.06361292 -0.05783756 -0.1703553 -0.0746417
0.10845728 -0.1564053 -0.010194156 -0.210558 -0.12580042 -0.056332197 0.045167495 -0.09531178
-0.017077792 -0.10719928 0.16632226 0.0052137324 -0.0046806103 0.11259141 0.100544244 -0.06087316
-0.07342591 -0.027348181 -0.009854724 0.21178156 -0.0676872 -0.26604542 -0.0043394803 0.030658912
-0.029536128 -0.13786778 0.101897165 0.0006972913 0.025741508 -0.10262699 -0.030612245 -0.14552441
0.008686402 0.034733072 -0.06581164 0.009772155 -0.015935909 0.13177714 0.063931346 0.09568936
-0.17159566 -0.059996635 0.03958432 -0.05578873 0.05174688 0.18526557 0.052365195 -0.051841393
0.026387332 0.0109566795 -0.08516913 -0.19541314 0.026741073 0.0074383393 -0.11187593 0.155
-0.24286735 -0.06496933 0.18007581 0.20221286 0.12266078 -0.021950193 0.01716241 0.07187876
8.098319e-05 -0.09564687 0.037209522 -0.1279472 -0.028834395 0.061690956 -0.0023765368 0.006233486
0.05588528 -0.00831771 -0.0117828185 -0.0111928545 -0.11710429 0.07811125 0.1624196 -0.08778541
0.09613119 -0.20747006 -0.04803887 0.029045612 -0.032710273 -0.016113915 0.19322857 -0.07744326
-0.024750773 0.04997016 -0.037110955 -0.016068917 0.081437305 0.13654636 -0.084875084 -0.1232683
0.04198443 -0.055002075 -0.055360347 -0.028674016 -0.002954948 -0.04303921 -0.0817803 0.1660913
-0.016885031 -0.18750922 0.02510525 -0.024001751 0.019087274 0.010704749 0.15764992 -0.0031021172
-0.04502999 0.09857703 -0.1368564 -0.0845181 -0.18953861 0.053034697 -0.007166174 0.2326163
-0.13005114 -0.075010955 -0.04944582 0.14123568 0.2229098 0.106401995 -0.06695585 -0.118010715
0.10843004 0.047595948 -0.020872207 -0.0978926 -0.0143516855 0.20964177 0.0012020569 -0.21592768
0.06021071 -0.028913667 0.16101277 0.037514742 -0.08733812 0.006212149 0.0856791 0.04727004
-0.012614978 0.020125655 0.018163644 0.14743717 -0.11655382 0.09417745 -0.030131372 -0.053981453
0.010334933 -0.0411645 -0.035290584 -0.10115386 0.085618325 -0.015280897 -0.11484416 0.1471587
0.10054107 -0.012474677 -0.047638413 0.15771885 0.19235821 -0.016911339 0.1163879 0.0067232987
-0.06278596 0.13172303 0.04474646 0.059327103 0.15959285 -0.026498334 -0.1043932 -0.02427429
-0.0037655227 0.08843172 -0.042752814 0.020345837 0.07344944 -0.044358753 0.23918097 -0.039388333

model.2.bias f4 [200]
00000000: c40b 51bc 3329 1cbb 3e50 02bd 0000 0000
00000010: 4240 8fbc e25b 03bd 8ea9 89bc eddb c7bc
00000020: 81de 10bd dd28 8abc f2e0 19bd 0000 0000
00000030: 06d7 23bc 244a 1bbc 0000 0000 5109 42bc
00000040: c57d 8fbc b184 04bd 7391 44bc 0000 0000
00000050: 725d 5abc 1c6f 29bc 0000 0000 307a cfbc
00000060: d997 a3bc 07d7 23bc e6aa b3bc 1b5c 82bc
00000070: 6546 9bbc 0000 0000 4de6 01bd 5b77 683b
00000080: 1cd6 23bc f1d8 6bbc 409d 0cbd 992c 8bbc
00000090: 6325 7abc bbc3 80bc a04e ddbb 7e3d 23bc
000000a0: be79 1dbc ebcb b53c e0d0 c3bc 2686 b7bc
000000b0: e967 92bc 8e01 eabb a121 ee3b 1ec1 75bc
000000c0: 0000 0000 fad6 23bc 57a4 bfbc 54d6 1ebd
000000d0: f964 9dbc 90d6 23bc 0000 0000 a129 26bc
000000e0: 7c21 b6bc 0bd7 23bc 07d7 23bc 47d1 8dbc
000000f0: 7ab4 e4bc 0bd7 23bc 09d7 23bc 7be8 91bc
00000100: ce75 4ebc 74cc b5bc 0000 0000 b234 813c
00000110: d579 143a 04bd bdbc cfd6 23bc 0bd7 23bc
00000120: 9ec6 4cbc 0f48 cfbc 5ee1 debc 0883 72bc
00000130: 1cf9 a3bc ef5e 23bc b796 75bc ce0b 5cbc
00000140: 8050 16bc f145 e0bc 0000 0000 0000 0000
00000150: a2c9 4cbc 12c3 87bc 088b 59bc bd24 9fbc
00000160: b2e9 86bc 5de4 66bc cfd6 23bc 0948 fdbc
00000170: ecd6 23bc 0e72 553b 88ac 2abb 0ad7 23bc
00000180: 5229 57bc 65d4 d0bc 62d3 a3bb e04c aebc
00000190: fbd6 23bc 19d1 a3bb 0b2b a5bc 1083 9cbb
000001a0: 322e afbc 0000 0000 95c9 23bc d35d 9ebc
000001b0: b294 7abc 3919 4abc 0bd7 23bc cbc6 03bc
000001c0: 6a9e 4abc c397 873d 0000 0000 cac5 a3bb
000001d0: 7169 ddbc 5efd 59bc 0000 0000 fc23 babb
000001e0: 8ac3 23bc ac8d 86bc cd5a 84bc df22 aabc
000001f0: 0000 0000 0000 0000 7fce 50bc f3a8 bebc
00000200: 03d7 23bc ae49 d0bc c720 5fbc 0000 0000
00000210: 8387 6abb 0000 0000 0000 0000 e10b 983b
00000220: 1957 38bc 9079 30bc c9a3 63bc 54f5 8cbc
00000230: e9f2 8dbc eb7b a2bc 34a9 e33c dc95 ebbb
00000240: a1d6 23bc 445a 81bc 10fa 67bc 0000 0000
00000250: 40e9 0abb 4c6d 82bb ae2f e0bc 0000 0000
00000260: 8ec0 6fbc 1409 1cbd 5dbe 8dbc 2a94 25bc
00000270: e644 19bd 7d01 5abc cfbf 03bd 9a38 abbc
00000280: 0000 0000 4516 d9bc 0000 0000 0000 0000
00000290: 2a7f 82bc 805f 3538 3bf5 48bd 8faf 1bbd
000002a0: 0000 0000 18c0 75bc a487 3dbc a48a 44bc
000002b0: 9c73 31bc 388f 1cbc 06e8 e8bc 350e 9dbc
000002c0: 969b d3bc 43cd 87bc c852 55bc 0704 983b
000002d0: c3a2 cbbc 3998 05bd 3ae0 0abd 0ad7 23bc
000002e0: 569e 88bb 6e68 bdbc 09d7 23bc d24e 2dbc
000002f0: ecd6 23bc 0fd3 d0bc 7f01 55bc 0170 d3bc
00000300: 943f f7bc 8927 76bc 5c81 fcbc f01f 1bbd
00000310: c9a8 06bc d5b4 80bc 0000 0000 32d3 14bc
-0.012759153 -0.0023828268 -0.031814806 0.0 -0.017486695 -0.03207005 -0.016804483 -0.024396861
-0.035368446 -0.016865188 -0.03756804 0.0 -0.009999996 -0.009478126 0.0 -0.0118430415
-0.017516026 -0.032353107 -0.011997568 0.0 -0.013327943 -0.010341432 0.0 -0.025326818
-0.019969868 -0.009999997 -0.021932077 -0.01591306 -0.018954465 0.0 -0.031713773 0.0035471532
-0.009999778 -0.014394985 -0.034329653 -0.01698904 -0.015267703 -0.015718332 -0.0067537576 -0.009963391
-0.009611545 0.022191962 -0.02390331 -0.022402834 -0.017871814 -0.0071412986 0.0072671925 -0.014999656
0.0 -0.009999985 -0.023393793 -0.038778618 -0.019213187 -0.009999886 0.0 -0.010141761
-0.022232763 -0.010000001 -0.009999997 -0.017311705 -0.02791809 -0.010000001 -0.009999999 -0.01781105
-0.012601329 -0.022192217 0.0 0.015772197 0.00056639063 -0.023161419 -0.009999945 -0.010000001
-0.012498526 -0.025302915 -0.027207073 -0.014801748 -0.020016246 -0.009971364 -0.0149895465 -0.013430549
-0.009174466 -0.0273771 0.0 0.0 -0.012499245 -0.016572509 -0.013277777 -0.019426698
-0.016468856 -0.014092532 -0.009999945 -0.030918138 -0.009999972 0.0032569203 -0.0026042778 -0.01
-0.01313241 -0.025491903 -0.004999564 -0.021276891 -0.009999986 -0.0049992916 -0.020162126 -0.004776366
-0.021384332 0.0 -0.009996791 -0.019331848 -0.015294241 -0.012335115 -0.010000001 -0.008043001
-0.01236687 0.06620743 0.0 -0.0049979435 -0.027027817 -0.013305036 0.0 -0.005680559
-0.009995351 -0.016424976 -0.016156578 -0.020768581 0.0 0.0 -0.012744545 -0.02327392
-0.009999993 -0.025425758 -0.013618655 0.0 -0.0035786338 0.0 0.0 0.004640088
-0.011251234 -0.01077117 -0.01389403 -0.017206825 -0.017327743 -0.01983448 0.027790643 -0.0071894955
-0.009999902 -0.015790112 -0.014158741 0.0 -0.0021196157 -0.0039803144 -0.027366485 0.0
-0.014633311 -0.038094595 -0.017302686 -0.010106126 -0.037419222 -0.013306019 -0.032165345 -0.020901013
0.0 -0.026499877 0.0 0.0 -0.015929777 4.3242704e-05 -0.049061995 -0.038009223
0.0 -0.014999412 -0.011567984 -0.011995945 -0.010830786 -0.00955563 -0.02843095 -0.019171814
-0.025831025 -0.016577369 -0.013020225 0.004639152 -0.024857884 -0.032615874 -0.033905245 -0.01
-0.0041692657 -0.023121085 -0.009999999 -0.010577874 -0.009999972 -0.025491266 -0.013000845 -0.025810244
-0.030181684 -0.015024074 -0.030823402 -0.037872255 -0.008218952 -0.015711227 0.0 -0.009083556

model.5.weight f4 [200, 200]
00000000: bb26 2fbc 5dd9 ec3a 49f8 e6bd dab2 15be
00000010: be45 4bbe aaa9 d8bd b35d eebd a823 81bd
00000020: b57c 17be 5ee9 5ebe 70d1 993d d87a 4c3e
00000030: 973f fd3d d0fa 8e3d ed83 22bc 4a2f c1bb
00000040: 8ae3 90bc db4a 803d dc13 173e e1c5 37bc
00000050: 2a40 1c3e 11d3 3d3d 9699 1ebe 17f5 a33d
00000060: 355c 543d 3a1c 793d eb54 8ebc ead5 913d
00000070: 5268 0abd 930a a7bc dae8 ff3d 9121 5dbd
00000080: 26fb b13d c41d 893d f8ae f53c 2c6e 61bd
00000090: 1d54 4bbd acaa d03b 4778 ee3b 9086 f33c
000000a0: d84d 30bc 7784 803c 5726 16bd 5038 a2bd
000000b0: 4ecb 1f3e cf3a c73d 7102 f8bd 694d 2bbd
000000c0: 13f8 5bbe 9c09 073d 1752 f4bd c613 1bbd
000000d0: a313 243e 5707 a1bd 4ba8 f93d 2d30 08bc
000000e0: 2f5b cdbd 7465 f6bd f874 b7bd e208 ab3c
000000f0: 6d16 9fbd f852 213d 6c9a 0ebb 04f4 0abe
00000100: 2b8c ec3c 46fc 65be fa0a e63d 6b11 5b3d
00000110: 4278 81bc af9a 77bd 2bd1 393d c2d6 0c3d
00000120: 3cdb 103b a38e 893c 65d0 87bd c72d 323d
00000130: 52f7 c7bd df61 bdbd 81f6 273e 44ac 013d
00000140: 5589 5b3d 6404 423e 7fc7 0a3e 0b62 d4bd
00000150: 0680 623d 4b2d a03d 4ee9 493e d9de 72bd
00000160: f226 cfbd c7e2 debd c566 1a3e 4259 94bd
00000170: 9200 aebd d576 903e 8a44 94bd 1f50 21be
00000180: 2f5a 0f3e 4689 813d 2b64 eb3d d5d4 1f3d
00000190: a654 d43d d8da d5bd 561c 283d a5d2 f4bd
000001a0: dfd5 5dbd 0261 0b3d e8fb 96bc df0d 2b3e
000001b0: 3ea1 833d 1709 73bd 85be f43d 653b 35be
000001c0: 24dc 3fbd eac8 62be c408 ae3d 3fb1 acbd
000001d0: 835f 4dbe 6c01 b7bd b9e6 38be 68dd 513e
000001e0: b892 3fbc c45b 603c 1506 0abd 61b0 d83c
000001f0: 7ed3 b4bd 7a24 0d3e 9335 b13d 31c5 463d
00000200: 4fef e9bd 4e92 5abe 0a7d 73be 6753 c9bd
00000210: b67b a43c 9fc8 193a 62f0 13bd 14ac a83c
00000220: b195 f03c a310 aa3d b48d 953d 1013 4dbd
00000230: 6a1a 5c3d ba30 c93d 8781 293d 93a3 68bc
00000240: 19c3 1e3e e849 4c3d 27fb fe3a f723 9e3d
00000250: 8df9 2cbb 7039 f33d ebd9 02be a2ba b5bd
00000260: 4648 393e 7644 c9bb 7488 793d f1e3 b03b
00000270: 09d7 c03d b9c7 073d 7eec 2fbe e9f3 083d
00000280: 9968 91b9 2b65 003c 3f70 273d 2d12 b93d
00000290: 1e3d c83c cde6 08be 9663 58be a1f7 403e
000002a0: 8371 153d b87b ca3b 7d9d 713e b45d f03d
000002b0: 12b2 31be fa31 66bd b887 083e 8860 503b
000002c0: 732c 803d 9af3 8f3b 82eb 12bd 534a 20be
000002d0: 0774 abbd 9b0a 3ebe b0a0 cebc 6738 9cbd
000002e0: 5862 fbbc 43ec c63c 5fc6 fdbd d428 bbbd
000002f0: 6c43 1abc 3041 a53d aa22 85bd 0224 213e
00000300: a133 ddbc 0524 adbd c22d 30bd 1318 893e
00000310: 3b68 c5bc 3be2 1bbe ea1c ddbc 5f59 0e3e
00000320: 3eef 5ebd d801 43bc 157d 1ebd 667c 273d
00000330: e706 403e 5b00 39bd e5a8 5cbe 0d55 15bb
00000340: 97db 02bd 1173 a13d 970e f8bd 52c3 53bd
00000350: e509 3a3c 5fbc 1b3d c49a 02bd 9731 913d
00000360: 5d91 bdbd 9147 c63d c76d 193c 9092 f0bd
00000370: 5e06 e73d 7c57 44be c068 6c3d b82d 303c
00000380: 03dd 3cbd 9818 f03d 2574 e63d c6a7 0cbe
00000390: 89f4 fc3d a72e 49bc 7761 ddbc 60de 7cbd
000003a0: e910 5fbc 90d2 f1bc 1056 c73b 2346 5abd
000003b0: 9982 55bd 3777 383c cc90 97bb 1a8e f53d
000003c0: b50e 313e df07 213e e473 1fbd 963f a03d
000003d0: a94e 19bc 6e9d 33be d8a1 4a3d 32cf 893b
000003e0: 5bc2 2cbe 4d07 5d3d 280d 6e3d a0e5 61be
000003f0: 565a 3ebd 133e 903e 1a98 bf3d 994f 2abd
-0.010690386 0.001807015 -0.112778254 -0.14619008 -0.19850823 -0.10579236 -0.116389655 -0.06305629
-0.14793666 -0.2176871 0.0751065 0.19968736 0.123656444 0.069814324 -0.009919149 -0.00589553
-0.017686624 0.062642775 0.1475367 -0.011216612 0.15258852 0.046343867 -0.15488276 0.080057316
0.051845748 0.060817935 -0.017374476 0.07120879 -0.033790894 -0.020390784 0.12495585 -0.05398709
0.08690481 0.066951305 0.029990658 -0.05503671 -0.049640764 0.006368002 0.007277522 0.02972725
-0.010760747 0.015688164 -0.036657657 -0.07920897 0.15604898 0.09728014 -0.12109841 -0.04182187
-0.21481352 0.03296815 -0.1192972 -0.037860654 0.16023116 -0.07862728 0.121903025 -0.008312267
-0.100271575 -0.120310694 -0.08957857 0.02087826 -0.07767949 0.039385766 -0.0021759523 -0.13569647
0.028875431 -0.22459516 0.11232562 0.053483408 -0.015804414 -0.060450252 0.045365494 0.034384497
0.002210333 0.016791647 -0.06631545 0.043500688 -0.097639695 -0.09247183 0.16402628 0.031658426
0.053597767 0.18946987 0.13552664 -0.10370263 0.055297874 0.07821139 0.19717905 -0.059294555
-0.1011485 -0.10883098 0.15078266 -0.07243587 -0.084962025 0.28215662 -0.07239635 -0.1575322
0.13999246 0.06325011 0.11493715 0.03902133 0.10367708 -0.10442132 0.04104265 -0.1195424
-0.05415904 0.03402806 -0.018430665 0.1670451 0.06427239 -0.05933484 0.11950401 -0.17698438
-0.0468408 -0.22146955 0.08497766 -0.084322445 -0.20055966 -0.08935818 -0.18056764 0.20494616
-0.011692695 0.013693754 -0.033697207 0.026451292 -0.088294014 0.13783446 0.086527966 0.0485279
-0.114225976 -0.21344873 -0.23778167 -0.09830361 0.020078521 0.00058663817 -0.03611792 0.020589866
0.029368253 0.083039545 0.07302418 -0.050067008 0.053736128 0.09823747 0.041383293 -0.014199155
0.15504111 0.04987517 0.0019453511 0.077217035 -0.002639386 0.1187619 -0.12778442 -0.08873488
0.18093976 -0.0061421944 0.060921147 0.0053982665 0.09416015 0.033149455 -0.17180058 0.033435736
-0.00027734487 0.00783662 0.04087853 0.0903667 0.024443205 -0.13369294 -0.21131739 0.18844463
0.036485206 0.006179299 0.23595233 0.117366225 -0.17353085 -0.056200005 0.13333023 0.0031795818
0.06258478 0.0043930532 -0.03586913 -0.15653352 -0.0837174 -0.18558733 -0.025223106 -0.076279454
-0.030686542 0.02428258 -0.12391352 -0.09138647 -0.009415489 0.08069074 -0.06500752 0.15736392
-0.027002158 -0.08454136 -0.043012388 0.2677618 -0.024097553 -0.15223019 -0.026991326 0.1390128
-0.054427378 -0.011902295 -0.038693506 0.04089012 0.18752633 -0.045166355 -0.21548803 -0.002278629
-0.0319477 0.07883275 -0.12112158 -0.051699944 0.011354898 0.03802144 -0.031885877 0.07089537
-0.092562415 0.09681619 0.009364552 -0.117467046 0.11280511 -0.19173998 0.057717085 0.010753088
-0.04610921 0.11723441 0.112526216 -0.13735875 0.12351329 -0.012279189 -0.027024014 -0.06173551
-0.013614872 -0.02951935 0.0060832575 -0.053289544 -0.0521265 0.011258892 -0.0046254154 0.11989994
0.17290767 0.15725659 -0.03892888 0.07824628 -0.009357133 -0.17540523 0.049470752 0.004205608
-0.16871016 0.05396204 0.058118016 -0.22060251 -0.04647287 0.2817236 0.09355183 -0.041579816

model.5.bias f4 [200]
00000000: 9795 3fbd 9cd7 57bd 2d65 a6bd 3882 dabc
00000010: 07ef 813b 7945 61bd 0b29 8ebd 4db3 76bc
00000020: bb42 eabc e57e a1bd 2673 8ebd bba4 39bd
00000030: f502 e8bc 29ca e93c d0b2 35bd 3794 5dbb
00000040: b894 9abd 4bdb 443d e57b 14bd 2777 13bd
00000050: 58c7 07bd 13fa 6ebd 59a8 2dbd 39cf 873d
00000060: ad6b 1abd 14b9 833c 6de6 61bd b934 bdbd
00000070: 8aa0 8ebd f5a6 2bbd 2d69 22bd ec93 d33c
00000080: efe7 7dbd 6763 a6bd b06f 47bd 85b1 45bd
00000090: 25c0 04bd 9f2e 19bd e039 1abd fb37 60bd
000000a0: 8641 a5bd 8ff6 5d3d 1a5b 36bc a010 d5bc
000000b0: 6f4a a5bc 0706 9fbd fce2 06bd 8bc9 e83d
000000c0: 2ad0 e2bc 1156 38bd 6aee 9cbd 4ae6 41bc
000000d0: d4d7 da3b 3d46 a6bd 54f0 abbc 849e cc3c
000000e0: 0348 5f3c db07 70bd 487e 153d 5fde b1bc
000000f0: bee6 95bc c72e e63c 7b4b 66bd 089b b5bd
00000100: 4b55 abbd 0753 dcbb 520a a9bd 834e 503c
00000110: b9bb 3ebd 905b a93d 4929 6abd 9e7c 88bd
00000120: 665c c1bc e6f1 22bd 16ea 9f3d 38ce 37bd
00000130: 62e9 67bd 8782 1cbd 7d3f a5bd fc5c c7bc
00000140: 0093 37bc d6eb 51bd 37a6 42bd f4d0 b53d
00000150: d53b c6bc 8e12 b6bd 9406 30bd 466b a2bd
00000160: 2ff1 cd3c 95c1 d5bc 9430 62bd cc76 5bbd
00000170: bdf2 443c cbc0 b9bb 9703 993d 543c 11bd
00000180: 02ec 49bd e82b 3f3c 997a 953b b665 293d
00000190: b806 c13d a15d 2ebd abc9 9d3b 45d9 84bc
000001a0: 4eb4 37bd 041b 2dbd 6263 11bd cda1 64bd
000001b0: 88f0 f1bc 0d41 cd3a 8a91 16bd 3220 4cbd
000001c0: 1cb4 d2bc e903 73bc 98f1 bebd f464 a6bd
000001d0: f83d b3bc 475e c53c f104 0fbd 056a 02bd
000001e0: 1f07 a1bc 3257 5abd b3a2 83bd f70f 88bd
000001f0: 2375 c4bd 5342 0dbd 6c8f 193d e084 9cbd
00000200: a82a b5bc 83c2 85bc 3288 193c 08f1 06bc
00000210: 804b f3bc 208b a5bd 376a 6ebc 7109 40bd
00000220: c330 ca3c 07e3 e6bc 291a 79bd 3911 11bd
00000230: 46b7 b43c 2e9d 38bd f31a 43bd 2af7 7bbd
00000240: 4d9f 623c 95d9 49bd 6b16 343d 29ed 1fbd
00000250: c003 30bb 1017 32bd 9c93 dfbc 6aee 743d
00000260: 61e8 32bd b309 1bbd b589 21bd 0151 353c
00000270: 544a 9bbb 103c c1bc e826 073d 80ac 34bd
00000280: 9ad2 c9bd 13ec ecbc 998c 8bbd e52e 1ebd
00000290: ad5c f3bc 46ce c8bd 80d1 3ebd 87c2 5dbd
000002a0: 76ef 84bd 5858 1a3d d181 a6bd c188 93bd
000002b0: bac1 53bd a977 bb3d e520 84bd 0473 7fbc
000002c0: bda6 ebbc 8c50 60bd a227 ffbc 64fe 32bb
000002d0: 4f43 8abd 813f 003c 8912 48bd 7713 a4bc
000002e0: e6c8 19bd 01c8 45bc fb76 86bc 5be9 b5bd
000002f0: 9c05 5bbd 3163 0b3e f09b 82bd f43c 29bd
00000300: fbec f3bc 330e f23a cd99 9ebc c3bd 39bd
00000310: 05d1 e4bc 77dd f9bb 264a 7dbd f516 96bd
-0.04677352 -0.052695855 -0.081247665 -0.026673421 0.003965262 -0.054997895 -0.06941422 -0.015057397
-0.028596273 -0.07885531 -0.069555566 -0.045323115 -0.028321723 0.02853878 -0.044359982 -0.0033810267
-0.07547897 0.048060697 -0.036250968 -0.036002304 -0.033149093 -0.058343958 -0.042396877 0.066313215
-0.037700344 0.016079463 -0.05515139 -0.09238572 -0.06964214 -0.04190727 -0.039651085 0.02582737
-0.061988767 -0.08124428 -0.048690498 -0.048265 -0.032409806 -0.037397977 -0.03765285 -0.054740887
-0.08069138 0.054190215 -0.011130119 -0.026008904 -0.020177094 -0.077648215 -0.032931313 0.11366566
-0.027687151 -0.045003954 -0.076626614 -0.01183469 0.0066785607 -0.08118866 -0.02098862 0.02497793
0.013628009 -0.05860124 0.036497384 -0.02171248 -0.018298503 0.028098477 -0.056224328 -0.088674605
-0.08365878 -0.006723765 -0.082539216 0.012714031 -0.046565745 0.08269417 -0.05716828 -0.06664394
-0.02360363 -0.039781474 0.0780832 -0.0448744 -0.056619056 -0.038210418 -0.0806875 -0.02433633
-0.011204481 -0.0512503 -0.047521796 0.08877745 -0.024198452 -0.08890258 -0.042975023 -0.07930617
0.02513942 -0.026093284 -0.05522211 -0.05358009 0.012020764 -0.0056687347 0.07471388 -0.035457924
-0.04929734 0.011668183 0.004561734 0.041356765 0.094251096 -0.04256976 0.0048153005 -0.016216883
-0.044849686 -0.042262092 -0.03549517 -0.055818368 -0.02953364 0.0015659645 -0.03675989 -0.04983539
-0.025720648 -0.014832475 -0.09323424 -0.08124724 -0.021880135 0.024092807 -0.034916822 -0.03183939
-0.019656716 -0.053305812 -0.06427517 -0.0664367 -0.095926546 -0.03448708 0.037490293 -0.076425314
-0.022115067 -0.016328102 0.00937085 -0.008236177 -0.029699087 -0.080831766 -0.014551691 -0.046884004
0.024681455 -0.028184427 -0.060815964 -0.035416815 0.022060048 -0.045071773 -0.047633123 -0.06151501
0.013831926 -0.049279768 0.043966692 -0.039044533 -0.0026857704 -0.043479025 -0.027292065 0.059797682
-0.043678645 -0.037851047 -0.03943797 0.011066676 -0.004739085 -0.02358821 0.03299609 -0.04410982
-0.09854622 -0.028921163 -0.06813926 -0.03861894 -0.029707277 -0.098049685 -0.046586514 -0.054140594
-0.06490986 0.037681907 -0.08130229 -0.07203818 -0.051698424 0.09153683 -0.06451587 -0.015591387
-0.02876603 -0.054764315 -0.031146828 -0.0027312273 -0.06751119 0.0078276405 -0.0488458 -0.020028813
-0.037545107 -0.01207161 -0.016414156 -0.088824 -0.053472146 0.13612057 -0.06377399 -0.041317895
-0.029776087 0.0018467366 -0.019360447 -0.045346987 -0.0279317 -0.0076252776 -0.06183829 -0.073285975

model.8.weight f4 [6, 200]
00000000: 7d75 17bd 3b27 50bf 3690 dabe 6e08 af3d
00000010: ceed 713f 722f 54bf 9a48 57be b210 57bd
00000020: 0d14 223e 5576 6bbe e439 833f 6774 903d
00000030: a540 523f f4e5 89be 9e5e 643f b2f6 b6be
00000040: 316c d13d 21de 433f ac9a 21bc f2b1 d43d
00000050: 92b2 983e f85a 36be 0b9d a4be 8f5e 493e
00000060: 31cd 91be fde5 243f dbbe e93d 8322 2c3e
00000070: eaea 3a3e 140f 143d de6f a9ba 15e0 00bd
00000080: c229 8a3d 7ba7 acbc 305b 0cbe b2ad adbe
00000090: ec2b 74be f2c9 6d40 d033 d0be 786f 353d
000000a0: 1ca4 af3d 2724 1c3e 4113 563e bdbf 523f
000000b0: af1c 253f 6978 d0bd 45fc 9abe 12bf f83e
000000c0: e4ad 3ebc 1e60 503e ab21 0f3e 05b0 a1bd
000000d0: cfd0 32be 396d 65be d351 243e 8933 fb3f
000000e0: 58e1 11be 1c02 9c3d febf 0f3f d1e5 97bd
000000f0: 7ce4 babe 86b2 72be e317 ed3f 7dc9 28bf
00000100: c3b6 abbe d714 2fbe c337 1d3e 7e96 9dbe
00000110: 88ab 0bbf c1d8 813e e8a1 953e b7e2 a3bd
00000120: 51c6 68be 2acd 493e 4d5f f83f 66d3 0e3f
00000130: 05c3 b8be bccd c6bd 45e8 0fbf e1cd 0abe
00000140: 2ed7 2d3f 8361 b0be 2315 5c3e 3653 d03f
00000150: 2dc7 4ebe 9b63 053d b92b 36be b56c 8fbe
00000160: c298 ad3d f2da a5be fbd1 fd3d d134 d7be
00000170: 0a24 593f d966 a2be c5b3 8f3f e7ce e4be
00000180: 38cc 48bd 7e0f 0dbd e03e 5740 63d8 18bf
00000190: cdc5 ed3d 4c58 283d 5140 b53d db66 ca3d
000001a0: 59d0 bebd c3d7 cbbe 4160 bebe 6619 ae3d
000001b0: eb03 253d 94d6 3abe 750f 973f 5451 c43b
000001c0: 91bb bdbd 9a9c 85be 532c babe 7100 173e
000001d0: f8ae 1abe 878a 823f 6ea0 133e 54c3 143f
000001e0: 6c13 f03d d067 5dbe 7e2c 5fbd 5667 343e
000001f0: c490 203e 2068 acbe d868 0540 b15f 1a3f
00000200: dbb9 26be dbf6 e5be a6ce cbbe b994 86be
00000210: c451 ddbe 9e57 303e 3a23 b4be 599b 0f3d
00000220: 566a 48be 48f8 8e3f a5d8 fd3d 9722 f83f
00000230: febd 7f3f d6c2 32be c6e8 e3be 3423 15bf
00000240: 3398 d4be 0a55 6a3f 8a54 2d3f 4ed3 0040
00000250: ae93 dfbe 70ac 6fbe b8c2 3e3c 97b5 c13f
00000260: 0e94 f3be fade 2ebd 0364 f43d 9d10 c6be
00000270: 29ed d43e 2b44 98be 5ea7 393e 9f64 a3bd
00000280: 2a92 b43d 0e20 4c3e 7086 6c3f 02cb 753e
00000290: 581e e03f 6793 ba3d 38ed 2e3d 47db d3be
000002a0: 9793 d4bd 9559 5c3f a5ba 053f edfe ae3e
000002b0: f477 123f 7d62 893d 3bfc 723e d7b8 01bf
000002c0: c650 1abe 7f26 cf3e f7fd ad3f 8690 233d
000002d0: 15b3 b9be 44e4 b53e d643 b93c a756 f1be
000002e0: 1f56 07be 4664 fdbe 441e cebe 09ef 783e
000002f0: ab96 d53d 677f 163f ce68 d93e dff8 26be
00000300: 3eee 91be d5e6 3dbe aa87 a5bd 511e d0bc
00000310: 5966 9e3f 5e21 1fbe 633d f73d e7ef ecbc
00000320: e9a8 98be a3d4 893e 1407 143e f361 d13f
00000330: 8b08 c63e 5d90 debe 0143 92be 86ca f5bd
00000340: 0988 1d3d d014 eb3d 4363 983d a9ba a6bd
00000350: a9c9 0d3e 5142 edbd 3223 87be b034 36be
00000360: 18a8 ca3d 2138 0abe 1351 b83d 006f 1abd
00000370: b5be 87bc 55c6 853e 4fb8 0f3f 6aef 0ebf
00000380: a06d a63b 2421 05be 1ba1 aabc 5e8d 813e
00000390: d300 463d 23b2 383e eeda e3bd ae2b 843f
000003a0: 2865 1dbe 9b16 25bd 76a7 c23d 64ec 583f
000003b0: 9347 b83e 34e7 04bf 1e05 bf3d 255e 3cbd
000003c0: 3d4c e3bc ec10 a93f 100b 953e d496 1cbe
000003d0: bfc9 6e3e 61de efbd 5322 a83e 062e 8dbc
000003e0: 62a6 ffbd 68bc 92bd 50dc 38be 9084 58be
000003f0: 757a fc3e fa12 173f ca00 cebd 1540 9d3e
-0.03697728 -0.8130986 -0.4268815 0.0854653 0.94503486 -0.82884896 -0.21023789 -0.052506156
0.15827961 -0.22994359 1.0252042 0.07053452 0.8212989 -0.26933253 0.89206874 -0.3573509
0.10225714 0.76510817 -0.009863537 0.10385503 0.29823738 -0.1780814 -0.32151064 0.19664977
-0.2847686 0.64413434 0.11413356 0.1681004 0.18253675 0.036147192 -0.0012927016 -0.0314637
0.06746246 -0.021075955 -0.1370666 -0.33921582 -0.2384488 3.7154508 -0.4066453 0.044295758
0.08576223 0.15248166 0.20905782 0.8232382 0.6449689 -0.101792164 -0.3027059 0.48583275
-0.011638138 0.20349166 0.13977687 -0.07894901 -0.17462467 -0.22404946 0.16046838 1.9625102
-0.14246118 0.0761759 0.5615233 -0.07416881 -0.36502445 -0.23700914 1.8522915 -0.65932447
-0.33537874 -0.17097794 0.15353303 -0.3077888 -0.5455861 0.25360683 0.29225087 -0.08002227
-0.22731902 0.1970717 1.9404083 0.5579132 -0.36086288 -0.097072095 -0.5621379 -0.13555099
0.67906463 -0.34449396 0.21492438 1.6275394 -0.20193167 0.032565694 -0.17790116 -0.28012624
0.08476402 -0.32393605 0.12393566 -0.42032483 0.84820616 -0.31719092 1.1226736 -0.44689104
-0.049022883 -0.034438603 3.3632126 -0.5970518 0.11609993 0.04109983 0.08850158 0.098828994
-0.09317083 -0.3981305 -0.3718281 0.08500938 0.04028694 -0.18245918 1.1801592 0.0059911404
-0.09264291 -0.2609604 -0.36361942 0.14746262 -0.15105808 1.0198525 0.14416668 0.5811055
0.117224544 -0.21621633 -0.05448579 0.17617545 0.15680224 -0.3367319 2.0845242 0.60302263
-0.16281836 -0.44914898 -0.39806098 -0.2628534 -0.43226445 0.17220923 -0.35183126 0.03506026
-0.19571814 1.116952 0.12394837 1.9385556 0.9989928 -0.17457137 -0.4451353 -0.5825684
-0.4152237 0.9153601 0.6770712 2.012897 -0.43667358 -0.23405623 0.011643104 1.5133542
-0.47573894 -0.042693116 0.11933138 -0.3868455 0.4158719 -0.29739508 0.18130252 -0.07978176
0.08816941 0.19934103 0.92392635 0.24003223 1.750926 0.09110146 0.0427067 -0.41378233
-0.10379713 0.8607419 0.5223792 0.34178868 0.57214284 0.06708238 0.23729031 -0.5067267
-0.15069875 0.40459058 1.3593129 0.03993275 -0.3626944 0.35525715 0.022615355 -0.47136423
-0.13216446 -0.49490565 -0.40257466 0.24309935 0.10429128 0.5878815 0.42462772 -0.16305874
-0.28502077 -0.18545087 -0.080825165 -0.025405081 1.2374984 -0.15540072 0.120722555 -0.028922988
-0.29816368 0.2692004 0.14455825 1.6358017 0.38678393 -0.43469515 -0.28566745 -0.12001519
0.03845981 0.11478579 0.07440808 -0.08141071 0.13846458 -0.115849145 -0.2639404 -0.17793536
0.098953426 -0.13497974 0.08999839 -0.037703514 -0.016570428 0.26127878 0.5614061 -0.55834067
0.0050789863 -0.13000923 -0.020828774 0.25303167 0.04834063 0.18036704 -0.11125742 1.032583
-0.1537062 -0.04030476 0.09504597 0.84735703 0.35992107 -0.5191529 0.09327148 -0.04598822
-0.027746314 1.3208289 0.29110003 -0.15291911 0.23319148 -0.11712337 0.32838687 -0.01723386
-0.12482907 -0.07164842 -0.18052793 -0.21144319 0.49312177 0.5901333 -0.10058744 0.30712953

model.8.bias f4 [6]
00000000: 891e 173f b848 533e 2e28 663f cf92 913e
00000010: 0454 4b3c cb6a b43b
0.5903097 0.20633209 0.8990506 0.2843232 0.012410168 0.005505895
