Challenge_1/Weights/model_dynamics_Qube-v0_mse_0.00020731.params (torch_old, 334228 bytes, 8 tensors)

model.0.weight f4 [200, 7]
0	0x3ebef28d	0.37294427
1	0x3ce1367a	0.027491797
2	0x3ec63ae1	0.38716796
3	0xbd1e08c1	-0.038582567
4	0xbf6de9d8	-0.9293494
5	0xbefe5fbc	-0.49682415
6	0x3eb935e8	0.3617394
7	0x3d1e0e69	0.03858796
8	0x3f27c47f	0.65534204
9	0xbf1317ff	-0.5745849
10	0xbded6f2b	-0.11593469
11	0x3f03ff4a	0.51561415
12	0xbedf2fb0	-0.4359107
13	0xbfa8fb7e	-1.3201749
14	0x3f73d3c3	0.95245
15	0xbf9283f6	-1.1446521
16	0xbe433446	-0.1906291
17	0xbe507111	-0.20355631
18	0xbec1079f	-0.37701127
19	0xbd7951eb	-0.06086914
20	0xbece5c46	-0.40304774
21	0x3ee3b93e	0.44477266
22	0x3eb06d28	0.3445828
23	0xbf6c558e	-0.92318046
24	0xbe9513ba	-0.29116613
25	0xbf5ed66c	-0.8704593
26	0x3ea25bac	0.31710565
27	0x3ec00b1c	0.37508476
28	0x3f1fc97d	0.6241682
29	0xbe854ecb	-0.26036677
30	0xbf259bdf	-0.64690965
31	0x3f003305	0.5007785
32	0x3c982366	0.018571567
33	0xbe141dbd	-0.14464469
34	0xbf115b00	-0.5677948
35	0x3f2cb52b	0.6746394
36	0xbda49644	-0.080364734
37	0x3de3bef9	0.111204095
38	0x3dde2eb1	0.108487494
39	0xbee7edb5	-0.45298544
40	0xbe92cb9f	-0.28670976
41	0xbcb6f9b6	-0.022335868
42	0x3f9da005	1.2314459
43	0x3f11637d	0.5679243
44	0xbf0496a0	-0.51792336
45	0xbf62d4ae	-0.88605773
46	0x3d5c4cdf	0.053784247
47	0x3daa424d	0.08313427
48	0xbef02584	-0.46903622
49	0x3e29eee3	0.16595034
50	0xbe01c99e	-0.12674567
51	0xbddfd268	-0.10928804
52	0xbf3fad29	-0.74873596
53	0x3f53ad99	0.82686764
54	0xbea0def5	-0.31420103
55	0xbe952d22	-0.29135996
56	0x3db41bd2	0.08794369
57	0x3f16d90f	0.58924955
58	0xbeb72040	-0.35766792
59	0xbd7f17e6	-0.06227865
60	0x3f83571b	1.0260957
61	0xbeb8ca57	-0.36091873
62	0xbf351ccc	-0.70747066
63	0xbda06f44	-0.07833722
64	0xbf26d38d	-0.6516655
65	0x3e9e534a	0.3092292
66	0xbf55e983	-0.83559436
67	0x3e2a0ad4	0.16605693
68	0xbf246296	-0.6421293
69	0xbe88bd8a	-0.26707107
70	0xbe9df7e9	-0.30853203
71	0xbed9e754	-0.42559302
72	0x3eba4774	0.3638264
73	0x3f0e2aca	0.5553404
74	0x3d889f72	0.06671037
75	0xbf5058f8	-0.81385756
76	0x3ce0280c	0.027362846
77	0x3d6a042b	0.05713288
78	0xbe67efe4	-0.22650105
79	0x3f363276	0.7117075
80	0xbe9e6998	-0.30939937
81	0x3ea3518a	0.31898147
82	0xbed6923c	-0.41908443
83	0x3f2b0d93	0.6681759
84	0x3f672f3d	0.90306455
85	0xbea12075	-0.31470075
86	0xbf0a579d	-0.5403994
87	0x3e00b734	0.12569886
88	0x3e5564ad	0.20839186
89	0x3eff0578	0.4980886
90	0xbd8764c6	-0.06611018
91	0x3f402f8a	0.7507254
92	0x3c236aa7	0.009974158
93	0xbe828beb	-0.25497374
94	0xbebb3fdd	-0.3657216
95	0x3e907ac9	0.28218678
96	0xbdbeb38c	-0.093115896
97	0x3e4f1f35	0.20226748
98	0x3f05daff	0.52287287
99	0x3f49fc33	0.7890045
100	0xbee521ba	-0.44752294
101	0x3ecceb13	0.40023097
102	0xbe088c9f	-0.13334893
103	0x3ebb4999	0.36579588
104	0xbf010134	-0.5039246
105	0x3eac7683	0.33684167
106	0xbd1811a8	-0.037126213
107	0xbe23403b	-0.1594247
108	0x3eb8d5cb	0.3610061
109	0xbe815199	-0.25257567
110	0xbe0f3b00	-0.1398735
111	0x3f61e084	0.8823321
112	0x3ea8eee3	0.32994756
113	0x3d9411ef	0.07229983
114	0x3d852f54	0.06503168
115	0x3e8111a8	0.25208783
116	0xbf4f9f0a	-0.8110205
117	0x3d8314f9	0.064004846
118	0xbea07b81	-0.31344226
119	0xbf93a649	-1.1535121
120	0x3d8c1075	0.068390764
121	0xbf272a50	-0.6529894
122	0x3ef8daa3	0.48604307
123	0xbf077748	-0.52916384
124	0xbd123acb	-0.0357006
125	0xbdbc438f	-0.09192573
126	0x3e53cd04	0.20683676
127	0x3f37df90	0.71825504
128	0x3f88b581	1.0680391
129	0xbdddaf44	-0.10824445
130	0xbeddb24e	-0.43300098
131	0xbf362a28	-0.71158075
132	0xbe05f28a	-0.13080803
133	0x3c952570	0.018206328
134	0x3f02e465	0.5112975
135	0x3f7de588	0.9917836
136	0xbdf83cde	-0.121209845
137	0xbf31e933	-0.6949646
138	0x3d27d865	0.040977854
139	0x3d4e0eb4	0.05030699
140	0x3f8f6d69	1.1205264
141	0xbf3fad10	-0.7487345
142	0xbedaa41d	-0.42703333
143	0x3e9311f4	0.28724635
144	0x3ecd09ad	0.40046445
145	0xbbfbc135	-0.007682944
146	0xbf31c91f	-0.6944751
147	0xbf125011	-0.5715342
148	0xbe881293	-0.2657667
149	0xbe140cb3	-0.1445797
150	0xbea4a4e4	-0.32157052
151	0x3f763d15	0.96186954
152	0x3f66e498	0.90192556
153	0x3e3015ff	0.17195891
154	0x3e8250b1	0.25452188
155	0xbe8ea6e2	-0.27861696
156	0x3e54a84c	0.20767325
157	0xbe20a714	-0.15688735
158	0x3e035eab	0.12829082
159	0xbe10f53e	-0.14156052
160	0x3e99f14d	0.3006691
161	0x3caedc6c	0.02134534
162	0xbf2501c4	-0.6445582
163	0xbeae16f0	-0.34001875
164	0x3eb834ff	0.35977933
165	0x3f34c4a0	0.70612526
166	0x3e99b7dd	0.3002309
167	0x3f0abf9e	0.54198635
168	0x3f45604b	0.77100056
169	0xbe8cb83f	-0.2748432
170	0xbf3c0201	-0.7344056
171	0x3f0714b6	0.5276598
172	0x3e902d84	0.28159726
173	0xbe20d7c2	-0.15707305
174	0xbf882ba4	-1.0638318
175	0xbd046b92	-0.03232915
176	0x3f7a72d6	0.97831476
177	0x3e819203	0.2530671
178	0x3eb046a0	0.34428883
179	0xbeb4c75f	-0.35308358
180	0xbf0b7ead	-0.54490167
181	0xbec5b884	-0.38617337
182	0x3db22c0d	0.08699808
183	0x3d4b739d	0.049670804
184	0x3ed390ec	0.41321504
185	0xbce0bfef	-0.027435271
186	0xbea1d71a	-0.31609422
187	0xbf07e9c3	-0.5309107
188	0x3e7b8e1c	0.24565929
189	0xbe4974f3	-0.19673519
190	0xbf30f3d6	-0.69122064
191	0x3e65aba8	0.22428763
192	0xbeed4fbb	-0.46349892
193	0xbd3615e4	-0.04445447
194	0x3f4c0c2b	0.79706067
195	0x3d99837f	0.07495784
196	0xbf8416e0	-1.0319481
197	0xbf431642	-0.7620584
198	0xbe2ffcb7	-0.17186247
199	0xbe616851	-0.2201245
200	0x3f92af2b	1.1459707
201	0x3ea22fab	0.31676993
202	0x3ec96e34	0.3934189
203	0x3e881aa5	0.26582828
204	0xbf158c3e	-0.5841712
205	0x3df3773e	0.11887978
206	0x3e673bac	0.22581357
207	0xbec07a73	-0.3759342
208	0x3eccf0c2	0.40027434
209	0xbdaf8917	-0.0857107
210	0xbf193846	-0.5985149
211	0x3ef59498	0.4796493
212	0xbef958f9	-0.48700693
213	0xbfc3c2ac	-1.5293784
214	0xbf06ed6e	-0.5270604
215	0xbf9ea668	-1.2394533
216	0x3f6120ee	0.8794087
217	0x3f307218	0.68924093
218	0x3e05f606	0.13082132
219	0x3f20ba8f	0.62784666
220	0xbee8e9cf	-0.45490882
221	0xbe8c8cf5	-0.27451292
222	0xbdddef15	-0.10836617
223	0x3f1b3912	0.6063396
224	0x3e181287	0.14850818
225	0x3d689841	0.056785826
226	0x3e2a8654	0.16652805
227	0xbf9d3ff2	-1.228514
228	0x3d7ed36e	0.062213354
229	0xbed17c78	-0.40915275
230	0xbe745806	-0.23861703
231	0x3d90af1d	0.0706465
232	0xbf56ee97	-0.8395781
233	0x3e410656	0.18850073
234	0xbf0f1ab3	-0.55900115
235	0x3e815278	0.2525823
236	0x3efca4fa	0.49344617
237	0x3f94e6aa	1.1632893
238	0xbe738475	-0.23780997
239	0xbe37517e	-0.1790218
240	0xbe2acbed	-0.16679354
241	0x3e06454f	0.13112377
242	0xbe00df23	-0.1258512
243	0xbf6834c7	-0.9070553
244	0xbe891872	-0.26776463
245	0x3eab70c1	0.33484462
246	0x3c4d47bb	0.012529309
247	0xbc72df4c	-0.014823746
248	0x3e7ca0a3	0.24670653
249	0xbe892e10	-0.26792955
250	0xbec9492e	-0.39313644
251	0xbe89ebfd	-0.26937857
252	0x3ac3cc35	0.0014938178
253	0xbea18665	-0.31547847
254	0xbfa189e9	-1.2620212
255	0x3ec3d0d7	0.3824527

model.0.bias f4 [200]
0	0x3da2901e	0.079376444
1	0x3d0bfbac	0.03417556
2	0x3dd1638c	0.10224065
3	0xbcf06418	-0.029344603
4	0xbdf66c24	-0.12032345
5	0x3d35ad55	0.044354755
6	0x3bec4ec7	0.0072115394
7	0x3d84be80	0.064816475
8	0xbd0b3d93	-0.03399427
9	0xbc23b051	-0.009990768
10	0x3ddc3e54	0.10754076
11	0x3d5aa57d	0.05338048
12	0xbdddb37c	-0.108252496
13	0x3c9d4b1a	0.01920085
14	0xbddf2e78	-0.10897535
15	0x3b74653e	0.003729179
16	0xbc9d6b6f	-0.019216267
17	0xbc904166	-0.01760931
18	0xbd2557db	-0.04036699
19	0xbd2ee3f3	-0.042697858
20	0xbe1b22ab	-0.15149944
21	0xbd48c0c7	-0.04901197
22	0xbda592b0	-0.08084619
23	0x3cbcf2f8	0.023065075
24	0xbe0c5b09	-0.13706602
25	0xbdc08276	-0.093998834
26	0xbd32bdf0	-0.04363817
27	0x3e238c5e	0.15971515
28	0xbd73b109	-0.059495006
29	0x3dcb3c9b	0.09923669
30	0x3d639928	0.055565983
31	0xbda6809f	-0.08130001
32	0x3d4946b8	0.04913971
33	0x3ce353e8	0.02774997
34	0x00000000	0.0
35	0xbcd3a796	-0.025836747
36	0xba8cf672	-0.0010754599
37	0xbdd208ae	-0.10255562
38	0xbd4da03f	-0.05020165
39	0xbdbb01c6	-0.09131198
40	0xbc8d9ed4	-0.01728765
41	0xbd3284b1	-0.043583576
42	0xbda2123d	-0.07913635
43	0xbdec36a1	-0.11533857
44	0xbd69555a	-0.056966163
45	0x3c12ed9a	0.008967781
46	0x3c2769fa	0.010218138
47	0xbd32bd31	-0.04363746
48	0x00000000	0.0
49	0x3d12e0ad	0.0358588
50	0xbbfe373c	-0.0077580493
51	0x3c28617c	0.010277148
52	0xbd045582	-0.03230811
53	0xbcf5e677	-0.03001712
54	0xbd9b3755	-0.07578913
55	0xbd102688	-0.035192996
56	0xbcb08530	-0.021547884
57	0x3d8a15ec	0.067424625
58	0x00000000	0.0
59	0xbde021c9	-0.10943944
60	0xbda6a3b2	-0.08136691
61	0xbd1fbedf	-0.03900039
62	0x3d56940d	0.052387286
63	0xbc9d60e7	-0.019211246
64	0xbcedc43c	-0.029024236
65	0xbc168c64	-0.009188745
66	0x3c873fa5	0.01650984
67	0x3b941546	0.0045191376
68	0xbd8bfd90	-0.068354726
69	0xbc486ead	-0.012233418
70	0x3dee8775	0.1164693
71	0xbcc64111	-0.024200948
72	0x3b8635a4	0.00409575
73	0xbd4a70d7	-0.04942402
74	0xbd4f0222	-0.050539143
75	0x00000000	0.0
76	0x3e14385b	0.14474623
77	0x00000000	0.0
78	0x00000000	0.0
79	0x00000000	0.0
80	0x3e0a7920	0.13522768
81	0xbd803954	-0.062609345
82	0xbc027b6a	-0.0079639945
83	0x3d7279c5	0.05919816
84	0x3d9b04e5	0.07569293
85	0xbcb9a299	-0.02266054
86	0x00000000	0.0
87	0xbd3bc182	-0.04583884
88	0x3cca3179	0.024681794
89	0x00000000	0.0
90	0xbe10255b	-0.1407675
91	0x3d09c9df	0.033639785
92	0x3a0f081f	0.0005456227
93	0x3c46a5fd	0.012124536
94	0xbdb6798f	-0.08909904
95	0xbd336e2a	-0.043806233
96	0xbcd6a666	-0.026202392
97	0x00000000	0.0
98	0x3d486747	0.048926618
99	0x3d434fc3	0.04768349
100	0xbb38c3bd	-0.002819284
101	0xbcc5bc3e	-0.024137612
102	0x3e17507c	0.14776796
103	0xbca1e922	-0.019764487
104	0x3b1bc13a	0.0023766295
105	0x3b95fef0	0.00457751
106	0x3c2916de	0.010320393
107	0xbdd8134e	-0.10550557
108	0xbcf4065c	-0.029788189
109	0x00000000	0.0
110	0xbd58ee51	-0.05296165
111	0x3db9048c	0.090340704
112	0xbd00e396	-0.031467043
113	0x3b0bac70	0.0021312498
114	0xbda4e19d	-0.08050845
115	0xbb6d0ad8	-0.0036169793
116	0xbce0b95d	-0.027432138
117	0xbd0e3533	-0.034718703
118	0xbe061d2f	-0.1309707
119	0x3b9cd338	0.0047859214
120	0xbe0aa634	-0.13539964
121	0xbd51b1c8	-0.051194936
122	0x3d157952	0.036492653
123	0xbdc6c526	-0.09705572
124	0xbc967997	-0.018368525
125	0x3db29eed	0.08721719
126	0xbd01721e	-0.03160297
127	0xbc242e8f	-0.010020866
128	0xbb641694	-0.0034803497
129	0xbd72effc	-0.0593109
130	0xbdbdcdf9	-0.09267802
131	0xbccec6c9	-0.025241273
132	0x3e2fea34	0.17179185
133	0x3ad74087	0.0016422429
134	0xbd4bf535	-0.049794395
135	0xbe20712a	-0.15668169
136	0xbc6c40db	-0.01441976
137	0x3c3b7284	0.011440877
138	0xbd3e083b	-0.046394568
139	0x3e3fe618	0.18740118
140	0xbd39425e	-0.04522931
141	0xbc68fca9	-0.014220395
142	0xbd07832e	-0.033084087
143	0xbd60add0	-0.05485326
144	0xbd1d7395	-0.038440306
145	0xbcff6a89	-0.03117873
146	0xbd803cf5	-0.06261627
147	0x00000000	0.0
148	0xbdc810a6	-0.097688004
149	0xbc666781	-0.014062763
150	0x3d073185	0.03300621
151	0xbd94bc1a	-0.0726244
152	0xbd87389f	-0.066025965
153	0xbe173c3c	-0.14769071
154	0x3c4b9b85	0.012427215
155	0x3c81a593	0.015826022
156	0x3d5cf1ef	0.053941663
157	0xbdb45414	-0.08805099
158	0xbcb7dad6	-0.022443216
159	0xbcc34303	-0.023835665
160	0xbe2339a2	-0.15939954
161	0xbd9fa828	-0.07795745
162	0x3cabb733	0.02096138
163	0x3d122ae1	0.035685424
164	0xbd9c17e0	-0.07621741
165	0x3d0ad758	0.033896774
166	0x3c1e8bee	0.0096769165
167	0xbe321293	-0.17389898
168	0xbc8bf1e0	-0.017083108
169	0xbd7d6e48	-0.06187275
170	0xbc043be5	-0.008070921
171	0xbbd1bafd	-0.0064004646
172	0x3d0e0d88	0.034680873
173	0x3c28e548	0.010308571
174	0x3bf087e0	0.0073404163
175	0x3d8a6c25	0.06758908
176	0xbe0f8ee0	-0.14019346
177	0xbd563940	-0.05230069
178	0x3dbfe0b7	0.09369033
179	0xbd975a22	-0.07390238
180	0xbc77b30e	-0.015118374
181	0x00000000	0.0
182	0x3bad95ef	0.0052974145
183	0x3dab52f3	0.08365431
184	0x3db2abd1	0.08724178
185	0xbd0326af	-0.032019313
186	0xbdd510c4	-0.104035884
187	0xbb925561	-0.0044657444
188	0xbcb4456f	-0.022005765
189	0x3b1164ec	0.0022185398
190	0x3d64c23c	0.0558493
191	0xbd0611c6	-0.032731794
192	0xbda156c0	-0.078778744
193	0x3d5b8e5d	0.053602565
194	0xbd803597	-0.062602215
195	0x3d9dad6f	0.076990955
196	0x00000000	0.0
197	0xbd990d09	-0.074731894
198	0xbd6be253	-0.057588886
199	0xbc241021	-0.010013611

model.2.weight f4 [200, 200]
0	0xbd168a94	-0.036753252
1	0x3d2e0336	0.04248353
2	0x3d6b4701	0.05744076
3	0xbe2792b8	-0.16364563
4	0xbdbf7c55	-0.09349886
5	0xbda7baaf	-0.08189904
6	0x3c85664b	0.016284129
7	0x3e2e3cb4	0.17015344
8	0xbc6bb41c	-0.014386203
9	0x3d4797ce	0.048728757
10	0x3d92182a	0.07133515
11	0xbd13abbe	-0.036052458
12	0xbe9885c6	-0.2978956
13	0x3d179fd5	0.037017662
14	0x3dcc9d6d	0.09990964
15	0x3dc4c874	0.09608546
16	0xbbd1ad84	-0.0063988585
17	0xbdb418b2	-0.08793773
18	0xbe31ade5	-0.17351492
19	0x3b06f632	0.0020593521
20	0xbc03a712	-0.008035438
21	0xbd29c3f3	-0.041446637
22	0xbe1fb1dc	-0.15595192
23	0x3c8db32b	0.017297348
24	0xbe11bf0f	-0.1423304
25	0x3e6bc2eb	0.23023574
26	0xbe378732	-0.17922667
27	0x3cf9ad8b	0.03047826
28	0xbdb7ce1e	-0.089748606
29	0x3c4eb232	0.012615727
30	0xbe0aedd0	-0.13567281
31	0x3c922788	0.017841116
32	0x3d050d69	0.032483492
33	0x3ce506e6	0.027957391
34	0x3e2b7c71	0.1674669
35	0x3d0e1e98	0.034697145
36	0x3e6614fd	0.22468944
37	0xbdc40268	-0.095707715
38	0xbc0b970a	-0.008519897
39	0x3d8c0663	0.06837156
40	0x3d82fbb4	0.06395665
41	0x3d9d83ff	0.07691192
42	0x3cf02858	0.029316112
43	0x3d5b719a	0.053575136
44	0x3c3d710c	0.011562597
45	0xbe0a2d98	-0.13493955
46	0xbdbaa11b	-0.0911276
47	0xbde7ebc0	-0.113242626
48	0xbe6ddec3	-0.23229508
49	0x3da01b7f	0.078177445
50	0x3d271251	0.040788952
51	0xbd9daf0f	-0.076994054
52	0x3d7fd181	0.062455658
53	0xbd2cb679	-0.042166207
54	0xbdcf766e	-0.101300105
55	0x3c982775	0.018573502
56	0xbcd25668	-0.025675967
57	0x3d5ce03e	0.05392479
58	0xbdda50e0	-0.10659957
59	0xbe0062d2	-0.12537697
60	0x3d08288b	0.03324179
61	0x3e2b071f	0.16701935
62	0x3ccbacd2	0.02486268
63	0x3c7d795a	0.015470827
64	0xbdd11ef3	-0.10210981
65	0xbe1a8309	-0.15089048
66	0x3dd040f3	0.10168638
67	0xbd7b5a6e	-0.061365537
68	0x3d6c9166	0.05775585
69	0x3c273d78	0.010207526
70	0x3e3af563	0.1825767
71	0xbd543686	-0.05180981
72	0x3e355df8	0.17711627
73	0x3e0cdf9b	0.13757174
74	0x3ddd618d	0.10809622
75	0xbbb3d8fb	-0.0054885126
76	0x3cebd4ce	0.028787997
77	0xbd894a08	-0.067035735
78	0xbdb17a14	-0.08665863
79	0x3cf13058	0.029441997
80	0xbe1654e8	-0.14680827
81	0x3d1d53e8	0.038410097
82	0x3e39861c	0.18117565
83	0xbdba7805	-0.09104923
84	0xbdb18683	-0.08668234
85	0xbce0a15e	-0.027420696
86	0x3da4a99e	0.080401644
87	0x3dd36e5f	0.10323786
88	0x3cba4075	0.022735814
89	0xbd9692ff	-0.07352256
90	0xb8c3bf40	-9.333948e-05
91	0x3d78f5b1	0.060781185
92	0xbdaa2287	-0.08307367
93	0xbcfe391c	-0.031033091
94	0x3e48a51b	0.19594233
95	0xbc2488e7	-0.010042406
96	0x3d16b52c	0.036793873
97	0xbda9ca88	-0.08290583
98	0xbd5c3631	-0.05376262
99	0xbe0949c3	-0.13407044
100	0xbcdd5cde	-0.027021822
101	0x3df6ec14	0.12056747
102	0x3e488f76	0.19585976
103	0xbd0c88fa	-0.03431032
104	0xbcf8b28c	-0.030358575
105	0xbbe794b3	-0.007067287
106	0xbe004182	-0.12524989
107	0xbd9bb306	-0.076025054
108	0xbe70bee4	-0.23510319
109	0xbda37b6e	-0.07982527
110	0x3d3d0296	0.046145044
111	0x3c9c2553	0.019060766
112	0xbd7d314c	-0.06181459
113	0x3e8c96fe	0.27458948
114	0xbde44a9c	-0.11147043
115	0xbe035431	-0.12825085
116	0xbdfc3ee2	-0.123166814
117	0x3dd2f7e7	0.1030119
118	0x3e2e3918	0.17013967
119	0xbdc069f5	-0.0939521
120	0x3da04bbb	0.078269444
121	0x3d843dd1	0.06457103
122	0x3caf06de	0.02136558
123	0xbd066f4e	-0.032820992
124	0xbcace554	-0.021105446
125	0xbcb50773	-0.022098279
126	0xbdc48cbe	-0.09597157
127	0x3dedc1a0	0.11609197
128	0x3d38f29d	0.04515325
129	0xbe2ce358	-0.168836
130	0xbd999c1f	-0.07500481
131	0xbe097bc5	-0.1342612
132	0x3e1ac2cb	0.1511337
133	0xbdc5972d	-0.09647975
134	0xbd83f967	-0.06444054
135	0x3c85ed1a	0.01634841
136	0xbcfc15ab	-0.03077205
137	0xbd7999ab	-0.060937565
138	0xbd7d3095	-0.06181391
139	0x3d51894c	0.051156327
140	0xbe0a65ff	-0.13515471
141	0xbe012492	-0.12611607
142	0xbc9f56b3	-0.019450521
143	0xbd3d8c26	-0.046276234
144	0xbd94c47f	-0.07264041
145	0xbdfd4d11	-0.12368215
146	0x3e44847d	0.19191165
147	0x3b160b02	0.0022894745
148	0xbd14ea2e	-0.036356144
149	0xbe090665	-0.13381346
150	0xbd98dd25	-0.07464055
151	0xbe13f130	-0.14447474
152	0xbe5272b5	-0.2055157
153	0x3e098d81	0.13432886
154	0x3d35bd06	0.04436972
155	0xbd8313ca	-0.06400259
156	0xbccfa29f	-0.025346098
157	0x3d8f39a0	0.06993413
158	0xbdd22e52	-0.10262741
159	0x3df9d8d8	0.12199563
160	0x3c3272b8	0.010891609
161	0x3cd0a9e0	0.025471628
162	0xbd1089f7	-0.035287824
163	0xbd3b1785	-0.045676727
164	0xbd9ef071	-0.07760704
165	0x3da21b2a	0.079153374
166	0xbc9708da	-0.018436838
167	0x3c886f3c	0.016654603
168	0xbdf5b4bb	-0.11997362
169	0xbc836b1a	-0.016042281
170	0xbe06bbd0	-0.13157582
171	0x3db16aef	0.08662974
172	0xbe0733e0	-0.13203382
173	0x3d250532	0.040288158
174	0xbd01d4e4	-0.03169717
175	0xbd98eacb	-0.07466658
176	0xbc43f752	-0.011960821
177	0x3da9ed0e	0.08297168
178	0x3c466520	0.012109071
179	0xbbe169de	-0.0068790754
180	0x3de83442	0.113380924
181	0xbd6ae35d	-0.057345737
182	0x3e08d2af	0.1336162
183	0x3e25dff5	0.16198714
184	0xbd528374	-0.051394895
185	0x3ca952f4	0.020669438
186	0x3e05d955	0.13071187
187	0x3c94d316	0.01816706
188	0xbddabce0	-0.10680556
189	0xbd40bdd4	-0.047056034
190	0x3d9fc06a	0.07800372
191	0x3db0f24b	0.08639964
192	0x3e1d7557	0.15376793
193	0x3dbdf127	0.09274512
194	0xbd8f3f70	-0.069945216
195	0x3deca9b4	0.11555806
196	0xbd98cde2	-0.07461144
197	0x3d1f7f09	0.03893951
198	0xbc4fe4eb	-0.012688856
199	0x3d88796b	0.06663784
200	0x3dea5e4c	0.11443767
201	0xbc0e61cb	-0.008690308
202	0xbd706509	-0.058690105
203	0xbc897eee	-0.016784158
204	0x3c60048c	0.013672959
205	0x3bb8f046	0.005643877
206	0xbdba0f99	-0.09085006
207	0xbcee6d5f	-0.029104887
208	0xbd757f28	-0.05993572
209	0xbd3b9c82	-0.045803554
210	0x3daf739a	0.08566971
211	0x3d8d9cd7	0.069146805
212	0x3cb2167a	0.021739233
213	0x3e4b8f83	0.19878964
214	0xbb727258	-0.0036994424
215	0x3dea68d7	0.11445778
216	0xbcb7cb55	-0.022435823
217	0x3cc49557	0.023996992
218	0xbca689c6	-0.020329367
219	0xbe0fad0a	-0.14030853
220	0xbc3018a5	-0.010748063
221	0x3dbe012b	0.092775665
222	0xbe494ec6	-0.19658956
223	0xbe0297ab	-0.12753169
224	0x3d49f986	0.04931023
225	0xbc6874d7	-0.014188013
226	0x3e3e157a	0.1856288
227	0xbd67fb91	-0.056636397
228	0x3b372eff	0.0027951596
229	0xbcfe1a0a	-0.031018276
230	0x3ea53cb6	0.3227288
231	0xbe3f53f9	-0.18684377
232	0xbe053dea	-0.130119
233	0x3cc9dfac	0.024642788
234	0xbd57e0a3	-0.052704465
235	0x3d182fd4	0.037154987
236	0x3d196c7a	0.037456967
237	0x3d9691c3	0.073520206
238	0xbd314535	-0.04327889
239	0xbd55af45	-0.052169103
240	0x3c426ddd	0.011867014
241	0x3def9a19	0.11699314
242	0xbced657f	-0.028979061
243	0x3e1c902f	0.15289377
244	0xbc2b3e3c	-0.01045185
245	0x3e4b1b57	0.19834648
246	0xbc6c0c93	-0.014407295
247	0xbd5346b6	-0.051581107
248	0x3d832d7b	0.06405159
249	0x3c9bcfca	0.01901998
250	0x3da6217d	0.08111856
251	0xbd40713d	-0.046982992
252	0x3d3d8af5	0.046275098
253	0x3d8d016b	0.06885036
254	0x3d5bd618	0.053670973
255	0xbb8841f5	-0.0041582533

model.2.bias f4 [200]
0	0xbb62621e	-0.0034543346
1	0x3d94a7d0	0.0725857
2	0xbd30d6c4	-0.043173566
3	0xbc28ade6	-0.010295367
4	0xbbdc5c1c	-0.0067248475
5	0xbcaf08ce	-0.021366503
6	0x00000000	0.0
7	0xbc96a6b8	-0.018390045
8	0x3d85217c	0.06500527
9	0xbc753dc6	-0.014968341
10	0xbc23d708	-0.009999998
11	0xbc32ebde	-0.010920493
12	0xbcc9b440	-0.024622083
13	0xbc23d6ea	-0.00999997
14	0xbc6a93d4	-0.0143174715
15	0xbc9e0d66	-0.019293498
16	0xbc7619f5	-0.015020837
17	0xbcf7ce12	-0.03024963
18	0xbc9e1e82	-0.019301657
19	0xbcb7c5c1	-0.022433164
20	0xbcbd4431	-0.023103805
21	0xbc054b7e	-0.0081356745
22	0xbcf66f2a	-0.030082304
23	0xbc4c738e	-0.012478722
24	0xbc3aa1b8	-0.011391096
25	0xbc8e0374	-0.017335631
26	0xbce696d7	-0.028148098
27	0xbcfc9122	-0.030830923
28	0xbd7fb82a	-0.062431492
29	0xbcfccf5a	-0.030860592
30	0xbc78a45a	-0.015175903
31	0xbcee4b92	-0.02908877
32	0x3c2375c2	0.009976806
33	0xbc23d70a	-0.01
34	0xbcc1183f	-0.023571132
35	0xbbd0155f	-0.006350204
36	0xbc8e7386	-0.01738907
37	0xbb86c2c0	-0.0041125715
38	0xbb18e948	-0.0023332406
39	0xbd5c980b	-0.053855937
40	0x3baacdb6	0.005212511
41	0xbcb50b2c	-0.022100054
42	0xbceb8260	-0.028748691
43	0xbc5a092c	-0.013307851
44	0xbbb3b240	-0.0054838955
45	0xbc8c4ab4	-0.017125465
46	0xbcf37e8a	-0.029723424
47	0xbcaa605f	-0.020797906
48	0xbc86a252	-0.016434822
49	0xbce6a2f5	-0.028153876
50	0xbc1f6ce9	-0.009730556
51	0x3bcd99f0	0.0062744543
52	0xbc9461c1	-0.018113019
53	0xbaee48aa	-0.0018179615
54	0xbc12be57	-0.008956513
55	0xbcfc36c2	-0.03078783
56	0xbcb194b3	-0.02167735
57	0x00000000	0.0
58	0xbce93e5c	-0.028472118
59	0x00000000	0.0
60	0xbd958f28	-0.073026955
61	0xbc869c1a	-0.016431857
62	0xbc44cb3e	-0.012011347
63	0xbc669cef	-0.014075502
64	0x00000000	0.0
65	0xbc8090ce	-0.015694048
66	0xbd087a7d	-0.03331994
67	0x00000000	0.0
68	0xbd089031	-0.033340637
69	0xbc6a3679	-0.014295214
70	0xbc9cfc02	-0.019163135
71	0xbc8e891f	-0.017399369
72	0xbc80e482	-0.015733961
73	0xbc73908c	-0.014866006
74	0xbc96d714	-0.018413104
75	0xbc87e95f	-0.016590772
76	0xbc82a81c	-0.015949301
77	0xbb7c807e	-0.0038528736
78	0xbce56a60	-0.028004825
79	0xbc8e6e98	-0.01738672
80	0xbcbd1c82	-0.023084883
81	0xb96a5a06	-0.00022349515
82	0xbc86fadf	-0.016477047
83	0x00000000	0.0
84	0xbc8bf36e	-0.01708385
85	0xbd01d929	-0.03170124
86	0xbcbcb868	-0.02303715
87	0xbcd1f18a	-0.02562787
88	0xbc6f0ccc	-0.014590453
89	0xbb00e099	-0.001966512
90	0xbc87a7c0	-0.016559482
91	0xbc9c3fe8	-0.019073442
92	0xbbeaf92c	-0.007170817
93	0xbc990333	-0.018678283
94	0xbd0ba8aa	-0.034096397
95	0xbca5d644	-0.020243771
96	0xbab6ebdf	-0.0013955793
97	0xbd3ef358	-0.04661879
98	0xbcadf189	-0.021233337
99	0xbc9c052c	-0.019045435
100	0xbc18ee86	-0.009334212
101	0xbd10d0da	-0.035355426
102	0x00000000	0.0
103	0xbd13fdca	-0.036130704
104	0xbcc23ab1	-0.023709627
105	0xbc809396	-0.015695374
106	0xbc726ad8	-0.014795981
107	0xbc976215	-0.018479386
108	0xbc7fb002	-0.015605928
109	0x00000000	0.0
110	0xbc8bca02	-0.017064098
111	0xbc74aab0	-0.014933273
112	0xbd025711	-0.031821314
113	0xbc88aa00	-0.016682625
114	0x00000000	0.0
115	0xbc3ba7c7	-0.011453575
116	0xbcb449e0	-0.022007883
117	0xbcfb441b	-0.030672124
118	0xbbe48750	-0.0069741383
119	0x00000000	0.0
120	0xbcb348c1	-0.021885278
121	0xbc6cf5c4	-0.014462892
122	0x3d17f98e	0.03710323
123	0xbc23d701	-0.009999991
124	0xbcd2e8e1	-0.025745811
125	0xbc3fd11a	-0.011707569
126	0x00000000	0.0
127	0xbc23d6f0	-0.009999976
128	0xbc8c7134	-0.017143823
129	0xbd15fbc5	-0.03661706
130	0xbc269c17	-0.010169051
131	0xbc600cc0	-0.013674915
132	0xbbe6bb26	-0.007041353
133	0xbcf127c8	-0.029437914
134	0xbcc8bdef	-0.02450463
135	0xbc958df9	-0.018256174
136	0xbc23d70a	-0.01
137	0x3c87e3ec	0.016588174
138	0xbd0d46aa	-0.03449122
139	0xbc4ee2d4	-0.012627322
140	0xbc8ccc89	-0.017187374
141	0xbd099072	-0.03358502
142	0xbc0fb637	-0.008771471
143	0xbc43c448	-0.011948653
144	0xbc2bfe85	-0.010497694
145	0xbc4494c5	-0.01199836
146	0xbcaac3ee	-0.02084538
147	0xbce32b9e	-0.02773076
148	0xbd94e3c3	-0.072700046
149	0xbcbd6396	-0.023118775
150	0xbc92a93f	-0.017902968
151	0xbcea7581	-0.028620483
152	0xbd2ce5ab	-0.042211216
153	0xbcfe07ed	-0.031009639
154	0xbb9edde2	-0.004848228
155	0xbcc17fa8	-0.023620442
156	0xbc262f86	-0.010143166
157	0xbc23d70a	-0.01
158	0x00000000	0.0
159	0xbcf29cc5	-0.02961577
160	0xbc5cc3bc	-0.013474401
161	0xbca28928	-0.019840792
162	0x3b94bb64	0.0045389403
163	0x3d9626bd	0.073316075
164	0xbcca7817	-0.024715466
165	0xbcb0adbd	-0.02156722
166	0x00000000	0.0
167	0x3db64ec9	0.08901746
168	0xbda2788e	-0.0793315
169	0xbcf62f1d	-0.030051762
170	0xba2f358b	-0.0006683699
171	0xbcde9c58	-0.02717416
172	0xbcbf25a2	-0.023333374
173	0xbca0d12a	-0.019630987
174	0xbc401da1	-0.011725814
175	0xbcf1e72f	-0.029529182
176	0xbcab1cb4	-0.02088771
177	0xbc944d11	-0.018103154
178	0xbc744624	-0.014909301
179	0xbc7aebd2	-0.015315013
180	0xbd1a29a4	-0.037637368
181	0xbc865100	-0.016396046
182	0xbd163ed5	-0.036681015
183	0xbca13bfc	-0.019681923
184	0xbcabb735	-0.020961383
185	0xbcb6abbd	-0.022298688
186	0xbd13277b	-0.035926323
187	0xbb23c15b	-0.0024987075
188	0xbc23d6b6	-0.009999922
189	0xbd024e42	-0.031812914
190	0xbce0ebf5	-0.027456263
191	0x00000000	0.0
192	0x00000000	0.0
193	0xbbd2f29a	-0.0064376118
194	0x00000000	0.0
195	0x00000000	0.0
196	0xbcb3a076	-0.0219271
197	0x00000000	0.0
198	0xbcc6dae7	-0.024274303
199	0xbc23d4bc	-0.00999945

model.5.weight f4 [200, 200]
0	0xbe1772ad	-0.14789839
1	0xbd050936	-0.032479487
2	0x3b79e47c	0.0038130572
3	0x3d1b29fe	0.037881844
4	0x3df43d20	0.11925721
5	0x3d93ec91	0.07222856
6	0x3da6b20d	0.08139429
7	0xbe120f31	-0.14263608
8	0xbddb9d59	-0.10723371
9	0x3e52d53b	0.20589153
10	0x3e4afdeb	0.19823425
11	0xbd5f0b5b	-0.05445419
12	0xbc9683b3	-0.018373346
13	0x3d69b65c	0.057058677
14	0x3d850424	0.064949304
15	0xbe28386d	-0.16427775
16	0xbcd4a04f	-0.025955347
17	0x3ceeab1f	0.029134331
18	0x3ccae593	0.024767673
19	0xbbcd39b2	-0.0062629813
20	0xbc2fb0fe	-0.010723351
21	0x3e06292e	0.13101646
22	0xbe0cdc21	-0.13755848
23	0xbdb71080	-0.08938694
24	0xbdd629fd	-0.104572274
25	0x3d1f8780	0.038947582
26	0xbd76f3a4	-0.060290948
27	0xbe4b825d	-0.19873948
28	0xbb6aac75	-0.0035808359
29	0x3ddd66b3	0.10810604
30	0x3e1c080c	0.15237445
31	0xba65eff7	-0.0008771414
32	0x3d81a47e	0.063302025
33	0xbba54394	-0.0050434563
34	0xbcee6176	-0.029099207
35	0x3b91c996	0.0044490797
36	0xbc078398	-0.0082711205
37	0xbe0979e2	-0.13425401
38	0xbc8d90b0	-0.017280906
39	0x3d9d340c	0.07675943
40	0xbd0e07ff	-0.034675594
41	0x3dbee1c9	0.09320409
42	0x3d2cf70f	0.0422278
43	0x3d3c703d	0.046005476
44	0x3dcec25f	0.10095667
45	0xbca4927d	-0.020089382
46	0xbe016183	-0.12634854
47	0x3dc0b699	0.09409828
48	0xbd24f3d2	-0.040271588
49	0xbd027fd2	-0.03186018
50	0xbd5a3c57	-0.0532802
51	0xbdb60b3f	-0.08888864
52	0xbcc62af3	-0.024190402
53	0xbd70b0ae	-0.058762245
54	0x3c84564d	0.016154433
55	0xbd45e2a1	-0.048311833
56	0xbc1b1118	-0.009464525
57	0x3e33fb21	0.17576267
58	0xbaa9f04a	-0.0012965288
59	0x3db107f0	0.08644092
60	0xbd7a95c1	-0.061177973
61	0xbc28d585	-0.010304813
62	0xbd5e1a5b	-0.054224353
63	0x3e381401	0.17976381
64	0x3d139957	0.03603491
65	0x3d17c22d	0.037050415
66	0xbc00c99c	-0.007860567
67	0x3d6478fa	0.055779435
68	0x3d31b8a8	0.043388993
69	0xbdb16285	-0.08661369
70	0xbd16fb05	-0.036860485
71	0x3d96956b	0.07352718
72	0x3e1d5995	0.15366204
73	0x3db58f26	0.08865194
74	0x3e1cb079	0.15301694
75	0xbcc1edb7	-0.023672922
76	0xbd74b873	-0.059746217
77	0xbd39a2ba	-0.045321204
78	0xbda54c75	-0.08071224
79	0xbe04dea8	-0.12975562
80	0x3db72822	0.089432016
81	0x3e0748bc	0.1321134
82	0xbe47c8a9	-0.1951014
83	0x3bf8923b	0.0075857914
84	0xbcfe174e	-0.031016972
85	0x3b90365e	0.0044010123
86	0x3e00c06d	0.12573405
87	0xbe21342f	-0.15742563
88	0xbc08d312	-0.008351104
89	0x3ca20ca5	0.01978142
90	0xbe12d053	-0.14337282
91	0xbc1861a2	-0.009300621
92	0xbcb32a7a	-0.02187084
93	0x3cc5a7bf	0.02412784
94	0x3c77d783	0.015127066
95	0xba4d13dc	-0.00078230887
96	0x3d663e13	0.056211542
97	0xbcbcfad2	-0.02306882
98	0xbdbd2d2f	-0.09237134
99	0x3d26d32e	0.04072874
100	0xbbc901ca	-0.0061342465
101	0xbdb7bf35	-0.08972017
102	0x3c0f46da	0.00874492
103	0x3d604d83	0.05476142
104	0xbdd93545	-0.106058635
105	0x3e104f77	0.14092813
106	0xbd8cb3b5	-0.06870214
107	0xbd4de821	-0.050270204
108	0x3e09ef24	0.13470131
109	0x3d851faf	0.06500184
110	0x3d98ba0e	0.07457362
111	0x3e24a178	0.1607722
112	0x3b57e226	0.0032941191
113	0x3eaf52b5	0.34242788
114	0xbda747bc	-0.08167979
115	0xbdb980c2	-0.09057762
116	0x3d75b27e	0.059984677
117	0xbd9aadac	-0.075526565
118	0xbe3a82db	-0.1821398
119	0x3d5bafda	0.053634502
120	0xbdf5593c	-0.11979911
121	0xbd2a18c0	-0.04152751
122	0x3d7c7486	0.061634563
123	0xbb5faab8	-0.0034128856
124	0xbd6c3df5	-0.057676274
125	0x3dc5acc9	0.09652097
126	0xbdb4ef3f	-0.08834695
127	0xbd94ff9f	-0.07275318
128	0xbe4d8566	-0.20070419
129	0x3d8735c7	0.06602054
130	0x3e126d1f	0.14299439
131	0xbd33072d	-0.043708015
132	0xbd192d37	-0.037396636
133	0x3dcb3f88	0.09924227
134	0x39bc2330	0.0003588437
135	0xbd8d40a3	-0.06897094
136	0xbd3803c1	-0.044925455
137	0xbb9b47b3	-0.004738772
138	0xbd771f5a	-0.060332634
139	0x3dd1c8c6	0.102433726
140	0x3d782f6a	0.060592093
141	0x3d73ef59	0.05955443
142	0x3dd2f09b	0.10299798
143	0xb9dc62b8	-0.0004203522
144	0x3d24b876	0.04021498
145	0x3e4d8264	0.20069271
146	0x3cc4afc3	0.024009591
147	0x3d8116d7	0.063031845
148	0x3e1e16f1	0.15438439
149	0xbc821693	-0.015879905
150	0xbc960b53	-0.018315947
151	0x3e226e30	0.15862346
152	0x3c006e72	0.007838832
153	0xbdf8e76a	-0.12153514
154	0xbcdaec6b	-0.026724061
155	0x3e187a2a	0.14890352
156	0xbd0e9804	-0.034812942
157	0x3d640b9f	0.055675145
158	0xbe6e13d2	-0.23249748
159	0x3dcc03c3	0.09961655
160	0xbdc274c7	-0.0949493
161	0x3c27de56	0.01024588
162	0x3e0dd593	0.13851003
163	0x3d98b250	0.074558854
164	0x3d0425dc	0.032262668
165	0xbd58c107	-0.05291846
166	0x3b3d575f	0.0028891189
167	0x3cf219e2	0.029553358
168	0x3da1917b	0.07889076
169	0xbd947bfb	-0.0725021
170	0x3d33329c	0.043749437
171	0xbd79940f	-0.060932215
172	0x3bcd5871	0.0062666466
173	0xbdda8300	-0.106695175
174	0x3d7ad6ba	0.061239935
175	0x3bb97012	0.005659112
176	0xbd0bf079	-0.03416488
177	0xbe90d05a	-0.2828396
178	0x3d3d951f	0.04628479
179	0xbd17bfc5	-0.03704812
180	0x3d84d277	0.064854555
181	0x3e220cde	0.15825221
182	0xbe034232	-0.1281822
183	0xbd15f7d4	-0.0366133
184	0x3e40633c	0.18787855
185	0xbca1d684	-0.01975561
186	0xbccf2614	-0.025286712
187	0x3dca37c8	0.09873921
188	0x3d9fb01b	0.07797261
189	0xbe36c5c8	-0.17848885
190	0x3dbbc451	0.09168304
191	0x3de806e0	0.11329436
192	0x3ce4b1e7	0.027916862
193	0x3d90b478	0.07065672
194	0xbdeed5b3	-0.11661854
195	0x3e587d6d	0.21141596
196	0xbc390330	-0.011292264
197	0xbc9e1d25	-0.019301007
198	0xbe02453b	-0.12721722
199	0xbce26c07	-0.027639402
200	0xbdf1a997	-0.11799925
201	0xbd789e6a	-0.06069795
202	0x3e610898	0.21975935
203	0x3c3140e5	0.010818695
204	0xbe26c7eb	-0.162872
205	0xbdb95cfa	-0.09050937
206	0xbd3e0e23	-0.0464002
207	0x3d442a3f	0.04789185
208	0x3cbc65f1	0.022997828
209	0xbd0934c9	-0.033497605
210	0x3bfd282a	0.007725735
211	0xbcae9620	-0.02131182
212	0x3e018661	0.12648918
213	0xbd71869a	-0.058966257
214	0xbd83ca47	-0.06435066
215	0xbb2f012e	-0.0026703584
216	0xbd8a80de	-0.06762861
217	0xbc28896d	-0.010286671
218	0xbb6e7d10	-0.003639046
219	0xbe0d3b2d	-0.13792105
220	0xbdac8150	-0.08423102
221	0x3dceae46	0.10091834
222	0xbde28d91	-0.11062158
223	0xbd829111	-0.063753255
224	0xbdc58235	-0.09643976
225	0xbe031a53	-0.1280301
226	0x3abc3416	0.0014358785
227	0xbd95401c	-0.072876185
228	0x3c3251b9	0.010883742
229	0xbd21dbc9	-0.039516244
230	0x3d8499d6	0.064746544
231	0xbc8fcfb2	-0.017555092
232	0x3e6d092c	0.2314803
233	0x3d7f794f	0.06237155
234	0xbe05bc2c	-0.13060063
235	0xbe080dfb	-0.13286583
236	0x3dd38e2b	0.10329851
237	0xbe81668a	-0.25273544
238	0xbd276837	-0.04087087
239	0xbd3720f1	-0.04470915
240	0xbe0d9498	-0.13826215
241	0xbe4109ae	-0.18851349
242	0xbe2d42d4	-0.16920024
243	0xbd05e858	-0.032692283
244	0xbcacf2b5	-0.021111825
245	0x3bdb3733	0.00668993
246	0x3d5ec96c	0.05439131
247	0x3d67af47	0.056563642
248	0x3d335dc4	0.043790594
249	0x3daf6df6	0.08565895
250	0x3e333875	0.17502005
251	0x3d80b4bb	0.062844716
252	0x3dcdd434	0.1005024
253	0x3cb86979	0.02251123
254	0xbe161b98	-0.14658964
255	0xbc5f608e	-0.01363386

model.5.bias f4 [200]
0	0xbcb4029c	-0.0219739
1	0xbd364a15	-0.044504244
2	0xbdbb8f3e	-0.09158181
3	0xbd4e2d5c	-0.050336227
4	0xbd357b7d	-0.04430722
5	0xbcdf9ae8	-0.027295545
6	0xbca2dcf1	-0.019880744
7	0xbd94bcc3	-0.07262566
8	0xbd42ad4b	-0.047528546
9	0xbd9f25b4	-0.07770863
10	0xbcd867a0	-0.0264166
11	0xbd9d3c21	-0.07677484
12	0xbd7e64af	-0.062107738
13	0xbd35e0ce	-0.044403844
14	0x3b8abf65	0.004234242
15	0xbd91be2d	-0.07116351
16	0xbdca79da	-0.098865226
17	0xbd612a13	-0.054971766
18	0x3cf469c4	0.02983559
19	0xbd8b7b13	-0.06810584
20	0xbd7bc07d	-0.061462868
21	0xbd83d263	-0.064366125
22	0xbca0bc03	-0.019620901
23	0xbd5c720a	-0.053819694
24	0xbdbec13c	-0.093142
25	0xbce9e34a	-0.028550763
26	0xbd29504e	-0.04133635
27	0xbd27b5bc	-0.0409448
28	0xbd8cc5fb	-0.06873699
29	0xbd4ea736	-0.050452434
30	0xbcdf5438	-0.027261838
31	0xbd511876	-0.05104872
32	0xbd516153	-0.051118206
33	0xbdae5785	-0.08512787
34	0xbd61ecba	-0.0551574
35	0xbd40643f	-0.046970602
36	0xbd102218	-0.035188764
37	0xbd8ea025	-0.06964139
38	0x3b829b14	0.003985772
39	0x3c8dddbb	0.017317643
40	0x3d65ea85	0.05613186
41	0xbd036ad9	-0.03208432
42	0xbd55a9de	-0.05216395
43	0xbcd603a1	-0.026124777
44	0xbde0aa33	-0.10969963
45	0xbd40ff9c	-0.047118768
46	0xbd21556b	-0.0393881
47	0xbd5cbe01	-0.05389214
48	0xbd24b536	-0.04021188
49	0xbccfa847	-0.025348796
50	0xbd1a6f5b	-0.037703853
51	0xbd4fab90	-0.050700724
52	0xbc1da81d	-0.009622601
53	0xbd47c572	-0.048772283
54	0xbd3f4d50	-0.04670459
55	0xbd8548c8	-0.065080225
56	0xbd4ad0c1	-0.04951549
57	0xbdaa0bf2	-0.0830306
58	0xbce13024	-0.027488776
59	0xbd8ca11d	-0.068666674
60	0x3c54388b	0.012952934
61	0xbcb43cc4	-0.022001632
62	0xbc26c6de	-0.01017925
63	0x3bb3ded5	0.00548921
64	0xbca363f6	-0.019945126
65	0xbd41b1ec	-0.04728882
66	0xbc2c3ce7	-0.010512567
67	0xbc8d341a	-0.017236758
68	0xbd9376fe	-0.0720043
69	0xbbe117e8	-0.006869305
70	0xbcbdfa41	-0.02319062
71	0xbd59a3b4	-0.053134635
72	0xbd502306	-0.05081465
73	0xbd7e520c	-0.062089965
74	0xbd5d4b61	-0.054026965
75	0xbc663b88	-0.014052279
76	0xbd9dfe8e	-0.07714568
77	0xbcca8422	-0.024721209
78	0x3d54bf34	0.051940158
79	0xbd9877b1	-0.07444704
80	0xbdc14456	-0.09436862
81	0x3c404ba9	0.011736789
82	0xbd31a57e	-0.043370716
83	0xba88cfe5	-0.0010437934
84	0xbc79e2a9	-0.015251794
85	0xbc24ecaa	-0.010066191
86	0x3aad0290	0.0013199616
87	0xbcd2c79b	-0.025729945
88	0xbd72b853	-0.059257817
89	0xbcae9ae2	-0.021314088
90	0x3c9d4e9a	0.01920252
91	0xbcbc68b0	-0.022999138
92	0x3c3e8477	0.011628262
93	0xbd53d562	-0.05171717
94	0xbdce8eff	-0.10085868
95	0xbd1c9864	-0.03823127
96	0xbd29ea02	-0.041482933
97	0xbbbab45f	-0.0056977714
98	0xbc8f2ca9	-0.01747735
99	0xbbfcbab5	-0.007712687
100	0xbd1114a4	-0.035420075
101	0xbd3d3440	-0.046192408
102	0xbd95d9f3	-0.07316961
103	0xbd65b0c8	-0.056076795
104	0xbcf3f7a0	-0.029781163
105	0xbd7c2959	-0.06156287
106	0xbc3c43c0	-0.011490762
107	0xbd7cab25	-0.061686654
108	0x3d17a347	0.037020948
109	0xbd999cd7	-0.07500618
110	0xbd4c917e	-0.04994344
111	0xbd2759cc	-0.04085712
112	0xbcea6527	-0.028612686
113	0xbc70bf1e	-0.014694003
114	0x3d18cf1c	0.03730689
115	0xbcdee778	-0.027209982
116	0xbd0d9ab6	-0.034571372
117	0x3c5252b6	0.012837103
118	0xbbf5c15f	-0.0074998583
119	0xbcb7f741	-0.022456767
120	0xbd8240e4	-0.06360033
121	0xbc4e7236	-0.012600472
122	0xbd6e1c44	-0.058132425
123	0xbcdf6697	-0.027270598
124	0xbd2bc6a6	-0.041937493
125	0xbd896a4a	-0.06709726
126	0xbcf35ba1	-0.029706778
127	0xbd7c211b	-0.06155501
128	0x3caa53cf	0.020791916
129	0xbd7b36a8	-0.06133142
130	0xbd5034de	-0.050831668
131	0xbd2e4a6b	-0.04255144
132	0xbd5474e1	-0.051869277
133	0x3c06b8a1	0.00822273
134	0xbcaa015a	-0.020752598
135	0xbda2dbac	-0.07952055
136	0x3bd5344e	0.0065064793
137	0xbd04e531	-0.032445136
138	0x3b2a8279	0.002601771
139	0xbd3718cf	-0.044701394
140	0xbcf6e5b0	-0.03013882
141	0xbd5eb78b	-0.05437426
142	0x3c3c451d	0.011491087
143	0xbd4e8c19	-0.050426576
144	0xbdabbae2	-0.083852544
145	0xbca439d9	-0.020047115
146	0xbc8bcbd7	-0.017064972
147	0xbd334970	-0.043771207
148	0xbd15df2a	-0.03658978
149	0xbd125759	-0.035727832
150	0xbc1ac46d	-0.009446246
151	0xbcc8230e	-0.024430778
152	0x3cf46671	0.029834004
153	0x3bb63547	0.0055605504
154	0x3da75f6b	0.081724964
155	0xbd699c6f	-0.057033952
156	0xbc77fb5f	-0.015135615
157	0xbd85c0d2	-0.06530918
158	0xbdbcdfcc	-0.09222373
159	0xbcdde82a	-0.027088244
160	0xbc182835	-0.00928693
161	0xbd71f6d4	-0.059073284
162	0xbdbe636a	-0.092963055
163	0xbd6c367a	-0.05766914
164	0x3d1734d3	0.03691561
165	0xbd029311	-0.031878535
166	0xbd5d86a4	-0.05408348
167	0xbd8f1b3b	-0.06987616
168	0x3cea9fb0	0.028640598
169	0xbdc79e6e	-0.09747015
170	0xbd2b5170	-0.04182571
171	0xbdabd976	-0.08391087
172	0x3c000e0e	0.007815851
173	0xbd11a2e4	-0.035555735
174	0xbd37336c	-0.044726774
175	0xbcf26a74	-0.029591776
176	0xbd8fd508	-0.07023054
177	0xbd64763c	-0.05577682
178	0xbd09aada	-0.033610202
179	0xbd45aa4f	-0.048258122
180	0x3b7ed974	0.0038886936
181	0xbc4c4222	-0.012466939
182	0xbdb4dcd6	-0.088311836
183	0xbd889699	-0.06669349
184	0xbd903994	-0.07042232
185	0xbceb349f	-0.028711615
186	0xbd08e649	-0.033422742
187	0xbd67b5b2	-0.056569763
188	0x3ca6c075	0.020355443
189	0x3b5a28c2	0.0033288454
190	0xbd1d0f3f	-0.038344618
191	0x3db7c43c	0.089729756
192	0x3cdc62e8	0.02690263
193	0xbcbf786a	-0.023372848
194	0xbb04a1ed	-0.0020238117
195	0xbcef554a	-0.029215474
196	0xbd4b063c	-0.049566492
197	0xbd33ecc6	-0.043926977
198	0xbcea1eb8	-0.028579101
199	0xbd7581c1	-0.059938196

model.8.weight f4 [6, 200]
0	0xbe94039c	-0.28909004
1	0xbda41857	-0.08012455
2	0x3f728f61	0.9475003
3	0x3faae186	1.3350074
4	0x3cf429f5	0.029805163
5	0xbe0fd3f3	-0.14045696
6	0xbec24030	-0.37939596
7	0xbe191d51	-0.1495259
8	0xbeff8fda	-0.49914438
9	0x3d93a987	0.07210069
10	0x3d530625	0.05151953
11	0xbd8a7eb7	-0.0676245
12	0x3d9830ed	0.07431207
13	0x3e31ad1f	0.17351197
14	0xbe80bec4	-0.25145543
15	0x3c1d2e04	0.0095934905
16	0xbe46b98c	-0.19406718
17	0x3eddabc4	0.4329511
18	0x3f074861	0.52844816
19	0xbea77548	-0.32706666
20	0xbceaae9a	-0.02864771
21	0x3d88a82d	0.06672702
22	0xbea2ede4	-0.3182212
23	0x3f14b4b5	0.5808824
24	0xbe8d0161	-0.27540115
25	0xbe71a161	-0.23596717
26	0xbde15c5f	-0.110039465
27	0x3e24ac89	0.16081442
28	0x3f73bd4b	0.95210713
29	0x3d20e9bf	0.039285418
30	0x3e0d35b4	0.13790017
31	0x3dfa745b	0.12229224
32	0xbe39f377	-0.1815928
33	0xbddf0497	-0.10889547
34	0xbe82c180	-0.25538254
35	0x3e01bd17	0.12669788
36	0xbe8810ef	-0.2657542
37	0x3bce39ad	0.0062934966
38	0xbf13efef	-0.57787985
39	0xbde00da8	-0.10940105
40	0xbeff560a	-0.4987033
41	0x3de0f4c9	0.10984189
42	0xbf0a8dc7	-0.54122585
43	0x3f140e7a	0.5783459
44	0x3f2daea0	0.6784458
45	0xbe6258ae	-0.22104141
46	0xbe9b7203	-0.30360422
47	0x3dee5c80	0.11638737
48	0xbebd4ce1	-0.36972716
49	0x3ff02ced	1.876371
50	0x400062ba	2.0060258
51	0xbe813c25	-0.252412
52	0xbeaf2546	-0.34208125
53	0x3dfa8dc3	0.1223407
54	0xbadbfdea	-0.0016784046
55	0x3dad632c	0.08466181
56	0x3f226c5c	0.63446593
57	0x3e5f660b	0.2181627
58	0xbe3c2ae0	-0.1837573
59	0x3e835cf9	0.2565687
60	0x3e724666	0.23659667
61	0x40015f6a	2.0214486
62	0xbeb5bdd3	-0.35496387
63	0x3e5dd9d5	0.21665128
64	0x3ee9da6b	0.45674452
65	0xbe7bf646	-0.24605665
66	0x3fa72529	1.3058215
67	0x3f145b2a	0.57951605
68	0x3d116319	0.035494898
69	0x3ece16ec	0.40251863
70	0x3e64d4bd	0.22346778
71	0xbe0dddd7	-0.13854156
72	0x3e38edf5	0.18059523
73	0x3e0037f5	0.12521346
74	0xbde77df7	-0.11303323
75	0x3f801e94	1.0009332
76	0xbef47958	-0.47748828
77	0x3f0363dc	0.5132425
78	0xbbacce81	-0.0052736406
79	0x3f1e1fc7	0.6176724
80	0x3e16fb19	0.14744224
81	0x3f5944e0	0.8487072
82	0x3eb962f1	0.362083
83	0x3fa75323	1.3072246
84	0x3ea8f95b	0.33002743
85	0x3fbc4c68	1.4710817
86	0x3d94925f	0.072544806
87	0x3f2deea3	0.67942256
88	0xbde9e93e	-0.114214405
89	0x3e8db707	0.276787
90	0x3f1a42fa	0.6025845
91	0x3ecdbe16	0.40184087
92	0x3e629507	0.22127162
93	0x3e00770e	0.12545416
94	0xbce13d4c	-0.027495049
95	0xbcf8ecef	-0.030386416
96	0xbd92e980	-0.07173443
97	0x3eaf0194	0.34180892
98	0xbdb3a8e3	-0.08772447
99	0x3df0b2bb	0.1175284
100	0x3e1a06e7	0.15041696
101	0xbc8f64cb	-0.017504117
102	0xbe33589e	-0.17514274
103	0xbd93773b	-0.07200476
104	0xbf09bb33	-0.5380127
105	0xbcd5700e	-0.026054408
106	0x3df8db8c	0.1215125
107	0xbe329736	-0.17440495
108	0x3f19f72b	0.60142773
109	0x40074f00	2.1141968
110	0x3ca70e97	0.0203927
111	0x3eb357ae	0.35027832
112	0x3e1540f2	0.14575556
113	0xbebc5e2b	-0.36790594
114	0xbe466c53	-0.1937726
115	0x3f0b5f21	0.5444203
116	0xbe0edd7b	-0.13951676
117	0xbe7b6c16	-0.2455295
118	0xbe093760	-0.1340003
119	0x3dde7904	0.10862926
120	0xbf205393	-0.62627524
121	0x3ee52d84	0.44761288
122	0xbd74f47b	-0.059803467
123	0x3f224592	0.63387406
124	0x3e1cbf35	0.15307315
125	0x3d7ff66c	0.062490866
126	0xbd4be626	-0.049780034
127	0xbeebeebc	-0.46080577
128	0x3e8f64c6	0.28006572
129	0xbcd86c65	-0.026418874
130	0xbd271df8	-0.040800065
131	0x3ebc20fe	0.3674392
132	0x3e44c7b8	0.19216812
133	0x3f95bb82	1.1697848
134	0xbf1f345e	-0.6218928
135	0xbed29c5d	-0.4113492
136	0x3fb1ad1d	1.3880955
137	0x3e2a0942	0.16605094
138	0xbe32ff4d	-0.17480202
139	0xbd84e4ef	-0.06488978
140	0x3e83dd3c	0.25754726
141	0xbe4d42b7	-0.20044981
142	0x3f1d4fbd	0.61449796
143	0x3ea84017	0.32861397
144	0xbc5a4e35	-0.01332431
145	0xbf0614cc	-0.52375484
146	0x3f22bfd3	0.6357395
147	0x3f56b2dd	0.83866674
148	0x3f99e1fa	1.2022088
149	0xbe9f401d	-0.31103602
150	0xbedc269b	-0.42998204
151	0xbd747b0e	-0.059687667
152	0x3f0440ca	0.5166136
153	0x3f189452	0.5960132
154	0x3f694e2c	0.91134906
155	0x3d4dd3db	0.05025087
156	0x3f319e62	0.693823
157	0x3dc5f4b9	0.09665818
158	0xbe4f6a27	-0.20255338
159	0x3f5f8f64	0.8732817
160	0x3f5fa677	0.8736338
161	0x3e397df8	0.1811446
162	0x3e11d122	0.14239934
163	0x3d3f0aea	0.046641268
164	0x3f723a3f	0.94620126
165	0xbe8d139b	-0.2755402
166	0xbe954618	-0.2915504
167	0xbe19ed10	-0.15031838
168	0x3e2dc6d8	0.16970384
169	0xbeeb210c	-0.4592365
170	0x3d04790c	0.032342
171	0xbcf3dcf0	-0.029768437
172	0x3fbac22f	1.459051
173	0xbe547c93	-0.20750646
174	0x3dfe9a7a	0.12431808
175	0x3d237c72	0.039913602
176	0xbed213d4	-0.41030753
177	0x3ec9ea37	0.39436504
178	0xbef5f3e8	-0.48037648
179	0x4010c640	2.2621002
180	0x3f527c4c	0.8222091
181	0xbb113ab6	-0.0022160239
182	0x3f5bcc21	0.8585835
183	0x408060fb	4.0118384
184	0xbb6e2012	-0.0036335033
185	0xbc615932	-0.013754176
186	0xbd06848d	-0.032841254
187	0xbe2c9145	-0.16852291
188	0xbf146bdb	-0.57977074
189	0x3fb40b6d	1.4065987
190	0xbe4a842c	-0.19776982
191	0xbea309b8	-0.31843352
192	0xbf17f5a4	-0.5935919
193	0xbc4d3387	-0.012524492
194	0x3db2e622	0.087353006
195	0xbe883227	-0.26600763
196	0xba85299a	-0.0010159493
197	0x3ce8df95	0.028426925
198	0x3e91650a	0.283974
199	0xbc2b125a	-0.010441387
200	0x3fa21c26	1.266484
201	0x3f35e0a8	0.71045923
202	0x3e267fad	0.16259642
203	0x3e8cd227	0.27504084
204	0x3e9d6091	0.30737737
205	0x3f8fed07	1.124421
206	0x3fe2511b	1.7681001
207	0xbe004702	-0.12527087
208	0x3f358943	0.7091257
209	0x3e013dec	0.12621278
210	0x3ddae31c	0.10687849
211	0x3d9fa677	0.077954225
212	0x3eb2be20	0.3491068
213	0x3d8af8bf	0.06785726
214	0x40500530	3.2503166
215	0x3d18f798	0.0373455
216	0x3f1169bb	0.56801957
217	0x3f00c285	0.50296813
218	0x3ed24a59	0.41072348
219	0xbe2f8039	-0.17138757
220	0xbe28679b	-0.16445772
221	0x3dc77ce3	0.09740617
222	0xbe4c6650	-0.19960904
223	0xbdd4d0c6	-0.10391383
224	0x3ea464cf	0.3210816
225	0x3ff18f34	1.8871827
226	0x3f08a997	0.53383774
227	0xbd7d722c	-0.06187646
228	0xbe98a5c2	-0.29813963
229	0x3c891c3e	0.0167371
230	0xbe2b7d94	-0.16747123
231	0x3bc12128	0.005893845
232	0xbd98ad4f	-0.07454931
233	0x3d836417	0.06415575
234	0x408f5494	4.4790745
235	0x3d950e0d	0.072780706
236	0xbee7cf65	-0.45275417
237	0x3e90c204	0.28273022
238	0xbe7b1324	-0.2451902
239	0x3e5b0c9a	0.21391526
240	0xbe1ba35a	-0.15199032
241	0x3f3a9acf	0.7289247
242	0x3f96ff63	1.1796688
243	0xbeb2ac16	-0.34896916
244	0x3df0729c	0.1174061
245	0xbd4f46e6	-0.050604723
246	0x3f470525	0.77742225
247	0xbc225fb2	-0.009910511
248	0x3fd4ebda	1.6634476
249	0xbd57bbda	-0.052669384
250	0xbe65c29c	-0.22437519
251	0xbde88c5e	-0.11354898
252	0xbef8f93d	-0.48627654
253	0x3ca3abc4	0.019979365
254	0x3e6f8ca7	0.23393498
255	0x3d053199	0.032518003

model.8.bias f4 [6]
0	0x3e9c6504	0.3054582
1	0x3e40d239	0.18830194
2	0x3d99d437	0.0751118
3	0x3e7256ff	0.23665999
4	0x3c2e0bde	0.010622947
5	0x3c1616fe	0.009160755
