Challenge_1/Weights/model_dynamics_Qube-v0_mse_0.00026449.params (torch_old, 334228 bytes, 8 tensors)

model.0.weight f4 [200, 7]
000000 9c 6c bc 3f 51 08 a1 bf d9 c8 a5 3e b9 c4 33 be
       1.4720645 -1.2580663 0.32379797 -0.17555512
000010 d1 6f 2b bf 56 e1 05 bf 9c 31 a3 3e f8 ee 9e 3e
       -0.66967493 -0.5229696 0.31873786 0.31041694
000020 57 36 60 be f6 1f 28 3f bd da 07 3f 8d 8f a8 3e
       -0.21895729 0.6567377 0.53068143 0.3292202
000030 9c 17 29 3f 73 2f 2f bf ef 1a 89 3f cf 8b 58 3d
       0.6605165 -0.68431777 1.0711344 0.052867707
000040 85 82 45 3f bb 59 55 3e 09 d3 18 3d ed ff 52 bf
       0.7715228 0.2083501 0.037310634 -0.8242176
000050 44 35 c0 3e af cf d6 be 84 f1 96 3f bc f1 b4 3e
       0.37540638 -0.41955325 1.1792455 0.3534068
000060 03 76 62 be 0d 63 51 bc 46 5b 00 bf 91 4f 62 3e
       -0.2211533 -0.012779963 -0.5013927 0.22100665
000070 42 d3 6a 3e a4 fb 06 3e 5e ac 6a be 72 f9 29 bf
       0.22932151 0.13181931 -0.22917315 -0.6639625
000080 e0 f1 37 be 6b 29 b5 3e 9b 94 f4 3e 70 43 a0 bf
       -0.17963362 0.35383162 0.47769627 -1.252058
000090 5d db 3e 3f 60 8b 71 bf 45 96 f2 be 3d 8d 16 bf
       0.7455347 -0.94353294 -0.47380272 -0.5880926
0000a0 90 df 81 be 2c 87 2f 3f 0f a5 66 3e 1a f3 f4 3e
       -0.25365877 0.6856563 0.22523902 0.47841722
0000b0 3a 37 09 3f 45 bc 5a bd 1a 34 65 bf 90 c2 2b be
       0.53599894 -0.053402204 -0.89532626 -0.16773438
0000c0 ea f0 83 3f 57 8e bc 3e 73 1b 00 bf 23 43 e6 3c
       1.0307896 0.36827347 -0.50041884 0.028108185
0000d0 e4 e6 52 3f 3a 95 20 bf 66 d5 36 be 59 cb 0f bf
       0.8238356 -0.627277 -0.17854843 -0.5616966
0000e0 38 57 1b 3f 83 a5 e3 3e b3 51 6c be b1 76 a6 bc
       0.6067996 0.44462213 -0.23078041 -0.020320268
0000f0 c5 e1 21 3e d7 37 35 3e 9b d3 ff 3e 9f 98 72 be
       0.1580878 0.17697082 0.4996613 -0.23691033
000100 87 cb c9 be aa e1 74 bd 9d 5e db bd 36 19 b5 3d
       -0.39413092 -0.059785523 -0.107114054 0.08842699
000110 76 5b 8e 3f e3 33 70 bf 20 8f 05 bf 10 26 3b bf
       1.1121662 -0.9382917 -0.52171516 -0.73104954
000120 58 a3 3c 3f 1f 76 3d bf c1 26 51 bf a1 67 83 bd
       0.7368674 -0.74008363 -0.8169976 -0.0641625
000130 65 1e d3 be 8e e5 c2 be 6f 56 92 3e 37 9c 13 3e
       -0.41234127 -0.3806576 0.2858157 0.1441506
000140 cc b5 0a 3f bd 25 24 3e c7 ca 08 3f a1 f4 ea be
       0.5418365 0.16030021 0.53434414 -0.45889762
000150 85 95 5d 3e fb 77 88 bd 35 df 6c 3f cb 93 20 be
       0.21639068 -0.066635095 0.92528087 -0.15681379
000160 a0 f0 a7 be 37 69 3d be b3 86 99 3e 59 ae 65 bf
       -0.3280077 -0.18497168 0.2998558 -0.8971916
000170 e9 1b 5b be 7c 7e 00 3f 15 c5 09 bf 07 1f 1d 3f
       -0.21397366 0.50193 -0.5381635 0.6137547
000180 db 74 ad be 1f b5 4a be 37 82 d8 bd d4 e6 97 3d
       -0.33878216 -0.19795655 -0.105717115 0.07417074
000190 2d 44 87 3e 50 2e c0 3f 8e 28 39 3f ce f9 6e 3f
       0.26419201 1.5014133 0.72327507 0.9334992
0001a0 04 7b 11 bf 27 bf 3b 3e 5c 3f b6 be 40 11 0e bf
       -0.5682833 0.18334638 -0.35595214 -0.5549507
0001b0 a4 90 11 be 10 a1 17 be d9 14 d8 3e ac 50 92 3d
       -0.14215332 -0.14807534 0.42203405 0.07144293
0001c0 30 b4 56 3f da 0a 4c be e7 f0 4c 3f 37 37 28 3e
       0.83868694 -0.19926015 0.8005509 0.16427313
0001d0 1f 3f d1 be f3 a4 05 3f e4 f8 14 bf 77 cd 8e 3e
       -0.4086847 0.5220482 -0.58192277 0.27891132
0001e0 66 a3 ce bf 94 f8 e4 3d f8 2b 4f be cc 41 36 be
       -1.6143615 0.11180225 -0.20231616 -0.17798537
0001f0 7d 5d e2 be 94 08 0e 3f 4b 70 78 bd a0 ef d2 bd
       -0.4421195 0.5548184 -0.060653966 -0.10299611
000200 d0 ed 4e bd 44 eb 0a 3f e0 73 6c 3f 1a e4 15 3f
       -0.050519764 0.54265237 0.9236431 0.5855118
000210 7d bd 16 3f 95 33 29 bf d7 5b cf 3e a6 14 47 3e
       0.58882886 -0.6609433 0.40499756 0.1944147
000220 13 22 df 3d e0 07 5b 3e 38 a0 79 bf 4d f8 7d 3d
       0.10895171 0.21389723 -0.975101 0.062004376
000230 12 9d 43 3e 4d eb 5a bf 92 53 fc be 3f 54 c6 bd
       0.19102886 -0.8551529 -0.4928251 -0.096840374
000240 dd 02 32 3f 93 3d 90 3e dd 47 21 3f 35 4b 1f 3f
       0.6953562 0.28171977 0.6300028 0.6222413
000250 e9 0a 8a bd 73 71 77 bc 40 c5 18 be 79 c6 fe 3e
       -0.06740362 -0.015102732 -0.14918995 0.49760798
000260 2d df 55 3c f9 ee 95 3e 66 95 26 3e 44 94 85 be
       0.0130536975 0.29283884 0.16267928 -0.2608968
000270 8f da 37 bf 07 dc d6 be 59 35 51 3f cb e4 00 3f
       -0.7181787 -0.41964743 0.8172203 0.5034911
000280 bb db 50 bf 42 f5 8f be 3d ad c7 be 4e c3 44 3f
       -0.8158528 -0.28116804 -0.38999358 0.7686051
000290 9c 4e 0d 3f 39 65 21 3d b7 c1 7b be 7a 69 72 bd
       0.55198073 0.039403174 -0.24585615 -0.05918262
0002a0 08 5e 1a bf 13 fa 14 bf 49 d9 e2 3e d7 59 fa 3e
       -0.6029973 -0.5819408 0.443064 0.48896667
0002b0 9a 49 18 3e 80 03 e7 be b0 e7 1c 3a 76 18 fa be
       0.14871827 -0.45119858 0.0005985452 -0.48846787
0002c0 99 e6 a0 3d 28 77 3c be a3 64 cc be 49 b3 42 bf
       0.07856483 -0.1840483 -0.3992053 -0.7605482
0002d0 1a ed b6 3e b5 3a 90 3f 64 7a 9c 3d c7 57 fe bd
       0.3572777 1.1267916 0.07640532 -0.12419086
0002e0 bb ff 92 be e8 7c aa 3e 83 d7 0c be 9a 4d a7 be
       -0.28710732 0.3329842 -0.13754086 -0.32676393
0002f0 93 09 30 3f 07 6b ac bd 4f 25 45 3f 29 98 be 3e
       0.6876461 -0.08418851 0.77010053 0.37225464
000300 da 43 17 be 81 e1 c7 bc 14 93 e0 3d ba bd 82 3f
       -0.14771977 -0.02439952 0.10965553 1.021415
000310 55 cd 52 be 61 8b 59 3d c5 95 88 3e c0 e9 85 3e
       -0.2058614 0.053111438 0.26676765 0.261549
000320 52 e5 fe 3e 81 d2 f3 bd 9d 2a 84 bd 1d 32 22 bf
       0.49784333 -0.11905385 -0.0645344 -0.63357717
000330 87 b5 25 be 1a 11 0a 3f 49 7a f9 be d8 a3 37 3e
       -0.16182528 0.53932345 -0.4872611 0.17933595
000340 88 82 6e 3f f2 ba ba bd 31 02 17 be 7c 87 a5 bf
       0.93167925 -0.09117688 -0.1474693 -1.2931972
000350 9e f2 ad bc 08 d4 d3 3d 9b a7 a3 bd 72 ef a2 3e
       -0.021233853 0.10343176 -0.079909526 0.31823307
000360 27 13 b8 be aa d7 8d be 8d c5 25 bf 37 8e 90 3e
       -0.35952112 -0.277036 -0.64754564 0.282335
000370 08 05 16 bf ef 06 04 bf b8 b5 b6 be de 27 c0 3d
       -0.5860143 -0.5157308 -0.35685515 0.09382604
000380 e9 1f 30 3f 53 df 43 be 21 84 fe 3d 98 df 7e be
       0.6879869 -0.1912816 0.12427545 -0.24889982
000390 85 9a 7b be f7 8c 67 3f e9 63 06 3f a4 db 70 bd
       -0.24570663 0.9044947 0.524962 -0.058803216
0003a0 44 82 29 3f aa 66 9b 3e 96 c2 80 bf c7 a7 80 3e
       0.66214395 0.30351764 -1.0059383 0.25128004
0003b0 1f 7a 8d 3e bd 08 8b 3e 12 2f 0d 3f 4b f0 e2 3e
       0.27632234 0.27155104 0.5514995 0.44323954
0003c0 95 88 2d 3e 63 cc 0d bf 17 24 4d be d0 e3 4f bf
       0.16946633 -0.55389994 -0.20033298 -0.8120699
0003d0 73 39 10 3f 14 b0 39 bf 21 ee b9 bd 97 fd 12 bf
       0.5633766 -0.725343 -0.090786226 -0.574182
0003e0 5f b9 6c 3e ea 9b 2a bf 25 4c 80 be c4 89 98 bd
       0.23117588 -0.66644156 -0.25058094 -0.07448152
0003f0 50 d7 9c 3e 32 1f 1b bf 08 6b e8 3b aa 17 a2 bd
       0.3063302 -0.60594475 0.0070928372 -0.0791467

model.0.bias f4 [200]
000000 83 e7 07 bc 7d 4f c6 bd 6b e5 21 bd 84 a7 19 bd
       -0.008294943 -0.0968313 -0.03952543 -0.03751327
000010 3a 8f d2 3c a9 2f db 3d bf 72 6f 3b 82 e4 e3 b9
       0.025703061 0.1070245 0.00365369 -0.00043467066
000020 4a 6b 8f bd ac e9 da 3c 00 00 00 00 22 c6 c3 3c
       -0.07002886 0.026722752 0.0 0.023898188
000030 5e 54 8a 3d 3c 58 10 3e cb 01 e6 bd cd 86 8a 3d
       0.06754373 0.14096159 -0.11230811 0.067639925
000040 83 41 9b bd de de 76 bd b1 55 58 bd 84 28 a2 bd
       -0.07580855 -0.060271136 -0.052816097 -0.07917884
000050 ef f1 5d bc 6a 92 03 bd 57 63 86 bb 41 86 a4 bc
       -0.013546451 -0.032122053 -0.0041011977 -0.020083549
000060 57 31 95 3c 31 cc d4 bd 3c 96 d3 3c 87 31 88 bc
       0.018212004 -0.10390509 0.025828473 -0.016625179
000070 6f 82 1e be ce 05 10 bd d1 dc 26 bd 00 00 00 00
       -0.15479444 -0.035161786 -0.04073793 0.0
000080 61 dc 2f bd af 42 33 bd 1d b9 4b bd 00 00 00 00
       -0.04293478 -0.043764766 -0.049737085 0.0
000090 2b 77 c4 bd 46 fd 9f bc 23 c7 32 bc ba 30 86 bc
       -0.09593042 -0.01952995 -0.010911736 -0.016380657
0000a0 07 f9 23 3d fa cb 37 bc cc 93 93 3b 44 f5 1e ba
       0.040032413 -0.011218065 0.0045037027 -0.0006063769
0000b0 df f1 eb bc 12 be 6d bc f9 06 60 3d 75 d4 9c bd
       -0.028801857 -0.014510648 0.05469415 -0.076577105
0000c0 04 b1 fc 3d b6 ea bb 3c 88 57 95 bd bf 88 90 3b
       0.123384506 0.022939067 -0.07292086 0.0044108327
0000d0 de 84 a8 3d 5c b4 94 bd 00 00 00 00 34 34 14 3d
       0.082284674 -0.07260963 0.0 0.036182597
0000e0 20 79 69 bd 32 24 83 bd 27 39 e0 bc 31 68 b5 bc
       -0.05700028 -0.06403388 -0.027371002 -0.022144409
0000f0 fe dc 6d bd a8 45 d6 bd f8 f0 c3 bd b5 55 40 bd
       -0.058072083 -0.104625046 -0.095674455 -0.046956737
000100 0f 07 2d be 00 00 00 00 ec 88 85 bd 1b 8c 2b bd
       -0.16897224 0.0 -0.065202564 -0.04188166
000110 7c a9 e9 bd 95 4e 00 be ea d6 23 bc ec b5 e9 bb
       -0.1140928 -0.12529977 -0.00999997 -0.0071322825
000120 6d 27 1a bd ef e5 c0 bc 50 4a 9f 3d e7 cd 43 bd
       -0.037635256 -0.02354714 0.07777846 -0.047803786
000130 8f 30 3b bc ab f5 9d 3d 15 c4 dc bb 05 bb 78 bd
       -0.0114251515 0.07712873 -0.006737242 -0.06072523
000140 f7 7d da bc ef db 08 b9 00 00 00 00 db 3c 8b bd
       -0.026671393 -0.00013051902 0.0 -0.06798717
000150 00 00 00 00 77 c5 3d bc dd a7 aa bb 36 b6 27 3d
       0.0 -0.011582724 -0.005207999 0.040945254
000160 f1 25 47 bd 72 c8 dc bd 97 bd 61 3c 94 ac b3 bc
       -0.048620168 -0.107804194 0.013778112 -0.021932878
000170 00 00 00 00 5c b9 60 bc bc fb 34 3b 00 00 00 00
       0.0 -0.013716068 0.0027615866 0.0
000180 fe 82 0b be c9 46 db bd 51 5a 83 3d b0 72 30 3e
       -0.13624188 -0.107068606 0.06413711 0.1723125
000190 c6 37 80 3b 61 d0 bd bc e9 3b 2a bc 45 1b c3 bd
       0.0039128987 -0.023170652 -0.01039026 -0.095266856
0001a0 73 d7 26 3e f5 e2 08 bd 9b 79 58 3e 18 16 76 bd
       0.16293125 -0.033419568 0.21140139 -0.060079664
0001b0 fe 47 b0 bd a1 54 e0 bd 00 00 00 00 00 00 00 00
       -0.086074814 -0.10953642 0.0 0.0
0001c0 91 8a 6e 3d 9c 17 b9 bd 25 64 00 bd e7 be 72 3b
       0.058237616 -0.09037706 -0.031345505 0.0037040056
0001d0 14 dd 34 bd 70 77 da bb bb 24 b7 3c 95 cc 24 be
       -0.04415615 -0.00666707 0.022356382 -0.16093667
0001e0 4f ef 29 3e 66 ab 3d 3b 76 58 19 3e 10 56 7e 3d
       0.16595195 0.0028941273 0.14975151 0.062093794
0001f0 3c 77 dc bc 89 4a 81 bd 1f 15 89 bd b7 f8 52 be
       -0.026912324 -0.063130446 -0.06693482 -0.2060269
000200 a4 14 86 bc 87 94 ee bd 6e df 20 3d 9e 4a 2e bd
       -0.016367264 -0.11649423 0.03927558 -0.04255163
000210 be bf 01 3e 3c e3 02 be bf 05 4c bc 6d 63 54 bd
       0.126708 -0.12781996 -0.012452542 -0.051852632
000220 ef 9d f8 bc 28 d1 bd bc 51 04 c4 3c e4 41 1b 3e
       -0.030348746 -0.023171023 0.02392784 0.15161854
000230 da c1 a8 bc 6c 97 b1 bd a2 ee c8 3d c9 0c 55 bd
       -0.020600248 -0.086714596 0.098111406 -0.052014146
000240 c6 76 74 bd ad 76 26 bd d4 09 cc bd 21 16 21 bd
       -0.059683584 -0.04064052 -0.09962812 -0.039327744
000250 81 a2 71 3d a1 58 f4 3b 8e be 5c 3d 67 01 80 3d
       0.058992866 0.0074568545 0.053892665 0.062502675
000260 b7 f2 59 3d 25 a0 9a bd 2c 9a e6 3b 3c 65 6c bc
       0.053209987 -0.075500764 0.0070374217 -0.014428433
000270 53 79 e0 bb 8c 3f b7 3d 2b 10 ed bd 00 00 00 00
       -0.0068504005 0.089476675 -0.115753494 0.0
000280 21 dc 17 be 29 80 db bc 03 60 14 bd 79 2d c2 3c
       -0.14830066 -0.02679451 -0.036224376 0.023703324
000290 09 68 b2 3c f8 b9 8b bd 8c fd 64 3c d6 be 7f bd
       0.021778123 -0.0682258 0.013976466 -0.062437855
0002a0 9f 4e d1 bb fa 64 fa 3a 07 e7 94 bc 8f de cb bd
       -0.006387546 0.001910358 -0.018176569 -0.09954559
0002b0 6b 32 b7 bc f5 56 2d 3e 3a 36 2f bd 13 19 20 3e
       -0.022362908 0.16927703 -0.042776324 0.15634565
0002c0 ae b8 6e 3d bd 89 d1 bc a2 ff b3 bd a7 4f 28 3d
       0.058281593 -0.025578374 -0.087889925 0.041091587
0002d0 53 b6 70 3d d5 82 ac bd f2 4a e5 bc e5 ba ba 3d
       0.058767628 -0.08423392 -0.027989838 0.091176786
0002e0 df f8 05 be 27 52 38 bd 8c 05 fc bd 37 ad 9d 3d
       -0.13083218 -0.04500022 -0.123057455 0.07699054
0002f0 ac ed 57 bd 27 2e d0 3d c0 f1 58 3b 44 d8 2a bd
       -0.052716896 0.10165053 0.0033103079 -0.041710153
000300 b1 52 88 bd cf f0 de bc 35 ed 0b 3e c6 0e 94 bd
       -0.06656397 -0.027214436 0.13664706 -0.0722938
000310 4e ff 42 bd 4f e2 de bd 02 b2 0c b9 9b 54 c6 3c
       -0.04760676 -0.10883009 -0.00013417754 0.024210265

model.2.weight f4 [200, 200]
000000 ea a3 17 3d f4 6e 26 3d fb 04 84 bd 3a d4 83 3d
       0.037021555 0.040633157 -0.064462624 0.064369634
000010 10 c9 08 3e 85 37 e9 bd 60 54 d0 3c 05 ff da bc
       0.1335795 -0.11387543 0.025430858 -0.02673293
000020 0e 04 11 3e 78 ec 85 b8 a7 03 f1 bc 08 67 2b bd
       0.14161703 -6.38598e-05 -0.029420687 -0.041846305
000030 68 0a 19 be 48 96 2e 3d 9c ff 00 be e1 7b 8b 3d
       -0.14945376 0.042623788 -0.12597507 0.068107374
000040 b6 54 0b 3e bd 98 1b be 29 af 32 3d bf 80 aa 3c
       0.13606533 -0.15194984 0.043624077 0.020813344
000050 59 d4 37 bd 27 8f dd bd b4 55 67 bd da eb 10 3e
       -0.044880245 -0.1081832 -0.056478217 0.1415247
000060 be 6d a8 bd 31 09 a1 3c 97 d7 cd 3c bf 70 50 3d
       -0.08224057 0.019657703 0.025127215 0.050888773
000070 9b 22 10 be 19 62 2c be 5b 2b 4b 3e 03 d7 eb 3d
       -0.14075701 -0.16834296 0.19840758 0.115156196
000080 96 8c 63 3d 20 29 ec bd 75 53 06 be af ea f1 bd
       0.055553995 -0.115312815 -0.13117774 -0.118123405
000090 e2 45 8e bc dd b4 98 bd d2 88 30 bd 4f 7f 11 3e
       -0.017367307 -0.07456372 -0.043099232 0.1420872
0000a0 45 e8 0f 3d 9c 3d e6 bc 4c f1 86 bd 79 2d a9 be
       0.03513362 -0.02810555 -0.065889925 -0.33042505
0000b0 53 f6 7f bd f3 45 c6 bd ce e1 4b be dc 83 70 3d
       -0.062490772 -0.096813105 -0.19910356 0.0587195
0000c0 f2 9d e4 3b 2f 2a 6d 3d 85 90 f2 3c 7b dc 37 be
       0.0069768364 0.057901558 0.029609928 -0.179552
0000d0 cc cc 80 bd 2c 54 20 3e 89 2c 12 be 25 87 9a bc
       -0.06289062 0.15657109 -0.14274801 -0.01886327
0000e0 54 da 9f bc 45 00 8e 3c b6 ee b7 bc 90 79 3e 3e
       -0.019513287 0.017334113 -0.022452693 0.1860106
0000f0 7a ec b2 bd b8 02 15 3c c5 43 40 3e 7e 74 71 3b
       -0.087365106 0.0090948865 0.18775852 0.0036843116
000100 e3 46 11 bd cd 19 2e 3e 51 2a 4e bd c4 00 2a 3d
       -0.035467993 0.1700203 -0.050333325 0.041504636
000110 7d 01 c6 3c 17 9e 14 be a0 e3 8d bb 89 a8 2d 3e
       0.024170632 -0.14513431 -0.0043301135 0.16958822
000120 1b 4b a9 bd 6f af 67 3e 9f 7d 46 bd 97 c3 47 bd
       -0.08266278 0.22625516 -0.048459645 -0.048770513
000130 9e 1c 23 be fa 04 2a bc 29 83 8f 3d f6 63 8a bd
       -0.15928885 -0.010377163 0.07007439 -0.06757347
000140 0c 1a 6f bd 77 a8 df 3d 35 6f bb 3d 51 30 7c bd
       -0.05837445 0.10920804 0.091520704 -0.061569516
000150 ed 74 da bc f0 c4 92 3d d8 4f d7 bc ab a7 24 bd
       -0.026667083 0.07166469 -0.02628319 -0.040198963
000160 bf 4b 37 3e cb 0f 10 3e 8e 9c de 3d 8a b5 5c bd
       0.17899989 0.14068525 0.10869704 -0.053884067
000170 8f 43 6e bd 58 ad cf 3d 11 a0 93 3d 8a ac 8c 3d
       -0.058169898 0.101404846 0.072082646 0.06868847
000180 88 26 0e be 3a 76 d5 bd ea 2e ee bd a9 5a 00 3d
       -0.13881886 -0.104229406 -0.11630042 0.03133646
000190 ef be 89 bd 65 27 28 bd 8e 9d 00 3d de cd da 3c
       -0.06725871 -0.041053195 0.031400256 0.026709493
0001a0 83 7a 6e 3e c9 34 cd 3d 06 07 e4 ba a5 41 22 be
       0.23288922 0.100198336 -0.0017397113 -0.15845354
0001b0 3b 33 da bd 67 06 28 bd db 3a 98 3b 92 07 c3 3d
       -0.10654303 -0.04102173 0.004645688 0.09522928
0001c0 25 77 5b be 40 8b 80 bd 1c 4d b6 bc 21 02 a3 3d
       -0.21432169 -0.0627656 -0.022253565 0.079593904
0001d0 11 ba 63 3e f4 8b 0b be 96 d1 23 be 87 c2 a4 bd
       0.22238947 -0.13627607 -0.1599792 -0.08044916
0001e0 30 53 a3 3d db 59 04 3c f3 d5 03 3e 61 28 ad bd
       0.07974851 0.008078064 0.12874584 -0.08454967
0001f0 d6 b4 62 bd 0a 64 8e bd 00 ee 48 bd 94 3f 87 bd
       -0.05534824 -0.06952675 -0.0490551 -0.066039234
000200 43 2a 0a 3d 68 b4 15 3e 72 3a 25 be 08 1d eb 3d
       0.03373171 0.14619601 -0.16135576 0.11480147
000210 36 93 88 3b 1c f4 02 be e1 e3 41 bd 78 aa f6 bd
       0.0041679395 -0.12788433 -0.047336463 -0.12044233
000220 ee 51 8c 3c 04 f6 44 be 1d 42 36 be 7d ea 48 bd
       0.01712891 -0.19234473 -0.17798658 -0.04905175
000230 58 17 be 3d 1f 8d d7 bd 18 c8 a3 be 85 e3 ba bd
       0.09281796 -0.105249636 -0.31988597 -0.09125427
000240 53 ce 8e 3c 19 d1 6a 3d 48 14 44 3d 95 01 e4 bc
       0.017432367 0.057328317 0.047870904 -0.027832786
000250 3e 5f 72 be fc 85 97 3c 36 da 39 be 48 06 14 3e
       -0.23669145 0.018496506 -0.18149647 0.14455521
000260 29 dc 8b bd 05 7e f8 bd 5a 3e 24 be 62 1f c0 bd
       -0.068291016 -0.12133411 -0.1603941 -0.09380986
000270 95 3d 77 3d d1 8f 35 3d d9 b5 e3 bd b5 fa ba 3d
       0.060361464 0.044326607 -0.11118669 0.0912985
000280 99 9c 1f 3d 82 1c 56 bd 31 55 b2 bc 32 71 25 3e
       0.038967703 -0.05227328 -0.021769138 0.16156462
000290 3d 90 87 bd 5f 53 46 3e 27 ac 82 be 3b b9 1d be
       -0.06619308 0.19367741 -0.25521967 -0.15402691
0002a0 87 93 14 bd 30 19 03 3d cf 4f e0 bd 40 d1 4e 3e
       -0.036273506 0.032006443 -0.10952722 0.2019701
0002b0 1c 98 05 bd e3 c0 41 3d dc ef 3f bb 64 b7 94 be
       -0.032615766 0.04730309 -0.0029287254 -0.29046166
0002c0 77 14 2c be 9a 5b ff bd c6 25 81 3d 45 13 8c bc
       -0.16804682 -0.124686435 0.06306033 -0.017099032
0002d0 7e 5e c3 3b 46 9c d5 3b 81 48 4a 3d 45 1c 09 be
       0.005962192 0.0065188734 0.04938555 -0.1338969
0002e0 a2 26 c0 bd 05 f3 76 bd 23 ff d1 3d 31 34 2d 3e
       -0.093823686 -0.060290355 0.102537416 0.1691444
0002f0 69 ec 06 3d 8a 5c a5 3d ce f2 21 bc 03 87 b5 bd
       0.032940302 0.08074291 -0.009884549 -0.08863642
000300 d5 f0 55 3e 12 90 dd bc 1e f4 da bd f7 d4 71 3e
       0.20892651 -0.027046237 -0.10691093 0.23616396
000310 9e 60 84 bd 0d 5f 7c 3d 61 b0 ad bd e6 a6 3a 3d
       -0.06463741 0.061614085 -0.08480907 0.045569323
000320 12 dd c1 3d ed b8 eb bc ef 93 68 3c 42 02 07 bc
       0.09465994 -0.028774703 0.014195426 -0.008240284
000330 8a 05 12 bc 67 46 fa bd 29 27 b6 bc 9c 93 47 3d
       -0.008912453 -0.122204594 -0.02223547 0.048724756
000340 c5 be a9 bc de 6b e9 3d 33 8f 7e bc be 25 37 be
       -0.020720849 0.11397527 -0.015537071 -0.17885491
000350 7c 4d 94 3d 19 97 dd bc 64 3a 98 bc 5b 37 02 3e
       0.072413415 -0.027049588 -0.01858253 0.12716429
000360 81 7d 25 3d 86 19 e3 bd 8f e7 61 3d 51 44 0f bd
       0.040402893 -0.110888526 0.055152472 -0.03497726
000370 2a c8 0f 3e d6 f7 2a 3d 40 1c 55 3e ad d5 37 bc
       0.140412 0.04174026 0.20811558 -0.011220378
000380 10 18 54 be eb 7d 00 be cd 53 72 be a6 3e 26 bd
       -0.20712304 -0.12548034 -0.2366478 -0.04058709
000390 97 39 e3 3d f5 f2 f3 bd 80 69 36 bc 2c 2a a8 bb
       0.11094969 -0.11911575 -0.011133552 -0.0051319804
0003a0 f8 60 01 3e de 84 4e bd 3d 22 3e be 93 66 f0 bd
       0.12634647 -0.05041968 -0.18567748 -0.117383145
0003b0 7d 8e 40 bd 6a c8 3d be 04 a8 b5 3d 11 ac b7 bd
       -0.047010887 -0.18533483 0.08869937 -0.08968366
0003c0 18 e6 18 bc 61 1f b2 bd f6 3b ad 3d 68 09 20 be
       -0.009332202 -0.08697391 0.08458702 -0.15628588
0003d0 11 68 b6 3d 9f 5f 01 3d 27 33 13 bd 88 75 a4 bd
       0.08906568 0.031585332 -0.035937455 -0.0803023
0003e0 11 10 c8 3a b3 f8 39 3e db 5d 87 bd d0 e3 0e 3c
       0.0015263577 0.18161277 -0.066096984 0.008721307
0003f0 06 89 39 bd 38 d6 14 be 6b 02 a3 bd 74 e5 ef bc
       -0.04529669 -0.14534843 -0.079594456 -0.029284216

model.2.bias f4 [200]
000000 23 e7 ed bc 57 f7 14 bd 70 1b 79 bc bd ef f2 bc
       -0.029040879 -0.036368694 -0.0152042955 -0.029655332
000010 f1 55 eb bc b4 f5 c7 bc 04 6e 0a bc 00 00 00 00
       -0.028727503 -0.024409153 -0.008449081 0.0
000020 36 97 b8 bc f8 95 0d bd 2e 1a 6e bc e0 5b bb bc
       -0.02253304 -0.03456685 -0.014532609 -0.022870958
000030 07 d7 23 bc 3a 08 28 bc 0a d7 23 bc 1d 5d cb bc
       -0.009999997 -0.010255868 -0.01 -0.024824673
000040 f4 66 3b bc 52 b6 86 bb 29 29 a8 bc 28 06 b8 bc
       -0.01143812 -0.0041110897 -0.02052744 -0.022463873
000050 29 54 00 bd 0a af 8e bc 1d 14 d7 bc d2 ad 9e bc
       -0.03133026 -0.01741745 -0.026254708 -0.019369993
000060 b4 7e a9 bc 4b 62 cc bc 6c f1 ab bc c6 4c 61 bc
       -0.0206903 -0.024949213 -0.020989142 -0.013751214
000070 27 cb 41 bc 99 9c 3c bd 73 4f 95 bc b8 c6 2a bc
       -0.01182822 -0.04604778 -0.01822636 -0.010423355
000080 2f 5d 13 bd 2e a5 95 ba c4 fa db bc a2 e0 89 ba
       -0.03597754 -0.0011417025 -0.026852973 -0.0010519216
000090 80 30 86 3d 3b 8f 19 bc 45 f4 86 bc f9 89 93 bd
       0.065522194 -0.009372528 -0.016473899 -0.072040506
0000a0 fa dd 04 bd da 8f d7 bc 93 93 b3 bc d9 a2 fc bc
       -0.032438256 -0.026313711 -0.021920955 -0.03083937
0000b0 03 d7 23 bc 39 5e b9 bc fb 76 21 bd 76 26 8a bc
       -0.009999993 -0.022627937 -0.03942011 -0.016864043
0000c0 de bf 94 bc 60 b8 90 bc 27 6e 91 bc cd cb c7 bc
       -0.018157896 -0.017666042 -0.01775272 -0.024389172
0000d0 ee 05 ce bc 1d 7d a5 bc ca b6 78 bc 37 e4 47 bc
       -0.025149312 -0.02020126 -0.015180299 -0.012200407
0000e0 0a d4 c5 bc e0 f4 e3 bc 11 d5 23 bc 87 da c3 bc
       -0.02414896 -0.027826726 -0.009999529 -0.023907913
0000f0 c7 ad db bc 4a 97 b7 bc c0 38 af bc 9f 61 1d bd
       -0.026816262 -0.022411007 -0.021389365 -0.038423177
000100 00 d7 23 bc 95 f5 78 bc cd 5e 86 bd 1f 4c 1e 3d
       -0.00999999 -0.01519527 -0.065610506 0.038646813
000110 6e 04 7c bb cc 9f a7 bc 0d 2a 14 bd ff 9f dc bc
       -0.0038454789 -0.02046194 -0.036172915 -0.02693176
000120 0a d7 23 bc 2d a3 b5 bc 76 62 6d bc 84 95 9c bc
       -0.01 -0.022172535 -0.014488807 -0.019114263
000130 b8 6b af bc f0 6f fc bc a1 e2 22 bd 68 09 db bc
       -0.021413669 -0.030815095 -0.03976691 -0.026737884
000140 31 1a d9 bc 7b 08 c6 bc 37 ed af bc 4c 6f 96 3b
       -0.026501747 -0.024173966 -0.021475418 0.0045909043
000150 ae a5 27 bd 14 df 66 bc 51 d3 7a bd de 66 e8 bc
       -0.04092949 -0.014091272 -0.061236683 -0.028369363
000160 1f ab a0 bc 00 00 00 00 2d be 00 bd e6 89 c1 bc
       -0.019612847 0.0 -0.031431366 -0.023625325
000170 a7 70 6c bc 91 2d b3 3d e9 3b 28 bd eb d1 bf bc
       -0.014431155 0.087489255 -0.04107276 -0.023415526
000180 b0 c5 41 3b c1 8d 6b bc 82 cb 44 bd ca 85 b9 bc
       0.0029567294 -0.0143770585 -0.048045643 -0.022646803
000190 39 70 69 bc c2 4c 63 bc 99 8f a8 bc 03 2e 2f bd
       -0.014247947 -0.013873281 -0.020576285 -0.04276849
0001a0 81 87 a3 bb 42 27 17 bd 3c fb a4 bc 39 49 4f bd
       -0.0049905186 -0.036902674 -0.02013933 -0.05060694
0001b0 2a e7 f6 bc 6d 8c 98 bc 00 00 00 00 f7 a4 b6 bc
       -0.030139524 -0.018621648 0.0 -0.022295458
0001c0 30 8f 67 bc 19 65 a2 bb 34 4e 68 bc bf c8 8b bb
       -0.01413326 -0.0049558994 -0.014178801 -0.004265874
0001d0 7a 14 a8 bc f9 69 b5 3b f7 8f 75 bc e2 01 ee 3c
       -0.020517576 0.0055363146 -0.014987937 0.029053632
0001e0 2f ca ba 3c 12 dc 58 3c ee 99 08 bd f2 e5 1b bd
       0.022801487 0.013236063 -0.033349924 -0.03806109
0001f0 91 ff 01 bd 00 00 00 00 4d 36 a4 bd d9 7b c6 bc
       -0.031737868 0.0 -0.080181696 -0.024228977
000200 39 92 6d bc 0c d7 23 bc 89 e7 ad bc 6c 04 21 bc
       -0.014500194 -0.010000002 -0.021228569 -0.009827714
000210 5f 61 7d bc fa f3 d8 bc b6 52 e9 bc 60 ec d0 bc
       -0.01546511 -0.026483525 -0.028481822 -0.025503337
000220 00 00 00 00 30 fe cf bc 00 00 00 00 16 9d ae bc
       0.0 -0.02538976 0.0 -0.021315139
000230 78 1c d7 3a ed 3d 50 bd 00 00 00 00 2e e4 af 3c
       0.0016411683 -0.050840307 0.0 0.02147111
000240 37 ff 83 bb 16 8b 6c bc 0d 38 ef 3c 8a f9 b3 bc
       -0.0040282267 -0.014437458 0.029201532 -0.021969575
000250 dd e8 39 bc b9 23 26 bd 7f b1 e0 bc d4 61 91 bc
       -0.011347023 -0.04056141 -0.027428387 -0.017746843
000260 96 75 21 bc ee a0 df bb 2d ab 46 bd 0a bf 78 bc
       -0.009854695 -0.0068246042 -0.04850309 -0.015182266
000270 5c 32 99 bc 6d 21 c4 bc fd b7 9c bc ac 63 ce bb
       -0.018700771 -0.02394172 -0.019130701 -0.006298503
000280 c1 be 75 bc fc 4f fc bc 00 d7 23 bc 9a d1 a3 bc
       -0.014999093 -0.030799858 -0.00999999 -0.019997407
000290 d7 54 5c bc e6 31 0b bd 1c 03 2b bd ac 55 81 3b
       -0.013447962 -0.033983134 -0.041751012 0.0039469805
0002a0 fb a7 81 bc fe 34 8f bc 1e cc 22 bc 44 9a 75 bc
       -0.01582717 -0.017481323 -0.009936361 -0.014990393
0002b0 f8 ca d1 bc e0 1c 99 bc d6 ba 75 bc 56 5f 7f bd
       -0.025609478 -0.018690526 -0.014998158 -0.06234678
0002c0 09 d7 23 bc 1f e6 93 bc 71 95 d5 bc 9a 88 fb bc
       -0.009999999 -0.018054066 -0.026072236 -0.030704785
0002d0 a7 2f 48 bc ce 26 0a bd 05 d7 23 bc 4a 1e 05 bd
       -0.012218392 -0.033728413 -0.009999995 -0.03249959
0002e0 bb 29 05 bd 55 b6 ac bc 23 eb eb 3b ef 4a c2 bc
       -0.0325105 -0.021083036 0.0071996613 -0.023717372
0002f0 d8 c8 3f bd 3e 76 90 bd d6 d9 67 bc 16 40 bc bb
       -0.0468224 -0.07053803 -0.014151057 -0.0057449443
000300 07 d7 23 bc da 13 dd bc 26 e0 e2 bd 9c ee 44 3d
       -0.009999997 -0.026987005 -0.11077909 0.048079118
000310 f6 40 a8 bc 56 d4 be bc 78 65 0f 3d 00 00 00 00
       -0.020538788 -0.023294609 0.035008878 0.0

model.5.weight f4 [200, 200]
000000 6d 52 7d 3d 50 f8 ff 3b df 7b 7b be 15 03 39 bc
       0.061846185 0.0078115836 -0.24558972 -0.011292239
000010 04 a4 ed 3c 28 bd 9f 3d d2 b8 26 3e 25 54 7c 3d
       0.029008873 0.077997506 0.16281441 0.061603684
000020 61 c0 e7 bd e6 44 2c 3e 3f bc cb 3c 02 8a ed bd
       -0.1131599 0.16823158 0.024870036 -0.115985885
000030 27 05 2f 3e c8 7a c7 bd 3a 08 bc 3d 8c 4e 03 3e
       0.17091809 -0.097402155 0.091812566 0.12822932
000040 bc e3 aa 3d 30 b9 96 3d 11 d1 17 3e cc 8f 87 bc
       0.08344218 0.073595405 0.14825846 -0.01654806
000050 4f d1 d8 bc 38 7f 1c be 7d ba ba 3d d6 55 7e bc
       -0.026466994 -0.15282905 0.09117601 -0.015523395
000060 00 70 b0 3b 53 d0 18 3e 24 f3 81 3d 09 bc 70 3c
       0.005384445 0.1492322 0.063452035 0.014693269
000070 5d f6 54 3e 7c ac 56 bd 48 f5 4d bd 85 a0 4c be
       0.20797105 -0.052410588 -0.050282747 -0.19983108
000080 8f 5b c2 3d 15 c2 2f bc 77 b4 16 be 45 f9 d1 bd
       0.0949012 -0.010727425 -0.1471728 -0.102526225
000090 d0 9f 02 3d 8a bf 39 bd ab 90 33 bd 1a 40 a9 bc
       0.03189069 -0.04534868 -0.043839138 -0.020660449
0000a0 28 ae 5b 3c 65 8b bf 3d 86 b2 84 bc 5b aa 7f 3d
       0.013408221 0.09352759 -0.016198408 0.062418323
0000b0 f4 8a 2d 3d bb fc 06 3c a5 61 15 3e 96 6b 9b bd
       0.042368844 0.008238967 0.1458803 -0.0758888
0000c0 fc d0 ec bd 86 93 46 3e 60 de 55 3e 70 6a c6 bd
       -0.11563298 0.19392213 0.2088561 -0.0968827
0000d0 66 32 e8 bd 8f a8 ec bc 14 9e b7 3b 8a 83 ac bd
       -0.11337738 -0.028888969 0.005603561 -0.084235266
0000e0 db cf 7c 3c 08 cf f6 bd d7 2f d6 3d c9 76 c1 3d
       0.015430416 -0.12051207 0.104583435 0.094464846
0000f0 c5 76 9c 3d 2d 27 e0 3c 49 2c 0f 3e 3d 85 03 be
       0.07639841 0.02736243 0.13981737 -0.12843795
000100 13 c4 72 3c 9e 23 f7 3d b6 2c 9c bd d0 56 ea bc
       0.014817256 0.1206734 -0.076257154 -0.028605849
000110 4b f0 54 3d ca 27 08 be e8 d8 0e be 25 70 2e bd
       0.051986974 -0.13296428 -0.1394993 -0.042587418
000120 a3 0f 46 3d a7 bb 39 be ab 1a 8e 3d c7 ef 0a 3d
       0.048354756 -0.1813799 0.0693868 0.033920076
000130 4e d1 96 3c 19 f2 34 bc 4e 58 f5 bc cb f9 3a 3b
       0.018410351 -0.011044049 -0.029949334 0.0028530236
000140 61 8a ab bd f7 1b a6 bb 50 c1 8e 3c af 92 07 3e
       -0.08376003 -0.0050692516 0.017426163 0.13239549
000150 90 0f aa 3b db 38 96 bd 16 e6 d3 3d 39 50 c0 3d
       0.0051898435 -0.07335063 0.1034662 0.09390301
000160 58 71 3c 3d 71 fc a1 3d 7a b1 0b 3e c2 08 df bc
       0.04600653 0.079094775 0.1364192 -0.027225856
000170 df 1a c9 bc 04 22 21 3a 0c da 31 be cb d4 08 be
       -0.024548946 0.00061467313 -0.17368335 -0.13362424
000180 cf e3 a5 bd 3c 31 06 be 44 ea c0 3c 15 38 23 3e
       -0.08100092 -0.13104719 0.023549207 0.15939362
000190 60 48 e7 bd 67 20 7e bd 32 94 42 be fd e6 35 bc
       -0.11293101 -0.06204262 -0.19001845 -0.011102435
0001a0 8b 08 0d be 54 d9 2e 3c 7a 70 3d 3e ea a4 e6 bd
       -0.1377279 0.010671932 0.18499938 -0.112619236
0001b0 b7 6f 64 bd 25 52 fa bd fd 44 25 be 08 c5 7e 3d
       -0.055770602 -0.12222699 -0.16139598 0.062199622
0001c0 b5 31 8d 3b 39 6f ec bd 01 31 0c 3d b0 22 42 be
       0.004308904 -0.115446515 0.03422642 -0.18958545
0001d0 6d 87 f1 3b e0 0b 7e bd 0d 60 f0 bd 2e 71 77 3d
       0.0073708803 -0.062023044 -0.1173707 0.06041067
0001e0 d1 4d 5e 3c e8 d4 1a be 19 5e 03 bd 65 d8 bc 3d
       0.013568358 -0.1512028 -0.03207216 0.092209615
0001f0 6a 0e 32 3d 13 7d 2e bd 11 ae 2f be fe 86 05 3d
       0.043470778 -0.04259975 -0.17156245 0.03259944
000200 3b 9a 47 be 4e 5e c6 3d ea da f2 bd 1b 9d 32 3d
       -0.19492428 0.09685956 -0.11858161 0.04360686
000210 d8 ef 11 3e d8 88 b4 bd 8b 10 a7 3a 04 44 15 be
       0.1425165 -0.088151634 0.0012746019 -0.14576727
000220 38 78 10 bd 19 ab 55 3d 85 76 98 bc 60 ae 77 be
       -0.0352709 0.052165125 -0.018611202 -0.24187613
000230 f4 9e b0 3d 55 96 89 bd 2b 02 24 3d dd dc 24 bd
       0.08624068 -0.06718127 0.04004113 -0.040249694
000240 b4 90 13 bd 20 b4 be 3b 13 3b 84 3c c9 f6 1b be
       -0.03602667 0.0058198124 0.01614145 -0.1523086
000250 95 7e 1e 3b 72 1c 88 bc 86 91 e2 3b a6 ec 32 bc
       0.0024184335 -0.016615126 0.0069143204 -0.010920679
000260 64 44 b3 3d 35 2c fa 3c 23 6c 49 3e 20 16 3e 3d
       0.08753279 0.030538658 0.19670157 0.04640782
000270 54 94 21 bd 89 15 13 3e 06 52 c3 3d ac cc 33 bd
       -0.039448097 0.14363684 0.09537129 -0.043896362
000280 4d 78 ff 3d 55 90 80 bb 8b 0b 4e 3d d9 87 88 bd
       0.124741174 -0.0039234557 0.050303977 -0.06666536
000290 15 b6 3e 3e d9 e5 e4 3d ed d6 04 3e b9 04 95 3c
       0.18624146 0.111766525 0.12972613 0.018190729
0002a0 e2 f9 2a 3e 3c 89 9a 3d ad 56 71 bd 16 8c 29 bd
       0.16696885 0.07545707 -0.05892055 -0.041393362
0002b0 bd 75 f8 bd 77 5d a3 3b 04 f6 82 bd cf e0 66 bb
       -0.12131832 0.004985507 -0.0639458 -0.0035229211
0002c0 6d 90 7b 3d 67 a7 fc 3c 4f e2 90 3d db c2 c4 bc
       0.061417032 0.030841542 0.07074415 -0.024018696
0002d0 da 7a 23 bd 76 e4 ff 3c 66 d2 b1 3c 63 af ab bd
       -0.039912082 0.031236868 0.021706771 -0.08383062
0002e0 a6 5e 8e 3c 25 19 0b be 1e 53 6e 3d d0 b9 3d bc
       0.017379116 -0.1358381 0.058184735 -0.011579946
0002f0 32 e8 18 be 3f 32 e6 bc 37 c6 00 3c d4 1e 47 3e
       -0.14932325 -0.028100131 0.007859758 0.19445354
000300 32 77 0f 3e 1f cf ed bd 3a c7 42 bd 8b 3b 2a bd
       0.14010313 -0.11611771 -0.04755328 -0.04156069
000310 44 94 b4 bb b4 4a 95 3d bb e4 c8 3d fa 4e f2 bd
       -0.0055108387 0.07289639 0.09809252 -0.1183147
000320 c4 1e 55 bb b9 64 00 be 18 01 47 3c 16 08 a3 bd
       -0.0032519558 -0.12538423 0.012146257 -0.07960527
000330 ac 1d 8f 3b da 68 cf bd ba c7 c2 3d 49 9e 80 3d
       0.004367551 -0.10127421 0.09510751 0.062801905
000340 f0 47 df 3c cd f9 82 bd a7 99 a2 3d ff a1 68 3d
       0.027255982 -0.06395302 0.07939463 0.056795117
000350 80 f9 01 be 8d 1d 9c bd d2 23 67 bc 84 78 2c 3e
       -0.12692833 -0.07622824 -0.014107661 0.16842848
000360 d8 81 a8 bd 38 2e e3 3c 7f d9 01 3e b3 8c 2c 3d
       -0.08227891 0.027732 0.12680624 0.04212637
000370 70 2b 21 be f0 dc fa bb 83 34 53 3d 86 18 8c 3c
       -0.15739226 -0.0076557323 0.05156375 0.017101537
000380 af c7 b2 bd 59 dc fa bd 66 d7 7c bd 63 ea 7c bd
       -0.08729493 -0.12249059 -0.061728857 -0.061746966
000390 22 4e 26 bc 27 6f 3a be bc 87 03 be 93 a2 0d bc
       -0.010150464 -0.18206464 -0.12844747 -0.008644718
0003a0 d4 c0 c6 bd 9b 2b c3 bd 5f 45 7f bd 3a c0 81 bd
       -0.09704748 -0.095298015 -0.062322017 -0.063354924
0003b0 af 89 00 3d 7f ad 6b be 80 4b 42 be 1d 6e 71 bd
       0.031381305 -0.23015402 -0.18974113 -0.058942903
0003c0 f0 d0 d5 bd bb 51 42 bd c6 0b 83 3d 1b d7 85 3e
       -0.10440242 -0.047441225 0.0639873 0.26140675
0003d0 1f c2 95 bd 43 71 be 3c da 9d ff 3d f2 27 ef 3d
       -0.07312416 0.023247367 0.1248128 0.11677541
0003e0 42 7e 98 3e 2b 37 a2 3d 93 c7 03 be f6 f9 53 bd
       0.29783827 0.07920679 -0.128691 -0.051752053
0003f0 ec c8 05 3d 10 92 02 3b 8d f3 7e bd 9f 9c 40 3b
       0.032662317 0.0019923486 -0.062243987 0.0029390228

model.5.bias f4 [200]
000000 8a 5d 39 bd a7 58 aa bd 13 67 1e bd da dd c6 3c
       -0.04525522 -0.0831769 -0.038672518 0.024275709
000010 aa b1 8c bd e2 dd 7b bc c1 b8 57 bd 9d c5 7e bd
       -0.06869824 -0.015372725 -0.05266643 -0.062200177
000020 29 82 56 3c d5 84 d2 bc 56 70 9a bd 28 2b 50 bd
       0.013092556 -0.025698105 -0.07540958 -0.050822407
000030 30 e1 6b bd f9 9f c3 bc 88 ff aa bb b0 ee a5 bd
       -0.057587802 -0.023879992 -0.00521845 -0.08102167
000040 50 f8 e8 bb 41 db fa bc c8 bf 51 3c 18 81 3b bd
       -0.0071096793 -0.030622127 0.012802072 -0.04577741
000050 c7 ad 4a bd 19 1d 52 bd 39 bf 26 bd 07 02 96 bd
       -0.049482133 -0.05129728 -0.040709708 -0.073246054
000060 6b 78 c5 bc 94 cc 41 bd 61 26 67 3c e7 6a 4d bd
       -0.024105271 -0.04731424 0.014108271 -0.05015078
000070 60 aa 63 bc cb 7e 71 bd 2f d1 1e 3d 0f 14 9b bd
       -0.013895601 -0.05895881 0.03877371 -0.07572185
000080 39 e2 00 bd 41 51 e2 bc 7c 20 1c bd 45 4b 35 bd
       -0.031465743 -0.027626636 -0.038116917 -0.044261236
000090 ac c5 16 3d be 17 7a bc 19 3c b9 3c 59 34 e9 bb
       0.03680961 -0.01526445 0.022611665 -0.007116836
0000a0 d2 d2 db bd 1d d4 1d bd 56 ee 1a bd ec 6b 0d bd
       -0.1073357 -0.038532365 -0.03782495 -0.03452675
0000b0 14 0e fc 3b 27 dc 1c bd 3b 8b b6 bc 5e ac 1b bd
       0.007692108 -0.03829589 -0.022283187 -0.03800618
0000c0 9d 21 a3 bd 17 f1 75 bd fd 26 2e bc 0b 5a db bc
       -0.079653956 -0.060044374 -0.010629413 -0.026776334
0000d0 2a 28 57 3c af ba 1d 3d 80 36 80 bd fc 56 18 bd
       0.013132134 0.038508113 -0.06260395 -0.03719233
0000e0 03 48 94 bc 10 49 ae bd 72 8f 82 bd 78 bd 5b bd
       -0.018100744 -0.08510029 -0.06375016 -0.05364749
0000f0 07 32 43 bd ce 59 73 bd 31 09 44 bd 65 e1 90 bd
       -0.04765513 -0.059411816 -0.047860328 -0.070742406
000100 25 f7 b4 bc af 19 ba ba c5 71 81 bd 10 e7 8f bc
       -0.022090504 -0.0014198328 -0.06320528 -0.017566234
000110 c7 9a f0 3a 4b c7 e9 3a 59 48 29 3b 74 63 91 3d
       0.0018356674 0.0017835883 0.0025830476 0.07099047
000120 d6 0d 3e bd 38 e7 de bc 8f 48 30 bd 85 b5 82 bc
       -0.046399914 -0.027209863 -0.043037947 -0.015955696
000130 a0 66 8f bd 44 3f a9 bd 0f e1 7b bd 8e f2 98 bd
       -0.07001996 -0.0826402 -0.06149393 -0.07468139
000140 e6 aa 4b bd 0f ea 24 bd e4 d5 54 bd aa 32 41 bc
       -0.04972353 -0.04026228 -0.051961794 -0.011791864
000150 45 f1 31 bd f2 74 c7 bc 9a 6d 5b 3d 5c 24 a4 bd
       -0.043442983 -0.024347756 0.05357132 -0.080147475
000160 72 a0 f4 3b 9d 90 3f 3b 93 45 af bc d0 f3 dd bc
       0.0074654156 0.0029230483 -0.02139548 -0.027093798
000170 0e 91 45 bd cd eb 1c 3d f0 9f c8 bb 04 c0 c7 bd
       -0.048234038 0.038310815 -0.0061225817 -0.09753421
000180 be 1d 6b bd 2b 1d 63 bd ed 34 33 bc 4c 20 d9 bb
       -0.05740141 -0.05544774 -0.010937911 -0.0066261645
000190 bd 97 e2 bc 2d f7 0d bd f0 13 1d bd b1 68 7e 3b
       -0.027660245 -0.034659553 -0.038349092 0.0038819725
0001a0 88 e2 a1 bd c4 fd ca bd fd d8 8a bd e9 94 ed bc
       -0.079045355 -0.09911683 -0.067796685 -0.02900167
0001b0 cd 0f 0b 3d 45 f7 36 3d 57 85 1f bd 1e a0 58 bd
       0.033950616 0.04466941 -0.038945522 -0.052887075
0001c0 ae 0c 00 bd 9c f7 a4 3c 6d ee b9 bd fe a2 bc bc
       -0.031262092 0.0201376 -0.09078679 -0.02302694
0001d0 bb c2 44 bd 66 5b 6f 3c 16 24 7e bd 9c d3 c0 bd
       -0.048037272 0.014609193 -0.062046133 -0.09415361
0001e0 13 34 2c bd aa 43 80 bd 1d b1 0c bd 74 ec 67 b9
       -0.04204185 -0.06262906 -0.034348596 -0.00022117962
0001f0 ea 91 18 bd 58 6f 35 bc bb d5 9d bd b3 b3 2f bd
       -0.03724853 -0.01107391 -0.077067815 -0.042895984
000200 d6 34 f9 bd 77 12 6a bd 11 1e 4d bd c4 80 a4 bd
       -0.12168281 -0.057146516 -0.0500775 -0.080323726
000210 be 69 48 bc ef 2d c0 3b be 70 f6 bb 78 7a 8d bd
       -0.012232242 0.0058648507 -0.007520764 -0.06908125
000220 79 57 42 3c 85 31 24 bd f0 40 93 bd 19 1d 53 bd
       0.011861675 -0.040086288 -0.0719012 -0.05154142
000230 c1 c3 85 bd 3a d0 80 bd 30 97 6e bd b4 cf ce bc
       -0.06531478 -0.06289716 -0.058249652 -0.025245525
000240 8e 81 f7 bc e6 a3 8f bc cf 05 2b bd bc 50 3c bd
       -0.030213144 -0.017534208 -0.041753586 -0.04597543
000250 16 05 af bd 52 ab 03 bd a0 77 a3 3c 72 e7 89 bd
       -0.08545892 -0.032145806 0.019954503 -0.06733598
000260 0d 1c 3e bd 1c 3a 4a bd b0 18 10 bc e9 6d 34 bc
       -0.04641347 -0.049371824 -0.008794948 -0.011012533
000270 f3 42 cc bd 33 1a 70 bc 7e bc 4b bd e8 d3 c1 bc
       -0.09973707 -0.014654684 -0.049740307 -0.023660615
000280 d0 03 4e bd eb 67 1c bb 16 09 0d bc d8 0e 85 bc
       -0.050296605 -0.002386565 -0.008608123 -0.01624243
000290 12 b0 7d bd 75 cf 19 bd e7 00 47 bd bb 66 20 bc
       -0.06193549 -0.037551362 -0.048584845 -0.009790118
0002a0 03 37 0a bd 97 ae 68 bc e8 97 5e bd d8 7c 54 bc
       -0.03374387 -0.014201782 -0.054344088 -0.012969218
0002b0 16 87 93 bb c6 5d 8d bd 47 96 52 bd 99 31 f4 bb
       -0.0045021875 -0.069026515 -0.051412847 -0.0074522016
0002c0 1f 28 56 bd e5 1d e3 ba 6c 07 80 bd c2 ea bb bd
       -0.052284356 -0.0017327635 -0.062514156 -0.09175636
0002d0 06 f2 42 bd 8e 86 2d bd ab 32 95 bd f8 f6 fa ba
       -0.047594093 -0.04236465 -0.07285055 -0.0019147089
0002e0 fc 4f 62 bd 56 b2 f0 bc 57 d3 31 bc 08 6b c2 bc
       -0.05525206 -0.029381912 -0.01085361 -0.023732677
0002f0 fa 65 3d bd 95 77 9a bd 30 ae e9 bb 3e 6c 9e 3c
       -0.04623983 -0.0754234 -0.0071313605 0.019338723
000300 57 13 8b bd 44 54 4c bd 11 a1 b8 bc a9 32 58 bd
       -0.06790798 -0.04988505 -0.02253774 -0.05278269
000310 88 83 1b bd 9e 8d 36 bd db 71 7d bd 12 49 19 bd
       -0.037967235 -0.04456865 -0.06187616 -0.0374232

model.8.weight f4 [6, 200]
000000 9f e6 7d 3c 5f af 26 3e 4a 2e e0 be 06 62 3f 40
       0.015496879 0.16277836 -0.43785316 2.9903579
000010 66 6d ff bd e5 e1 ac 3d 3c 64 c3 3c 40 fb 49 bd
       -0.12472038 0.084415235 0.023851506 -0.049311876
000020 06 b9 6c 3e 9f 47 29 3f 7b 85 e9 3d 6f 3d 0a bd
       0.23117456 0.6612491 0.114024125 -0.033749994
000030 35 6d c0 3b d8 76 52 be bb bc c7 3e 61 41 17 be
       0.0058723935 -0.20553148 0.39011177 -0.14771034
000040 58 49 13 bc f4 b3 9b 3f de d0 a0 be de d3 0a bf
       -0.0089896545 1.2164292 -0.31409353 -0.54229534
000050 e2 d9 c3 3f 6f d6 4b 3e 0b cd b2 3d b6 ca 8c 3d
       1.5300868 0.19906019 0.08730515 0.068746015
000060 c6 53 22 3e 4f 3e 2d 40 00 78 b3 bc 56 bd ac bd
       0.1585227 2.706928 -0.021907806 -0.084345505
000070 f0 b0 82 be a0 e8 f9 3d c6 cb 91 3f 23 70 fd 3d
       -0.25525618 0.12202573 1.1390312 0.12374904
000080 09 a0 08 40 38 9d 6c 3f 1f 5e fe 3e 01 46 af 3e
       2.1347678 0.92427397 0.49681184 0.34233096
000090 8f ab 47 40 eb 41 13 be 28 16 a7 be c0 67 5c be
       3.119846 -0.14380614 -0.3263409 -0.21523952
0000a0 66 49 71 3e 62 da 3f be 77 3f d0 3f 19 f1 67 3b
       0.23563156 -0.1873565 1.6269368 0.0035391508
0000b0 37 c1 f6 3f cb 71 88 3e 66 04 9b 3f 84 1f c5 3f
       1.9277714 0.26649317 1.2110717 1.5400243
0000c0 eb 38 b1 3d cc 0b ae 3d 72 c3 a1 3e e5 38 e6 3f
       0.08653434 0.08498344 0.31594425 1.7986113
0000d0 09 b0 cb 3d 2e 78 bd 3c 03 6c 93 3d 2e 23 47 bd
       0.099456854 0.023128595 0.07198336 -0.048617534
0000e0 bb 2b 7e 3f ae 75 c9 3d 83 c2 ae 3d 30 0a ab 3f
       0.9928548 0.09836899 0.08533194 1.3362484
0000f0 f6 06 55 3e 4b e1 09 40 0f 00 ef 3b 24 2f ca 3d
       0.20803437 2.1543758 0.007293708 0.098722726
000100 56 c1 ae bd ec ef 58 3f 78 86 a0 bd 92 33 b6 3e
       -0.0853297 0.8474109 -0.07838148 0.3558622
000110 cc fe 69 be c6 53 f3 3f 08 b5 34 40 69 de 26 bf
       -0.22851104 1.9009941 2.8235493 -0.6518312
000120 af ee 85 be a3 bf 23 3c aa 0f 1e be 57 ab be 3f
       -0.26158664 0.00999442 -0.15435663 1.4896039
000130 03 7a d7 3d 39 3a bf 3d 1b 11 f2 be b3 01 c2 3c
       0.10521319 0.09337277 -0.47278675 0.02368245
000140 de ce 9c be fa 9d 94 3f a6 a7 46 3e ac a9 39 3f
       -0.30626577 1.1610711 0.1939989 0.72524524
000150 69 49 3f 40 49 bc 3e 3f 3d 9f d9 bd c3 7d 70 3d
       2.9888556 0.7450605 -0.106260754 0.058713686
000160 9c 78 68 3f 90 f9 65 be 20 45 78 bd 1b 05 0e 3d
       0.90809035 -0.22458482 -0.060612798 0.034672838
000170 cf 59 23 bd 8b b4 db 3f 7d 85 83 3d 7e e2 9f be
       -0.03988057 1.7164472 0.06421945 -0.31227487
000180 1a 05 c0 bc 90 44 1b 3e b7 dc 64 3f 48 0a a7 be
       -0.023439933 0.15162873 0.89399284 -0.3262503
000190 f1 5a 03 3f ac 94 39 be 61 85 ca 3c 69 cb 8d 3e
       0.5131064 -0.1812312 0.024721803 0.27694252
0001a0 01 a6 e9 3d d5 41 bf 39 5e 60 c5 bc 15 b8 df bd
       0.11408616 0.00036479408 -0.024093803 -0.10923783
0001b0 17 55 8c be 4a 8f 8f 3f d1 ac 12 40 67 1d a7 3d
       -0.27408668 1.1215603 2.2917979 0.08159905
0001c0 63 f0 97 bd 7b be 0c bf b8 d9 10 3e 54 ac f2 3e
       -0.07418897 -0.5497815 0.14145553 0.473971
0001d0 e5 47 99 bd aa 14 57 3f a8 34 70 bd 18 0a 66 bd
       -0.07484416 0.84015906 -0.058643967 -0.05616197
0001e0 56 dc 3d bc 03 37 0b be b5 51 f8 3c 99 01 a7 bc
       -0.011588177 -0.13595204 0.030312398 -0.020386504
0001f0 29 39 c5 bd 75 72 9a 3f e9 53 2c 3f 1c 57 24 be
       -0.09630043 1.206618 0.67315537 -0.16048855
000200 82 a2 f3 bd d3 d2 a8 3e 42 b4 f2 bd 4e 75 47 bd
       -0.1189623 0.32973346 -0.11850788 -0.048695855
000210 e1 c8 b6 3f c7 62 82 3f fb 91 6e be e2 87 fb 3d
       1.4280053 1.0186394 -0.23297875 0.12281777
000220 07 5f f9 3d 97 16 54 be 20 00 d9 bd 43 57 11 be
       0.12176328 -0.20711742 -0.10595727 -0.14193444
000230 fe 92 95 bd 3a f9 cf 3d 8c cf 21 3f e9 b2 ab bc
       -0.07303427 0.10154958 0.63207316 -0.020959334
000240 37 6c 73 40 95 c1 7b 3d 32 1a 8b 3e 93 43 ce bb
       3.80348 0.06146391 0.27168423 -0.0062946766
000250 87 fb 4d 3e c9 15 39 bf a4 4c 2b be 53 e2 39 be
       0.20115481 -0.72298867 -0.16728455 -0.18152742
000260 ed 76 84 3e 2d 69 14 3e 9e 3c db bd 54 dc 25 3d
       0.25871983 0.14493246 -0.10704921 0.040493324
000270 f2 05 09 3e 09 d0 85 3e 1b 02 97 3d 3b fe 5d bd
       0.13381174 0.2613528 0.073734485 -0.05419753
000280 9b d1 76 be 3d 9b 68 3e 05 50 b7 3e 40 7b ea 3f
       -0.24103396 0.22715469 0.35803238 1.8318863
000290 ba c9 67 3e dd 0d d8 3d fc 93 47 3f e7 8e 2b 3f
       0.22635546 0.10549519 0.7796018 0.67014927
0002a0 18 29 1a be cb 53 22 3e e0 c1 2c be cb 5b b4 3e
       -0.15054739 0.15852277 -0.16870832 0.35226282
0002b0 78 ef e5 3f f8 2a 19 be 3a da 9a 3d c1 91 22 40
       1.7963705 -0.14957798 0.07561155 2.540146
0002c0 3d 9b 30 bd 43 3b a5 bd b7 40 62 3e c2 d4 e6 3e
       -0.043116797 -0.08067944 0.22094999 0.45084196
0002d0 f6 54 36 3e 56 ea 4c 3e f6 9d 33 bd d6 7c e4 3f
       0.17805848 0.20011267 -0.043851815 1.7850597
0002e0 95 e6 74 3d d1 80 39 3d f0 ae 52 40 95 07 72 3e
       0.059790213 0.045288865 3.2919273 0.23635705
0002f0 2c 84 a7 be e7 ed a0 3e d8 9e 93 3e e2 de c6 be
       -0.32718027 0.31431505 0.28832126 -0.3884192
000300 46 4d ed 3f 67 2d a8 be 65 1e a7 3f 10 3d 5e 3e
       1.8539207 -0.3284714 1.3056151 0.21702981
000310 41 da 65 be 16 ad 06 3f cf 96 45 3e 25 84 85 be
       -0.22446539 0.5260786 0.1929581 -0.2607738
000320 d7 8f e9 3c 9a 45 d3 3d 13 21 99 3d a2 1e 92 be
       0.028510971 0.1031601 0.074770115 -0.28538996
000330 45 7d 10 3e e3 74 2e 3e a3 fa a0 bd e1 a0 4a be
       0.14110287 0.17036776 -0.07860305 -0.19787933
000340 82 d1 3c bd 30 90 ca 3e 96 a3 1b be 17 eb b9 3d
       -0.04609824 0.3956313 -0.15199122 0.09078043
000350 42 0f 58 be 87 e6 78 be 13 e8 1e 3f cd 6c 94 bd
       -0.2109957 -0.24306689 0.6207287 -0.072473146
000360 8a 28 bd bd d1 70 14 be 40 40 be be f1 d1 47 3d
       -0.09236248 -0.14496161 -0.37158394 0.0487842
000370 ba fc 84 3d e7 d4 2f 3d 73 e8 c6 3d ab 91 9a 3e
       0.06493516 0.04292765 0.09712305 0.3018926
000380 29 9c ca 3f dd d8 48 be cc e3 09 bf a5 bc 44 3d
       1.5828906 -0.19613977 -0.53863215 0.048031468
000390 06 7e 52 be fd 33 4e bd de fd 65 bd 0a 7c ad 3d
       -0.20555887 -0.05034255 -0.05615031 0.08470924
0003a0 43 b9 17 3f 2b 17 1f 3f b3 ed 95 be 4b 0d 46 3e
       0.5926706 0.62144727 -0.29282913 0.19341008
0003b0 1c 7b e1 bd 25 6e c8 be 8b c8 80 3f 05 44 b8 be
       -0.110098094 -0.39146534 1.0061201 -0.35989395
0003c0 bd 64 1b 3f bb cc ab bd 31 87 90 be 50 1c 08 40
       0.6070059 -0.083886586 -0.28228143 2.126728
0003d0 72 ea a6 3e 79 68 ae 3d 3d 10 27 3d 0f 99 2e 3f
       0.32600743 0.0851602 0.04078697 0.682023
0003e0 7d ae 86 3d f1 23 58 3d c1 23 be bc 13 7c 46 be
       0.0657625 0.05276865 -0.023210408 -0.19383268
0003f0 05 a6 d7 3e c0 30 ed 3e fe 69 28 3f f9 3b 29 40
       0.4211885 0.46326256 0.6578673 2.6442854

model.8.bias f4 [6]
000000 33 ad 12 3e c3 9b 40 3e 52 22 52 3c 64 a9 2a 3c
       0.14323883 0.18809418 0.012825565 0.010416362
000010 47 26 a5 3e 82 a3 ca 3d
       0.32255766 0.09894468
