Challenge_1/Weights/model_dynamics_Pendulum-v0_mse_0.00002822.params (torch_old, 329416 bytes, 8 tensors)

model.0.weight f4 [200, 4]
00000000: ee60 7abf da69 e43e 8c43 21bf 6027 33be
00000010: 5cce b53f c5f8 34bd 2e2e ba3e f5e8 423f
00000020: a609 5ebe 3ebd 593f 28d4 303e 3208 7bbe
00000030: d1fb 85bd 2ff2 05bf 986d 893e 7cc5 803e
00000040: 8458 43bd 350f b7bf ba95 15bf 1410 163f
00000050: dcaa 383f 0ad7 83bf 5e49 893d 597b 4d3d
00000060: 7324 7fbe 7fb1 1a3d 5124 b5bd 3f67 57be
00000070: 7b33 4ebd b971 abbc 8e96 99bf f5df 95bf
00000080: a3d9 733f 58df 2ebd 8488 89bd 7fa7 d6bf
00000090: 50c5 ca3a 3564 bc3f 8319 593e 0778 513f
000000a0: db9c 763e 7a4d babd c390 c9bc 54b8 61bf
000000b0: 8217 59be 893e 80be 8e49 48bf 81ab 11bd
000000c0: 46be 10bf 9140 403f d847 bcbd 6b92 82bf
000000d0: af5f e53e 5aab 803e 18f9 81bd 23e9 0cbf
000000e0: adc8 903f ae27 d6bd 7555 10bf 6a32 03bf
000000f0: 2992 90be fad9 c9be f95c 59bd 0a78 913c
00000100: ef64 33bf 5b22 95be 2867 a5bf f0b5 d6bf
00000110: 8ab3 9abe 0bbe a4be b7d4 ebbe 9744 35bf
00000120: bdb6 f93c ece1 2e3e a44b fc3f 54ff debf
00000130: 9512 433e 7417 fcbe bf70 28bf aa26 18bf
00000140: 7ce5 4a3e e0c7 153f 682b 043f 1f92 b83e
00000150: d7d9 0bbf 511b 6dbf aba1 793d c6b4 563f
00000160: 3036 52bb 1712 6cbe cd0c ea3e 99e9 85bf
00000170: aba3 0840 8d55 6cbf b83c a03f 6b38 023f
00000180: 919b 3dbe 976c 163f 620b 19be d04f aabe
00000190: 7ea2 883f 06e3 89bf 3f40 2dbf 0f7b 723e
000001a0: 2e62 debe 1f61 cb3d d46f db3d 4d26 d93f
000001b0: 6d15 c43e aa9f a83d e263 0cbb ea84 0c3f
000001c0: 71b8 92bf 3c16 923f 3aee 303e 680b 803f
000001d0: 7331 193f 8846 563e eca0 22bd bc2c 42bf
000001e0: a4a2 2abf ee5d 8bbf 3a7d 99be a7e3 c83e
000001f0: 6f6f eebe 53b0 ab3e f3c3 a63e 083f 163e
00000200: 52ae bb3e f09b 783f 7156 98be 8d59 4abf
00000210: 492f c7be 0183 0bbf 02cd f5be 12ea 973f
00000220: 4d62 0c3f 174d 953e 5ea7 6bbf 658e a3bd
00000230: 55f4 683e ecb4 043f ae9d 093f 7203 f33e
00000240: 836f 44be 3c89 71be c95a f1be a672 40bf
00000250: c2d4 313f 2858 a03c 9be1 babf 9f01 023f
00000260: f7bd 1abf b822 dabe a634 d23e 7be2 a53e
00000270: 3593 603e 7f97 133f 45d2 693f 63f1 0cbe
00000280: 846c 23be 4277 683e 9f0c 0fbf df4c c23e
00000290: 5606 cebe 4a60 c9be 934a ecbe 4484 5fbf
000002a0: 8273 0fbf f989 84bf bbbe 48bf 8804 b33f
000002b0: 34d6 9abf 266c af3f 0bef d83e 071a 9abf
000002c0: 0b50 62bd 97e3 f43d 7835 0b3f 56a3 b5be
000002d0: edf8 4fbf 8e9a e43f 2486 80bd cc1b f5be
000002e0: c197 923e 43f3 303f 4f16 04bf dde6 e9be
000002f0: ba7c 61be 15b6 3d3f 9a62 c8bf 8abb 0d3c
00000300: 1e78 4ebe e914 aebe 150f 1a3f fda4 ebbd
00000310: 68ec f2bd e9a6 ae3e 59e1 39bf 068f 55be
00000320: 8243 c1bf 069c ec3e f7eb 85be f230 b8bd
00000330: ba93 93be 6975 a53f 877f a1bc d5f7 adbf
00000340: 0c83 ce3e a9ee 74bf 495e b4be 6662 9fbf
00000350: 073f 94bf 6606 84bf 9014 41be 84e1 7e3d
00000360: b9a8 393e 07ed 06bf def0 fabe 82d7 bbbe
00000370: e0f8 993e dcb1 713f 3f68 bb3f 07b8 533f
00000380: 9089 18bf 746f 0cbf 48da 7cbe 8870 dd3f
00000390: 54ca 65bf 9398 b4bf ac10 75bf 0cbf 793e
000003a0: 6d53 b63e 1a05 4ebf 580f a03e 21e3 06bf
000003b0: d40b 0ebf 358a 43bf 791f d63e 3d09 b23e
000003c0: 6c41 fa3e 84f3 ecbe cd18 6ebe 8313 6d3f
000003d0: ee68 36bf a24c 9dbe cf3d c23d 5f68 2abf
000003e0: ada4 863e dc33 f7bd 0af2 70be 1275 333d
000003f0: 73f0 14be df5d 013f 9563 2c3e b12c 81bf
-0.9780415 0.44612008 -0.62993693 -0.17495489 1.4203601 -0.044182558 0.36363357 0.76136714
-0.21683368 0.85054386 0.17268431 -0.24514845 -0.06542171 -0.5232267 0.26841426 0.2515067
-0.047691837 -1.4301516 -0.5843159 0.58618283 0.7213571 -1.03 0.06703447 0.05016646
-0.24916248 0.03776693 -0.088448174 -0.21035479 -0.050342064 -0.02092825 -1.1999071 -1.1708971
0.9525396 -0.042693466 -0.067154914 -1.6769866 0.0015470181 1.4718081 0.21201138 0.8182377
0.24083273 -0.09096809 -0.02460516 -0.8817189 -0.21200374 -0.2504771 -0.78237236 -0.03556395
-0.56540334 0.7509852 -0.091933906 -1.0200933 0.44799563 0.2513073 -0.06346339 -0.5504324
1.1311241 -0.10456787 -0.563804 -0.512488 -0.2823651 -0.39424115 -0.05306718 0.017757434
-0.7007589 -0.29127774 -1.2922106 -1.6774273 -0.30215102 -0.3217624 -0.46060726 -0.70807785
0.030482644 0.1707837 1.9710584 -1.742167 0.19050057 -0.49236643 -0.65797037 -0.59433997
0.19814104 0.5850811 0.5162873 0.36048982 -0.5462927 -0.92619807 0.060945194 0.8386959
-0.0032075755 -0.23053776 0.4571289 -1.0461913 2.1349895 -0.9231804 1.251853 0.50867337
-0.18516375 0.58759445 -0.14945748 -0.33264017 1.0674589 -1.0772407 -0.67676157 0.23679756
-0.4343428 0.09930634 0.10714689 1.6964813 0.38297597 0.082335785 -0.002142184 0.5489031
-1.1462537 1.1413035 0.17278376 1.0003481 0.5984108 0.20925343 -0.03970425 -0.7584951
-0.6665442 -1.088804 -0.29978353 0.39236185 -0.46569392 0.33532962 0.32571372 0.14672482
0.36656433 0.9711294 -0.2975345 -0.79042894 -0.38903263 -0.5449677 -0.4800797 1.1868308
0.54837495 0.29160377 -0.9205226 -0.07986144 0.22749455 0.51838565 0.53756225 0.47463566
-0.19183163 -0.23587507 -0.47139576 -0.7517494 0.6946527 0.019573286 -1.4600099 0.50783724
-0.60446113 -0.42604613 0.41055793 0.32399353 0.21931155 0.5765304 0.9133647 -0.13763957
-0.15959364 0.22701743 -0.55878633 0.37949273 -0.4023921 -0.39331275 -0.46150646 -0.87311196
-0.56035626 -1.0354606 -0.7841603 1.3985758 -1.209662 1.3704879 0.42369875 -1.2039193
-0.055252116 0.11957472 0.5437846 -0.35476178 -0.81239206 1.7859666 -0.06275585 -0.4787277
0.28631404 0.6912119 -0.5159654 -0.45683947 -0.22020236 0.7410596 -1.5655091 0.00865067
-0.20163009 -0.34000328 0.60179263 -0.115060784 -0.11861497 0.34111717 -0.7260948 -0.2085534
-1.5098727 0.46212786 -0.2615659 -0.089937106 -0.28823644 1.2926456 -0.01971413 -1.3591257
0.40334356 -0.95676666 -0.35228184 -1.2451904 -1.1581734 -1.0314453 -0.188555 0.062226787
0.18130769 -0.52705425 -0.49011892 -0.36687857 0.3007269 0.94412017 1.4641188 0.8270268
-0.59584904 -0.54857564 -0.24692643 1.7299967 -0.89761853 -1.4109062 -0.95728564 0.24389285
0.35610524 -0.80476534 0.31261706 -0.5269032 -0.554868 -0.7638276 0.41820887 0.34772673
0.48878038 -0.46279538 -0.23251648 0.926079 -0.7125386 -0.3072253 0.09484445 -0.6656551
0.26297513 -0.12070438 -0.2352983 0.04381282 -0.14544849 0.5053386 0.16834863 -1.0091764

model.0.bias f4 [200]
00000000: 51eb 603d 1da2 1bbd 8b5f 6dbd 30f1 f8bc
00000010: f8bb fc3d 7bae e1bc ad2d 89bc 0000 0000
00000020: 3e72 18be d9fe 9bbd 957c 0fbd 0000 0000
00000030: b2d1 fc3b 6bba 01be b883 54bd 0000 0000
00000040: 0000 0000 0000 0000 dad4 09be 0000 0000
00000050: f07a 14be cac4 b3bd 9539 e0bc 3f50 07be
00000060: c5c5 93bd 891c a9bd d5af bcbd 0af2 75bd
00000070: a5ec d4bd f4d3 ffbd 5694 17bd ad17 b6bd
00000080: 3a9d 57bd c307 bfbc eee0 443d ccdf 25be
00000090: 0000 0000 4cc9 413d 2978 353b 30ed c8bd
000000a0: 5bad bfbd 0000 0000 ac75 3dbe 8d1a 9fbd
000000b0: 2b9f acbd f753 e3bc 862c 26bd 16b6 613c
000000c0: 957c 15bd 1970 ca3d 9bc4 813e d090 90bd
000000d0: 0e1a 163e 0000 0000 947f 64bc 9820 e9bd
000000e0: 1e2a eebd 0000 0000 b2f6 de3c f608 243d
000000f0: 4da8 8abd 0000 0000 76b2 7b3d 8cb3 22bd
00000100: d96c fe3d 7c9c e2bc e610 c43d e5a8 a9bd
00000110: 6525 85bd 1bcb cb3c ee78 2c3d 57f4 ccbd
00000120: 07fb f73b 38ec 86bc f1a9 d1bd 6693 3abe
00000130: c448 623c c033 44be 01c2 11bc 1359 b2bd
00000140: ac45 32be 0000 0000 2e04 b1bd 2933 2abe
00000150: f7b7 1ebe b014 2cbe 0000 0000 f7cd 48bd
00000160: 95f5 4a3d 8232 773d 4133 2fbd 1149 3abd
00000170: 50d5 86bd 0e88 97bd 0000 0000 0000 0000
00000180: 5cf0 03be 31bf 533b 9066 433d ac07 013e
00000190: aaee ee3d 6c33 62bd f738 bbbd 0000 0000
000001a0: 9aa2 8e3d 0000 0000 9a80 79bd c19f dfbd
000001b0: ab7e 0f3e 933d dcbd beb0 d3bd d2d0 33bd
000001c0: bee9 aebd 6cd1 84bb d61f 72bd 5bc8 113e
000001d0: a273 c7bd b2a9 6c3d ff18 53bd ba2a c43c
000001e0: ec40 203d 82c8 efbd f904 a7bd e188 b23d
000001f0: 9f7c bebd cf9b a7bd 06c6 863e 0139 51be
00000200: 31dd f33d 61b9 77bc b1db 39be 6f37 7b3d
00000210: f886 babd d090 8a3d cd0a 00be 86ed 08be
00000220: c119 993c 6f0a fb3d e12e 03be 6a2c f4bc
00000230: e7da 32bd 8770 14be 01e1 4ebe 7776 cabd
00000240: 2b69 20be 9a76 b23d 7050 e3bb cb02 5bbd
00000250: edfd 33be 0f91 a3bd e551 393d 0000 0000
00000260: 0855 3b3c 01ba 13be 97c3 a7bd 60a1 ae3a
00000270: a4e7 4b3e 0000 0000 0000 0000 bb0f bb3c
00000280: 7b5c 7ebd 2167 e9bc 7047 1b3e 0000 0000
00000290: 1378 b1bd 80ee 06be 48bf c0bd 5455 913d
000002a0: e775 13bd 0f2c a33c f685 583c d2b7 263d
000002b0: ab5e febc 1893 953d a1bb 40bd eaec 5b3d
000002c0: 0803 80bd 3c93 f6bb 0000 0000 eb8c 09be
000002d0: b513 41bd 93c6 03be c4ca 153d 0000 0000
000002e0: a729 0e3d e810 ebbd e606 12bd 52d9 bcbd
000002f0: 3905 ae3d 0000 0000 8450 3b3e d17c 81bc
00000300: 7e0d dbbd 61f3 a93d c766 3ebd fc83 7a3e
00000310: f8f4 81bd 0000 0000 9587 4bbd 7ab1 55bc
0.054911915 -0.0379964 -0.057952445 -0.030388445 0.1234054 -0.02754902 -0.016745413 0.0
-0.1488733 -0.07616968 -0.03503092 0.0 0.0077154273 -0.12668769 -0.05188343 0.0
0.0 0.0 -0.13460103 0.0 -0.14500022 -0.08777769 -0.027371207 -0.13214205
-0.07215456 -0.08257396 -0.09213225 -0.06004528 -0.10396699 -0.12491599 -0.0370067 -0.088912345
-0.052640177 -0.02331913 0.048066072 -0.16198653 0.0 0.047311112 0.002769003 -0.09810865
-0.09359237 0.0 -0.1850192 -0.07768736 -0.084287964 -0.027749998 -0.040569805 0.013776323
-0.036495764 0.09884662 0.2534531 -0.07058871 0.14658377 0.0 -0.013946433 -0.1138317
-0.11629127 0.0 0.027217243 0.04004761 -0.06770382 0.0 0.06144949 -0.03972201
0.12423105 -0.027662508 0.095735356 -0.08284167 -0.06501273 0.024877122 0.042107515 -0.100075416
0.0075677666 -0.01647006 -0.10237492 -0.1822029 0.013811294 -0.19160366 -0.008896352 -0.08708396
-0.1740939 0.0 -0.08643375 -0.16621079 -0.15499865 -0.16804767 0.0 -0.04902455
0.04955061 0.060350902 -0.04277349 -0.045479838 -0.06583655 -0.07398997 0.0 0.0
-0.12884659 0.0032310004 0.047705233 0.12600583 0.11666615 -0.05522482 -0.091417246 0.0
0.069646075 0.0 -0.06091366 -0.109191425 0.14013164 -0.10753932 -0.10336445 -0.04390032
-0.085406765 -0.0040532853 -0.059112392 0.14236586 -0.09738852 0.05777902 -0.05153751 0.023946155
0.039124414 -0.11708166 -0.08155245 0.08717514 -0.09301113 -0.08184015 0.26322955 -0.20431902
0.11907423 -0.015119881 -0.18150212 0.061332162 -0.091077745 0.06765902 -0.1250412 -0.13371858
0.018689038 0.122578494 -0.12810852 -0.029806335 -0.043665793 -0.14496051 -0.2020302 -0.098858766
-0.15665118 0.08714028 -0.006937079 -0.05346946 -0.17577334 -0.07986652 0.045244116 0.0
0.011433847 -0.14426424 -0.08191603 0.001332324 0.19912583 0.0 0.0 0.02283465
-0.062099915 -0.028491559 0.1516397 0.0 -0.086654805 -0.13176918 -0.09411484 0.07096353
-0.036001112 0.01991847 0.0132155325 0.04070265 -0.031051 0.073034465 -0.047053937 0.053692736
-0.06250578 -0.007524876 0.0 -0.13432662 -0.047137935 -0.12868719 0.036570325 0.0
0.03470769 -0.11477834 -0.03565111 -0.09221138 0.0849709 0.0 0.18292433 -0.015806587
-0.10695933 0.08298374 -0.046484735 0.2446441 -0.06345552 0.0 -0.049689848 -0.013042802

model.2.weight f4 [200, 200]
00000000: abf3 383d 4f0c 213e 3dbd 06be 22ac 6abe
00000010: fb36 6abe 26d6 24bc f062 afbc ebae a63d
00000020: 6f6e 03be 004b a83d eb9c 0abe fab1 48bc
00000030: 0b08 6dbe 91f5 78bd 8a66 95bb 4da7 88bd
00000040: 4bdf 59bd 2b4b 9c3d ba68 803d 8d8e e03c
00000050: a9e0 30be c5ef 08bd ea91 393d 8494 85bc
00000060: 8875 f3bd 0fc6 04bc 8dee eb3d a8ae 183c
00000070: 82b7 9a3d 4132 a7be 69c0 a3bd 84f5 663c
00000080: 1607 85bd 8a52 bb3c 8f7f 36bd 9d22 45bd
00000090: b5b6 6e3a 0e11 5ebe 6494 17bc b93f e3bd
000000a0: 7588 bfbd 8b31 05bc 8235 79bd eba8 743c
000000b0: aaae 5a3d 1ad1 33bd 8f28 51be 8897 e73c
000000c0: 2bfb 253d e4c4 00bb 27ba 14be 428b 6ebd
000000d0: a07e 05be 9a03 fbbc 4a0f 433d 4ee4 04be
000000e0: ba62 86bd 6e14 9fbc 33e8 3f3e f424 cc3d
000000f0: 863e 723d 1b84 8cbd 900d 963b 3e92 c93d
00000100: 96a0 0cbd 8062 ac3b 97c0 363d f4fd 92bd
00000110: 563e db3d 0ab6 63bd 56c5 603e 5c5c eabb
00000120: c77d 5ebd ddc0 483e 282c 6dbd d626 1fbd
00000130: fa82 af3d 4638 fe3d 9bc4 d7bc 4611 fb3d
00000140: 1ac5 b7bd 475c ff3d 289d 723c 28d4 af3d
00000150: 1b10 31be 7a1b f8bd 0ad4 6d3e 4433 393e
00000160: 48e3 f73c cafc 79bd 3212 bdbd cece ab3d
00000170: 7edb a93c ab29 103e 809f 123e 153e e1bc
00000180: ee2c 263c cbf1 423e 0721 0fbe 70f8 c13d
00000190: 91e6 6f3d f504 a1bc 7376 3bbe e5bb f2bd
000001a0: d47c 363e 19d7 9cbc df3d 5e3c 6032 663d
000001b0: 706a bfbc 2456 4bbc 2fd5 65be 3e26 143e
000001c0: c6aa a6bd b775 533e c33c 15bc fa42 203d
000001d0: 7903 c5bc ca9c d43c 28fd e4bc a242 cc3d
000001e0: 09db ffbd 25cc d7bc 4008 43bd d3e9 833c
000001f0: 0976 853d 3a8a f23d 5acb 343e 55e1 753d
00000200: 4bd1 123d 65d3 2a3e a79e e83d f2a0 ccbc
00000210: ba0c a8bd 994c 69bd be52 9e3c a2f2 6ebd
00000220: 4881 3e3e bdf4 fdbc 4117 56bd e8d5 73be
00000230: 2082 b539 f809 183b b7fc c2bd 577a 21be
00000240: da1c 9abc 3575 84bd 0bca b73d 93a3 c2bd
00000250: 7807 4ebe 7b56 babd fb07 68be e32e 8d3d
00000260: 45aa 88bd 23c7 f3bd 8dd5 08be 4513 1fbd
00000270: 7bbe c43d c7ec 7abd cf7e 493d 18ee 0fbd
00000280: 523e 5ebd 839e 20be 57f9 003e 0540 7f3a
00000290: 07c0 c2bd 05db 1abe fc0b 993b 2098 adbd
000002a0: 3548 5ebd 03bc 18bd 97f5 d2bd f0c0 94bd
000002b0: 2173 183d 9592 09be da17 22bd bb73 86bd
000002c0: b8d9 74bd 6272 f9bd 8de5 033d ffd7 d73d
000002d0: 1744 ccbd 8811 6d3d 620a 423b 6fef 26bd
000002e0: 350e a93d 298e a6bd ee6f 2abd c951 2bbe
000002f0: 0ff2 02be eb8e 0dbe 0afd 1dbe d3d0 8f3c
00000300: 36d4 eb3c c9e2 a7bd d368 02bc 3f69 e2bb
00000310: e9cd b3bd 5e0e 473d 7d2d 7f3d 8917 d43c
00000320: 2ddb a2bc a3b4 7c3d f136 ae3c dcd5 2dbe
00000330: 4999 323e df39 a5bc b97b 3e3c 6b5f 423c
00000340: a1b5 1b3c 7d02 ffbd b837 44bc 45a5 063d
00000350: 55f6 d63d 2c7f 393c f715 12bd f6d7 173e
00000360: 89c4 af3d e3c1 e7bd ebe8 c93d 408f 063e
00000370: 3f32 a2bd 8aa4 c83d e4b9 2b3e dfd4 a6bc
00000380: 14cd 803d 5fe9 a43d 9098 0a3e 9ee5 30bd
00000390: 37f9 383c 084f c83d b0b4 b83d 17d5 9e3d
000003a0: afb6 b5bd 75cf 04be 78a7 223e ed9d 313e
000003b0: 556f 11be b2be afbc bfd0 f4bd a31c acbd
000003c0: a5aa 04be 4feb 6fbd ade9 713a 619f 8dbd
000003d0: 76ab c63d 43fc 0cbd 082d 4b3d 177e 6abd
000003e0: fa27 d93c a6b8 2d3c b06f 0abe 38f9 a63d
000003f0: aa0a 623c 2b9a 29be 6b5b 09bd 809b 3e3e
0.045154255 0.15727352 -0.13158126 -0.22917226 -0.22872536 -0.010060823 -0.021409482 0.08138832
-0.12835096 0.0821743 -0.13536422 -0.012249464 -0.231476 -0.060781065 -0.0045593427 -0.06672535
-0.053191464 0.07631525 0.06269975 0.027411724 -0.17273201 -0.033431787 0.04530517 -0.01630617
-0.11887652 -0.0081038615 0.11520109 0.009318985 0.075545326 -0.32655528 -0.07995684 0.014096621
-0.06495492 0.022866506 -0.044555243 -0.048128713 0.0009106205 -0.21686193 -0.009251688 -0.110961385
-0.09352199 -0.008129488 -0.060842045 0.014932851 0.05338923 -0.043900587 -0.20425628 0.028270498
0.040522736 -0.0019648606 -0.14524136 -0.058238275 -0.13036585 -0.030641366 0.047622003 -0.12977716
-0.06561799 -0.019418921 0.1874092 0.09967986 0.05914166 -0.068611346 0.0045792535 0.098423466
-0.034332834 0.0052607656 0.04461726 -0.07177344 0.10705249 -0.055593528 0.21950278 -0.0071521234
-0.05431917 0.19604822 -0.05790344 -0.038855396 0.08569904 0.12413077 -0.026338866 0.12259154
-0.08973141 0.124687724 0.014807977 0.085853875 -0.172913 -0.12114616 0.23225418 0.18085963
0.030259743 -0.061032094 -0.09231986 0.08389054 0.020734545 0.14078395 0.14318657 -0.027495423
0.010142548 0.19037549 -0.13977443 0.09471214 0.058569495 -0.019655684 -0.18306904 -0.11852244
0.17821056 -0.019145535 0.013564556 0.056200385 -0.023366183 -0.012410674 -0.22444604 0.14467713
-0.08138041 0.20650373 -0.009108725 0.039126374 -0.024049507 0.02595367 -0.027952746 0.09973647
-0.124929495 -0.02634246 -0.04761529 0.016102707 0.06516654 0.11842771 0.17655697 0.060029346
0.03584413 0.16682203 0.113583855 -0.024979088 -0.082055524 -0.056957815 0.019326564 -0.05833686
0.18604004 -0.03100049 -0.05226827 -0.23812068 0.0003461996 0.0023199301 -0.09520858 -0.15769325
-0.018812586 -0.06467668 0.089740835 -0.095038556 -0.20120037 -0.09098526 -0.22659294 0.068937086
-0.06673101 -0.11903217 -0.13362713 -0.038836736 0.09606644 -0.061260965 0.0491932 -0.035139173
-0.054258652 -0.15685467 0.12595116 0.00097370177 -0.095092826 -0.15122612 0.004670618 -0.08476281
-0.05426808 -0.037288677 -0.10300749 -0.072633624 0.03721917 -0.13434823 -0.039573528 -0.065650426
-0.059777945 -0.1218002 0.03220134 0.10539245 -0.099739246 0.057878047 0.002960824 -0.040755685
0.08254663 -0.08132584 -0.04161065 -0.16730417 -0.1278765 -0.1382405 -0.15428558 0.01755563
0.028787713 -0.08197553 -0.007959562 -0.006909519 -0.087795086 0.048597686 0.06229924 0.025890129
-0.019879902 0.061695706 0.021266432 -0.16976112 0.17441286 -0.020169197 0.0116261775 0.01186357
0.009503753 -0.124516465 -0.011976175 0.032872457 0.10496203 0.011321824 -0.03566548 0.14828476
0.08582408 -0.11316278 0.09858879 0.13140583 -0.0791974 0.09797008 0.1677013 -0.020365177
0.062891155 0.080523245 0.1353476 -0.04318773 0.011289886 0.09780699 0.090188384 0.077554874
-0.08872735 -0.12969764 0.15884197 0.173454 -0.14202626 -0.021453235 -0.11953878 -0.084038995
-0.1295572 -0.058574017 0.0009228241 -0.06915165 0.09700672 -0.034420263 0.049603492 -0.057249155
0.02650832 0.010603106 -0.13519168 0.081530035 0.013796488 -0.16562717 -0.03353445 0.18614006

model.2.bias f4 [200]
00000000: f685 48bc 0000 0000 91ac c7bd 5183 21bb
00000010: bd73 233c 9a4c 03bd 097a 2abc c4dc 7bbd
00000020: 566c 67bc 0688 f9bc 512d c53d b5fd d0bc
00000030: c7fd ac3c f543 053d 2ed6 72bd 6e74 aabd
00000040: db6c 72bc 1582 a1bc 88ce bbbc 52a8 943d
00000050: e66b f0b9 cbd5 9bbd 0bb2 73bd 092b 79bc
00000060: 5649 503c 0f3e 40bd 60d0 d4bd eec9 21bd
00000070: de6b ddbc 1a96 a1bc 3877 7b3c 63b5 d8bc
00000080: dd89 c0bc 6bab 96bb 1ed0 74bc 475f 7f3c
00000090: b6b4 4fbd b5af 68bd 0000 0000 deb6 24bb
000000a0: 5045 f7bb 30bf 05bd 892d 72bd 3061 9bbc
000000b0: e1fa a5bc 2012 50bd 92da 9bbc 568e 16bc
000000c0: 3770 35bd 4d6d 9d3c f1fb 07bd 11fc a9bc
000000d0: 656b 8ebc f1e9 20bc 8e6a 08bd 0000 0000
000000e0: 7ffa 96ba 0000 0000 0b56 2dbd 1580 06bd
000000f0: 0000 0000 ca02 43bd bd17 85bd ce65 a6bc
00000100: 73a9 08bc c36e 0a3e f2a7 08bd eaf3 37bc
00000110: b27f 00bd 153d 59bd dbd6 23bc 9ca1 6ebb
00000120: e26d 243c 28ff 19bd 6773 61bc 03d7 23bc
00000130: 62e6 64bd 0000 0000 a834 c43b 0bf7 23bd
00000140: d6ea efbd 3dbe 2e3e 3c67 e33d 7f0a 4cbc
00000150: bec1 fabc aafa 65bd 770b c4bc c4c8 81bd
00000160: 9ace 8ebc a798 21bc ee88 4fbd a06e e9bc
00000170: 2728 243c ebd6 23bc 715d b1bc 0035 543c
00000180: d361 14bd 0000 0000 a3cb 72bc f082 713d
00000190: 24b3 88bd f02d 803d 3706 953d 0000 0000
000001a0: ca7c 27bc 216d a4bc 5f10 c0bc b9b1 05bd
000001b0: efa2 40bc 2f33 50bd ff8d 9cbc e8d0 d8bc
000001c0: db14 c3bc 0000 0000 32a1 723d cacc ac3d
000001d0: 76ac 1fbd 738c fdbc ad24 acbd e830 10bc
000001e0: 4bb7 edbd 4f41 74bd 1ee7 2bbd 0000 0000
000001f0: 88d6 23bc 5d79 75bd 696c 01bd 17d7 eabc
00000200: 8e97 c4bc 0000 0000 076f 5e3d 9daa b9bb
00000210: 73dc 263d 430f 27bd e196 73bd da14 63bd
00000220: 128d aabc e673 b5bc 1e1b 1cbd b819 1bbd
00000230: ad19 a5bd b2be 74bd 5786 913d bdad 0abd
00000240: 65a9 edbc 1821 92bc 691a 40bd 2d7c 3cbd
00000250: 8b7d 71bd 4539 63bd 8323 5fbd 0000 0000
00000260: 7590 e6bc 3ab0 d5bc 0e51 f8bc 2620 4ebd
00000270: 7f55 b6bc 8120 73bc e0a3 2dbc 38ed 9abb
00000280: daec 123d ece8 923c 9565 42bc 52c3 96bc
00000290: 2ec2 b5bc beb2 b3bd 0000 0000 1009 dabb
000002a0: 60da ebbc 3096 2ebe 5c67 b03c 0e6d ebbb
000002b0: 66cb 44bc ad9b 213d 63d5 8dbc 6024 cabc
000002c0: 5ea4 48bd 0fcd 9abb 49db 9e3d 3aaf 9c3c
000002d0: c7e6 cd3c bdf3 753c 0000 0000 3b59 11bd
000002e0: 88d6 23bc ba90 e7bc 61a6 4f3d 7da7 10bd
000002f0: 6966 30bd 13ab 37bc 877a 15bd 1003 08bd
00000300: 9545 1abd 8933 103d aa9c 7cbb 9cda 86bc
00000310: bda5 91bc 0000 0000 9dd0 74bc 4b20 be3b
-0.01223897 0.0 -0.09749711 -0.002464492 0.009976325 -0.032055475 -0.010405072 -0.061489835
-0.01412495 -0.030460369 0.09627784 -0.025511602 0.021117104 0.032535512 -0.05928629 -0.083229885
-0.014796461 -0.019715348 -0.02292563 0.07258667 -0.00045856758 -0.07609137 -0.059495967 -0.015208014
0.012712797 -0.046934184 -0.10391307 -0.039499216 -0.027028974 -0.019724894 0.015348248 -0.02645368
-0.023503238 -0.0045980713 -0.014942197 0.015586681 -0.05070945 -0.056808192 0.0 -0.0025133411
-0.0075461045 -0.032653034 -0.059125457 -0.018967241 -0.02026123 -0.050798535 -0.01902512 -0.009189209
-0.04429647 0.019217158 -0.033199254 -0.020750077 -0.017385194 -0.009821401 -0.033304743 0.0
-0.0011518745 0.0 -0.042318385 -0.032836992 0.0 -0.04761008 -0.06498668 -0.020312216
-0.008341181 0.13518815 -0.03336329 -0.011227587 -0.03137178 -0.053036768 -0.009999956 -0.0036412245
0.010035964 -0.03759685 -0.013760424 -0.009999993 -0.055883773 0.0 0.0059877224 -0.04003052
-0.11714713 0.17064758 0.11103675 -0.012453674 -0.030609962 -0.056147255 -0.023931248 -0.06337121
-0.0174325 -0.009863055 -0.050667696 -0.028495133 0.010019339 -0.009999971 -0.021651002 0.012952089
-0.036226105 0.0 -0.014819059 0.058962762 -0.06674793 0.06258762 0.07276576 0.0
-0.010222623 -0.020071568 -0.023445306 -0.032640193 -0.011757596 -0.050830062 -0.019110678 -0.026466802
-0.023813656 0.0 0.05923576 0.08437498 -0.03898283 -0.03095076 -0.08405433 -0.008800723
-0.11607226 -0.059632596 -0.041968457 0.0 -0.009999879 -0.059930194 -0.03159753 -0.028667016
-0.023998048 0.0 0.054305103 -0.0056660906 0.04073758 -0.04078604 -0.05947006 -0.055439807
-0.02081922 -0.022149991 -0.0381118 -0.037866324 -0.08061538 -0.059752174 0.071057014 -0.033857096
-0.029011438 -0.017838046 -0.046900187 -0.04601686 -0.058957618 -0.05547454 -0.054477226 0.0
-0.028145054 -0.026085008 -0.030312087 -0.050323628 -0.022257565 -0.0148392925 -0.010598153 -0.0047279857
0.03587041 0.017933331 -0.011865039 -0.018403683 -0.022187319 -0.08774327 0.0 -0.0066539124
-0.028790653 -0.1704948 0.02153366 -0.007184631 -0.012011385 0.039455105 -0.017313665 -0.024675548
-0.048984878 -0.004724152 0.07756669 0.019126523 0.025134457 0.015011725 0.0 -0.035485487
-0.009999879 -0.028267253 0.05069578 -0.03531598 -0.043066416 -0.011210221 -0.036493804 -0.033206046
-0.037664015 0.035205398 -0.0038545527 -0.016461663 -0.017779225 0.0 -0.014942315 0.0058021895

model.5.weight f4 [200, 200]
00000000: f786 ffbd db08 8d3d d682 1fbe f4e4 48be
00000010: 6ec0 433e c344 78bd ec0a 233e 1b89 bdbd
00000020: 24c7 093d 1de9 febd 2778 e2bd ee4d 7cbe
00000030: 6572 aabd 1992 2ebe 2c8b 24be 818e 32bd
00000040: 5a8b 4e3d 7183 393d 361a 3abe 15f8 a1bb
00000050: a1d5 6cbd 9a3e 72bd 3ef7 f7bd 9d56 0ebd
00000060: b77d 453d e4cb 05be 6b2c 923c 062a 883d
00000070: 9fb4 573d 5321 f5bd a00c de3c f53a 813c
00000080: 8a5a 11be ee96 c43c 2d57 e4bc 181a 9e3d
00000090: d396 ae3d ffa2 ffbd e7e4 92bd b597 10be
000000a0: 1053 41bd 7df0 1fbc 1acc 1e3e 932c 983d
000000b0: 1041 bdbc 0541 e73d a208 023e 3228 8abd
000000c0: 0e59 ae3d bdad db3d 0f44 a7bd 5840 383d
000000d0: 1e06 2cbe 2866 173e 3c21 50be eff2 71bd
000000e0: c3fd e0bc 7d9c eebd 788b 59bd ec1d 3bbd
000000f0: 6072 8fbd c6ce 8e3d 571f 28bd f7bc a53c
00000100: 9428 8abd 54ff 7a3d 2eaa cb3c 61d0 a23d
00000110: ff01 cebd 77f5 0cbe 177c 0c3d 9b90 5abe
00000120: 87c5 07be f40f 163e 2fad 28be f444 b2bd
00000130: a0bd 5bbc a4cc 8eba e8cb 823d 1793 54be
00000140: 0632 48be 2622 573c d59a 483d c305 2dbe
00000150: 1ef3 e8bd 87d7 aa3d 936d d1bd b90c 30bc
00000160: c326 af3d 2036 3fbe 6d9c cdbc 4d4f 8fbb
00000170: aca4 f1bd 8d72 c4bc 1889 efbd 0070 cb3c
00000180: d6cf 363e ef28 fb3d 0b57 05bd ac06 7e3d
00000190: 9219 083e 2636 a3be eb7e 743b 63f5 ab3d
000001a0: 8822 97be c6b4 093e fabe c7bc 5a6b 39be
000001b0: 8aca e53d 5c9c 08be b0e3 11be 66c4 a6bd
000001c0: 64ce 05be 825b f23c c836 b7bc 56c4 0bbb
000001d0: e546 483c 6e59 29be 21b3 adbd 56d6 83bd
000001e0: 36a8 a7bd 9ba1 71bd 50ed 283d 2874 5abd
000001f0: 69cb 253d 36af bfbc 7f6e d9bd 5dfe 673d
00000200: 399d 213e c221 09bc d040 b4ba 5b3b c1bd
00000210: bb96 03bd 48fa 87bd 48c3 583c dd5f a2bd
00000220: dee2 333d 8edb e8bd ace8 eb3c c885 1bbe
00000230: 2401 c8bd 0243 2cbd 8d31 a4bd 35c0 da3d
00000240: 3a4b 943d bd12 1a3d 142f 14be ad8d 8cbd
00000250: 93d0 4dbe 5096 a6bd 043b 8f3c fac8 473c
00000260: c279 9a3d a661 aa3d 64e1 903e d46b 27be
00000270: 7a34 32bd 6d89 1bbe 814d 1dbd f97d 01be
00000280: 8eb2 003e 2400 41bc 07d0 863e 0da1 053d
00000290: de44 ffbd c8cc 8b39 6fc5 3fbc ddd3 51bc
000002a0: d80d 243c 28b4 26be f6a9 32be 38ad 65bd
000002b0: 5d37 703e 0af7 3cbe c74a 03bd 8570 913b
000002c0: 1382 cd3d 28cc 1c3e c05e ad3d 5f72 3e3c
000002d0: 13b2 4bbe 07c0 0cbd c00d f4bd 5593 2f3e
000002e0: 1217 153e daef 8fbd 7e6f b3bc ce2f c93d
000002f0: ed10 ed3d c70a 213e beee e9b9 f86e a33c
00000300: 2cd1 c33c 7851 2ebd e354 2b3d 26f2 323d
00000310: 001a 56bc 4dea ff3b eb5d 1bbd 7472 00be
00000320: 140a a33c 901f d33d 3152 e83d 6273 d43a
00000330: ea78 45bd 53b7 19be 0297 ba3d abbb 193e
00000340: 39d6 4bbc 3c15 d83c dbef 62bd d0cd 83bc
00000350: c787 51bd 4494 1bbe e482 4ebd ee2d 83bd
00000360: c21b 093e 8614 733d 1201 9abc 8480 84bc
00000370: 21e0 83bd daa4 043d 614e 55bd 74ec 1bbe
00000380: 8ab8 81be 8b95 8b3d 7dda f93d b555 96bd
00000390: 9067 2b3d 1d79 883d 007e 0ebd 00be 7a3d
000003a0: 2c2d 773d b219 273d e8a5 54bd f071 7a3d
000003b0: 0c63 263d bfc2 8cbd cfc7 3b3e 993f a0bd
000003c0: 60a1 b7bd ca02 a9bb 6c30 c0bc 89c7 293c
000003d0: bcf0 153e d829 c1bd 95db acbd 0703 e6bd
000003e0: 7740 3d3e cbb1 cabd 9701 443d 44ba f23d
000003f0: 1771 ffba a170 a23d 4536 54b9 536d 23bd
-0.124769144 0.06886455 -0.15577254 -0.19618589 0.19116375 -0.06061245 0.15922135 -0.092546664
0.03363718 -0.124468066 -0.110580735 -0.24639103 -0.083226 -0.1704792 -0.16068715 -0.043592934
0.050425865 0.045291368 -0.18174061 -0.0049429038 -0.05782092 -0.059141733 -0.121077046 -0.03475057
0.048215594 -0.1306606 0.017843446 0.0664864 0.052662488 -0.11969247 0.02710563 0.015775183
-0.14194694 0.02399775 -0.0278736 0.07719821 0.08524861 -0.12482261 -0.07172566 -0.14120372
-0.047198355 -0.009761927 0.15507546 0.07430377 -0.023102313 0.11291698 0.12698606 -0.06745948
0.085130796 0.10726497 -0.08167278 0.044983238 -0.16799209 0.14785063 -0.20325178 -0.05906957
-0.027464753 -0.116509415 -0.053111523 -0.045682833 -0.07004237 0.06973033 -0.041045513 0.020231707
-0.06746021 0.061278656 0.024861421 0.07949901 -0.100589745 -0.13765512 0.03429803 -0.21344225
-0.13258944 0.14654523 -0.16472314 -0.08704558 -0.013411909 -0.0010894728 0.06386548 -0.20759235
-0.19550332 0.0131307 0.048975784 -0.16896729 -0.11374496 0.0834189 -0.10225978 -0.010745221
0.08552315 -0.18672991 -0.025099004 -0.004373467 -0.11798987 -0.023980403 -0.116960704 0.02483368
0.1785272 0.12263667 -0.032553714 0.06201808 0.13291004 -0.3187725 0.0037307094 0.08396413
-0.29518533 0.13447866 -0.024383057 -0.18107358 0.11220272 -0.13340896 -0.14247012 -0.08142929
-0.13067013 0.02958465 -0.022364989 -0.0021326742 0.012223934 -0.16538021 -0.08481432 -0.06437366
-0.081863806 -0.05899201 0.041241944 -0.05333343 0.04047719 -0.023398977 -0.106167786 0.056639064
0.15782632 -0.008369865 -0.0013752226 -0.09435149 -0.03212617 -0.06639534 0.013230152 -0.07928441
0.04391753 -0.11370002 0.02879747 -0.15187752 -0.097658426 -0.04205609 -0.080172636 0.10681192
0.07240911 0.037615526 -0.14471084 -0.0686296 -0.20099096 -0.081341386 0.017484196 0.012193913
0.07542755 0.08319406 0.2829696 -0.16349727 -0.043507077 -0.15189143 -0.03840399 -0.12645711
0.12568113 -0.011779819 0.26330587 0.032624293 -0.12464307 0.0002666472 -0.011704787 -0.01280686
0.010013066 -0.16279662 -0.17447647 -0.056073397 0.2345862 -0.18453613 -0.032053735 0.004438462
0.10034575 0.15312254 0.08465338 0.011623948 -0.19892149 -0.03436282 -0.11916685 0.17146046
0.14559582 -0.0702817 -0.02190375 0.09823571 0.11575494 0.15726767 -0.000446191 0.019950375
0.023903452 -0.042558163 0.041829 0.043687962 -0.013067722 0.0078099133 -0.037931364 -0.1254366
0.019902267 0.103087544 0.11343802 0.0016208703 -0.048211016 -0.15011339 0.09110834 0.15012996
-0.012441211 0.026377313 -0.055404525 -0.01608935 -0.051154878 -0.15193278 -0.050417796 -0.06405245
0.13389495 0.059345745 -0.018799338 -0.016174562 -0.064392336 0.032383777 -0.0520767 -0.15226918
-0.25336105 0.068156324 0.121998765 -0.07340566 0.04184681 0.066637255 -0.03478813 0.061216354
0.060345814 0.04079599 -0.051916033 0.061143816 0.040621802 -0.06873082 0.1833794 -0.0782463
-0.08966327 -0.005157803 -0.02346059 0.010362514 0.14642614 -0.09431809 -0.084403194 -0.11231046
0.18481623 -0.098971926 0.04785308 0.118519336 -0.001948866 0.079316385 -0.00020238112 -0.03989918

model.5.bias f4 [200]
00000000: d28b 55bd 4a1e 06bd 6ca2 edbc f9df f0bd
00000010: a9d5 ebbc a92a e8bc ef19 93bc 5d73 73bd
00000020: e1c4 bcbd ca42 93bc 04d9 14bd de2a 8fbd
00000030: 1f37 b6bb f03f 81bc 5a9d 3bbd a743 1cbd
00000040: 0372 2ebd f985 90bd 3444 13bd 0807 12bd
00000050: 98c6 37bd d4e0 4bbd b300 7ebd d2b0 fbbc
00000060: 4de6 01bd 2f2b 20bc 137f fbbc 0474 88bd
00000070: 45ea 21bd f5ec 50bd dec9 38bd 83b2 3dbd
00000080: 1ebe 28bd aca2 30bd f9fc 02bd f0da 82bc
00000090: ee1a d2bc 7b73 4fbd 2ab6 21bd f212 b2bc
000000a0: b7e8 e1bc ada6 01bc e9d3 36bd 8cb3 fabc
000000b0: 57e1 d5bb 822d 2ebd a370 adbc 841f 16bd
000000c0: 195e 58bc 4e0b cfbc 995b 2dbd e6e4 52bc
000000d0: b95e 62bd 4af1 4dbd c601 6ebc ed2f d63b
000000e0: 9550 babc 9144 7ebd 6f98 46bc 3112 2abd
000000f0: 7dec 01bd cd1a 41bd 1b39 0fbd f64c 27bd
00000100: bf59 d5bc bd14 41bd 6782 e1bc 9821 8dbd
00000110: bd8e 3dbd 76b3 17bd 4768 163d 94c8 b0bc
00000120: 846d 9fbb d5f3 24bd 3bc7 cebd fb7c d2bc
00000130: a952 6ebc c288 55bd f330 fa3d 5779 6bbd
00000140: ae27 abbd c67e 1fbd be38 fcbd 088f fbbc
00000150: 3bd3 ffbd 0831 e3bc 60d8 6dbc 8df4 f8bc
00000160: dbaf 45bc 47a4 03bd 123a 91bc f21a c8bc
00000170: 6561 f4bc ac55 10bd 6fb8 afbc e0f2 2abc
00000180: 4701 483d 4abe 81bd 18ae 39bd 3d0d 6cbd
00000190: 9dcd c6bc 48fd 0cbd 28f0 f5bd 196a 19bd
000001a0: d3b3 60bc 7e9e f2bc 1229 73bd 3af6 27bd
000001b0: 10f7 a23c 3293 73bd 40ae a73c 7717 46bd
000001c0: e628 023d 0fea ffbc e040 dbbc ab49 813c
000001d0: 3ad9 72bd 3935 10bd d6d0 3cbd a6bb b1bc
000001e0: b8bf 033c 8aa0 9dbc 1878 63bd 24e4 23bd
000001f0: e60c 80bd 4266 eebc f580 75bb 8350 9abc
00000200: 83ff 13bd 1327 9fbd 5e85 c1bc 815b 52bd
00000210: 0e1c f4bc e001 62bd 30bd 12bd 9afd dabc
00000220: 3174 e8bc 03a9 0cbd d654 a43c e6ef 49bd
00000230: 2674 f4bc 96bf 21bd f1eb 50bd 1a63 5fbd
00000240: 57a5 a63d 4cd6 40bd 5a3c b7bc f75a d9bc
00000250: 598f c5bc f80a 4eb7 de3b 83bc 911a 76bd
00000260: d0ba 31bd 6cf8 e0bc 3a16 a2bc 6433 1dbd
00000270: 6d0d 19bd 8d37 34bd 2d19 ad3d 47c2 28bd
00000280: aa72 00bd ea36 e4bc 1070 34bd 480f 903d
00000290: 64a8 14bd b6c8 6fbc 358a e73d 4840 923c
000002a0: 1c0c 54bd ccf6 1dbd 44db 5abc bd23 f0bc
000002b0: 0ed0 99bc 737b 833d 8c99 d7bc 6aea ffbc
000002c0: f82d 34bc a114 edbc c829 8dbc 787b 16bd
000002d0: c619 abbd d19d 50bc e239 1dbd ac6b 93bd
000002e0: a015 12bd a09a 0abd 7e56 fabb 3ffe d7bd
000002f0: 0728 a8bc 7ccf 44bd 3a20 2abd d96c 4fbd
00000300: d050 37bd 90ff 5dbd 8b71 5fbd 84a1 8dbd
00000310: 7f34 85bc c6a7 35bd 1ac5 c5bc dd53 1bbd
-0.052135296 -0.03274373 -0.029008113 -0.117614694 -0.028788405 -0.028340654 -0.017956702 -0.05943619
-0.09217239 -0.017976183 -0.036339775 -0.06990598 -0.00556077 -0.015777558 -0.04580436 -0.038150456
-0.0425892 -0.07056803 -0.035953715 -0.035651237 -0.044867128 -0.04977496 -0.062012386 -0.030723963
-0.031713773 -0.009775921 -0.030700242 -0.06662753 -0.039530057 -0.05100723 -0.04511439 -0.04631282
-0.041196935 -0.043123886 -0.031979535 -0.015973538 -0.025647607 -0.05064724 -0.039480366 -0.02173755
-0.027576787 -0.007913274 -0.044635687 -0.030603193 -0.0065271067 -0.04252387 -0.021171873 -0.03665115
-0.013206028 -0.025273945 -0.042323682 -0.012871956 -0.055266116 -0.05027894 -0.01452679 0.006536475
-0.022743503 -0.06207711 -0.012121304 -0.041521255 -0.031719673 -0.0471447 -0.03496657 -0.04084488
-0.02604377 -0.04713892 -0.027528001 -0.06891173 -0.046278704 -0.03703638 0.03672054 -0.021580018
-0.00486535 -0.0402716 -0.10096594 -0.025694361 -0.014546075 -0.052132376 0.122163676 -0.057488766
-0.08357178 -0.03893926 -0.1231551 -0.030707851 -0.12491461 -0.02773334 -0.01451692 -0.030390048
-0.012065853 -0.03213909 -0.017727885 -0.024426911 -0.029831598 -0.035237953 -0.02145025 -0.0104338825
0.048829343 -0.06335123 -0.045332044 -0.057629813 -0.024267966 -0.034421235 -0.12008697 -0.0374547
-0.013714748 -0.02961659 -0.05936534 -0.041006304 0.0198932 -0.05946655 0.020468831 -0.04836222
0.031777285 -0.031239538 -0.026764333 0.015782198 -0.059289195 -0.035207007 -0.0460976 -0.021695923
0.008041315 -0.01924159 -0.055534452 -0.040012494 -0.0625246 -0.029101495 -0.0037460898 -0.01883722
-0.036132347 -0.07771125 -0.023623165 -0.051356796 -0.029798534 -0.05517757 -0.035824955 -0.026732255
-0.028375717 -0.03434087 0.020059984 -0.04930105 -0.02984054 -0.03948935 -0.05100626 -0.05453787
0.08137005 -0.04707937 -0.022367645 -0.026532633 -0.024116205 -1.2281111e-05 -0.016019758 -0.06008393
-0.04339105 -0.027462207 -0.01978599 -0.038379088 -0.03736632 -0.04399829 0.084520675 -0.041200902
-0.031359352 -0.027858216 -0.044052184 0.07034165 -0.036293402 -0.014635256 0.11305658 0.017852917
-0.05176936 -0.038565442 -0.013357941 -0.029313916 -0.018775966 0.064200304 -0.026318334 -0.031239707
-0.010997288 -0.0289405 -0.017231837 -0.036738843 -0.08354525 -0.012732939 -0.03838528 -0.07198271
-0.035665154 -0.03383887 -0.007639705 -0.105465405 -0.020526899 -0.048049435 -0.04153464 -0.050640915
-0.044754803 -0.0541988 -0.054551642 -0.06915572 -0.016260384 -0.044349454 -0.024141837 -0.037921775

model.8.weight f4 [3, 200]
00000000: 9604 943c a798 d23c 2dee 83bd 6cfe af3f
00000010: 92cb 923d 9821 97bd 612b 223e 0bd6 16be
00000020: a4a1 44bc 10d1 353d 5205 83bd e226 2f3e
00000030: 6d3a 12bd f7c7 63bd 04b8 9d3c 68a0 b13d
00000040: a7b0 0ebd e80b 1d3e a8c7 eabd ba60 1e3d
00000050: a503 01be fd5c 8dbc 89b2 123e 8ccc 69bd
00000060: 7303 65bd 0e53 463d 7475 823e aa7e 0c3d
00000070: f807 963e 94dd 1fbd e516 943d d33f 88bc
00000080: e822 6dbc fad8 843c caf6 273e a10e fcbc
00000090: ac92 943d 44f6 ce3c 1648 d1bd baa2 a3bd
000000a0: 6a3f e03d 4928 6bbd 62c7 383c 7491 d83d
000000b0: de3b f63d e346 d73d 5248 a5bc 26b5 883c
000000c0: 3634 92bd 7b4d b73c 4a2d f6bd 6e88 c03c
000000d0: 632e 2dbd 902b 8f3d d123 763d 5bb0 de3c
000000e0: b2c4 e0bd 6cbd 6cbc 55a6 a7bd b52f 79bd
000000f0: e764 a2ba f8a7 383e 3a07 c13c 62fe b03b
00000100: 1778 f73d 568a 9ebc 44f5 fcbb 883f 22bd
00000110: 207d 933c 39b9 193f cb31 b13c ef98 02bc
00000120: f8a8 e4bd 64c1 04bd 46e1 3c3e 7909 873e
00000130: 72db 313d bf30 4d3b 8363 57bd 7397 88bd
00000140: 11af bcbd 6801 ae3d 3fe2 d23e aca1 013e
00000150: d600 66bd 2d9f a83d a34d a53d bd03 b03c
00000160: a3fa 833c 921e 9f3e 92c7 98bc 57b3 093d
00000170: dd24 bc3d 9b9f c13d e3e8 253d 504c f33c
00000180: eb29 81bd b8c9 1abe 1ab6 1bbd ae46 88bd
00000190: ddbe d1bc 8085 1dbc 9e36 eb3e 45ba 163e
000001a0: 97f4 89bd d2e1 403d 7761 9dbc 1792 373e
000001b0: a274 23bd 9aeb 25bd 8f56 2b3d 1c36 08bd
000001c0: e7d3 ec3d 82dd 8b3d 80a1 e9bd a40e dc3c
000001d0: 789d c0bd c604 973c fb9d 68bd 820e 823d
000001e0: 30ad 1bbc b259 24bd 2a8c 14bc 4308 0ebe
000001f0: bf10 bb3d fd05 0abe b080 623d 4306 c0bd
00000200: 287c 3ebd 613f 02be 5eb3 7f3d a6f8 053e
00000210: adf3 a2bd 1a23 92bd fcce 5fbc 07a6 9cbd
00000220: 2225 253e 0c72 7ebd b683 82bd 079a 273e
00000230: eba3 a03d 3ad3 7f3d c321 3e3e b686 133c
00000240: b454 0bbe 7077 353d 83bc 5b3e e516 823d
00000250: fdf5 e13d 143a 3b3e 7c51 553d b3c4 b43c
00000260: 4661 843d 9265 62bd 842e 01be e4f9 d8bc
00000270: 2877 c2bd 6f81 08bc 78ad 14be 793e 0dbe
00000280: ef84 acbd 6da3 0d3d 662e f93d e139 113e
00000290: 032f 813c 02d0 123d 5b75 633c b32d f23d
000002a0: 2433 1e3e b109 0e3d 522b ab3e 2605 e13c
000002b0: 46c8 823d dc3d 8c3d 6f58 503d 38c9 773c
000002c0: 2b57 07be c02c 483e 6f62 14bc 330e 79bd
000002d0: 49a8 473d 319b 013c 2049 393d cbde 063d
000002e0: 954a bb3d 84d6 253e 217f 8f3d d790 423e
000002f0: 299a 413d b51f abbd e952 543c 249b 3c3d
00000300: 948b 6abd 70e1 133e 80c5 613e 9ab2 163e
00000310: 8831 fa3d 39a6 0abd 8356 973d b549 4c3c
00000320: a90a 973b 6302 36be 0508 8c3d 575a dd3c
00000330: 58dd 4a3d f2f1 80bd 62bf 3dbd 68bf a93b
00000340: f5b8 f83c 113d 703d e271 8f3d 7251 38be
00000350: a406 4d3e 40f0 cb3c 6ee3 f53d 3b4a a93d
00000360: 8509 833e 3807 8bbd eff1 c43c ec39 ea3d
00000370: 0788 4bbd 7477 46bd fd5c e53d 874b 2ebb
00000380: 5983 773d 5f9d 543d c5c0 233e 96f4 443c
00000390: 7491 aa3d 286e 9a3d b37f 273c 37a3 aa3d
000003a0: d528 04bc 7e12 44bc 2a8e 823d 1500 46be
000003b0: 36d3 423d e4db d1bc 8105 853d ec97 723c
000003c0: d60d 98bd 5ef9 f9bd 5907 71bc 8931 ed3d
000003d0: 1d90 323e 6195 b33d f4bb 7cbd 1e17 c5bd
000003e0: 9f4f 16be 1845 a3bc e94d e23d 5404 7c3e
000003f0: 1fe6 813d 9e68 3a3d d235 d4bb af05 bdbd
0.018068593 0.025707556 -0.06441913 1.3749518 0.07167734 -0.073794544 0.1583686 -0.14730088
-0.012001429 0.04438883 -0.06397499 0.17104676 -0.03570025 -0.055610623 0.019252785 0.08673173
-0.034836438 0.15336573 -0.11463863 0.038666464 -0.12599047 -0.017256254 0.14325918 -0.057079837
-0.055911493 0.04841905 0.25480235 0.034300484 0.29302955 -0.039029673 0.07230929 -0.016631996
-0.014473654 0.016216744 0.16402736 -0.030768694 0.07254538 0.025263913 -0.102188274 -0.07990022
0.10949595 -0.057411466 0.011278005 0.10574618 0.120231375 0.105115674 -0.020176087 0.01668794
-0.07138865 0.022375813 -0.12020357 0.023502555 -0.042280566 0.06990731 0.06009275 0.027183702
-0.10975017 -0.014449459 -0.08186022 -0.060836513 -0.001238969 0.18032825 0.023563016 0.0054014185
0.12083452 -0.019353073 -0.0077196676 -0.03961137 0.018004 0.6004825 0.021630188 -0.0079710325
-0.11165041 -0.032410994 0.1844531 0.26374415 0.04342217 0.0031309573 -0.052585136 -0.06669512
-0.09213079 0.08496362 0.41188237 0.12659329 -0.05615314 0.08233485 0.08071449 0.021486158
0.016110724 0.3107801 -0.01864985 0.033618297 0.091867186 0.094542705 0.0405053 0.029699475
-0.06306823 -0.15116012 -0.038015462 -0.06654106 -0.025603706 -0.009614348 0.45940107 0.14719494
-0.06736105 0.04709036 -0.019211514 0.17926823 -0.03990615 -0.04050789 0.041830596 -0.033254728
0.11563855 0.06829359 -0.11407757 0.02686245 -0.09405035 0.018434893 -0.056791287 0.063504234
-0.00950174 -0.040124603 -0.009066621 -0.13870339 0.091340534 -0.13478847 0.055298507 -0.09376194
-0.046505123 -0.1271949 0.062426917 0.13083133 -0.07956634 -0.07135601 -0.013660189 -0.07648855
0.16127446 -0.062120482 -0.06372778 0.1636735 0.07843765 0.0624573 0.18567567 0.009004286
-0.1360653 0.044303358 0.2145863 0.06352023 0.11033247 0.18283874 0.052079663 0.02206645
0.06463866 -0.055272646 -0.126154 -0.026486345 -0.094953835 -0.008331641 -0.14519298 -0.13793363
-0.084237926 0.034579683 0.12167053 0.14182235 0.015769487 0.035842903 0.01388296 0.11825123
0.15449196 0.03467721 0.33431488 0.027468275 0.063858554 0.06847736 0.050865587 0.015123658
-0.13216846 0.19548321 -0.0090566715 -0.060804557 0.048744474 0.007910536 0.045235753 0.032927316
0.09145085 0.16195112 0.0700667 0.19000565 0.04726616 -0.08355657 0.01295922 0.04604639
-0.05726202 0.14441466 0.22047997 0.14716569 0.122164786 -0.03384993 0.07389548 0.012468745
0.004609425 -0.17774348 0.06837467 0.027020616 0.049527496 -0.062961474 -0.046325095 0.005180288
0.030361632 0.058651987 0.07004143 -0.17999819 0.20022064 0.024894834 0.120062694 0.082661115
0.255932 -0.06788486 0.024041144 0.11436829 -0.049690273 -0.048453763 0.11199377 -0.002659531
0.060427997 0.051907893 0.15991504 0.012021204 0.08328524 0.07540542 0.010223317 0.08331912
-0.008066376 -0.0119672995 0.06374772 -0.19335969 0.047564708 -0.025617547 0.064951904 0.014806729
-0.07424514 -0.12205766 -0.0147112245 0.11581714 0.17437787 0.08768726 -0.061702684 -0.0962355
-0.1467881 -0.019930407 0.110500164 0.24611026 0.0634272 0.045509927 -0.0064761424 -0.092296

model.8.bias f4 [3]
00000000: 23b0 893d dba2 093e 56a1 e13c
0.067230485 0.1344103 0.027542751
